space_robot_planning_Rmat/weights/cvae_debug/v1.pth (torch, 874373 bytes, 16 tensors)

encoder.0.weight f4 [256, 26]
00000000: f789 d53d 9a03 46be e92f 643d 9e94 d8bd
00000010: 0e44 13be 8692 b23c b901 8dbd 134e 14bd
00000020: 309b 463e b860 42be 2ec5 df3d 9b4a 093e
00000030: 4cbd e6bc 0a0e ea3d e02c 0fbe 9f5e e83d
00000040: 3e8c c4bd 16e6 293e 26a7 42be 42f3 e9bd
00000050: 2f4c f4bd 7e0c 1dbc f3ba 48be 9b2a 3a3e
00000060: 144d 3fbe aa87 c5bd 9835 29be ac5a 473e
00000070: ad88 3cbe 75b9 093e bc5e 92ba bda2 093e
00000080: 64b4 483d f4ee 5abd e6ab 24bd 73a0 59bd
00000090: 0515 3f3e 2f8a c4bb aecd d9bc d8bd 303e
000000a0: 3bb8 113c 9293 5cbd 51ec 0e3e 7550 1fbd
000000b0: 2e61 bcbd 89d8 eb3d bbf7 b2bd 3616 323e
000000c0: 00b2 02bc 74c1 01be 3d53 283e 141d 003e
000000d0: 4ab8 733d b59f f23d 9bb8 1a3e 8c95 42bd
000000e0: 77af e53d 7175 c63d bd66 2d3e 3c60 01be
000000f0: 3adb 35bb 8b2d 7ebd 54c6 08be ed03 c6bd
00000100: 437e d8bd bdc7 81bd 81b1 443e 2711 063e
00000110: a203 163d 77b0 30be d6b8 79bd 494d 803d
00000120: 7125 da3c 54d1 a13d 549f 23be 30de 51bd
00000130: 4dee 073e 52c0 cb3c 89d9 27be f18f 0abe
00000140: 9a69 02be 7853 febd 41b8 373d cef6 74bd
00000150: cacb 37be cc6b 383e c003 1abd c945 303e
00000160: 5e2f 093e e0ff 2e3e 8e10 dabd 68ce 333e
00000170: 8f36 273e 6e65 48bc 6787 0dbe 2f26 3bbe
00000180: 3f58 e1bc a7fa bcbd ba52 eabc 68a3 debd
00000190: bb1e 32be b67b e23d f40c 7cbb fbca c5bd
000001a0: 9477 81bd ecc6 20be b28c 163d 8fb7 ac39
000001b0: 66ae 14be 1d7d 98bb b835 cb3c 0d94 c43d
000001c0: 39de 7abd a53b 9a3d 9ebf 3a3e 87a6 393e
000001d0: 6e69 eabd 03a1 f83d e762 ad3d 066a df3d
000001e0: 3653 3dbd d484 063e 7618 c4bd 6e72 bd3d
000001f0: 36bf 17be ce7c f3bd c9b9 933d af1c 1a3e
00000200: e923 233d c90e b5bd 57b1 43be 7970 403e
00000210: 9a42 00be aaaa ae3d 204f bcbd 785d 1abe
00000220: 32c9 683d 1943 be3d 5c6a c83d 225b f53d
00000230: 1966 bfbd d2d0 e83d a891 463e 4065 633d
00000240: 6ebb d2bc 64f9 2d3e 9a42 0cbe 0380 3d3e
00000250: aab8 42be be15 243e fc63 423e 6255 403d
00000260: 181f f03d fc2c adbd 2463 cbbd bb88 19be
00000270: f5d2 5fbd 92e7 8a3d 6db7 5a3d 2957 e9bc
00000280: 9bb2 ac3c c589 f5bc 6407 e4bd 9daf 3b3e
00000290: a2ae 22be 2d9d 1a3e df4a 8c3d 8dc5 093e
000002a0: 6ab7 46be 97e9 cf3d 05a0 1f3e a0a9 013e
000002b0: b0da 913d 4a8c 80bb e992 b33d 1ac7 acbd
000002c0: 03ee 3ebe af7c 46bd 88f2 77bd 3c93 073d
000002d0: 3880 13be c903 df3d d802 ee3d e245 babd
000002e0: a7db cdbd 9180 ee3d b695 ddbd 4bc4 143e
000002f0: cdfc edbd 69dd e1bc 945d 88bd f968 a1bd
00000300: 84d3 36be 6498 a0bd dc7c 433e 245d b6bd
00000310: d979 c7bd ea46 c4bc 26a8 c6bc 338e f63d
00000320: 5bb5 c93d e900 d9bd 2f4f bcbd a363 2bbe
00000330: 2991 2abd 0228 e9bd 00e6 11bd 021d 31be
00000340: 423e 0dbe 8472 0ebe 625c 1c3e 3bbd 2abe
00000350: a831 1dbe 4422 08be 42ea 01be 5845 8abc
00000360: 8e7c 373e 5f97 c93c 3e91 85bb cc8b 933d
00000370: 560d ff3d 9d9d 69bb 533a 11bd 79c7 90bd
00000380: bfb2 1ebe 04cf 1dbe 1684 b7bd 3fa5 40be
00000390: 7f6b 25be aa00 02be 972a 173d 1891 30be
000003a0: b33f 1c3e 8a4a e5bd f781 433e 1461 d13d
000003b0: 5cb7 073e 461b 69bd c556 b43d 1296 0abe
000003c0: 573d 2e3d 6027 8f3d 8917 b23d 69a5 12be
000003d0: 9b76 a43b cddb ab3d e29b 3f3d 1a5c 44be
000003e0: 4dd7 073e fcd8 2e3e cac5 b3bb e06a 47be
000003f0: 77f5 0f3e 08e0 f9bd cdc5 0bbe f20b e1bd
0.10426705 -0.19337311 0.055709753 -0.105752215 -0.1438143 0.021798383 -0.06885094 -0.03620727
0.19395137 -0.18982208 0.10926281 0.13407366 -0.028166436 0.11428459 -0.13981962 0.113461725
-0.095970616 0.16591677 -0.19009075 -0.11423351 -0.11928593 -0.009585498 -0.19602565 0.18180315
-0.18681747 -0.096450165 -0.1652435 0.19468182 -0.18411513 0.13449652 -0.0011167149 0.13440986
0.04900016 -0.05345054 -0.040202998 -0.053131532 0.18660362 -0.005997918 -0.026587334 0.1725992
0.008894022 -0.05385167 0.13957335 -0.03889509 -0.09198223 0.1151591 -0.08738657 0.17391285
-0.007977009 -0.12671453 0.16438003 0.12511092 0.059501924 0.11846868 0.15109484 -0.0475059
0.11215108 0.09690369 0.16933723 -0.12634367 -0.0027749077 -0.062055152 -0.13356906 -0.096687175
-0.105709575 -0.06336925 0.19208337 0.1309248 0.03662456 -0.17254816 -0.06096729 0.06264741
0.026629182 0.07901254 -0.15978748 -0.051237285 0.13274498 0.024871979 -0.16391577 -0.13531472
-0.12735596 -0.12418264 0.044853453 -0.059805684 -0.17948833 0.18009871 -0.037601233 0.17214121
0.13396975 0.17089796 -0.10647689 0.17559206 0.16329406 -0.012231214 -0.13821183 -0.18276285
-0.0275079 -0.09227496 -0.0286039 -0.10871011 -0.17394535 0.11058752 -0.003845987 -0.09657856
-0.06321636 -0.15700883 0.03675527 0.00032943158 -0.14519653 -0.0046535865 0.024805889 0.09598551
-0.061247084 0.075309075 0.18237159 0.18129931 -0.1144589 0.121400855 0.0846613 0.10908894
-0.046221934 0.13136607 -0.09574978 0.09250341 -0.14819035 -0.11889039 0.0721317 0.15050004
0.03982917 -0.08840711 -0.19110619 0.18792905 -0.12525406 0.08528645 -0.091947794 -0.15074718
0.0568325 0.092901416 0.097859114 0.11980273 -0.093456455 0.11367954 0.19391501 0.05551648
-0.025724139 0.16989666 -0.13697281 0.18505864 -0.19015756 0.16023919 0.18983454 0.046956427
0.11724681 -0.08455846 -0.09931019 -0.14993565 -0.054644544 0.0678245 0.053397585 -0.028483944
0.02108126 -0.02997292 -0.11134222 0.1832871 -0.1588693 0.1509902 0.06850218 0.13454266
-0.19405904 0.101519756 0.15588386 0.12662363 0.071217895 -0.0039229738 0.08768255 -0.08436413
-0.18645482 -0.04845875 -0.06053403 0.033099398 -0.1440438 0.10889394 0.11621636 -0.0909536
-0.10051661 0.11645616 -0.10819571 0.14528005 -0.116204835 -0.027571397 -0.066584736 -0.0788135
-0.17854124 -0.07841566 0.19090599 -0.08904484 -0.097400375 -0.023959596 -0.024250101 0.12038841
0.09849044 -0.10595877 -0.091947906 -0.16737227 -0.04164234 -0.11384584 -0.035619736 -0.17296222
-0.1379328 -0.13910872 0.15269616 -0.16673748 -0.15350974 -0.13294321 -0.12687019 -0.016878769
0.17918608 0.024608312 -0.004076152 0.072043985 0.124537155 -0.0035646923 -0.035456013 -0.070692964
-0.15497874 -0.15411001 -0.0896074 -0.18813036 -0.16154288 -0.12695566 0.03690585 -0.17242849
0.15258674 -0.11195858 0.19092546 0.10223594 0.1325354 -0.056910776 0.088056125 -0.1353381
0.042538967 0.06989932 0.08695895 -0.14320911 0.0050190217 0.08391533 0.04677952 -0.19175759
0.13265724 0.1707496 -0.005486225 -0.19474363 0.14058481 -0.12200934 -0.13649674 -0.109886065

encoder.0.bias f4 [256]
00000000: 5c69 3ebe 7935 1cbe 93c9 ecbd 0e9c 3cbe
00000010: 24a9 113e a9a9 c43c 0e7c 2cbe 68b2 cdbd
00000020: 8ca2 ec3d 2c5c 283d b775 1fbe 1e85 0dbe
00000030: 89fd 39be 5caa eb3d 3ee5 20be 35d5 f43d
00000040: 57b6 ca3d 39d9 32be a1e4 02be ced6 8dbd
00000050: 6fbc 23be cdb1 19bd 4cb1 b83c d7a1 8d3d
00000060: b458 77bc 604c e4bd e6bc 3ebe ab5a 44be
00000070: a92f debc 8694 78bd 7276 d23c 06a4 febb
00000080: e2b0 a1bd a1d6 1b3d 99f6 503c 1ab5 14be
00000090: b54d b1bd 3de6 a3bd 8612 913d 53bc 3c3e
000000a0: c304 d0bd 2962 deb9 8970 eebd 2ceb 0fbe
000000b0: e308 25be f36b 6ebd 41e6 433e 037e 1a3e
000000c0: 7a11 8d3d eaa3 16be 6fb7 35be c17b b53d
000000d0: 86ed 873c c837 a3bd 8cc4 c3bc 42d3 2f3e
000000e0: 75e3 413e 80d5 243d fc44 be3d bebb 16be
000000f0: 014d 173e 500d d43d d850 43be 769a 2abe
00000100: 1d26 443e ca5c 893d 2f79 a53d 651b 173e
00000110: ecdc 413e cd50 d63d 2756 503d 039b 8f3d
00000120: 84f7 d9bd 7b7b 953d fe1f 0d3e 35cd 7e3d
00000130: 7b72 453e 0ba7 453c 6a9c d1bc 653a d4bd
00000140: 1280 2e3e bdb1 6d3c e43f 393e 289c 903c
00000150: 700f 2d3e 161b 753d 53d9 053e 7cc0 c23d
00000160: cd6a c3bd c90a 23be 74dd 27be c186 febc
00000170: 27e7 35be cdf3 8a3d 1d1b 103c 5d40 08be
00000180: 9092 19be 3a74 1fbe ccad 5b3d 5f09 09be
00000190: 3315 22be 470a a23d e796 873d c0fa 193e
000001a0: 9a64 e8bd 5060 24be 6786 4d3d 3a4b 103e
000001b0: c66a 393e 6345 ddbd 41ef b53d 38e0 d5bd
000001c0: 9587 1e3e 72fa 383e 8ea8 163e f827 17bc
000001d0: 9630 90bc 0016 84bc c3e3 0d3e 43ed f0bd
000001e0: 61d8 a6bd e65b 21be a0bf b1bd 9bfd a4bd
000001f0: fcb3 bb3c 59c5 a2bd 98b6 463e e592 3c3d
00000200: 6332 17be e20b a2bd 4c58 243e d14c 69bd
00000210: 7a97 09be 045e 43be bff4 6f3d dbf6 03be
00000220: 0b14 3dbe 7290 88ba 53f7 493d 7077 293c
00000230: f99e 0ebe 7dd2 b3bd 6656 9ebd 5c52 0d3e
00000240: 22ed ea3d e18f 7b3d 1aab a43d c3c4 50bd
00000250: 73d2 803d b682 fabd 238b cdbb 4595 c83d
00000260: a0a1 b73d 1aae e73d e45e 613d 2c35 153e
00000270: 6d0a 08bd e344 be3d 6611 cd3d 7c4b 343e
00000280: 4fc7 96bd 3014 b23d 857f 86bd ad2b f8bc
00000290: 34a6 e13d 5393 9dbb 81f0 2dbe 802d cabc
000002a0: 5b26 a4bd 4706 bcbd a8f0 eb3d 82d7 26be
000002b0: 743e 36be 866d a7bd df18 d63d 179b c7bd
000002c0: 7ff2 0bbd 9b4c a8bc 4be5 da3d 5bfe 96bd
000002d0: dc60 b5bd 811b ebbd b3f9 b1b9 eecb ea3c
000002e0: b27c 9f3d 97f0 17be 0643 ff3d b3ef 23be
000002f0: d500 d3bd 36cf b53c 2fab 0fbe d19b 4abc
00000300: 13e5 b9bd faae 1d3a face ecbd 580c 313e
00000310: 3f4b 223e 15be 583d aae7 c83d ebea f43b
00000320: fc52 8cba e97b bcbd 14a5 70bd 9c09 04be
00000330: c9ec 353e c29c 093e 5643 b83d 94d6 85bd
00000340: 18b0 f63d 8b98 48be 5fd0 3fbe a4ed c9bd
00000350: 4e0c fa39 d17e 0dbe 28d4 813d 1551 953d
00000360: d75e 833d 3406 313e f373 eb3d 00ec 2ebe
00000370: 14a3 383d 968b 203e ee92 783d a086 07be
00000380: 4324 e3bd 2303 bbbc ab1b f1bd 9889 283e
00000390: ae7a 133e af86 843d 8a61 863d df52 083e
000003a0: e558 28be 3cfc ea3d a304 98bd d233 113e
000003b0: f857 923c 413b 6c3d 1c65 56bd 8c46 3abe
000003c0: 34a6 203e fc89 a9bd fae8 9d3d 86f1 2dbe
000003d0: 6801 df3b 8ab3 aabd a8f2 34be 7af6 273e
000003e0: 6602 dc3d fa63 b3bd ad03 95bc a68c 5fbb
000003f0: 3909 393e 3672 e93d 8db7 233e 3c68 ccbd
-0.18594879 -0.15254773 -0.11561885 -0.18418905 0.14224678 0.024006682 -0.16844198 -0.10043794
0.11554441 0.041103527 -0.15572248 -0.13820311 -0.18163122 0.11507103 -0.15712449 0.119547285
0.0989806 -0.17465676 -0.12782528 -0.06925736 -0.1598985 -0.03752308 0.02254548 0.06915634
-0.015096832 -0.1114738 -0.18626747 -0.19175212 -0.027122336 -0.060688518 0.025691245 -0.007771018
-0.07895066 0.038046483 0.012754106 -0.1452221 -0.086573996 -0.08002899 0.07083611 0.18431215
-0.10157158 -0.00042416275 -0.11642558 -0.14054555 -0.16116671 -0.058208417 0.19130804 0.15087132
0.06888099 -0.14710966 -0.17745756 0.08861495 0.016592752 -0.07969624 -0.023897432 0.17170432
0.18934424 0.040242672 0.092905015 -0.14720055 0.14775468 0.10354102 -0.19073808 -0.16660485
0.19155164 0.06707151 0.080797546 0.14756544 0.18931931 0.1046463 0.05086341 0.07011988
-0.10642913 0.07298943 0.13781735 0.06220742 0.19281952 0.012063752 -0.02558728 -0.103627004
0.17041042 0.014507708 0.18090779 0.017652586 0.1690042 0.059840284 0.13071184 0.0950937
-0.09541855 -0.15922083 -0.16393071 -0.031070115 -0.17763959 0.067847826 0.008795527 -0.13305803
-0.14997315 -0.1557168 0.053632542 -0.13382481 -0.158284 0.079121165 0.06620579 0.1503706
-0.11347313 -0.16052365 0.050177004 0.14091197 0.18107137 -0.1080425 0.08883525 -0.10443157
0.15481408 0.18064287 0.14712736 -0.009225838 -0.017601293 -0.016123772 0.13856415 -0.11764004
-0.0814674 -0.15757713 -0.08679128 -0.08056184 0.022912972 -0.07947797 0.19405591 0.046038527
-0.14765315 -0.07912423 0.16049308 -0.056958023 -0.1343669 -0.19078833 0.058583017 -0.12887137
-0.18464677 -0.0010419025 0.049308132 0.0103434175 -0.13927831 -0.08780382 -0.07731323 0.13800949
0.11471011 0.06141651 0.080404475 -0.050968897 0.0629014 -0.122319624 -0.00627269 0.09794096
0.089663744 0.11312504 0.055022135 0.14571065 -0.033213068 0.09290483 0.10013084 0.1760692
-0.07362234 0.08695257 -0.06567291 -0.030294264 0.11018029 -0.004808822 -0.16986276 -0.0246799
-0.08015128 -0.09180885 0.11520511 -0.16293147 -0.17797261 -0.08175187 0.104539625 -0.09746378
-0.03416681 -0.02054434 0.106882654 -0.07372733 -0.08856365 -0.11479855 -0.0003394611 0.028661694
0.077874556 -0.14837871 0.124639556 -0.16009407 -0.10302893 0.022193532 -0.14030145 -0.012366251
-0.090768956 0.0006015148 -0.11562915 0.17289865 0.15849017 0.05291565 0.098098114 0.0074742935
-0.0010705884 -0.092033215 -0.05875118 -0.1289429 0.17766108 0.13438705 0.08997218 -0.06535068
0.12045306 -0.1958944 -0.18731831 -0.098597795 0.00047692884 -0.13817908 0.06339294 0.07290856
0.06414574 0.17287523 0.11496725 -0.17082214 0.0450774 0.15678248 0.060686998 -0.13234949
-0.11090901 -0.022828644 -0.11772855 0.16458738 0.14402267 0.06471001 0.06561573 0.13312863
-0.1644016 0.11473891 -0.074227594 0.14179924 0.017864212 0.057673696 -0.05234252 -0.18190974
0.15688401 -0.082782716 0.077104524 -0.16986665 0.0068055876 -0.083350256 -0.17670691 0.16402617
0.10742645 -0.087593034 -0.01819023 -0.0034110933 0.18069924 0.11398737 0.15987988 -0.09980819

encoder.2.weight f4 [256, 256]
00000000: 4834 13bd d0b5 b93c 0881 4fbc 20b8 223d
00000010: 00e2 37bc 8658 623d 2805 b33c 900d ca3b
00000020: 34b1 b3bc daa4 693d 8c82 4fbd 3c99 b0bc
00000030: 9224 1cbd 087f 063d d840 05bd f4b8 06bd
00000040: 8067 d63a 20b7 073d 1499 7f3d 322a 543d
00000050: ceb1 7bbd 8640 7fbd 3859 a63c 5656 76bd
00000060: aa02 7dbd d0b9 36bc 1420 2e3d c062 093c
00000070: 9e14 653d 0c14 19bd 8ef2 5abd c0bf 103b
00000080: 5ab6 7e3d 0a1a 4abd 1425 62bd 7852 c7bc
00000090: bcc3 50bd 40a2 33bb f202 77bd 4010 6abb
000000a0: da93 04bd 7a5b 5cbd 606a 573c 3c80 333d
000000b0: 803b 523d 52b4 4e3d 8033 b1ba 280b 323c
000000c0: 04b4 063d 848e aa3c ae14 543d 0274 0a3d
000000d0: ac0b 60bd 3c7b debc 0084 ebb9 4af6 45bd
000000e0: 04c4 2f3d 18f3 4a3d b0b5 d3bc f48e bc3c
000000f0: f4ec 973c dc59 adbc 4c44 4bbd ae39 703d
00000100: ec7e d63c 00b9 21bb e041 88bb 68b3 273d
00000110: 946d 1e3d 08d4 503d e66e 233d f0d9 b83c
00000120: 224e 4f3d 26e0 403d 2643 0cbd 2c98 ed3c
00000130: 8ce7 5b3d 2416 da3c d089 a6bc 68b0 31bc
00000140: 40a9 4b3c 509e 76bc c83f 34bd 3c17 c5bc
00000150: 0078 b53b 2099 e6bc 3cfc 933c a4ae 763d
00000160: 84e8 6a3d 28d5 3b3c d836 193d c0c3 5ebc
00000170: 00bb 423b 3810 d7bc 4a40 6bbd e0f6 513b
00000180: 1836 763c e817 f5bc 308c 37bd 3014 2ebd
00000190: 8890 233c 303f ac3b 00c4 24bc 440b 00bd
000001a0: b899 0c3d b8cd 23bc 1c36 463d 5c7f 073d
000001b0: 90ab 023d 781c ffbc 303f 9fbb 50ca c8bc
000001c0: 00c7 f939 a048 f4bc 6088 133c e47d 9dbc
000001d0: b85b 10bd b8c7 50bc cc13 fd3c ceda 79bd
000001e0: e0ef 563d 78a6 e53c a0c9 f8bc ea32 753d
000001f0: ae9d 593d 661c 373d 58c9 db3c 805b 503d
00000200: 04c1 a4bc 0a3a 09bd e0c3 f33c 2ccc e4bc
00000210: 784f 703d 48b1 773d 20cf 6a3b 8c12 2c3d
00000220: 98f0 15bd b8fe dabc 4ec5 48bd fcd0 95bc
00000230: b49b c1bc d0d0 02bc 7c14 073d 709e 66bc
00000240: 7ccf 733d a036 713b 40bc 0bbd dcd8 d2bc
00000250: d06d 94bc 80ca cf3c 78fb c9bc b031 063d
00000260: 9880 56bd 2874 64bc 2059 7cbc 6e9c 27bd
00000270: aa07 493d c496 883c e80f 32bc f079 5a3c
00000280: 1810 c93c 100e e5bc 0c77 493d 5c7b e63c
00000290: 660a 05bd bcbc ffbc 64e2 383d 3c78 493d
000002a0: 6269 563d 802c beba 6c3f bcbc 0ab9 2bbd
000002b0: 4a8d 323d 30d0 ddbb d048 60bc e881 c03c
000002c0: d8c6 19bd 9050 453c 2ae5 1dbd 2436 dd3c
000002d0: c0dd 46bb 58b8 7fbc 32cc 3dbd aaf8 46bd
000002e0: 82d9 6f3d 707e cb3b 80ef 66bd f8a9 0cbd
000002f0: 005d de3b 58ea 16bd 0cb4 a0bc 78fc 6bbd
00000300: 8456 3dbd 00e3 3f3c 84bd a4bc b076 553c
00000310: 222a 0e3d e096 343d 6460 3e3d e8c9 3cbd
00000320: 389b 2a3d e010 b5bb 3272 6abd d46d ae3c
00000330: 48be d5bc 7421 123d 3207 0bbd a044 40bd
00000340: 608b 1cbd b835 c63c b8dd 293d 3c9b a6bc
00000350: 24c5 193d d88b 7c3d 5612 2cbd 98ee 303c
00000360: 2422 813c 185a a1bc 1a0e 01bd 002f 76bd
00000370: 78a2 15bc 0c84 79bd 9ce7 b23c a070 acbb
00000380: ea17 44bd 12f3 0cbd e411 c9bc 301a 72bc
00000390: 80ee 2e3a 1a29 103d 0666 39bd 7600 483d
000003a0: 08b6 063d 6408 a03c a68a 16bd 0e3d 2b3d
000003b0: f0c6 003c 0cf8 883c f448 cbbc d8fe b1bc
000003c0: f82a 55bd aa5f 6fbd f491 383d 5821 323c
000003d0: a640 2abd 4cb1 823c dc4d b1bc 242e 433d
000003e0: a069 afbb cee6 2e3d 8040 b1ba 8084 e1bc
000003f0: 944c 7b3d b652 60bd 0217 673d 346d 0fbd
-0.03593853 0.022669703 -0.012665041 0.039726377 -0.011223316 0.055260204 0.021853045 0.0061661676
-0.021935083 0.05704198 -0.05066161 -0.021557443 -0.038120814 0.03283599 -0.032532543 -0.03289123
0.001635775 0.033133626 0.062401846 0.051798053 -0.061448865 -0.062317394 0.020306215 -0.06014093
-0.06177012 -0.0111527 0.04251106 0.00838536 0.055927865 -0.037372634 -0.053453974 0.0022086948
0.062185623 -0.04934124 -0.05521114 -0.024331316 -0.050967917 -0.002740994 -0.060305543 -0.0035715252
-0.032367565 -0.053798176 0.01314792 0.043823466 0.051326275 0.050464936 -0.0013519377 0.010866918
0.03288652 0.02081991 0.051777534 0.03380204 -0.05469863 -0.027158372 -0.0004492104 -0.048330583
0.042911544 0.04954824 -0.025843471 0.023017384 0.018545605 -0.021161012 -0.04962568 0.058648758
0.026183568 -0.002467692 -0.0041582435 0.04094258 0.03867872 0.05098346 0.039900683 0.022564858
0.050611623 0.047088765 -0.034243725 0.029003225 0.053687617 0.026621886 -0.020329386 -0.010845281
0.012430489 -0.015052393 -0.04400614 -0.02405893 0.0055379868 -0.028149188 0.01806461 0.060225144
0.05735065 0.011464395 0.03740582 -0.013596475 0.0029713511 -0.02625285 -0.057434358 0.0032038018
0.015027545 -0.029918626 -0.044811428 -0.04249972 0.009983189 0.005256556 -0.010056496 -0.031260744
0.034326285 -0.009997778 0.048391446 0.033080444 0.031901896 -0.031141505 -0.0048598275 -0.024510533
0.00047641248 -0.029819787 0.009004682 -0.019225068 -0.03524372 -0.012742929 0.030893229 -0.060999684
0.052474856 0.02803348 -0.03036958 0.05986301 0.05312889 0.044704817 0.026829407 0.05086851
-0.020111568 -0.033502616 0.029756486 -0.027929388 0.058669537 0.060471803 0.0035829023 0.042009875
-0.0366064 -0.026732787 -0.04901629 -0.018288128 -0.023633815 -0.007984355 0.03297852 -0.01407586
0.059524044 0.003680624 -0.034115076 -0.025738172 -0.018118769 0.025365114 -0.024656042 0.03276223
-0.05236873 -0.013943709 -0.015402108 -0.040920667 0.049079575 0.016673453 -0.01086805 0.013334736
0.024543807 -0.027960807 0.049185798 0.028134994 -0.03248062 -0.031217925 0.045137778 0.04918693
0.052346595 -0.0014509112 -0.02297946 -0.041924514 0.043591775 -0.0067692026 -0.013689235 0.023499444
-0.037543148 0.012043133 -0.038548626 0.027003355 -0.0030344576 -0.015607916 -0.046337314 -0.04857699
0.05855704 0.006210141 -0.05638075 -0.034341782 0.006785989 -0.03684458 -0.019617103 -0.05761382
-0.046225086 0.011711836 -0.0201099 0.013028786 0.03470815 0.044089198 0.046478644 -0.04609099
0.041651934 -0.0055256933 -0.05723781 0.021292605 -0.02609171 0.035676435 -0.03394241 -0.046940446
-0.038218856 0.024195537 0.041471213 -0.020337693 0.037541524 0.061656803 -0.042009674 0.010799073
0.01576335 -0.01969628 -0.03150759 -0.060103416 -0.009132974 -0.060916945 0.021838956 -0.0052624494
-0.04787437 -0.034411497 -0.024544664 -0.014776751 0.00066731125 0.035195448 -0.045263313 0.048828565
0.032888442 0.019535251 -0.03675332 0.041806273 0.00785993 0.01671984 -0.02481506 -0.021727964
-0.05204293 -0.05844084 0.045061067 0.010872208 -0.04156556 0.015953682 -0.021643572 0.047651425
-0.0053531677 0.04270058 -0.0013523251 -0.027529001 0.061352327 -0.05476638 0.056418426 -0.035016254

encoder.2.bias f4 [256]
00000000: 96b0 13bd 5a0f 5ebd c88e cfbc 00cb dabb
00000010: a013 efbc e41c aebc da93 653d c055 49bc
00000020: 205f e3bb 5ca1 9abc b095 b0bc 58b0 26bc
00000030: 205d 03bb d8a2 4fbd 506f 53bd 0ec7 633d
00000040: a0c7 9fbc 16c0 1b3d aec5 773d ec3c edbc
00000050: 3852 b5bc 6a2e 6bbd 6c44 42bd b6e1 19bd
00000060: 8836 16bc ec08 4dbd 68f1 fbbc 38ac 333c
00000070: 9056 b3bb faeb 643d feff 6ebd 58f5 283c
00000080: 68ce 3d3c 84d0 0dbd e480 753d 8020 e93c
00000090: 162c 393d 506c 283d 289b 053c 8cdc cc3c
000000a0: 2892 65bd 22e1 6b3d 36d0 223d 22b4 703d
000000b0: 0000 9636 186c 7f3d 885a efbc 7c52 4fbd
000000c0: e07c 0f3c f8a9 4fbd ccb5 703d e8eb 99bc
000000d0: 6c9f c53c 7c8a debc f017 c03c b09c a3bb
000000e0: 841e f4bc f8c1 73bc 382d 67bc e66b 1fbd
000000f0: 90ce 8fbc 9e25 52bd ceb9 3ebd dcff 34bd
00000100: b2cf 58bd d49d 7b3d 00c2 0db9 183a f93c
00000110: e2a4 5f3d 8c85 af3c 1042 b8bb b09e e1bc
00000120: 74ad 5b3d ecb6 a43c 620a 6d3d 5860 4f3c
00000130: 1890 2ebc f836 50bd 742e a93c b829 09bc
00000140: 2e29 6a3d 2ca8 61bd 5882 7cbc ae5d 6cbd
00000150: 46f4 7cbd e0f9 d03b 0064 b039 98d6 4dbc
00000160: 70ac 943b c02a c13a 8867 4bbc 9044 1d3c
00000170: be44 793d 4402 9bbc e085 fa3b 9857 643c
00000180: 243a 30bd 40f6 11bc 52ae 003d f0ec cbbc
00000190: 0af2 41bd 085d ebbc 006c f738 f2cc 163d
000001a0: c8ef 063c 78ba 5f3d ea41 5abd 4033 7cbc
000001b0: 20a5 2ebc 0ef1 1b3d a0de 4abb 929e 1fbd
000001c0: 2894 77bc 6876 103c b06a 07bc 9091 673c
000001d0: b085 cabb 6835 313c 34df 79bd 3c4b 073d
000001e0: e010 c7bb 3e64 75bd 6865 213d 2842 3b3d
000001f0: eccf 1c3d 142a 3d3d 68bf be3c f409 97bc
00000200: 8814 70bc bcce 12bd 2200 293d 3a31 5d3d
00000210: 307b 12bd 2042 f7bc 1800 a1bc 9809 cd3c
00000220: 6cc0 9e3c f2b8 4b3d a849 623d f023 963c
00000230: eea5 0ebd a2e9 113d 7068 1a3c c8fb bcbc
00000240: d0ee f6bc 100d 1cbc e25b 05bd 3408 51bd
00000250: 0076 053a bc2b 1fbd e61d 453d 603b 323b
00000260: 28d9 36bd 8090 1ebc 6023 3fbb 4605 4d3d
00000270: 385e 5bbd 861a 4ebd 4079 203b 10db 843b
00000280: 0459 b0bc ca8d 5f3d ee65 0cbd 280a 2d3d
00000290: d052 d5bb deca 59bd a0f5 3c3b 2047 ef3c
000002a0: 983b 60bd 686b a73c fe70 63bd 9267 6b3d
000002b0: 78ea bcbc c06b dd3a 88a6 113c a855 b93c
000002c0: b4f2 2a3d f8d9 293c 0075 983b 5ac1 6f3d
000002d0: 0099 2bba 5a23 06bd 6681 5dbd 581e 2d3c
000002e0: 00cc 103b 4c89 813c 80d2 873a 7447 55bd
000002f0: 1017 b2bb 9ab8 7d3d 7025 573d 209e 95bc
00000300: e020 203c ba44 213d 60e0 44bb f211 5c3d
00000310: 1094 5ebd 403a 153c 9c20 a73c 6822 42bc
00000320: 2442 ee3c 24c0 3c3d f440 523d 0203 37bd
00000330: a848 673c 1094 a13c ac38 c0bc 4860 53bd
00000340: b81b 82bc e424 44bd 3277 383d 5a42 70bd
00000350: f83b 5bbc 2234 093d ac74 dcbc 54ab e6bc
00000360: 8c33 3bbd 40d4 893a c815 633d 3070 79bc
00000370: 8490 d1bc f075 813c f6f8 003d 1859 6a3c
00000380: e0c7 77bd 32ce 2e3d c8f8 53bc 56ff 23bd
00000390: 286c 52bd ca89 223d 88ab b2bc 64e8 0f3d
000003a0: 30cf 84bc 08f7 30bd 60fd bdbc 8862 2dbc
000003b0: 80ce dcbc c061 09bb 989c 14bc 606c 783d
000003c0: 4826 4bbc 4697 5c3d 9e2e 5a3d 1c9d 683d
000003d0: b8eb 243d a848 db3c 7804 e8bc 7ab0 063d
000003e0: 94e3 183d 4470 92bc 98b3 4bbc 0423 e93c
000003f0: 18b9 c0bc f0e1 fd3c 2a15 0a3d 0e25 193d
-0.036057077 -0.05421386 -0.025336638 -0.0066770315 -0.029184163 -0.02125401 0.056049205 -0.012288511
-0.00693883 -0.01887577 -0.021555752 -0.01017388 -0.002004452 -0.05069241 -0.051619828 0.055609755
-0.019504368 0.038024984 0.060491256 -0.028959714 -0.022133932 -0.05741731 -0.047428533 -0.03756877
-0.009168275 -0.050057337 -0.03075476 0.010966353 -0.0054729655 0.055889107 -0.058349602 0.010312401
0.011584856 -0.034622684 0.059937373 0.02845788 0.04520806 0.04111892 0.008154668 0.025007509
-0.05604759 0.05758775 0.039749347 0.058765538 4.4703484e-06 0.062358946 -0.029217973 -0.050615773
0.0087578 -0.050699204 0.058767125 -0.018789247 0.02412387 -0.027165644 0.023448914 -0.004993044
-0.029799707 -0.014877789 -0.014109902 -0.03892126 -0.017554551 -0.051305406 -0.046563916 -0.04418932
-0.05293245 0.061429814 -0.00013519078 0.03042321 0.054600604 0.021425985 -0.0056231096 -0.027541488
0.053632215 0.020106755 0.05787123 0.0126572475 -0.010654472 -0.050833672 0.020652033 -0.008371763
0.05716818 -0.05509202 -0.015411936 -0.057706527 -0.061756395 0.0063774437 0.00033643842 -0.01256337
0.0045371577 0.0014737472 -0.0124148205 0.009598866 0.060856573 -0.018921979 0.0076453537 0.0139369
-0.043024197 -0.008908808 0.031416245 -0.024893254 -0.047349967 -0.028730884 0.000117979944 0.036816545
0.008235879 0.05462119 -0.053285517 -0.015393078 -0.010659486 0.038071685 -0.0030955449 -0.038969584
-0.015111007 0.008817293 -0.008265182 0.014133826 -0.0061804876 0.010815956 -0.06100388 0.033030733
-0.0060750097 -0.05991005 0.03940335 0.04571739 0.038284227 0.046182707 0.023284629 -0.018437363
-0.0146533325 -0.03584169 0.041259892 0.054002024 -0.035762012 -0.030182898 -0.019653365 0.025028989
0.019378863 0.049736924 0.055246025 0.018327683 -0.03482621 0.0356232 0.009424314 -0.023069277
-0.030143172 -0.009524599 -0.03255833 -0.051033214 0.0005091131 -0.038860068 0.048124216 0.0027196035
-0.04464069 -0.009678006 -0.0029165372 0.050053857 -0.05355665 -0.050318263 0.0024486333 0.0040544346
-0.021526821 0.05457858 -0.034276895 0.042246014 -0.006510116 -0.053171985 0.0028832927 0.02920872
-0.054744333 0.020436957 -0.05552768 0.05747182 -0.023061022 0.0016893074 0.008889802 0.022623852
0.041735366 0.010366909 0.0046526194 0.058534004 -0.0006545931 -0.032748558 -0.054078482 0.010566317
0.002209425 0.015812539 0.0010362417 -0.052070096 -0.005434878 0.061943628 0.052525938 -0.018263876
0.009773463 0.039372183 -0.0030040964 0.05372805 -0.054340422 0.009108126 0.020401292 -0.011849023
0.029084273 0.046081677 0.051331475 -0.044680603 0.014116444 0.019723922 -0.023464523 -0.051605493
-0.015882358 -0.047886744 0.04503555 -0.058657028 -0.013380997 0.033496983 -0.026911102 -0.028157867
-0.045703456 0.0010515526 0.055440694 -0.0152245015 -0.025581606 0.015803307 0.031487428 0.014303468
-0.06049335 0.042677112 -0.012937732 -0.04003843 -0.051372677 0.039682187 -0.021810308 0.035133734
-0.016212076 -0.043204337 -0.023192108 -0.010582574 -0.026953936 -0.0020962805 -0.009070538 0.06065023
-0.012399264 0.053855203 0.053267114 0.056790456 0.04026386 0.026768044 -0.028322443 0.032883145
0.03732641 -0.017875798 -0.012432955 0.02845908 -0.02352576 0.030991524 0.03371159 0.037388854

fc_mu.weight f4 [8, 256]
00000000: 58b3 fbbc 9646 2b3d 3454 39bd d8f0 3dbd
00000010: 6641 3c3d 8e20 493d c205 20bd b87f d3bc
00000020: 7c94 7abd 98de a5bc b028 71bd 40b3 82ba
00000030: 829f 41bd 1c54 833c 263f 0c3d 1082 9dbb
00000040: 6eb2 41bd b8a0 0ebc 08b4 d33c 4842 0f3d
00000050: 4041 3abb cce9 edbc 503a c83b 30f6 6c3c
00000060: 586b cc3c d075 103c b24b 10bd 289b 2a3d
00000070: 1033 2b3c 90ce 62bd 3802 523d 2012 35bc
00000080: 0012 7c3c 54f3 fcbc de17 773d 86c6 153d
00000090: d895 02bd 54ba f43c a498 363d 4cbf 063d
000000a0: 8c85 b3bc dc10 da3c 9c74 abbc 86cd 63bd
000000b0: 268d 423d b87e 8abc b0fa 8a3b 928b 653d
000000c0: b095 3e3c b08d 9dbb b04f 67bd 0018 6db9
000000d0: c83e 66bd 4884 9c3c 74ea 123d 6242 7b3d
000000e0: e45b 69bd 40a2 41bb 6a42 41bd 88af af3c
000000f0: 1068 6bbd b4aa 403d aee7 0a3d 88de 2bbc
00000100: 3084 cbbc 004f 27bb b647 203d 56e2 0cbd
00000110: 6866 2b3c c034 dcbb bcd7 8e3c 206c 1cbd
00000120: ac26 98bc 6059 dfbc 9cd7 823c e89d 563c
00000130: 7266 75bd ea58 06bd 2ed1 1abd 54be 023d
00000140: f87f cb3c e072 e5bc 005b aaba 0888 f23c
00000150: 9cea 373d d03d 633d 12f2 62bd a6d1 683d
00000160: 207c 76bc b42f 9e3c 3688 6e3d 26ea 3a3d
00000170: 2868 20bd 7421 273d 5a66 443d 1283 193d
00000180: 50ba 683d 2a8c 233d 7897 e33c 30d1 d43c
00000190: a055 3cbc 9a69 17bd bc81 07bd 4886 a43c
000001a0: 74ad 443d d092 f73c a85d 06bc 142e 8e3c
000001b0: 3cd8 033d 28c0 713d 7404 79bd 8c71 41bd
000001c0: 0044 8fbc a8da b6bc 80d5 dcbc 6817 e0bc
000001d0: 4c16 7b3d 44dc 6a3d 5e8b 593d 700b b6bb
000001e0: e26e 133d a016 ec3b 0018 d43c 50b8 3b3d
000001f0: 9e82 4e3d 862c 37bd 0c16 6abd 54a9 59bd
00000200: 60cc 2dbc c0a6 dc3a aca9 883c a0a7 363c
00000210: 60db 08bb 406f de3a 8033 7fba 3880 4cbd
00000220: 08a5 51bd bad3 3fbd e49f 9c3c 3495 76bd
00000230: 605e 3b3b 8421 c5bc dca8 c03c 3870 7dbd
00000240: 6822 4cbd 68f6 34bd 6e19 73bd 0093 e2ba
00000250: 3033 34bc 564e 543d 00cf aabc e034 493c
00000260: b0a8 d9bb 18b8 24bc b05d e43c e047 643b
00000270: eebd 543d b606 52bd 2a61 2d3d aca1 543d
00000280: 6c66 93bc d89e f43c a0cb 4b3d c6f2 6ebd
00000290: ee26 6a3d 70b0 0abc ac17 7a3d 52c7 003d
000002a0: f2be 3bbd c084 4c3c 325b 1bbd fe8f 3a3d
000002b0: 803d 50bc 6016 dabc 02bf 2abd b868 e33c
000002c0: a873 39bc b888 123c 00c5 4d3c 4a6b 0abd
000002d0: 6835 68bd e858 d9bc 8036 f53c e0f5 80bb
000002e0: 3078 fb3b 6627 133d 1a8a 67bd b8ac 9b3c
000002f0: f669 503d 702c 903c e204 73bd 4c6c a23c
00000300: 742c 7f3d 7832 7dbd b86e 80bc e08a 533b
00000310: 4098 cebb ec1c 48bd 6880 03bd c282 44bd
00000320: d87f 0fbd 202e a03b b47a eebc 5cc1 373d
00000330: e4bd 81bc 721f 443d 30c8 70bc b8f6 dd3c
00000340: 942b cd3c f85f e23c a4e5 ad3c 56df 30bd
00000350: 2621 32bd 1a97 023d 7061 12bc 009d 7bba
00000360: 6012 02bc 8cd0 5e3d 6852 1bbd 5450 4b3d
00000370: f023 4a3c 7ebe 46bd 2070 1a3d 787a 1f3c
00000380: 481e a83c 8c9e a63c b06d eb3c 5ed6 2bbd
00000390: 2c65 bbbc 80ff 17bb a6a4 623d 68a4 7c3d
000003a0: bc68 a4bc b848 89bc 806b 2d3d 1a56 6a3d
000003b0: 3044 df3c f8f9 eabc c4af 833c c42f 50bd
000003c0: 1a6d 5b3d 1893 f63c ccd0 d73c c06b c93a
000003d0: 80a2 b4bb 90db 91bb 86c8 4ebd 74f5 c43c
000003e0: d067 763c 3cce 853c 38bb 25bd 443b de3c
000003f0: 80e8 ba3b 522e 3fbd 981f a5bc 9891 173c
-0.030725166 0.041815363 -0.045246318 -0.046372265 0.045960806 0.049103312 -0.03906799 -0.025817737
-0.061176762 -0.020247743 -0.058876693 -0.0009971634 -0.04727126 0.016031317 0.03423991 -0.0048067644
-0.047289304 -0.0087053105 0.025842682 0.03497532 -0.002842024 -0.029042147 0.006110467 0.014462993
0.02495353 0.008817151 -0.03522844 0.041651875 0.010449186 -0.055372775 0.051271647 -0.011051685
0.015385151 -0.030877747 0.060325496 0.03656628 -0.031881183 0.029874004 0.044579163 0.03289728
-0.021914266 0.026619367 -0.020929627 -0.055615924 0.04749789 -0.016906127 0.00424131 0.056041308
0.011632368 -0.00480815 -0.05647248 -0.00022611022 -0.056212217 0.019106045 0.035868123 0.061342604
-0.0569724 -0.0029546171 -0.047182478 0.021446005 -0.05747229 0.047037795 0.033912353 -0.010490067
-0.024843305 -0.0025529265 0.03913089 -0.03439554 0.010461427 -0.0067201555 0.017436855 -0.038189054
-0.018573128 -0.027264297 0.015971951 0.013099171 -0.059912153 -0.03279964 -0.037797146 0.031919792
0.024841294 -0.028008878 -0.0012997091 0.02960588 0.044901475 0.05547887 -0.055406637 0.05684056
-0.015044242 0.019309856 0.05823537 0.045633458 -0.03916183 0.040803388 0.047949173 0.037478514
0.056818306 0.039928593 0.027782187 0.025978655 -0.011495024 -0.036965944 -0.03308271 0.020083562
0.04801698 0.030221373 -0.00820104 0.017355956 0.03218864 0.059021145 -0.060795262 -0.047227427
-0.01748848 -0.02232106 -0.026957273 -0.027354911 0.06130056 0.057338968 0.053111427 -0.0055555627
0.035994418 0.0072048455 0.02589035 0.04583007 0.050417535 -0.044720195 -0.05714993 -0.05314
-0.010607809 0.0016834363 0.016682468 0.011148363 -0.002088271 0.0016970411 -0.0009735152 -0.049926966
-0.051182777 -0.046832778 0.01911921 -0.060200885 0.0028590187 -0.024063833 0.023518018 -0.0618746
-0.0498375 -0.044180304 -0.059350424 -0.0017286241 -0.010998532 0.05183252 -0.020850658 0.012280673
-0.0066424236 -0.010053657 0.027876705 0.003483288 0.051938944 -0.05127593 0.04232899 0.051911995
-0.017993174 0.029860899 0.04975474 -0.058336996 0.057166032 -0.008464918 0.06105773 0.031440087
-0.045836397 0.012482822 -0.037928768 0.045547478 -0.012709975 -0.026621997 -0.041686065 0.027759895
-0.0113190785 0.008943729 0.0125591755 -0.033793725 -0.056691557 -0.026531652 0.029933214 -0.0039355606
0.0076742396 0.035926245 -0.05652819 0.019003257 0.050882302 0.017599314 -0.05933083 0.01982703
0.062298253 -0.06181571 -0.015677795 0.003227882 -0.0063047707 -0.048855707 -0.03210488 -0.047976263
-0.03503403 0.004888311 -0.029111244 0.044862136 -0.015837617 0.04788155 -0.014696166 0.027095184
0.025045194 0.027633652 0.021227665 -0.04318174 -0.043488644 0.031882383 -0.008934364 -0.0009598285
-0.007938951 0.054398105 -0.037920386 0.049637154 0.01233767 -0.04852151 0.037704587 0.009733789
0.020522252 0.020339273 0.028738827 -0.041952483 -0.022875391 -0.0023193061 0.055332802 0.061680228
-0.020069472 -0.016758308 0.042338848 0.05721102 0.027254194 -0.028683648 0.016075023 -0.050826803
0.053570844 0.030099437 0.02634468 0.0015367195 -0.0055125356 -0.0044512227 -0.050484203 0.024042822
0.015039399 0.016333692 -0.04046175 0.02712787 0.0057039857 -0.046675034 -0.020156667 0.009251021

fc_mu.bias f4 [8]
00000000: b455 6cbd 0032 77bb e0c1 d6bc 907a 203d
00000010: 08c6 e43c 4c5b 623d 0cce 9fbc 8658 153d
-0.05769892 -0.0037719011 -0.026215494 0.039179385 0.02792646 0.05526285 -0.01950743 0.036461376

fc_logvar.weight f4 [8, 256]
00000000: 1842 ed3c c0dd 4b3b 2878 98bc 6c46 033d
00000010: b4cb 97bc 1014 423c 90e8 7f3c 349e 5ebd
00000020: e02b 0fbb b4d8 cf3c 407f 38bd ce5f 3bbd
00000030: f8ab 3abc e8e6 79bd b4e0 dd3c f485 60bd
00000040: f0fa 703d b2e3 00bd eaac 003d 6299 613d
00000050: 286a 763c 747a 1fbd 80e3 df3c ac77 8bbc
00000060: 8e0a 593d f075 f9bc 607b 873c 20c8 1dbc
00000070: 8c68 9abc 6c61 11bd c4c2 b83c 20eb fb3b
00000080: 0007 c63a deda 373d 980e 11bc 3879 a2bc
00000090: d8dd 00bd 0033 77ba e092 86bb a091 01bd
000000a0: 50ce 08bc 2032 61bb 4e32 0abd b6a8 47bd
000000b0: 8c4c 233d c0d0 a53b 0085 033d 3840 63bc
000000c0: 0087 eb3a b027 74bc e000 6dbd f6b1 6d3d
000000d0: c019 553c b8fd 3abd aa8e 4ebd 6483 033d
000000e0: 58e0 003d 64c1 dcbc 9c40 0bbd c2d1 0cbd
000000f0: 460e 443d 2a03 143d 6819 c7bc 58d0 64bc
00000100: 0c81 593d e0b6 95bb e287 733d f083 bb3c
00000110: 54f5 02bd 582c 39bc 7033 ac3c 88c5 113d
00000120: f0c4 b5bc cc3e d0bc bc51 c5bc ccf0 5a3d
00000130: 6a24 58bd ae52 22bd 24b4 a8bc c0d8 60bb
00000140: 2220 4fbd b4fb 113d 4825 2bbd 0054 123b
00000150: 7085 823b 74a7 5e3d 9a86 3abd 0066 0c3b
00000160: 9886 053d 147f 20bd 769b 1b3d 0e4f 563d
00000170: 5c4b 033d e080 f0bb d804 75bd 6e2f 32bd
00000180: acac a1bc 4a22 2fbd e889 2cbc be1f 71bd
00000190: e089 b3bc b8d4 5f3c 421e 703d 82e9 52bd
000001a0: 403b ca3c d462 df3c 689b dabc c4bd d93c
000001b0: 425a 0d3d 408c 263b e853 28bc c83a a83c
000001c0: 8089 243b 94d5 c4bc 10f0 3d3c 002e 93ba
000001d0: f8fa e5bc 807d 94bc 32d3 71bd 70f2 753d
000001e0: 585b 743c 262b 6c3d 2ac6 173d 32e7 663d
000001f0: dcc7 f83c 784c 2cbc a07d 773c f046 e5bc
00000200: 201e c6bc c0f4 8a3b 30b3 2d3d 30be 54bd
00000210: 1472 c73c c4f7 8abc 4085 63bb b265 40bd
00000220: a2f0 2e3d 709c 64bc 3455 bfbc dc09 14bd
00000230: 44e0 2f3d d460 463d 5cb1 1abd b81e 71bc
00000240: c0e0 463b 8261 613d f67c 66bd e8b3 533d
00000250: 1e3c 00bd 8a58 03bd 0010 2bb9 7896 4bbd
00000260: 1626 2b3d ec0f 23bd 6ec1 6a3d 4601 7dbd
00000270: e0dc 1fbd 005d feba fc93 dbbc 9e78 1abd
00000280: 14c1 e5bc 9441 3e3d b0fd f53b bed4 24bd
00000290: b8d1 90bc b0cb 20bd c063 b03c c8de 29bd
000002a0: bc6b 7d3d 923c 2e3d d6f6 66bd 1ef5 703d
000002b0: 2068 993b 3470 b7bc c89f 2ebc 18af 763d
000002c0: f677 3e3d a029 273d 86b3 023d 64a8 763d
000002d0: 20ee d63c ce7e 293d 40d9 463c 084a e7bc
000002e0: 8417 873c 8000 e63b 1c61 74bd 1a8c 53bd
000002f0: a00b f7bb 7cba 8c3c 1acc 7c3d 8ca6 793d
00000300: 90ef 363d 0017 e3b9 142b 7ebd 983c 6f3d
00000310: e8e2 ed3c f228 1abd 7a6e 79bd 4c8a 523d
00000320: 925b 45bd e6f8 29bd 1e26 263d 80e9 8b3c
00000330: ea77 023d 00fb 413b ce42 06bd b226 6ebd
00000340: 6495 5abd 7c73 8bbc 1400 04bd 308c 71bd
00000350: 6ee6 573d d83e 343c b00b 073c 90e9 84bc
00000360: d84b ef3c f44a 23bd b0e2 043d 505f 7cbd
00000370: 58b3 283c 18d7 4a3d a82e 013d b421 30bd
00000380: 5820 083c c0f6 93ba 4a22 13bd f2e8 5c3d
00000390: b42e 083d 3869 8c3c 340e febc 9062 1f3d
000003a0: 0e7d 583d c6aa 2f3d d875 3ebd 486b bd3c
000003b0: 2482 6c3d e084 4a3d 4ca3 2e3d 144c 12bd
000003c0: d438 903c 1667 773d 663d 7d3d 18ad 7e3d
000003d0: dc83 be3c 666c 19bd 203e 17bd aa6d 33bd
000003e0: 405b a03c 0c3f 3a3d 4018 02bb 1aa3 7ebd
000003f0: fefb 03bd f09e e4bb 8e77 3b3d 7c80 1ebd
0.02896218 0.0031107515 -0.018611982 0.03204958 -0.01852975 0.011845604 0.015619412 -0.054350093
-0.002184622 0.025371887 -0.04504323 -0.045745663 -0.01139354 -0.061011225 0.027084686 -0.054815248
0.058833063 -0.031467147 0.031414904 0.055077918 0.015039958 -0.03893514 0.02733016 -0.017024837
0.05298858 -0.030451745 0.016538322 -0.009630233 -0.01884868 -0.0354933 0.022553809 0.007687941
0.0015108287 0.044886462 -0.008853577 -0.019833192 -0.031461567 -0.0009429902 -0.0041068643 -0.03163302
-0.00834997 -0.0034362152 -0.03373938 -0.04874488 0.039867923 0.0050602853 0.03210926 -0.013870291
0.001796931 -0.01490204 -0.057862163 0.058031045 0.013006628 -0.04565212 -0.050429024 0.032107726
0.03146395 -0.026947685 -0.033997163 -0.03437973 0.047865175 0.03613583 -0.024304107 -0.013965689
0.053101584 -0.0045689195 0.05945576 0.022890061 -0.031972244 -0.011302076 0.021020621 0.03558877
-0.022188634 -0.025420569 -0.024086826 0.053452298 -0.052769102 -0.03962963 -0.02059371 -0.003430888
-0.050567754 0.035640433 -0.0417836 0.00223279 0.003983192 0.054358914 -0.045538522 0.0021423101
0.03259906 -0.03918369 0.037990056 0.052321486 0.03205429 -0.007339582 -0.059819072 -0.043502264
-0.019735657 -0.04275731 -0.010530926 -0.058868162 -0.02191633 0.013661556 0.058622606 -0.05149222
0.024686456 0.027268805 -0.026685432 0.026579745 0.034509905 0.0025413185 -0.010273911 0.020535842
0.002510637 -0.024027623 0.01159288 -0.0011228919 -0.028073773 -0.01812625 -0.059039302 0.06004566
0.014914356 0.057658337 0.03705422 0.05637283 0.030368738 -0.010516278 0.015105635 -0.027987927
-0.024184287 0.0042406023 0.042407215 -0.05193919 0.024346389 -0.016963847 -0.0034716874 -0.046971984
0.042709954 -0.013953313 -0.023356058 -0.036142215 0.042938486 0.048432186 -0.0377668 -0.014716797
0.0030346364 0.05502463 -0.056271516 0.051685244 -0.031307332 -0.03206686 -0.00016313791 -0.049704045
0.04178437 -0.039810106 0.057313375 -0.061768793 -0.039029002 -0.0019406378 -0.026803963 -0.037712686
-0.028046168 0.04644926 0.0075070485 -0.04024195 -0.017678127 -0.03925675 0.02153194 -0.041472226
0.06187032 0.042538233 -0.056387745 0.058827512 0.004681602 -0.02239237 -0.010658212 0.060225576
0.046501122 0.04081118 0.03190949 0.060219184 0.026236594 0.041380696 0.012136757 -0.028233543
0.016490705 0.0070191026 -0.059662923 -0.051647283 -0.0075392276 0.017178766 0.061718084 0.060949847
0.04466206 -0.0004331395 -0.0620528 0.058407396 0.029038861 -0.037636705 -0.060896374 0.05140142
-0.04818303 -0.041497134 0.040563695 0.017079115 0.03185264 0.002959907 -0.032778554 -0.05814237
-0.053365126 -0.01702284 -0.032226637 -0.058971584 0.05270999 0.011001311 0.008242533 -0.016224653
0.02921097 -0.039866403 0.03244275 -0.061614335 0.010296665 0.049521536 0.031538635 -0.04300089
0.008308493 -0.0011288747 -0.035921372 0.05393309 0.033247665 0.017140016 -0.031012632 0.038912356
0.052853636 0.04288747 -0.046499103 0.023122445 0.0577413 0.049443126 0.0426362 -0.035717085
0.017605223 0.060401045 0.061826132 0.062176794 0.023256235 -0.037456892 -0.03692448 -0.043805756
0.019574761 0.045470282 -0.001985088 -0.062167265 -0.03222274 -0.0069769546 0.045768313 -0.03869675

fc_logvar.bias f4 [8]
00000000: 6433 80bc 7a72 4bbd 0c92 cd3c b00f a3bc
00000010: f0f4 40bc 04e8 45bd 20f6 01bc c065 cd3c
-0.015649505 -0.04966972 0.025094055 -0.019904941 -0.011777148 -0.04831697 -0.007932216 0.025072932

decoder.0.weight f4 [256, 16]
00000000: 70af 713e 3093 a8bc 2e82 64be e2c7 13be
00000010: 5300 09bf 4fdb d9be ec0e afbd 0d48 05bf
00000020: 37d1 353d 337c e0bd e4e7 50be e421 653e
00000030: 5de4 fe3d a070 88bb 10af 823e 83ba cc3d
00000040: 72ae 783e 5ec2 163e 3c48 4ebe 3088 dcbd
00000050: 8a1a 163d 5e62 ccbd e0c8 15bf 29f8 b53e
00000060: 5b0e f23c da33 2bbc e2f4 34bc bdc6 1abc
00000070: 6d35 c0bc ba1f 803d a6b1 92bd c6c3 c63c
00000080: b8be 0a3e 20de 7abc 9e1b 64be d012 413d
00000090: a77a f83e 5b1d f33e 7dcf 273d 2896 cf3e
000000a0: b9a5 5fbd 5360 113e 4c65 f2bd 12b3 503e
000000b0: 0b96 a6bd bdc8 a93d ed23 043c c246 2cbe
000000c0: 4c2a 51be e0da 28bd b442 42be 943f 34be
000000d0: 1b87 343d 113a 063e 66b3 57be 0361 1fbe
000000e0: d3ec f43d 3011 e33d 5860 9b3d eb6c acbd
000000f0: 756c a23e fb6d 98bd bbd7 65bd 03ac e63d
00000100: 5277 213e 0ac7 523e e0ea 403c 420c 78be
00000110: 6691 cdbe e743 213c a612 4cbe bff2 2e3e
00000120: 3383 373d 372a 25bd 6198 383d 34b7 253e
00000130: 554d 113e 0917 64bd ab46 4cbe 48c1 fa3d
00000140: e615 493e e467 e73d 546a dcbd 938b 30be
00000150: 85de aebe db53 b9bd 3879 2e3d 7126 b9be
00000160: 66ce 10bd 230c 4d3e 2089 613d 6dff c5bc
00000170: f93c 49be f473 31bd 12ee 213e cb2b 4f3e
00000180: 50b6 1abd f011 ba3d d09b 793e a0ae 5bbe
00000190: 9a4e 8a3e d845 b33e 6660 ad3e d7b3 02bf
000001a0: bfdc b3bd c848 b23d 877c 8c3c feb8 4d3d
000001b0: d6ad dbbd 69ba 6c3e 6100 30bd ec03 bcbd
000001c0: 188c 6c3d a025 bf3c 1e96 1cbe ef70 0d3e
000001d0: fb14 1a3f 8bfc d63e bc39 f03c 145e b93e
000001e0: 943b 213d 2e93 b83d 0fd2 69bb 3434 833d
000001f0: ef90 b3bb bd8f 4a3e d9c0 5abe 907e 8c3d
00000200: c027 dabd a45d 053e 5cb5 683e e4e2 8dbc
00000210: 913f e0bd 907f f3be 1e2c 363e 788e 8ebe
00000220: b273 6abd 12a1 82bd 52d1 4a3d 9adc 5ebd
00000230: 23ef ddbd 5f9d 1cbe ff65 fa3d f4ae a43d
00000240: 081f 7fbd a022 e4bd 2044 debd b0f2 3f3e
00000250: 06a8 5c3f 202d 2c3e a994 82be ec6f 853e
00000260: 145b f73d 5617 813d 5389 4b3e 659a 9d3a
00000270: 7948 683c f0d1 413e 9445 323c 99f7 48be
00000280: d065 edbc 6838 56be f813 773e 0f0e 283c
00000290: d065 eb3d 8dd9 003f 837d e0be d97e a73e
000002a0: 1c7c 5ebe 08b2 f33d b50f 00bd 5600 2a3e
000002b0: 3168 41bd 6627 32be 111b c43d 6ccb a83b
000002c0: 340d 323e b891 51be a076 0f3c f08e 8c3e
000002d0: 3177 c8be 24e2 3d3e 013a d33e 3004 89be
000002e0: 91eb e7bc aa3b d7bd f26c 22be 1a7d 093e
000002f0: ab5d 213d 9c23 d5bd 3ce8 1e3e ee86 053d
00000300: b834 40bd 50a1 923d b412 66be 664a bfbe
00000310: 2e02 0ebe a900 eb3e ce75 1a3e cefa 893e
00000320: a9d7 213e 71d1 a6bd c532 f53d 8f4a ef3d
00000330: f5b0 fabc 96f7 1abe bfd9 b3bd 5fac 4cbe
00000340: f6f7 61be d059 b53c e2dc 5e3e 8b3e b73d
00000350: 9058 2ebf 0c79 1dbe 1f7d 9bbd 9c03 a3be
00000360: 57fd a23d d01a 35bc b2e3 76bc d221 bcbd
00000370: 8a3d 3bbe 20a3 28be 909a a13e 9c1c d7bd
00000380: f86f c43d e00e 563c f8dc 7d3e ff31 b83e
00000390: 7941 3a3f f312 a23e 1520 29be fc92 f33e
000003a0: 6592 323d 0678 cd3c 5614 363e cfea 4abd
000003b0: bc55 803d ef29 313e 095b 69be eaee cabd
000003c0: d0f2 35bd fc3e fd3d 98d2 e73d c506 163e
000003d0: 7047 cb3e afca 4c3e f18e f53e 8894 0bbf
000003e0: dd43 b4bc 3c70 0b3d 9b57 633c f1e2 5f3d
000003f0: 6323 1cbd 4591 363c 7555 5dbd a8f3 10bd
0.2360208 -0.020577997 -0.22315285 -0.14431718 -0.5351612 -0.42550132 -0.08547768 -0.52063066
0.044388976 -0.10961189 -0.20400959 0.2237621 0.124459006 -0.0041638166 0.25524187 0.09996512
0.24285296 0.14722583 -0.20144743 -0.10768163 0.036646403 -0.099796996 -0.58509636 0.35540894
0.02954786 -0.010449374 -0.011044713 -0.009446797 -0.023462975 0.06256051 -0.0716279 0.024263274
0.13549316 -0.015311748 -0.2227616 0.04713708 0.48531076 0.47483334 0.04096936 0.40544248
-0.054601405 0.14196901 -0.11835727 0.2038081 -0.08134087 0.08290241 0.008065206 -0.16823867
-0.20426291 -0.04122436 -0.18970758 -0.17602378 0.04407416 0.13108088 -0.21064529 -0.15564351
0.11959233 0.11087263 0.075867355 -0.08419212 0.3172337 -0.07442852 -0.05611394 0.112632774
0.15768173 0.2058374 0.011774749 -0.24223426 -0.40149993 0.009842849 -0.19928989 0.17084788
0.044802856 -0.040323462 0.045067195 0.16183168 0.14189656 -0.05568603 -0.19948833 0.12243897
0.1963726 0.112991124 -0.10762468 -0.17240743 -0.34154144 -0.09049197 0.042596072 -0.3616214
-0.035353087 0.20024161 0.055062413 -0.024169648 -0.19652165 -0.043323472 0.15813473 0.2023155
-0.037771523 0.090854526 0.24375844 -0.21453333 0.27013093 0.35014224 0.3386261 -0.51055664
-0.08782338 0.08705288 0.017149223 0.05022525 -0.10726516 0.23117985 -0.04296911 -0.091804355
0.05775079 0.02333337 -0.1529164 0.13812612 0.60188264 0.4198955 0.029324405 0.36204588
0.03936346 0.09012447 -0.0035678183 0.06406441 -0.005479924 0.19781394 -0.21362628 0.068600774
-0.10652113 0.13024002 0.22725433 -0.017320104 -0.10949624 -0.4755826 0.17790267 -0.2784307
-0.057239242 -0.06378378 0.04951603 -0.0544096 -0.10836627 -0.15294407 0.122264855 0.08041182
-0.062285453 -0.11139417 -0.108528376 0.18744922 0.86193883 0.16814089 -0.25504044 0.26061952
0.12077919 0.06303279 0.19876604 0.0012024163 0.014177435 0.18927741 0.0108808465 -0.19625701
-0.028979212 -0.20919955 0.24128711 0.010257258 0.114940286 0.50331956 -0.43845758 0.32713965
-0.21727031 0.11899191 -0.03126498 0.1660169 -0.047218505 -0.17397842 0.09575475 0.005151203
0.17387849 -0.20465744 0.00875631 0.27452803 -0.39153436 0.18543297 0.4125519 -0.26761007
-0.028310569 -0.10509427 -0.15861872 0.13426629 0.03939597 -0.104071826 0.15518278 0.032599382
-0.046925277 0.07159674 -0.22468072 -0.3736145 -0.13868019 0.4589894 0.15084001 0.2694916
0.15804924 -0.081454165 0.11972574 0.11684143 -0.030601958 -0.15133509 -0.08781766 -0.1998763
-0.22067246 0.022137552 0.21763948 0.08947476 -0.68103886 -0.15378207 -0.07592224 -0.3183869
0.07958477 -0.011053756 -0.015068935 -0.09186138 -0.18285194 -0.16468477 0.31563234 -0.10503504
0.09591669 0.01306507 0.24791324 0.35975644 0.72756153 0.31655082 -0.16516145 0.47573078
0.043596644 0.025081646 0.17781195 -0.049540337 0.062663525 0.17301153 -0.22788633 -0.099088505
-0.044421017 0.12365529 0.113194644 0.1465102 0.3970294 0.19999193 0.47960618 -0.54523516
-0.022005016 0.034042582 0.013875867 0.054659788 -0.038119685 0.011143033 -0.054036576 -0.03538862
