space_robot_planning_Rmat/weights/cvae_rmat_debug/v1.pth (torch, 886661 bytes, 16 tensors)

encoder.0.weight f4 [256, 32]
000000 03 a8 7b 3d 5f db 08 bb 0c a9 e0 bd ea c7 9b 3d
       0.061439525 -0.0020882708 -0.10969743 0.0760649
000010 b3 74 0a 3d 64 30 ee bd a0 9a 7a bd 4b 54 07 be
       0.0338027 -0.116303235 -0.06118262 -0.13215749
000020 08 84 ac bd 46 dd 0a be fd e4 85 3d fd 8c ee 3d
       -0.084236205 -0.13560972 0.06537817 0.11647985
000030 6e 34 88 bd 1e df 52 3d 02 6b 3b 3d 72 50 3b 3b
       -0.06650625 0.051482312 0.045756347 0.0028581885
000040 bb b4 0d be 6e 48 0c 3d 4f ff 8d bd d0 c2 c7 3d
       -0.13838474 0.03424876 -0.06933462 0.097539544
000050 04 9c 0f 3e 83 76 8a bd e5 e3 62 3d a3 db fe 3c
       0.14024359 -0.067608856 0.05539312 0.03111059
000060 4f 7b 90 3d f5 87 f3 bd ed 60 2d be fc 3f 7e 3d
       0.07054769 -0.11891166 -0.16931506 0.06207274
000070 06 72 9d bd 71 5a 0b bd 4d 39 45 3d d3 2f 73 3d
       -0.07687764 -0.0340218 0.04815035 0.05937178
000080 f3 96 03 3e 95 de 07 3a 55 89 70 bd 63 53 47 3d
       0.12850551 0.00051830086 -0.05872472 0.04866351
000090 0c 73 04 be 16 73 0c 3e d5 8f 13 3d 54 61 04 bc
       -0.12934512 0.13715777 0.03602584 -0.008079845
0000a0 13 d9 c3 bd 28 5b c9 3c f9 03 28 be 49 4c 0d 3e
       -0.09562888 0.0245796 -0.16407765 0.13798632
0000b0 f0 d1 b0 bd 49 fa eb 3d f6 67 4b 3d 9b 79 51 3d
       -0.086337924 0.115223475 0.04965969 0.051141363
0000c0 43 f7 15 be eb 9c d5 bd cd ee 81 3d fb 9b ff 3d
       -0.14645104 -0.1043032 0.06344376 0.12480923
0000d0 89 29 c7 3d f6 21 20 3d 2c f4 df 3c d8 d2 d6 bd
       0.09724719 0.039094888 0.02733811 -0.10489434
0000e0 6f 5f f5 3d 86 6a c7 3d ec 96 d7 bb fc f4 8a bd
       0.11981093 0.097371146 -0.0065792706 -0.06785008
0000f0 f2 9d dc 3d 09 a3 28 bd 58 22 34 be b8 54 23 3e
       0.10772313 -0.041171107 -0.17591226 0.15950286
000100 93 1f dd bd 14 d9 a3 bd ca 1e 83 bd 8e ca e1 bd
       -0.10797038 -0.08000389 -0.06402357 -0.11024962
000110 e4 50 58 3d a3 a1 e4 bd c9 23 21 3e 65 d4 87 bd
       0.05281152 -0.11163642 0.15736307 -0.06632308
000120 92 86 b5 bd 58 80 a3 bd 40 9d e8 bd 5f 97 22 be
       -0.08863558 -0.07983464 -0.11358118 -0.15878056
000130 98 94 91 bc 47 8d af bd 9e a6 b6 bd a2 9f fe bd
       -0.01777105 -0.085718684 -0.089184985 -0.12432791
000140 a6 64 25 3d 08 34 4b 3d de 87 b2 bd 83 d9 89 3d
       0.04037919 0.049610168 -0.08717321 0.0673094
000150 5d e8 26 be 8b ea 8a 3d 95 fb 0c 3e ed 22 95 bd
       -0.16299577 0.06783017 0.13767846 -0.07282052
000160 cc 61 ab bd 5a cc 04 be b2 b5 6d bc 27 d6 05 ba
       -0.08368263 -0.12968579 -0.014508652 -0.00051054585
000170 96 75 2f bd 8b 76 0c bd e7 01 1c 3e a5 0b 10 3e
       -0.042836748 -0.03429274 0.152351 0.14066942
000180 1b 58 a5 3d e4 e5 ed bd d8 69 ca bb 3c d2 07 be
       0.080734454 -0.11616114 -0.0061771683 -0.13263792
000190 17 1b 9e 3d 2d 40 7b bd 4f ad 0f 3e 20 e2 92 3d
       0.07720011 -0.0613405 0.14030956 0.07172036
0001a0 94 b6 93 3d 45 dc 25 3e db 1f 1d be bf 63 1f 3e
       0.072125584 0.16197307 -0.15344183 0.15565394
0001b0 ac f0 15 be d9 d0 92 3a fe 26 7a 3d 97 c2 ae 3d
       -0.1464259 0.0011201157 0.061072342 0.08533209
0001c0 20 28 c6 3d c1 30 d5 bc 16 5d 91 3d 31 38 83 3d
       0.09675622 -0.026024224 0.07097833 0.06407202
0001d0 40 b3 18 3e 3c fb d4 3c fb d5 69 3c 22 3c a7 3b
       0.14912128 0.025998704 0.014272208 0.005103604
0001e0 df c2 53 3c d3 5d 39 3d 0e 6c 95 3d e0 2a 01 3c
       0.012924879 0.045255493 0.072960004 0.007883757
0001f0 fc ba 1a be 7c 05 1e be b4 51 af 3d ae 7d fe bd
       -0.15110391 -0.1543178 0.085605055 -0.12426315
000200 66 7d 8b bd 8f 7f b2 bd 26 63 5f bd c9 af 2f be
       -0.06811027 -0.08715736 -0.054537915 -0.171569
000210 79 61 da bd 0e e2 bd 3c 3e 85 83 bd d5 ed 63 3c
       -0.10663123 0.02317908 -0.06421898 0.013911684
000220 94 86 ea bd 3f 4c 12 be e3 f5 2b be 7b c0 6d 3d
       -0.1145145 -0.14286898 -0.16793017 0.05804489
000230 ba e0 5f 3d f4 1d f2 bd e1 7c 17 be 05 86 ce 3d
       0.054657675 -0.11822119 -0.14793731 0.10084156
000240 c1 c0 56 bc 65 2d 05 bd 97 a0 85 bb a9 95 d7 bd
       -0.01310748 -0.032513995 -0.0040779817 -0.10526592
000250 bc b7 3e bd c7 b3 cf 3c 14 44 d3 bc 50 2d 91 3c
       -0.04656194 0.02535428 -0.025789298 0.017721802
000260 dc 69 bf 3d 68 e3 a3 bd 86 f7 54 3d f9 1b 33 be
       0.09346363 -0.08002359 0.05199387 -0.1749114
000270 ae 66 29 bc 4d 7e 90 3c 4e fe 48 bd 3c 9a 07 bd
       -0.010339422 0.01763835 -0.04907065 -0.033106074
000280 34 a6 95 bc e1 ea 2c 3e e9 25 43 bd 7f 69 1c be
       -0.018267728 0.16886474 -0.047643576 -0.15274619
000290 be 54 ce bd d2 11 04 be 95 77 09 be 6b c4 07 3d
       -0.10074757 -0.12897423 -0.13424523 0.033146303
0002a0 fd af 29 be 14 95 f0 bd 36 b0 c4 3d 83 97 2c 3e
       -0.1657104 -0.117471844 0.09603922 0.16854672
0002b0 8c 3c 04 be dc 4c ba 3d 42 34 04 be 09 3e 09 be
       -0.12913722 0.09096691 -0.1291056 -0.13402571
0002c0 05 28 1a be ee 81 74 bd 97 a1 ba bd 08 1e 82 bd
       -0.15054329 -0.059694223 -0.09112852 -0.06353384
0002d0 e1 b6 31 be 8f 18 94 3d f6 fd a0 3d 09 48 03 bd
       -0.17354919 0.07231247 0.07860939 -0.03205112
0002e0 55 97 65 bd da 90 12 3b ed 85 13 be 1f b0 7b 3d
       -0.056052525 0.002236417 -0.14406557 0.06144726
0002f0 05 b9 17 bb 4a bc 0d 3e e0 9f 84 bd 7b 15 13 3e
       -0.0023151052 0.13841358 -0.06475806 0.14363663
000300 1a 56 61 bd 8f 16 1c bd 44 53 02 3d 85 dc 91 3d
       -0.055013753 -0.03810745 0.03181769 0.07122139
000310 19 cf fc 3c 72 ae 0f 3e 39 a9 49 3d 23 89 ed bd
       0.03086047 0.1403139 0.04923365 -0.115984224
000320 03 53 19 bd 09 03 98 bd 4f b5 63 bd 67 cf 07 3e
       -0.03743268 -0.07422454 -0.05559283 0.13262711
000330 83 89 ac bc 75 90 ee bd a1 de 0b bd 19 89 1a bd
       -0.021061664 -0.11648647 -0.034147862 -0.037728403
000340 27 28 fa bd dd 33 28 3e 33 d2 9e bd d6 d1 10 3e
       -0.1221469 0.16426034 -0.07754936 0.14142546
000350 5d a5 1d be 30 cf 9b 3a d4 97 5f bd 87 41 8f 3d
       -0.15395112 0.0011887308 -0.054588154 0.0699492
000360 f2 f7 b6 3d e6 45 1b 3d 52 28 58 3c e0 fe 2e 3e
       0.089340106 0.037908457 0.013193207 0.17089415
000370 6b f7 29 3e 8f 27 1f bd 1d 48 5d 3d af fb db bd
       0.16598289 -0.038856085 0.05402385 -0.10741364
000380 8d 2e 65 bd b0 54 11 3d a9 4e dc bc fb f4 16 3e
       -0.055952597 0.035481155 -0.026892977 0.1474189
000390 66 fb ce 3b b0 36 9c 3c b5 de 2f 3e 2a a2 43 3d
       0.00631659 0.019069046 0.171748 0.047762074
0003a0 dd 3f 1f 3d 4d 97 c1 3d 36 2f f4 bd 65 6b ef bc
       0.038879264 0.094526865 -0.11923067 -0.029226014
0003b0 4c e9 cb 3d bb bc 31 3e 9d b1 25 bd 5c 4a fe 3d
       0.09956607 0.17357151 -0.04045259 0.12416527
0003c0 01 e2 12 3e 66 33 a8 3d 07 d7 7c 3d 86 a3 cd 3d
       0.14344026 0.082129285 0.061728504 0.10040955
0003d0 38 d8 a0 bd 85 96 a3 bd 26 17 04 bd a5 ab 15 3e
       -0.078537405 -0.07987694 -0.03224864 0.14616258
0003e0 f3 9d ec bd 91 29 17 be be 0e e7 3d b8 bb 9d bd
       -0.11553564 -0.1476195 0.11282109 -0.0770182
0003f0 5c 39 8e 3d db d3 1e 3d 62 16 19 be 36 0a 4e bd
       0.06944534 0.03877626 -0.14949945 -0.050302707

encoder.0.bias f4 [256]
000000 33 af 01 be 43 ff d7 bd a9 4f e7 bd f2 d0 94 3d
       -0.1266449 -0.10546734 -0.11294491 0.07266416
000010 8a e8 48 bd 11 26 8c bc 6a ff 71 3d 6c 06 c7 bd
       -0.04904989 -0.017107995 0.059081472 -0.09718022
000020 f0 67 9b bd 8a 78 07 be cd 29 a1 bd 26 76 14 3e
       -0.07588184 -0.13229576 -0.07869301 0.14498195
000030 4d 42 87 bd c4 06 8e bc 92 d6 7b 3d a4 cb 10 3e
       -0.06604443 -0.01733721 0.061483927 0.14140183
000040 a6 bf 2a be 1d d1 3c 3c 5d 4f 2e 3d c7 5a eb bd
       -0.1667467 0.011524466 0.042556155 -0.11491924
000050 e5 a7 23 3e 52 3f f6 bd 6e 61 d6 3d ec 68 c7 3d
       0.15982015 -0.12023796 0.10467802 0.09736809
000060 45 b2 2c be d6 08 1c be 9f 65 b1 bd 95 37 d9 3a
       -0.1686488 -0.15237746 -0.08661961 0.0016572351
000070 9e b6 16 3e e3 d6 d2 3d 96 93 e1 bd 7a 1d 07 be
       0.147181 0.10294893 -0.11014478 -0.13194838
000080 90 00 55 bd 76 4e 34 3e b9 0e 23 bd bd 70 e1 bd
       -0.05200249 0.17608055 -0.039808962 -0.11007831
000090 62 f8 10 be a9 69 dc 3d da a6 9c bc 33 15 92 3c
       -0.1415725 0.107623406 -0.01912253 0.017832374
0000a0 f4 b9 bc 3b a6 c3 67 bd df c3 9b 3a 71 e5 a3 bd
       0.005759472 -0.05658307 0.0011883936 -0.08002747
0000b0 9d 2f 0a 3e 57 36 9b 3d d6 f9 e0 3d cf 5b f1 3d
       0.13494726 0.07578724 0.109851524 0.11785089
0000c0 b1 5f a0 3d 00 7d 07 3d ac 70 7d 3c 52 c1 bf 3d
       0.07830752 0.033078194 0.015468758 0.09363045
0000d0 0f e9 0f bd a1 6c 1c 3d 07 22 c4 bd 9d 23 21 3e
       -0.03513437 0.038189534 -0.09576803 0.15736242
0000e0 ae e8 07 be 83 9a b3 bc 60 b2 9c 3d ec 77 13 3e
       -0.13272354 -0.021924263 0.0765121 0.14401215
0000f0 a5 19 fe bd 62 ad d5 3c 12 4b a1 bd ff e7 46 bc
       -0.12407235 0.026083652 -0.07875647 -0.012140273
000100 6a 17 9d bd 5f 82 2e 3e 5c 59 ff 3d 6a b6 14 be
       -0.076704815 0.1704192 0.12468216 -0.1452271
000110 5c cc 9f 3d 21 51 e1 3c 8b 00 65 3c 55 02 fe bc
       0.0780265 0.027504506 0.01397718 -0.031006971
000120 4c 0e 8f 3b 08 20 e3 bd 8c ce 0b 3e 60 eb 53 3d
       0.004365718 -0.11090094 0.1365301 0.051738143
000130 30 23 0b be cc 56 d7 bd 2d 9f 72 3d 4c 0b 5e bd
       -0.13587642 -0.10514602 0.059233833 -0.054209992
000140 f1 88 90 3d d9 16 31 be e9 ba 43 bc bf 55 b5 bd
       0.070573695 -0.17293872 -0.011946418 -0.088542454
000150 78 50 d4 3b ba 39 e6 3d 10 49 2b be 0d 34 82 bd
       0.006479319 0.11241479 -0.1672709 -0.06357584
000160 f5 b3 d5 bd 2e eb 12 3e 4e 86 0a 3e 9e c3 15 bd
       -0.10434715 0.14347526 0.13527796 -0.03656351
000170 3a ff 14 3e 74 46 51 3d 98 76 70 bd bd 57 19 3b
       0.14550486 0.05109258 -0.05870685 0.0023398243
000180 0e f5 22 3e 02 3f 2e be 9c f5 f4 3d db 10 f9 3d
       0.15913793 -0.17016223 0.11960909 0.12161418
000190 5c f7 8c 3d a9 1a c8 bc 5b 74 47 3d bc ae 06 be
       0.068831176 -0.024426775 0.04869495 -0.13152593
0001a0 4c 8c d2 3d b0 48 c8 bd cb 50 cd 3c e3 b5 0b be
       0.10280666 -0.09779489 0.02506294 -0.13643603
0001b0 25 8b d7 bd 63 bf 0a 3d 91 57 b6 3d ba a2 29 3e
       -0.105245866 0.033873927 0.08903421 0.16565982
0001c0 7a cc 2d be b9 7c ff 3b 44 fe b6 3d 96 83 c6 bb
       -0.16972533 0.0077968505 0.08935216 -0.0060581667
0001d0 86 0e 20 3e 5b 12 b6 3d 53 9d bf 3c 9a 9e f0 bd
       0.1563054 0.0889022 0.023390448 -0.11749001
0001e0 4a 97 82 bd 40 2f 18 be 07 df 12 be 18 fc b7 bd
       -0.06376512 -0.14861774 -0.1434289 -0.0898363
0001f0 ae 02 0a 3d f5 e4 1d be 80 f7 ae 3d 1a 3f 8a bd
       0.03369396 -0.15419371 0.08543301 -0.06750317
000200 49 11 ed bd e2 d5 21 be 2c d2 8e bd 74 c1 ae 3c
       -0.115755625 -0.15804246 -0.06973681 0.02133248
000210 31 3d eb bc 92 6d 2f be 7c 34 d6 3d 0c 66 e9 3d
       -0.028715702 -0.17131642 0.10459229 0.11396417
000220 45 cf 0e be 7b 4c ed bd 1d 13 89 bd 1f 9f 24 be
       -0.13946255 -0.11586853 -0.06693099 -0.16076325
000230 d8 2a ea bd 3b 76 7a bc 8d 97 9e 3d 04 39 13 3e
       -0.11433953 -0.015286977 0.0774375 0.14377218
000240 bd 9a 1f be 14 16 ac 3d 1b bc 3f 3d 62 85 0b be
       -0.15586372 0.084026486 0.04681025 -0.136251
000250 a3 18 07 3d 27 ee 50 bd c8 ae 21 3d db ca 1d 3e
       0.03298248 -0.05100837 0.039473325 0.15409414
000260 7d 8d df 3d f0 e0 1d be 66 e3 c6 bc d6 69 93 3d
       0.109156586 -0.15417838 -0.024278354 0.07197921
000270 60 53 82 bc cf 11 46 bd 9c 74 78 bc 01 84 2a 3e
       -0.015908897 -0.048356827 -0.015164521 0.16651918
000280 10 36 bd bd 16 74 b7 3c 5b fe 94 3d 2a 45 24 bd
       -0.09238827 0.022394221 0.07275077 -0.040105022
000290 9c 74 c9 bd 84 e3 ef bc c8 44 08 3e 1e e8 d9 3d
       -0.098366946 -0.029283293 0.13307488 0.10639976
0002a0 08 79 15 3e 07 e8 96 bd fd 70 bc 3d cd ba 5c 3d
       0.14596951 -0.073684745 0.09201238 0.053889085
0002b0 fe fa 93 bd b5 38 14 be 3e 68 b7 bd 46 c8 26 3e
       -0.07225607 -0.14474757 -0.089554295 0.16287336
0002c0 95 7f 20 be c9 46 d1 bd 8f ed 02 3e a1 1c 61 bd
       -0.15673669 -0.10218579 0.12785934 -0.054958943
0002d0 13 09 7a bd 1a d6 d8 bd 71 72 16 3e 20 d1 22 be
       -0.06104381 -0.10587712 0.14692093 -0.15900087
0002e0 e1 88 0e be af 46 11 be d5 cc 1d 3c 3c 70 49 3c
       -0.13919403 -0.1418712 0.009631355 0.012294825
0002f0 13 37 83 bd 5e 59 f5 3d c4 85 61 3c 17 80 1d be
       -0.06406989 0.11979936 0.013764802 -0.15380894
000300 6b 33 fd 3d 12 98 3e 3d e3 4a 46 bd 68 7f 28 be
       0.12363323 0.046531744 -0.04841126 -0.16454852
000310 ff 78 04 3d f9 26 dc bc 53 39 c7 bd 6b 5d 2e bd
       0.032341953 -0.026874052 -0.097277306 -0.04256956
000320 28 f7 b9 3c 18 c9 12 3e 81 6b 03 3e 6f 2d a8 bd
       0.022700861 0.14334524 0.12833978 -0.08211791
000330 b5 81 83 3d 09 9e 03 3e 4e 9d 85 3d c5 e1 2a be
       0.06421224 0.12853254 0.06524144 -0.16687687
000340 86 b7 0e bd 55 5b 99 3d 4c cc 1a bc 84 73 c7 3c
       -0.03484299 0.07488123 -0.009448122 0.024347074
000350 01 07 b1 bc 08 56 01 be b6 75 f6 3d e7 9b 05 3c
       -0.021609785 -0.12630475 0.1203417 0.008154846
000360 b5 53 52 bd 2f 11 b2 bc 1c b6 83 bd 2a 28 03 be
       -0.05134936 -0.02173671 -0.06431219 -0.1280829
000370 d2 f1 72 3d 5b 1d c4 3d 16 7a 1d 3e 22 27 07 bd
       0.05931265 0.095759116 0.15378603 -0.032996304
000380 b5 ce 23 3e 9f ca 86 bd 5a 75 23 be 7d 28 55 bd
       0.15996821 -0.06581616 -0.15962735 -0.052040566
000390 e3 8e d7 3d cf 97 fa bd ac f9 12 be 36 ee 45 bb
       0.105253 -0.122359864 -0.14353055 -0.00302018
0003a0 94 9f c1 3d 1c e5 73 3d d3 30 80 3d 3d 38 41 bd
       0.09454265 0.059544668 0.062593125 -0.047172774
0003b0 9e 99 42 bc 8d 67 5e bd 87 7f f1 3d f1 3a 05 3e
       -0.0118774455 -0.054297972 0.11791902 0.13010766
0003c0 30 ba 07 3d d7 ac c0 bd e7 4c 0a bd 4e ee 0d bd
       0.033136547 -0.094079666 -0.033764746 -0.034651093
0003d0 cb 16 1f be 7a 51 23 bd c4 65 27 bd 63 c0 22 3d
       -0.15536039 -0.039872624 -0.040868536 0.039734256
0003e0 25 82 d2 bd 63 d1 11 be d8 b4 12 3e c2 0a 27 be
       -0.10278729 -0.14240031 0.14326799 -0.16312698
0003f0 79 75 2d 3e 8f 23 0f 3e 55 33 dd 3d 95 bf 14 be
       0.16939344 0.13978408 0.108008064 -0.14526208

encoder.2.weight f4 [256, 256]
000000 08 34 9f bc ec 20 3b 3d 00 f0 d2 bc 5c 2f 4b bd
       -0.01943399 0.045685694 -0.025749207 -0.049605712
000010 e0 90 81 3c 68 e8 44 3c 00 1c dc bc e6 b5 03 bd
       0.015816152 0.012018301 -0.02686882 -0.032155894
000020 8c 6c 5b 3d 10 f2 29 3c 08 44 e1 3c e0 58 41 3b
       0.053570315 0.010372654 0.02749826 0.0029502437
000030 20 63 88 3b 30 a6 7b bc 6c 9e 82 3c e0 8b 4f 3d
       0.0041622072 -0.015359446 0.015944682 0.050670505
000040 f4 2e 0e bd 66 96 5f bd 5c fe a5 3c d6 51 3e 3d
       -0.034712747 -0.05458679 0.02026289 0.046464764
000050 16 34 0b bd e4 6e 7c bd d4 6a dd 3c f4 3d 89 3c
       -0.03398522 -0.06162919 0.027028479 0.016753174
000060 a0 22 c8 bc 60 47 3c bd e8 b2 c0 bc f8 8b b7 bc
       -0.024430573 -0.045966506 -0.02352281 -0.02240561
000070 3c 93 9f 3c ee 7e 41 bd 66 cd 4c bd cc 39 3a bd
       0.019479387 -0.04724019 -0.05000057 -0.045465276
000080 c2 cc 74 3d 6c 0c 80 bc 7c f2 0d 3d 94 9c bb 3c
       0.059765585 -0.015630923 0.03465508 0.02290181
000090 ba 23 33 bd 0a 53 36 3d d8 38 c2 3c 32 06 44 bd
       -0.043735243 0.044512786 0.023708746 -0.04785747
0000a0 08 f4 7b bc da 28 35 3d a0 e6 07 3b 7c c8 56 bd
       -0.015378006 0.044228412 0.0020736828 -0.05243729
0000b0 a0 35 3c bb cc 2d ef bc e6 d8 69 bd d0 e6 87 bb
       -0.0028718486 -0.029196642 -0.057091616 -0.004147388
0000c0 c6 d6 5f bd f0 e7 cc 3c 0c 47 2f bd 2e a1 77 bd
       -0.054648183 0.02501294 -0.042792365 -0.060456447
0000d0 9c a0 29 3d a0 a5 97 3c ec 93 44 3d 14 7f cd 3c
       0.041412935 0.018511593 0.04799263 0.02508501
0000e0 a8 24 32 3c 88 2d 10 3d c6 c9 44 3d d4 36 16 bd
       0.010872997 0.035199672 0.04804399 -0.036673382
0000f0 40 30 0e bb b8 c5 49 bd 40 18 13 3b b4 10 cb 3c
       -0.002169624 -0.049260825 0.0022444874 0.024788238
000100 7a 4a 34 bd 68 fe 45 bc c8 79 04 3c 2c c0 e1 bc
       -0.04401634 -0.012084581 0.008085676 -0.027557455
000110 40 38 5a bc 40 06 6d bb 50 e6 02 bc a4 ab 52 3d
       -0.013319075 -0.0036167055 -0.007989481 0.05143322
000120 a2 08 59 bd e0 1b 8b 3c a4 dc a4 3c 50 cc d3 3b
       -0.05298675 0.016981065 0.02012474 0.006463565
000130 b4 8a 64 3d 40 e6 69 3d d2 b2 4e 3d fe 4d 0a 3d
       0.05579634 0.05710435 0.050463505 0.033765785
000140 d0 f4 9a bc 70 0b 6c bd c4 78 94 bc 20 07 50 bc
       -0.018915564 -0.057628095 -0.018123992 -0.012697011
000150 28 98 74 bd 80 17 34 3c 40 56 b7 bb 5e a6 04 bd
       -0.05971542 0.010991931 -0.0055949986 -0.032385223
000160 7c 5f 0c bd c0 7d 73 3d 2e 10 6f 3d 7e 2e 2b 3d
       -0.03427075 0.059446096 0.05836504 0.041792385
000170 28 56 d0 bc 9c 2e 33 bd 58 14 b3 3c 3c 0e 2b 3d
       -0.025431708 -0.043745622 0.021860287 0.04176162
000180 38 56 1d bc 60 18 41 3c 60 4b 83 bc d0 6d 66 bc
       -0.009603076 0.011785597 -0.016027153 -0.014064267
000190 5c b7 4f bd 60 49 27 3d 60 81 bc bc f8 e7 ca 3c
       -0.050711975 0.04084146 -0.02301091 0.024768814
0001a0 c8 eb 54 3d 00 a8 6c 3a e2 26 7c bd 78 7e 01 bc
       0.05198267 0.00090277195 -0.06156052 -0.007903688
0001b0 6a 99 28 3d 00 b4 fb 3c 90 5f 5a 3d 7c 34 6d bd
       0.041161932 0.03072548 0.05331379 -0.05791138
0001c0 16 0c 78 bd 18 48 d3 3c 18 14 de bc f8 90 7c bd
       -0.0605584 0.025791213 -0.02710919 -0.06166169
0001d0 ce 00 55 3d 2a 97 72 bd 74 c5 79 bd 0e b1 65 bd
       0.05200272 -0.059226193 -0.06097932 -0.056077056
0001e0 b8 a2 70 bc 24 66 19 3d ce a7 2a 3d 60 8b 8e bc
       -0.014687233 0.037450925 0.041663937 -0.017400444
0001f0 b0 7d 1e 3d 1a 42 67 3d 38 7b 4b 3c 86 13 6a bd
       0.038694084 0.056459524 0.012419514 -0.057147525
000200 88 80 48 bd 84 6d a4 3c e0 27 f4 bc f0 f8 b6 bc
       -0.048950702 0.020071752 -0.02980417 -0.0223355
000210 90 4e 2e 3d 9c 00 c5 3c 3c 84 fe 3c a8 14 6f bc
       0.04255539 0.024048142 0.031068914 -0.014592327
000220 66 8d 1d bd 24 89 99 bc 18 97 03 3c 16 15 4d bd
       -0.038464926 -0.018742152 0.008031629 -0.050068937
000230 e0 78 66 bb ce 32 3b bd a8 05 0d 3c 4e b6 12 3d
       -0.0035167262 -0.045702748 0.008607306 0.03581839
000240 60 d8 0b 3b d0 6e 03 3d be a4 54 3d ce 9c 08 bd
       0.0021338686 0.0320881 0.051914923 -0.033352666
000250 12 9a 0f 3d c8 dc 6c bd d8 ae 39 3d 1c d2 34 3d
       0.035059042 -0.05782774 0.04533276 0.04414569
000260 f6 f4 28 bd 1a 96 25 bd ce 9a 73 3d 60 65 81 bc
       -0.041249238 -0.04042635 0.059473805 -0.01579541
000270 f8 a7 6a bd b6 7c 19 3d 36 b7 09 bd 88 1f 52 bc
       -0.057289094 0.03747245 -0.03362199 -0.0128249
000280 16 34 24 bd 02 62 0a bd d8 cd 2c 3c 00 ee c7 bc
       -0.040088736 -0.033784874 0.010547124 -0.02440548
000290 1c f9 78 3d 80 00 47 bd 20 50 4e bd 50 a6 24 3c
       0.060784444 -0.04858446 -0.050369382 0.010049418
0002a0 62 3e 77 3d e8 88 05 bc 98 38 35 3d a8 e9 2b 3d
       0.060362227 -0.008150317 0.044243425 0.04197088
0002b0 c0 5c 52 3d e4 52 94 bc 4a 53 23 3d 90 96 f5 bb
       0.051357985 -0.018105932 0.039874353 -0.007494755
0002c0 e0 b9 9b bc a8 cb 9c 3c 7c 24 ab 3c 58 85 51 bd
       -0.01900953 0.01914008 0.02089142 -0.051152557
0002d0 fc 69 2f 3d 92 bd 45 bd de dc 6d bd 00 e8 8b bc
       0.042825684 -0.04827649 -0.058071963 -0.0170784
0002e0 a4 a0 7f 3d 7a b6 01 3d e4 84 24 bd b2 cc 06 3d
       0.06240906 0.031668164 -0.040165797 0.032910056
0002f0 cc fd c1 3c 48 e0 44 3c a8 98 41 3d 88 90 54 bd
       0.02368059 0.012016363 0.047264725 -0.05189565
000300 a8 35 37 bd 20 2a 71 3d 3e 1c 30 bd 40 a4 50 bc
       -0.044728905 0.058878064 -0.042995684 -0.012734473
000310 00 d0 97 ba a0 26 f2 3c 20 d8 af bb 5c 05 90 bc
       -0.0011582375 0.029559433 -0.0053663403 -0.01758068
000320 e0 5d b8 bc ce c1 10 3d b6 02 57 3d ba f8 53 bd
       -0.0225057 0.035341077 0.05249282 -0.051750876
000330 50 ce 20 bd 90 3f 9c 3c 00 70 c9 3b 2c eb 26 3d
       -0.039259255 0.019073278 0.0061473846 0.04075162
000340 96 f2 3c bd 9e 4a 3c bd 5a 98 1e bd 58 20 e5 3c
       -0.046129785 -0.045969598 -0.038719513 0.027969524
000350 64 d7 19 bd 88 98 9b 3c 8c 00 51 3d 90 46 4f 3d
       -0.037558928 0.018993631 0.051025912 0.050604403
000360 00 2d f2 bb 78 55 5c bc 50 77 69 3c ae a6 01 bd
       -0.0073906183 -0.013448112 0.014249638 -0.0316531
000370 c0 1e a1 3c 9a dc 18 bd a0 64 2b 3c 80 bc 7e 3b
       0.019667983 -0.037319757 0.010461003 0.003886968
000380 f4 a1 c8 bc 06 7a 14 bd fc d4 31 3d 3c 41 4e bd
       -0.024491288 -0.036249183 0.04341601 -0.05035518
000390 90 fb d3 bb c6 9f 4c 3d fe f7 76 3d 70 77 bd bc
       -0.0064691976 0.04995706 0.060295098 -0.023128241
0003a0 80 fe 40 bb 40 81 95 ba 40 e4 72 3b 62 93 70 3d
       -0.0029448569 -0.0011406317 0.0037062317 0.058734305
0003b0 ea bb 14 3d f2 e9 4d 3d b0 a4 bd 3b 86 61 54 3d
       0.03631202 0.050271936 0.0057874545 0.051850818
0003c0 60 2b 90 bc b4 5c 1d 3d 54 83 8e 3c c0 fb 8d bb
       -0.017598808 0.038418487 0.017396607 -0.0043329895
0003d0 5a e5 60 3d d6 53 37 3d 20 a9 49 bd 84 8e da 3c
       0.054906227 0.044757687 -0.049233556 0.026679285
0003e0 a6 23 63 bd fc 87 36 bd d8 8b 28 3d e6 89 07 3d
       -0.05545392 -0.04456328 0.04114899 0.033090495
0003f0 b0 49 5c 3d 40 fb 27 3b 00 60 1e bd a8 16 3e 3c
       0.05378121 0.0025631934 -0.03866577 0.011602081

encoder.2.bias f4 [256]
000000 d8 7c 0b bc d2 2c 5c bd 8a 44 5b 3d e4 1e ec bc
       -0.008513652 -0.05375368 0.05353216 -0.028823324
000010 a4 a4 62 bd 60 f9 27 bd a0 3e 4b bd 54 54 92 3c
       -0.055332795 -0.041009307 -0.04962027 0.017862476
000020 6e e2 4d bd 62 eb 6c bd 22 62 38 bd 10 4b 88 3b
       -0.05026477 -0.057841666 -0.04501546 0.004159339
000030 3e 3b 60 bd dc ad 7f 3d e8 a4 08 3d e0 7e 62 bb
       -0.054743998 0.062421665 0.03336039 -0.0034560487
000040 58 19 9f bc 40 41 ac 3b 60 69 81 bb c8 b0 bd bc
       -0.019421265 0.005256802 -0.0039493293 -0.023155585
000050 92 c5 54 bd 9c 77 d3 3c 00 71 2e 3c c8 6c e9 bc
       -0.05194623 0.02581387 0.0106470585 -0.028494254
000060 aa 98 6f 3d ae aa 0b 3d cc 04 d6 3c a0 a1 70 bd
       0.0584952 0.03409832 0.026125334 -0.058747888
000070 30 07 a0 bb 62 41 27 3d 84 cc d5 bc f6 d7 6d bd
       -0.0048836693 0.04083384 -0.026098497 -0.058067285
000080 a0 67 63 bd 90 a8 50 bc 70 19 e2 3c 14 9f 86 3c
       -0.055518746 -0.012735501 0.02760002 0.016433276
000090 2e de 15 3d 9c 9b 57 3d e4 b4 53 bd e4 47 e3 3c
       0.03658884 0.052638635 -0.051686183 0.027744241
0000a0 06 f4 23 3d 60 c6 45 3c 84 e1 8a bc 9a 47 2d bd
       0.04002764 0.012071222 -0.016953237 -0.042304613
0000b0 16 22 0e bd fc b5 33 3d 0a 2e 29 bd 64 6e 46 3d
       -0.034700476 0.043874726 -0.041303672 0.04844512
0000c0 c0 62 aa 3b 70 8c 14 3d 8c 85 26 bd 44 03 50 bd
       0.00519976 0.036266744 -0.040654704 -0.050784364
0000d0 70 6d 32 bd dc 22 e2 3c 30 24 6c 3c 2e d9 0c bd
       -0.0435614 0.027604513 0.014412925 -0.034386806
0000e0 f2 b0 63 bd c0 11 7d bd 44 00 b5 3c 62 9d 04 bd
       -0.05558867 -0.061784506 0.022094853 -0.032376654
0000f0 3a 27 63 3d a0 83 34 3c be 3f 00 3d 00 05 64 bc
       0.05545733 0.01101771 0.03131079 -0.013917208
000100 ce d0 4f 3d 0c 9a ff bc ee c6 06 3d 00 95 b8 3b
       0.05073624 -0.031201385 0.032904558 0.0056329966
000110 04 0c a7 bc bc 6e 51 3d ae 6a 78 3d 6a 3a 70 bd
       -0.020391472 0.051130995 0.060648613 -0.058649458
000120 e0 0e de bc 40 0b d4 3c d8 c5 77 3d 40 30 e7 3b
       -0.027106702 0.02588427 0.060491413 0.0070553124
000130 a0 c6 40 bc 1a d8 1c 3d 98 e9 a9 3c d8 1d de bc
       -0.011766106 0.038292028 0.020741269 -0.02711384
000140 9e b4 47 bd 3c 31 2e 3d 5a af 71 3d 90 b3 5d 3d
       -0.048756234 0.042527422 0.05900512 0.054126322
000150 1c 63 2a 3d 40 1f b1 3c 48 f1 0e bc a8 00 5f bc
       0.041598424 0.021621346 -0.008724518 -0.013610996
000160 78 19 1a bd d8 9f ee bc 14 1a 2c 3d 80 51 34 3a
       -0.037621945 -0.029128954 0.042017058 0.00068785995
000170 60 b1 43 bd 92 15 4b bd 06 aa 59 bd a8 05 0c bd
       -0.04777658 -0.049581118 -0.053140663 -0.03418508
000180 be d4 08 bd 5e c1 29 bd 58 81 e0 bc 8c a6 b3 3c
       -0.03340601 -0.041444175 -0.027405426 0.021930002
000190 02 90 7d bd 1c c0 c5 3c 58 2f 3c bd f0 2f 27 bc
       -0.061904915 0.024139456 -0.045943588 -0.0102043
0001a0 e8 8a 8c 3c 68 f8 70 3d 7e 85 25 3d 24 33 6c bd
       0.01715608 0.05883065 0.04041051 -0.05766596
0001b0 1e 0a 01 bd 38 4a 73 3d e8 f6 e9 bc 92 dc 2d 3d
       -0.03150379 0.059396952 -0.028560117 0.04244668
0001c0 b4 ef 69 3d 60 44 33 bb 2c 10 50 3d e0 b9 50 bc
       0.057113364 -0.0027353987 0.050796673 -0.012739629
0001d0 b6 75 23 bd 9c 3d 8d 3c f0 fd 79 bc f8 54 4b bd
       -0.03990718 0.017241292 -0.015258297 -0.04964158
0001e0 e0 ae 0d bb ae 36 07 bd e4 4f eb bc c8 0b 45 3d
       -0.0021619126 -0.03301113 -0.028724618 0.04810694
0001f0 98 4d 95 bc 00 06 2b b9 d2 15 4a 3d 7e af 3e bd
       -0.018225476 -0.00016310066 0.049337216 -0.04655408
000200 be f4 52 bd f2 ea 11 bd 40 d8 b8 3c 10 2c c4 3b
       -0.051502936 -0.035624452 0.022564054 0.005986698
000210 1c 0a 12 3d 34 cd 82 3c dc ad 2f bd c4 09 6c 3d
       0.035654172 0.01596699 -0.042890415 0.0576265
000220 9c 8f 3f bd dc 85 97 3c 70 08 83 3b 1a bf 28 3d
       -0.046767816 0.018496446 0.0039988086 0.041197874
000230 84 3d d3 bc 88 76 a9 3c 90 85 c1 3b b0 8c d6 bc
       -0.025786169 0.020686403 0.0059058145 -0.026190132
000240 08 51 52 3c 38 ea d7 3c bc a4 b7 bc ea bd 5c bd
       0.012836702 0.026356801 -0.022417419 -0.053892054
000250 88 63 11 3c de e0 61 bd f0 b1 ba 3c 20 fb 20 bd
       0.008873828 -0.05514609 0.022789925 -0.03930199
000260 10 89 c0 bb c0 43 3b bc d8 f8 a6 3c d0 0f 9b 3c
       -0.005875714 -0.011429727 0.02038233 0.018928438
000270 9c 07 dc bc 36 37 1f bd 72 dd 0c 3d 68 80 5f bd
       -0.026859097 -0.038871013 0.034390874 -0.054565817
000280 da 00 1f 3d 12 8d 08 3d 24 1c 96 bc da e3 2c bd
       0.03881917 0.03333766 -0.018323965 -0.042209484
000290 e0 e4 99 3c f0 91 7f 3d e0 19 11 3d c6 4a 16 3d
       0.018785894 0.062395036 0.035425067 0.036692403
0002a0 40 58 f5 bb b2 85 73 bd c8 97 04 3d 68 b6 bd 3c
       -0.007487327 -0.059453674 0.032371312 0.023158267
0002b0 90 46 14 bc c0 e4 9c bc 5c 1c ca bc 40 70 75 bd
       -0.009050027 -0.019152045 -0.024671726 -0.059921503
0002c0 86 a0 1d bd 58 8a 04 3d d0 72 f4 3b 5c e4 59 3d
       -0.038483165 0.032358497 0.007459976 0.053196296
0002d0 6c 5a f7 bc 04 9e 1b 3d ca 96 65 3d 6a 48 0a 3d
       -0.030194484 0.037992492 0.056052007 0.033760466
0002e0 5a d5 5d 3d 48 18 7e bd d0 22 bb bc 98 72 5b 3c
       0.054158546 -0.062034875 -0.022843748 0.0133940205
0002f0 8a 31 36 bd 08 f8 ab 3c b8 63 30 bd 02 e1 52 bd
       -0.044480838 0.020992294 -0.04306385 -0.051484115
000300 de 97 19 3d a8 c5 a7 3c b8 40 58 3c 40 1e f1 ba
       0.037498347 0.020479992 0.013199024 -0.0018395856
000310 b6 9b 76 bd d2 69 1c 3d 50 cb 82 3c 00 cc 09 b9
       -0.06020709 0.038186856 0.015966088 -0.00013141334
000320 4c 5c 3c bd b2 93 2e 3d 56 0d 75 bd 34 ca 96 bc
       -0.04598646 0.042621322 -0.05982717 -0.018406965
000330 60 5e 19 3c 60 ec a7 bc 66 65 0d bd a0 1d 5b bc
       0.00936088 -0.020498455 -0.03452053 -0.013373762
000340 b8 23 fd bc 70 6f d0 3c bc ab 3a bd 14 41 cc 3c
       -0.030900821 0.025443763 -0.045573935 0.024933375
000350 84 e7 9d bc a0 b8 35 3d 72 b2 49 bd 40 a8 bd bc
       -0.019275434 0.044365525 -0.049242444 -0.023151517
000360 04 a5 8f bc a8 5c 75 bd fa bf 6f bd 80 19 22 3c
       -0.01753474 -0.059902817 -0.058532692 0.009893775
000370 f0 a9 1d bd 38 f6 42 bc 40 82 a2 3c 70 ed b1 3c
       -0.038492143 -0.011899523 0.019837499 0.021719664
000380 0a 6e 09 bd 68 15 f7 bc d8 d7 15 3d a0 c0 30 3d
       -0.033552207 -0.030161574 0.036582798 0.04315245
000390 68 4e 39 bc 52 ce 7f bd d8 13 7b bd d0 04 1f 3d
       -0.011310197 -0.06245262 -0.06129822 0.03882295
0003a0 b0 87 cf bc 30 8d d1 bc 00 4c aa b8 e0 ee 84 bb
       -0.025333256 -0.025580019 -8.120388e-05 -0.0040567964
0003b0 76 f3 7f 3d 0c 45 25 bd 00 4d a5 bc 92 8a 19 3d
       0.06248804 -0.04034905 -0.020178318 0.037485667
0003c0 00 b8 e6 bc b8 6b 23 3c 92 09 46 bd 42 67 50 3d
       -0.02816391 0.009974413 -0.04834897 0.050879724
0003d0 5c 80 c9 3c e0 16 56 bd 7c 19 42 bd a0 95 f3 bc
       0.02459734 -0.05226791 -0.047387585 -0.029734433
0003e0 94 9f 1a bd 6a 66 75 3d b0 f7 be 3b c0 6a 40 3d
       -0.03774984 0.059912123 0.0058278665 0.046976805
0003f0 b4 49 15 3d 2a d2 79 bd 46 3a 71 3d d0 9b e2 3b
       0.036447242 -0.060991444 0.058893465 0.006915547

fc_mu.weight f4 [8, 256]
000000 a6 c8 67 3d 34 1b 6d bd 1e 32 09 3d 14 05 4b 3d
       0.056587838 -0.05788727 0.03349506 0.04956539
000010 80 6d 1b 3d 7a 92 63 3d e8 d9 51 bc 20 6f d7 3b
       0.037946224 0.055559613 -0.012808301 0.0065745264
000020 34 0c 67 bd bc 10 ce 3c 00 4b 7c bc 36 52 5d 3d
       -0.056408122 0.025154464 -0.015398741 0.05403348
000030 58 67 30 3d 02 e2 33 3d 68 11 a3 bc 10 10 63 bc
       0.043067306 0.04391671 -0.01990576 -0.01385881
000040 b4 64 7d bd 38 35 ef bc 52 66 49 3d a8 eb bb bc
       -0.061863616 -0.029200181 0.049169846 -0.022939518
000050 80 72 fb 3c 00 42 06 3d ba 2f 58 bd 46 8c 15 bd
       0.030694246 0.032777786 -0.05277989 -0.03651073
000060 2c c2 d0 3c 02 17 7f 3d 76 f6 5d bd 28 ef 18 3c
       0.025483213 0.0622778 -0.05419012 0.009334363
000070 20 f0 e0 3b 50 4b ee bc 62 f9 36 bd 92 5c 22 3d
       0.0068645626 -0.029088646 -0.044671424 0.039639063
000080 b4 16 b0 3c 40 4a 37 bd e8 40 69 3d e8 41 ff bc
       0.0214952 -0.044748545 0.056946665 -0.031159356
000090 36 34 5b bd 78 c8 26 3c d8 f3 ec bc 5e b4 49 3d
       -0.05351659 0.010179631 -0.028924868 0.049244277
0000a0 26 45 46 3d e8 0a 77 bc 44 8d d7 bc dc ff 90 bc
       0.04840579 -0.015078284 -0.026312478 -0.017700128
0000b0 a0 88 f7 3c 9a 8e 79 3d 72 b7 7f 3d 00 c5 cf b9
       0.030216515 0.06092701 0.062430806 -0.00039628893
0000c0 54 03 ee 3c c8 c6 9e 3c 00 04 4c 3d b0 25 02 bd
       0.029054321 0.019381896 0.049808502 -0.031774223
0000d0 00 9c 0e 3d 0a e3 51 bd 58 0f 58 bd b2 2d 6a bd
       0.034816742 -0.051241912 -0.052749008 -0.057172485
0000e0 46 0e 6b 3d 28 c9 36 3c 1e f2 19 3d 10 7e 54 bd
       0.05738666 0.011156358 0.037584417 -0.051878035
0000f0 6c 48 b2 3c de bb 26 3d 60 c8 2f 3d 40 8b 55 bd
       0.021763049 0.040706508 0.042915702 -0.052134752
000100 7a af 3b bd 14 cd 67 3d 10 92 ad 3c 94 fe e6 3c
       -0.045821644 0.056592062 0.021187812 0.028197564
000110 3a 34 2f 3d dc 34 78 bd ce ce 0e 3d c0 99 c7 bc
       0.042774417 -0.060597286 0.034865193 -0.024365306
000120 28 91 6e bc 48 10 bc bc c2 44 15 bd a0 54 60 bd
       -0.014560975 -0.022956982 -0.036442526 -0.054768205
000130 ba d2 3b bd 10 24 b2 bb ec 76 b6 3c 38 cf 41 bc
       -0.04585526 -0.005436428 0.022273503 -0.01182919
000140 20 a2 19 bc 50 91 e6 3c f4 a6 e4 bc e8 31 14 3d
       -0.0093770325 0.028145462 -0.02791164 0.036180407
000150 6e 3a 63 bd 78 22 5b 3d 78 8c 4d bd de f8 5f 3d
       -0.055475645 0.05349967 -0.05018279 0.054680698
000160 90 34 7a 3c 94 53 c7 bc 30 cc 0d 3c 30 0e 7a bd
       0.015271321 -0.024331845 0.008654639 -0.061048687
000170 a8 5c cc 3c 9c f3 f0 bc 24 17 82 3c 20 95 63 bc
       0.024946526 -0.029413037 0.015880175 -0.013890535
000180 d4 34 cc 3c 60 bd 2c bb 4a 0b 57 3d c0 53 2a bb
       0.024927534 -0.0026357993 0.052501 -0.002598986
000190 8c b8 85 3c 06 c6 02 3d 98 97 47 3c 5c 0e a0 3c
       0.01632335 0.03192713 0.012182139 0.019538097
0001a0 80 9a 2a bd c6 5d 4b 3d ce 36 50 3d ea 10 15 3d
       -0.04165125 0.049649976 0.050833516 0.036393084
0001b0 c8 10 a9 3c 96 d4 60 bd e0 ed fa bc 88 f3 5a 3d
       0.020637885 -0.054890238 -0.030631006 0.053454906
0001c0 04 c6 37 3d e4 fc ac 3c 30 f0 4a bc f2 41 16 3d
       0.044866577 0.021116681 -0.012386367 0.036683984
0001d0 08 64 ef bc dc c0 22 bd 78 ad 2f 3c 06 3c 79 bd
       -0.029222503 -0.039734706 0.0107225105 -0.06084826
0001e0 fc 25 9a 3c 80 90 06 3b 6a 38 5d bd e0 aa 4d 3c
       0.01881694 0.0020532906 -0.05400888 0.012552947
0001f0 ee d8 72 3d 06 35 5f bd 6c f4 4d bd da d4 50 3d
       0.05928891 -0.054493926 -0.050281927 0.05098424
000200 80 34 6f 3c 0c 2c 27 3d 00 43 20 3b 0c f0 f3 3c
       0.014599919 0.04081349 0.0024453998 0.02977755
000210 b8 47 69 bd 30 54 6c 3d b6 e5 19 3d b8 f2 89 bc
       -0.056953162 0.057697475 0.037572585 -0.01683937
000220 00 0c 76 3b 3c fa 35 3d d8 3d 44 bc a4 a7 8f 3c
       0.0037543774 0.044428095 -0.011977635 0.017535992
000230 02 a9 48 3d ee f7 3c 3d 54 49 26 bd 2c 66 4a 3d
       0.048989303 0.04613488 -0.040597275 0.049413845
000240 78 ed 56 bc f8 10 45 3d c0 16 6a 3d 42 85 17 3d
       -0.01311814 0.048111886 0.057150602 0.03699232
000250 9c 53 77 3d 08 72 c9 bc d0 46 73 3d 08 7d 63 bd
       0.06038247 -0.024590507 0.059393704 -0.05553916
000260 64 ab e6 3c 7a b0 78 3d e0 df 32 3b 00 3e 50 3b
       0.028157897 0.060715176 0.0027294084 0.0031775236
000270 30 2d 60 bd 22 a9 2d 3d 58 de 01 3c 80 0f 78 3a
       -0.054730594 0.042397626 0.007926546 0.0009462759
000280 ba 8e 5b 3d d0 20 c6 bb d2 fb 22 3d 78 46 72 bd
       0.05360291 -0.006046392 0.039790936 -0.059149235
000290 c8 a1 31 bc 40 bb 7e 3d f8 96 73 bc bc 3a 3c 3d
       -0.010841794 0.062190294 -0.014867537 0.04595445
0002a0 78 a4 5a bd 9c 00 03 3d ee 2f 65 bd ec 66 82 bc
       -0.053379506 0.031983003 -0.055953912 -0.015918218
0002b0 a0 45 49 3b 40 2d 36 3c 38 79 a8 bc 94 00 e2 3c
       0.0030711666 0.011119187 -0.020565614 0.027588166
0002c0 b2 e4 44 3d fc 62 de 3c d0 b9 c1 3c cc 30 c7 bc
       0.048069663 0.027146809 0.023648173 -0.02431526
0002d0 14 ac 44 bd c0 57 91 3a 28 0d 2b bc 80 5c 94 3a
       -0.04801567 0.0011088774 -0.010440148 0.0011319071
0002e0 46 8b 67 3d e0 b1 08 3b 88 44 b3 bc fc 89 95 bc
       0.056529306 0.0020857975 -0.021883264 -0.018254273
0002f0 88 c1 53 3d 30 0d 94 3c 9c 9d 31 bd 94 a9 4c 3d
       0.051698238 0.018072695 -0.0433632 0.04996641
000300 64 23 28 3d b4 69 74 3d a0 aa af bb 2a f5 15 bd
       0.041049376 0.05967112 -0.0053609163 -0.03661076
000310 52 e8 5f bd 98 8d 78 bc 38 7e 7c bd fc cb e2 3c
       -0.054664917 -0.015170477 -0.06164381 0.027685158
000320 fc 37 af 3c d8 1f 86 3c 4c 4c b4 bc e4 71 d6 bc
       0.021389 0.016372606 -0.022009037 -0.026177354
000330 c4 3e 9d 3c 54 86 1c 3d ea 9f 3d 3d 4c e6 a8 bc
       0.019194968 0.038214043 0.046295084 -0.020617627
000340 68 51 18 3c 0a 45 1e bd 14 44 18 3d f8 31 d7 bc
       0.0092967525 -0.03864006 0.0371743 -0.026268944
000350 60 f1 d5 bb 02 3e 60 3d 36 74 6d bd 9e 01 5f 3d
       -0.0065290183 0.054746635 -0.057972156 0.0544449
000360 e8 f2 13 3d f0 2d 31 3d 88 4a 58 bc a2 ba 74 bd
       0.036120325 0.0432567 -0.013201363 -0.0597483
000370 8c 16 79 3d 84 8f 54 3d 5c 11 05 3d c0 eb 18 bb
       0.060812518 0.05189468 0.03248726 -0.0023333877
000380 5c 29 6e 3d a8 9d 21 3c 0e 92 3b 3d 98 11 06 bc
       0.058144912 0.009864248 0.045793585 -0.008182906
000390 f0 38 10 bc 28 7d fd bc 84 25 db 3c fa db 6d bd
       -0.008802637 -0.030943468 0.026751287 -0.058071114
0003a0 80 01 24 bc 00 c8 84 b8 40 c3 de 3c e2 a4 7c 3d
       -0.010010123 -6.3315034e-05 0.027192712 0.061680682
0003b0 44 25 0e 3d 28 38 20 bd 64 86 13 bd 00 0c a3 3b
       0.034703508 -0.039116055 -0.036016837 0.0049757957
0003c0 94 7a 7c bd 50 a1 ce bc 1c e9 4c 3d 84 a9 3c bd
       -0.061640337 -0.025223404 0.050026998 -0.0460601
0003d0 54 17 b1 bc 6c 84 28 3d 70 87 8c 3c 02 63 73 3d
       -0.021617569 0.041141912 0.017154425 0.059420593
0003e0 5a c4 32 3d 4c c5 27 bd 20 7e 41 3c 6c 75 06 bd
       0.043644287 -0.04095964 0.011809856 -0.032826826
0003f0 30 4f 0c 3c 0a 0d 34 bd b0 55 0b 3d 8c 6f 22 3d
       0.008563802 -0.043957748 0.034017265 0.03965716

fc_mu.bias f4 [8]
000000 dc 08 91 3c 38 c3 11 bd 80 2a f7 3c f0 ec 2f bd
       0.01770442 -0.035586566 0.030171633 -0.04295057
000010 32 ca 6a bd 80 66 7f 3a 7c 4e 1e 3d f0 a7 30 3d
       -0.057321735 0.0009742752 0.038649067 0.043128908

fc_logvar.weight f4 [8, 256]
000000 08 bf 15 3d b8 8c 71 bc e8 1b 13 bd 62 3f 0d bd
       0.036559135 -0.014743023 -0.035915285 -0.034484275
000010 6c e2 b9 bc ea 12 7c 3d 3a 81 3a 3d f0 4c a8 bc
       -0.022690974 0.061541475 0.045533396 -0.0205445
000020 f8 15 40 3d 18 46 15 bd 20 a2 26 bc f2 63 2c 3d
       0.04689595 -0.0364438 -0.01017049 0.042087503
000030 e0 3b 14 3c 84 72 1c 3d 28 db 0f bc 98 f9 3b bd
       0.009047478 0.038195148 -0.008780278 -0.045892328
000040 00 e9 fb 3a f8 b0 34 3c b4 f4 8b 3c f4 ef c7 3c
       0.001921922 0.011028521 0.017084457 0.02440641
000050 4c b0 6a bd 14 3a 32 bd 80 49 ae bb 84 a7 c5 3c
       -0.057297036 -0.04351242 -0.0053188205 0.02412773
000060 ee 24 5a 3d 9a 0a 43 bd 08 de 42 3d 6c 30 d5 bc
       0.053257875 -0.047617532 0.047575027 -0.026024066
000070 a0 db 42 3c 50 86 21 bc 50 df ba 3c a0 40 9a bb
       0.011893183 -0.009858683 0.022811562 -0.004707411
000080 1e af 6d 3d 2a e9 7f bd 1a e1 2b 3d f6 75 02 3d
       0.058028333 -0.062478222 0.04196272 0.031850778
000090 84 36 4a 3d 10 a2 5d 3d 60 30 17 bb 30 c1 7f 3d
       0.049368396 0.054109633 -0.0023069605 0.062440097
0000a0 b4 c3 c9 3c 0c d6 0d bd 80 05 09 3c da 27 3d 3d
       0.024629451 -0.03462796 0.008363128 0.046180584
0000b0 f0 e8 12 bc 40 64 3a bd e0 fe a6 bb 26 ea 1a 3d
       -0.008966669 -0.045505762 -0.0050963014 0.037820958
0000c0 e0 be f6 3b 52 a7 0f 3d 08 9a 77 3c 40 05 fa ba
       0.0075300783 0.03507168 0.0151124075 -0.0019075051
0000d0 f2 e2 56 bd 5e eb 2f 3d a8 70 86 bc 7e 85 28 3d
       -0.052462526 0.042949073 -0.01641114 0.041142933
0000e0 1c 5d 4f 3d c8 c4 78 3c 90 db 57 bd d8 6c a4 bc
       0.050625905 0.015183635 -0.052699625 -0.020071432
0000f0 30 ea f4 bc b0 5a 4c 3c 20 64 b9 bb 24 86 39 bd
       -0.029896826 0.012472793 -0.005657688 -0.045293942
000100 d6 8f 2c bd f8 ba 92 3c 7a fa 3c 3d 00 14 ce b8
       -0.04212936 0.01791142 0.04613731 -9.826571e-05
000110 9e cc 03 bd 80 a8 f4 bb f8 6b 7f 3c 5e 8f 7a bd
       -0.03217756 -0.007466376 0.015589707 -0.06117188
000120 6c 6c bd 3c 9c e3 2d bd 44 40 3c 3d 0c ae a4 bc
       0.023122989 -0.042453393 0.045959726 -0.020102523
000130 3c 5d a0 bc 56 f1 2d 3d e4 cb 63 3d 20 49 eb 3c
       -0.019575708 0.042466484 0.055614367 0.028721392
000140 4c 98 db bc 3a ca 27 3d 48 34 19 bc b0 34 06 bc
       -0.02680602 0.040964343 -0.009350844 -0.008191273
000150 c0 e8 60 bc 6c 0a 80 bc 8a 95 51 3d 00 2a c8 3c
       -0.013727367 -0.01562997 0.051168002 0.02443409
000160 78 c0 c2 bc 30 34 96 bb ca 9f 3e bd 80 f3 3f bd
       -0.023773417 -0.004583858 -0.046539105 -0.04686308
000170 f0 63 eb bb fc 21 4b bd c0 20 77 bd 94 08 1c bd
       -0.0071835443 -0.049592957 -0.060333967 -0.03809412
000180 78 89 25 3c a4 8d b2 bc a8 2d 05 3c e4 b4 69 3d
       0.010103576 -0.021796055 0.008128561 0.057057276
000190 74 c3 82 bc 6e 2a 25 bd cc 4d c9 bc 48 c7 6c bc
       -0.01596234 -0.040323667 -0.02457323 -0.014451809
0001a0 10 f3 16 3c 50 7b 49 bd 80 88 17 bb 38 ee 46 3d
       0.009213224 -0.049189866 -0.0023122132 0.048567027
0001b0 50 09 52 bd 7a aa 14 3d fe 73 6a bd 3c 9e 7c bd
       -0.051278412 0.03629539 -0.057239525 -0.06167434
0001c0 38 2e 76 bc c0 94 4d 3d b8 8c f1 3c 20 2f 44 3b
       -0.015025668 0.050190687 0.029486045 0.0029935315
0001d0 24 67 1c bd c0 86 fb ba 60 4e 8a bb f6 02 23 3d
       -0.0381843 -0.0019189939 -0.004220769 0.039797746
0001e0 b8 b9 0b bc d4 f9 ab bc 08 6f 3e 3c 86 0a 2d bd
       -0.0085281655 -0.02099315 0.011623152 -0.042246364
0001f0 d0 8b 17 3c 50 c3 c5 bb be 72 12 bd b8 34 36 3c
       0.0092496425 -0.006035246 -0.035753958 0.011120968
000200 d8 bf 6c 3c 90 ad 82 3c 58 9b d4 3c e8 ed b8 3c
       0.014450036 0.015951902 0.02595298 0.02257438
000210 60 7c cb 3c 06 40 6f bd 90 42 ed bb 0a a0 55 3d
       0.02483958 -0.058410667 -0.007240601 0.05215458
000220 cc 1b 04 bd f8 c1 c3 bc 3e 19 6f 3d 90 8a 96 3b
       -0.03225307 -0.023896202 0.058373682 0.0045941547
000230 9a 35 0e 3d 76 f6 58 bd a0 48 9b bb 32 a9 22 3d
       0.034719087 -0.05296942 -0.004738882 0.03971214
000240 20 a2 d7 3b 00 00 80 b7 a8 34 1b bc 9e d1 29 3d
       0.006580606 -1.5258789e-05 -0.009473003 0.041459672
000250 e2 76 42 bd 62 86 11 bd e8 de ab 3c 00 5f e6 3b
       -0.047476657 -0.035528548 0.020980313 0.007030368
000260 fa 0a 7d 3d 40 15 4e 3b ac dd 2b 3d c4 ef d6 bc
       0.061778046 0.0031445771 0.04195945 -0.026237376
000270 90 cf 54 3d e8 6e 5b 3d 10 1c 7c bd 40 8a a3 ba
       0.05195576 0.053572565 -0.0615502 -0.0012477115
000280 a4 dd ce 3c 60 5b 6d 3d 54 fd 98 bc f2 de 49 bd
       0.02525217 0.05794847 -0.018675484 -0.049284883
000290 74 db 7f bd e0 ed 23 bb 40 04 c7 3c c0 18 b9 bc
       -0.062465146 -0.002501361 0.024294019 -0.02259481
0002a0 e0 f2 04 bc 1e 72 70 3d cc 21 c4 bc a8 72 86 bc
       -0.008114547 0.05870258 -0.023941897 -0.016412094
0002b0 90 11 eb 3c b6 a1 5a 3d 9e 26 51 3d 40 c1 11 bb
       0.028694898 0.053376876 0.05106222 -0.002224043
0002c0 e2 92 76 3d cc e0 4d bd 60 4b 62 bc 3e 1f 17 bd
       0.060198672 -0.05026321 -0.013811916 -0.03689503
0002d0 a8 60 e9 bc e4 42 55 3d 80 04 a6 bb e0 5d cd 3c
       -0.028488472 0.052065745 -0.0050664544 0.025069177
0002e0 b0 06 9c bb 80 14 bb bb 60 1f 33 3b 88 98 8b 3c
       -0.0047615394 -0.005709231 0.0027331933 0.017040506
0002f0 4e db 63 3d 10 b2 f0 bc 00 7d 3b 3c 74 68 10 3d
       0.055629067 -0.029381782 0.011443377 0.035255864
000300 d8 8a f6 bc 3e 3b 15 3d f0 3c ec 3b e6 54 58 bd
       -0.030095503 0.03643345 0.0072094128 -0.05281534
000310 b4 ae c9 3c d0 35 a6 bc f8 45 98 3c a4 d4 09 bd
       0.024619438 -0.020289332 0.018588051 -0.033650056
000320 e0 2a 40 3b 48 4e 4e bd 96 dc 20 bd 08 68 03 bd
       0.002932243 -0.050367624 -0.039272867 -0.032081634
000330 7c 1e 51 bd 06 68 4a 3d 88 4a 76 bc 0c 04 ed bc
       -0.051054463 0.04941561 -0.015032418 -0.028932594
000340 5c bb 2b bd a8 1a 7b 3d 30 00 08 bc 0a 50 3f 3d
       -0.041926727 0.06130472 -0.008300826 0.04670719
000350 10 bf dc bc b0 a6 46 3d d4 da b0 3c 30 6d d0 bc
       -0.026946574 0.04849881 0.02158872 -0.02544269
000360 90 47 c7 3b ea fb 31 3d 80 71 29 bc 26 ea 16 bd
       0.006081529 0.043453135 -0.010342002 -0.036844395
000370 26 aa 09 bd d0 2d 7b bc 98 50 38 3d 50 fb 59 3c
       -0.03360953 -0.015330747 0.044998735 0.0133045465
000380 4a 0c 07 3d 6e 2f 14 3d 8c bc ca bc 00 0f ab 3b
       0.032970704 0.036178045 -0.02474811 0.005220294
000390 e4 63 b7 bc a0 6a 6a 3c 10 10 16 bc 50 bf 19 bd
       -0.022386499 0.014307648 -0.009159103 -0.037535965
0003a0 e0 e1 58 bc d0 73 d4 bc 6c e2 cd bc 10 53 ee 3b
       -0.013237447 -0.02593413 -0.02513238 0.0072730854
0003b0 90 05 e2 bc e8 9e 22 bc 02 cc 73 bd 44 e8 65 3d
       -0.027590543 -0.0099255815 -0.05952073 0.05612971
0003c0 9e 6e 40 3d 70 88 bf bb 06 15 42 3d 20 02 a2 3b
       0.046980493 -0.005845122 0.04738333 0.004944101
0003d0 a8 8b 01 3c 38 a9 67 3d 00 6b 31 bc 42 dd 21 bd
       0.007906832 0.056557864 -0.010828733 -0.03951765
0003e0 80 99 4c bd ac 90 6c bd 2c a7 39 bd 08 5c 72 3c
       -0.049951077 -0.057755157 -0.045325443 0.01479245
0003f0 74 01 9c 3c ae be 4a 3d 40 1f fc bc 00 74 24 3b
       0.019043662 0.049498253 -0.03077662 0.0025093555

fc_logvar.bias f4 [8]
000000 18 aa 28 3c 8a 2d 04 bd 80 b6 1b 3d d8 90 37 3c
       0.01029446 -0.032269992 0.038015842 0.011203967
000010 48 d2 0e 3d 90 f5 5e 3d 6c 3c ea 3c 80 89 25 bc
       0.03486851 0.054433405 0.028593265 -0.010103583

decoder.0.weight f4 [256, 16]
000000 0a f8 2d be 78 df e8 3d c0 38 dd 3b 18 f9 88 be
       -0.1698915 0.11370748 0.00675115 -0.26752543
000010 38 cd 05 3e e1 c4 14 3e e3 f7 3d 3e ca 19 71 3e
       0.13066566 0.14528228 0.18551593 0.23544994
000020 32 d5 04 3d e8 23 51 bc 55 88 94 bd 6f d5 93 bc
       0.03242988 -0.012764908 -0.07252566 -0.018046109
000030 e5 26 7b 3b 80 9d 13 3e 77 f5 ed bd ed 7f 82 3d
       0.0038322743 0.1441555 -0.11619084 0.06372056
000040 f6 98 7b 3e 2c b7 34 be 58 1a 58 bd 54 02 38 3e
       0.24570069 -0.17648 -0.0527595 0.17969638
000050 0d 9b b9 be 1b e4 8d 3e 44 68 c4 3e 7a 87 65 3c
       -0.36251107 0.27713093 0.38360798 0.014009351
000060 e9 71 53 3d 67 d3 11 bd f2 c7 83 bd a0 41 d0 bc
       0.051622305 -0.035602 -0.06434621 -0.025421917
000070 1f 4e 83 bd 4f 51 05 3d 3b c4 85 3d 4b 11 f7 bc
       -0.06411385 0.032548245 0.065315686 -0.030159613
000080 00 bf e7 3c 96 3b 69 be 90 65 ae 3d c8 4c 4d bd
       0.028289318 -0.22776636 0.08515465 -0.050122052
000090 b1 53 a3 3b bb 46 56 3e ad 45 f3 bd 8f b6 10 bf
       0.004984342 0.20925419 -0.11878524 -0.5652856
0000a0 e8 9c 95 3b 42 1c a4 bc 66 b3 b8 3c 32 11 da 3b
       0.004565824 -0.020033006 0.022546481 0.006654882
0000b0 2e 7d ef 3a 77 16 35 3c 8c 0f e2 bb 06 c2 48 3a
       0.0018271559 0.011052719 -0.006898826 0.0007658306
0000c0 52 eb 0d 3e e0 b5 a6 3d 00 91 26 bc 0a 2f 90 be
       0.13859299 0.08140159 -0.010166407 -0.28160888
0000d0 b4 f1 a5 3e 1f 6a 4a bd 17 dc 06 3d 65 86 b3 3e
       0.32410967 -0.04941761 0.032924738 0.35063472
0000e0 9d 9c 9f bc b8 c1 f6 bd 4d 7e 02 be af 6a c5 bc
       -0.019483859 -0.12048668 -0.12743492 -0.024098722
0000f0 c5 ff 18 bd cf 58 be bd ad 19 85 bd 6f 58 51 3d
       -0.037353296 -0.09294283 -0.06499038 0.051109727
000100 d8 37 0b bd 90 5d d5 3c 6e 56 65 3e ee 43 2b 3e
       -0.033988804 0.02604559 0.22396252 0.16725132
000110 fd 04 23 bf b3 81 d6 3d 23 b7 ff be 41 9a 1e 3e
       -0.63679487 0.10473957 -0.4994441 0.1548853
000120 f6 1d ff ba 19 84 d6 bb 55 71 75 3c 9a eb 5b bb
       -0.0019463885 -0.006546509 0.014980634 -0.0033557178
000130 07 17 80 3b 11 a1 98 bb f7 1f 17 3c 7f 41 73 bc
       0.003908995 -0.0046578725 0.00922393 -0.014847158
000140 5c fe 27 3e 70 33 87 bd a0 67 65 3c 81 4f 93 bd
       0.16405624 -0.06601608 0.014001757 -0.071928985
000150 a7 0d a3 3e 4f 12 8a bd 41 52 a0 3e 66 45 89 be
       0.31846353 -0.06741773 0.31312755 -0.2681076
000160 1d de f2 bc 9e 71 c0 3d 27 1a 90 3c 43 45 c1 3d
       -0.029646927 0.09396671 0.017590595 0.09437039
000170 b7 1d 14 3e 00 01 e4 3d 50 b9 da bd 90 c6 95 bd
       0.1446446 0.11133003 -0.10679877 -0.073132634
000180 44 1a 2e be c4 16 19 3e 88 2e 7c 3e 03 c4 c5 bc
       -0.17002207 0.1495009 0.24627125 -0.024141317
000190 f9 c8 53 3f b9 06 a9 3e 60 ae e2 3d d2 6c 1b 3e
       0.82728535 0.3301294 0.11068416 0.1517823
0001a0 6c 68 5e 3c da 69 3f bb bb fd 1b bc 2d 13 74 3a
       0.013574701 -0.002920738 -0.009520943 0.0009310719
0001b0 dd 60 86 3b e1 6d 99 3c d2 82 e3 bc 04 a8 ea 3c
       0.0041009025 0.018729152 -0.02777234 0.02864457
0001c0 9c fb 8b bd 10 e5 22 bd 1c 9a 99 3d a1 bc 71 be
       -0.068351 -0.039769232 0.07500097 -0.23607112
0001d0 bc 54 0d 3f b9 04 33 3e 5a bd 88 be cc 93 7d 3e
       0.5520742 0.1748227 -0.26706964 0.24763411
0001e0 18 c8 b2 bb 9c 7a a5 bc 45 00 1d bd c7 65 da 3b
       -0.005455982 -0.020200066 -0.038330335 0.006664965
0001f0 1e 23 9d 3c e7 c0 11 3d 9e 2b 5c bd 7e 4a 03 3d
       0.019181784 0.035584357 -0.053752534 0.032053463
000200 40 3c 58 bd 94 23 50 3e be 43 32 3e fd 9a d8 3d
       -0.052791834 0.20326072 0.17408654 0.10576437
000210 46 9b 70 bc 02 d0 62 3d 9f d5 dd be d7 11 87 3e
       -0.014685458 0.055374153 -0.43327042 0.26380798
000220 f4 8e a1 3c 84 9e 9d bc ab 37 36 3d e8 17 81 3d
       0.019721486 -0.019240625 0.044486683 0.06303388
000230 3b 8e c7 bc 8c aa 30 bc 7d 14 55 3c 47 1f 22 bd
       -0.024359813 -0.010782849 0.013005373 -0.03958061
000240 0c df c5 bd 56 cb 11 3e ce e3 4e 3e f0 0f 38 3e
       -0.096616834 0.14237723 0.20204088 0.1797483
000250 cc 06 d3 bd 1b a6 94 3d 07 9b f5 3d f7 37 86 be
       -0.10304031 0.072582446 0.1199246 -0.26214573
000260 90 39 c0 bd 27 06 b3 3c ee 66 c6 3d 92 b1 6b bd
       -0.09385979 0.02185352 0.09687601 -0.05754239
000270 4c e0 21 bd c7 85 86 bd 26 6b 08 3e 48 d6 73 bd
       -0.039520547 -0.06568485 0.13322124 -0.059530526
000280 78 ee 52 3e 9e 07 3f be 80 dc bc 3c 85 28 2e be
       0.20598781 -0.1865525 0.023054361 -0.17007644
000290 c4 6a ed 3e 87 6b 3a 3d 3b 37 f2 be 3b 81 8c be
       0.46370518 0.045512702 -0.47307763 -0.27442345
0002a0 6a 10 19 3d 95 10 bb 3b ea 49 03 3c f3 11 4c bd
       0.03736917 0.005708764 0.008013228 -0.049821805
0002b0 9e e4 a2 bc ac a0 3c 3d 09 17 5f bb 86 3f a8 bc
       -0.019884404 0.046051666 -0.003404083 -0.020538103
0002c0 1c e5 b6 bd 0a 87 49 3e 00 18 c8 3b 67 c5 70 be
       -0.08930418 0.1968042 0.0061063766 -0.23512803
0002d0 e6 12 9a 3e 1d 93 c5 be 50 37 b2 be d4 35 95 bd
       0.30092543 -0.385888 -0.34807825 -0.072856575
0002e0 03 14 d5 bd 33 a8 ae bc 81 05 ab bd a5 5b 2e bd
       -0.104042076 -0.021320438 -0.08350659 -0.042567868
0002f0 be c9 4e be bb b1 f1 bd 89 ae 96 bd 9c 16 ff 3d
       -0.20194146 -0.118014775 -0.07357509 0.12455484
000300 42 68 09 3e e8 bd a7 bd 74 17 fc bd 66 ba a5 be
       0.13418677 -0.081905186 -0.12309161 -0.32368773
000310 c5 5d d8 bd 21 1c 6c be fa 53 cb bd 9c 54 d1 3d
       -0.1056476 -0.23057605 -0.09928127 0.10221216
000320 94 74 54 3d f8 a5 73 bd 8d fb 14 be 27 e5 d2 3d
       0.05186899 -0.059484452 -0.14549084 0.102976136
000330 66 bb 0c 3e 33 fb 40 3d 0b 17 94 bc fc a1 43 bd
       0.13743362 0.047114562 -0.018077394 -0.047761902
000340 20 68 7b bd 3e 21 0a be c8 72 dd bd 74 1b db 3e
       -0.0613786 -0.13489243 -0.108129084 0.42794383
000350 99 b3 83 be 93 ba ee 3e a5 f5 45 3e 6a bf 6f be
       -0.2572296 0.4662672 0.19331987 -0.23412862
000360 ff 0e cf bd 70 42 86 bc 38 b4 83 bd 4a b4 db 3c
       -0.10110282 -0.016389102 -0.064308584 0.026819367
000370 6e dd 46 bd de 0f c3 bd 6d a5 71 bc 81 a8 e6 bd
       -0.048551016 -0.09524511 -0.014748913 -0.11262608
000380 e4 d8 62 3e 88 9c 1d 3e e8 7e af 3d 62 6a 02 3e
       0.2215305 0.15391743 0.08569127 0.12735894
000390 a5 e8 b2 bc 0d ca 9d 3e 29 cd ef 3e d3 27 69 be
       -0.02183945 0.30818215 0.46836212 -0.22769098
0003a0 3d b0 60 be fe 69 8c 3d 91 6a 3e be f0 ab d6 bd
       -0.2194223 0.06856154 -0.1859534 -0.10482013
0003b0 6d 92 e9 3d 0e 46 bc 3d fc f8 2a be 0f 1e 28 be
       0.114048816 0.09193049 -0.16696543 -0.16417716
0003c0 0e 28 55 3e 5a 4a 3f be 68 8d 50 3d fe 2a ee 3d
       0.20816061 -0.18680707 0.050916106 0.11629294
0003d0 20 55 f8 3d a7 52 af 3e bb 74 56 be 12 49 f4 bd
       0.12125611 0.34242746 -0.20942967 -0.119279996
0003e0 30 36 07 bc 56 a8 0a bd eb ef 5d bc 82 ff 20 bd
       -0.008252665 -0.033851944 -0.01354597 -0.03930617
0003f0 0e e8 0b bd 1f 36 3d bd 31 0a 27 3d 6b 12 37 bd
       -0.03415685 -0.046194192 0.040781204 -0.0446953
