outputs/weights/mlp_debug/a1_bigfoot.pth (torch, 292597 bytes, 12 tensors)

input_proj.weight f4 [128, 8]
0.19391145 0.08151618 0.09224651 0.04025538 -0.3042824 -0.33046687 -0.35342944 -0.19811895
0.25832683 0.037194256 -0.16888566 0.19162893 0.24309394 0.2597077 -0.36752397 -0.0424939
0.12053518 -0.07086554 0.02992776 -0.2600346 -0.29979602 -0.1996382 -0.13303606 -0.27006984
-0.29383004 0.07773657 0.06507212 0.29850358 0.15707776 -0.20342341 -0.13436753 -0.21383128
-0.31856987 -0.06131338 0.16729896 0.11559051 -0.020873658 -0.15789883 -0.26341528 0.0939974
0.27489033 -0.3008103 -0.18073538 -0.008797196 -0.25861415 0.043563593 0.30499852 0.28062457
-0.19893287 -0.2860746 -0.25869963 0.16231084 -0.29782748 0.08960945 -0.36013258 -0.14283782
0.06578655 0.025865858 -0.31342378 0.34588692 0.116627745 0.30259156 -0.25033432 -0.257291
-0.25668636 -0.073554255 0.03568599 -0.26715916 -0.10726933 0.1730112 0.3465603 0.33964297
0.031424183 -0.042769145 -0.2101314 0.2552824 0.34423295 0.1499278 -0.15310311 0.1770749
0.15122761 -0.11924237 0.14089093 0.17341824 0.01206436 -0.19785938 0.05368528 0.099746026
-0.3211389 0.09237784 0.06206296 -0.36270884 0.014650701 -0.008987921 -0.20656084 -0.029173112
0.09795235 0.16412058 0.16191475 0.23013292 -0.10830652 -0.3673119 -0.3564572 -0.29966813
0.21899368 0.2848524 0.27923745 -0.1235424 -0.1349988 0.22542347 0.28872102 -0.10008924
0.32623246 0.16921808 -0.3389214 0.08955429 0.026497114 0.0510916 -0.34126273 0.27979946
-0.21831018 -0.105231576 -0.028850403 0.14782274 -0.24237819 0.16365936 -0.19025409 -0.0065850616
-0.18766503 -0.10885629 0.1345775 -0.1959648 -0.0061748503 -0.023233281 0.32343036 -0.29680088
0.33197492 -0.05041058 0.14942369 0.28690317 0.24800661 -0.2267645 -0.015613474 0.34076133
0.34090635 -0.20515645 0.2860653 0.17286608 -0.29486454 -0.08432023 -0.05810723 -0.24788357
0.29027992 -0.075145766 0.1796406 0.14227132 0.23594968 -0.26079124 0.39764777 0.21335706
-0.023684548 -0.06610341 0.06395847 0.13345967 0.28032133 -0.19314088 -0.16874933 0.35251543
0.26186287 0.25333428 -0.28118286 0.20510922 -0.20097971 -0.37639645 -0.40860578 0.32614985
-0.053411983 0.24633066 0.15651599 -0.07866633 -0.09812633 -0.13131441 -0.1587161 -0.06335936
-0.1748628 -0.11798783 -0.05168999 -0.254149 -0.18025714 -0.25979322 0.2685764 -0.25915092
-0.16161533 0.2763031 0.3346305 -0.2399774 -0.13470958 0.106793284 -0.059163343 -0.043297667
-0.32022935 0.23703067 0.338653 -0.12628727 0.17624837 0.19414462 -0.23350647 0.029710356
-0.056138083 0.29621297 -0.00638373 0.14175251 0.07709582 0.17305827 -0.010091667 0.14239997
0.34783396 -0.346764 0.15437995 0.28013146 -0.31769598 -0.37600565 -0.022818618 0.11592239
0.25405794 0.14980933 0.27402318 -0.14578398 0.27769104 -0.26924092 -0.006037136 0.14832793
0.11674277 0.290242 0.33570895 0.24773744 0.3172552 -0.13013464 0.24230966 0.0744185
-0.23133 -0.16728337 0.23233682 0.18747894 0.22829643 0.23734112 0.13305138 -0.22657461
0.31059062 -0.24383748 -0.27748203 -0.27314103 0.17891201 -0.15308931 -0.3000531 -0.029746696
00000000: b990 463e f4f1 a63d bdeb bc3d d3e2 243d
00000010: e7ca 9bbe f432 a9be b4f4 b4be b2df 4abe
00000020: 6a43 843e 0159 183d 5df0 2cbe 603a 443e
00000030: 9eed 783e 68f8 843e 1a2c bcbe 150e 2ebd
00000040: 26db f63d f421 91bd 102b f53c 4123 85be
00000050: dd7e 99be f56d 4cbe 9b3a 08be 9846 8abe
00000060: e470 96be 5a34 9f3d 8844 853d 76d5 983e
00000070: fed8 203e 3a4e 50be a497 09be 96f6 5abe
00000080: 971b a3be bd23 7bbd 6b50 2b3e b8ba ec3d
00000090: 3cff aabc 3bb0 21be 5ede 86be b581 c03d
000000a0: 6dbe 8c3e cf03 9abe b212 39be 1d22 10bc
000000b0: 1369 84be bd6f 323d c428 9c3e 06ae 8f3e
000000c0: 0fb5 4bbe 5f78 92be 4774 84be d034 263e
000000d0: d87c 98be 2985 b73d 4c63 b8be 1444 12be
000000e0: 19bb 863d a3e4 d33c 1579 a0be 1718 b13e
000000f0: 87da ee3d 48ed 9a3e d22b 80be a5bb 83be
00000100: 656c 83be 9da3 96bd 792b 123d 16c9 88be
00000110: 06b0 dbbd d929 313e 5a70 b13e afe5 ad3e
00000120: a5b6 003d b32e 2fbd b02c 57be 60b4 823e
00000130: 4d3f b03e ac86 193e 10c7 1cbe 1f53 353e
00000140: 69db 1a3e 5835 f4bd b645 103e 8d94 313e
00000150: 98a9 453c a69b 4abe 19e5 5b3d a547 cc3d
00000160: 516c a4be 9830 bd3d bb35 7e3d f9b4 b9be
00000170: 7e09 703c 1342 13bc af84 53be 73fc eebc
00000180: 3e9b c83d 3a0f 283e fbcc 253e f7a7 6b3e
00000190: cfcf ddbd 4e10 bcbe 8f81 b6be 1a6e 99be
000001a0: e13f 603e 2cd8 913e 36f8 8e3e cc03 fdbd
000001b0: 203d 0abe 69d5 663e 3ed3 933e 96fb ccbd
000001c0: f107 a73e 8147 2d3e 1b87 adbe 3d68 b73d
000001d0: 7a10 d93c 6d45 513d fdb9 aebe e041 8f3e
000001e0: b48c 5fbe a783 d7bd ae57 ecbc d85e 173e
000001f0: fd31 78be 5296 273e f8d1 42be 80c7 d7bb
00000200: 432b 40be 0cf0 debd afce 093e ffaa 48be
00000210: 6656 cabb b953 bebc aa98 a53e 49f6 97be
00000220: 9ef8 a93e 537b 4ebd 8602 193e f9e4 923e
00000230: 72f5 7d3e f434 68be a8cf 7fbc 4578 ae3e
00000240: 478b ae3e 8814 52be 2777 923e ce03 313e
00000250: 7cf8 96be 16b0 acbd d901 6ebd 31d5 7dbe
00000260: 929f 943e 06e6 99bd b5f3 373e 93af 113e
00000270: cb9c 713e 6e86 85be 7d98 cb3e 467a 5a3e
00000280: 1906 c2bc 3a61 87bd a9fc 823d a7a9 083e
00000290: 4786 8f3e b9c6 45be a0cc 2cbe e77c b43e
000002a0: e412 863e 08b5 813e 33f7 8fbe 2708 523e
000002b0: a0cd 4dbe 09b7 c0be c734 d1be 1dfd a63e
000002c0: 86c6 5abd 1b3e 7c3e ba45 203e d01b a1bd
000002d0: 75f6 c8bd 4977 06be 7986 22be 8dc2 81bd
000002e0: 3c0f 33be 9aa3 f1bd e2b8 53bd d11f 82be
000002f0: 5495 38be 9e03 85be d982 893e 6eaf 84be
00000300: 7d7e 25be 9a77 8d3e b054 ab3e a3bc 75be
00000310: 4ff1 09be 70b6 da3d 4355 72bd e558 31bd
00000320: 1af5 a3be 2bb8 723e ed63 ad3e 7351 01be
00000330: 747a 343e d9cd 463e 521c 6fbe 2263 f33c
00000340: 0cf1 65bd 3aa9 973e 9c2e d1bb 9227 113e
00000350: 6ae4 9d3d 3036 313e 8557 25bc 4cd1 113e
00000360: 4b17 b23e 0d8b b1be c715 1e3e 646d 8f3e
00000370: 0ca9 a2be d083 c0be 1cee babc b868 ed3d
00000380: e213 823e 9e67 193e c44c 8c3e 6548 15be
00000390: 852d 8e3e f2d9 89be 2bd3 c5bb 47e3 173e
000003a0: d516 ef3d 999a 943e 0be2 ab3e e2ae 7d3e
000003b0: 466f a23e 0442 05be 0620 783e ba68 983d
000003c0: c6e1 6cbe 554c 2bbe b4e9 6d3e 7bfa 3f3e
000003d0: 8ac6 693e 8d09 733e 9f3e 083e 2d03 68be
000003e0: bc05 9f3e 88b0 79be 2012 8ebe 24d9 8bbe
000003f0: b634 373e 72c3 1cbe 8fa0 99be 58af f3bc

input_proj.bias f4 [128]
0.3235552 0.0044862046 -0.17008048 -0.2528625 -0.138522 0.0736442 0.14797111 -0.27285835
0.028702596 -0.13164935 -0.231194 0.31644273 0.17605707 -0.3024134 -0.25672814 -0.062809676
0.15812372 -0.04579528 0.31787768 -0.24579817 -0.3402666 0.05698258 -0.3373515 -0.00081541506
0.04799287 0.0071873683 0.15963599 0.0163153 0.17856489 -0.2220202 0.27642444 -0.30221587
0.08239357 0.2296479 0.18853545 0.08720312 0.15314087 -0.3342165 -0.25360143 -0.18287297
0.091905385 -0.13076527 -0.3017746 -0.10610688 -0.15055567 0.1989689 0.25485417 0.20819812
-0.15525594 -0.27080742 0.10434396 0.20259637 0.19030677 0.344796 0.06346135 0.15453644
0.15431347 0.30847406 -0.30146113 0.07362418 -0.23041283 0.19313858 -0.106668994 -0.25225416
0.30893278 -0.29725212 -0.03516712 -0.24346477 -0.0022114245 0.20469679 -0.16237576 -0.0523396
0.039280735 -0.2858046 -0.17038761 0.08280633 0.009182952 -0.31715515 0.25614628 0.1468618
-0.32099187 -0.16490877 0.10429565 0.17125551 -0.09150018 0.35110515 0.18453218 0.07872618
0.34892607 -0.19734688 -0.27493283 0.33537924 0.060255874 0.2828069 0.27756825 0.18205637
0.17027234 -0.019114312 0.13128707 -0.10281121 -0.23680332 -0.12790401 0.23964739 0.087334014
-0.00935076 0.22753803 0.19591662 -0.03729347 0.036893647 -0.21230425 -0.25510445 0.074617475
0.013507077 0.35303876 0.30728337 0.20177305 0.20920432 -0.10989774 0.07558235 0.16269289
-0.10688816 -0.035126615 -0.108431496 0.054545593 -0.043063853 0.07262486 0.22289069 -0.20004095
00000000: 07a9 a53e 0301 933b 9429 2ebe 3277 81be
00000010: b6d8 0dbe c5d2 963d bd85 173e 17b4 8bbe
00000020: b521 eb3c 16cf 06be 1fbe 6cbe c804 a23e
00000030: 4e48 343e eed5 9abe df71 83be 5ca2 80bd
00000040: 2feb 213e d593 3bbd ddc0 a23e 84b2 7bbe
00000050: 6c37 aebe 9166 693d 56b9 acbe 94c1 55ba
00000060: 2c94 443d 0484 eb3b 9e77 233e aaa7 853c
00000070: b7d9 363e 4359 63be 8187 8d3e 0abc 9abe
00000080: f6bd a83d d228 6b3e 700f 413e 8d97 b23d
00000090: f6d0 1c3e 6d1e abbe 0cd8 81be 0d43 3bbe
000000a0: e438 bc3d 55e7 05be 3382 9abe 904e d9bd
000000b0: 442b 1abe 81be 4b3e 3f7c 823e e331 553e
000000c0: 6afb 1ebe 45a7 8abe 49b2 d53d 6c75 4f3e
000000d0: c7df 423e 1a89 b03e 06f8 813d cd3e 1e3e
000000e0: 5a04 1e3e 50f0 9d3e 1d59 9abe 46c8 963d
000000f0: 57f1 6bbe 1fc6 453e 4675 dabd 7527 81be
00000100: 702c 9e3e 6e31 98be 660b 10bd d44e 79be
00000110: 8ced 10bb 099c 513e d545 26be 0c62 56bd
00000120: d6e4 203d fb54 92be 177a 2ebe 5d96 a93d
00000130: 1874 163c 2962 a2be 9b25 833e f162 163e
00000140: 0c59 a4be d8dd 28be f598 d53d 9b5d 2f3e
00000150: 7264 bbbd 0ec4 b33e 01f6 3c3e 313b a13d
00000160: 70a6 b23e 4d15 4abe ffc3 8cbe d4b6 ab3e
00000170: ddce 763d 11cc 903e 6d1d 8e3e fc6c 3a3e
00000180: df5b 2e3e 9e95 9cbc 1e70 063e af8e d2bd
00000190: 927c 72be 45f9 02be 2066 753e 2ddc b23d
000001a0: ee33 19bc bbff 683e 5e9e 483e 0ac1 18bd
000001b0: cb1d 173d 4966 59be 0d9d 82be 0cd1 983d
000001c0: c94c 5d3c 7fc1 b43e 3f54 9d3e 989d 4e3e
000001d0: a839 563e 1112 e1bd ebca 9a3d f798 263e
000001e0: 2ee8 dabd ede0 0fbd 5511 debd 336b 5f3d
000001f0: b963 30bd 58bc 943d 753d 643e 89d7 4cbe

residual_blocks.0.fc1.weight f4 [128, 128]
0.023196919 -0.030822305 0.08691153 0.03912553 -0.013319721 -0.07079472 -0.046040278 -0.056288663
-0.02421053 -0.06412893 0.0063528153 -0.0353756 -0.026534064 -0.077519484 0.067501515 -0.064069174
0.056862168 -0.05417975 0.058719166 -0.03618684 0.013332534 0.08809989 0.05218 0.059682116
-0.019073904 0.051676787 0.01681441 -0.0026967556 -0.019735178 -0.04677787 0.010761713 -0.04938103
0.05829809 -0.06644752 0.0503645 0.06788148 0.079761475 -0.010655471 -0.054707862 0.03478883
0.053208023 -0.008447546 -0.045773078 0.02982804 -0.0070049115 0.058272578 0.06362583 0.0048416085
-0.042263962 0.071577415 -0.032830138 0.08505568 0.023098685 -0.030653719 0.0035080824 -0.036649834
-0.015765207 0.061249655 -0.026108593 0.053430527 0.08472643 0.08427671 0.047460027 0.0867387
-0.035723817 -0.047171332 -0.04859875 0.07943856 0.059276108 -0.05463694 -0.06438646 0.053868487
0.019495562 0.0031702227 0.017041994 0.021035144 -0.013750483 0.041972738 -0.078140385 0.08074708
0.027406894 -0.03053184 -0.056251142 0.00022086002 -0.074415125 0.08625688 0.02350651 -0.06324133
0.0032711748 -0.01132098 0.038772393 0.009015432 0.021001616 -0.07751155 -0.023543756 0.053726155
-0.08755983 -0.041646566 -0.06116317 -0.044317253 0.044655226 -0.011574641 -0.020631904 -0.06106954
-0.018292312 0.03161629 -0.020193767 -0.084078886 0.04161171 -0.07674566 -0.05321716 -0.027565166
-0.03680813 0.05770115 0.061320323 -0.037999325 -0.054019846 -0.06514607 -0.08815534 0.03258592
-0.0283576 -0.012348468 -0.03790209 -0.014363899 -0.01974308 -0.048140876 -0.034933753 0.0045711626
0.029139817 -0.028249476 -0.047665145 0.083806634 0.011868715 -0.025372386 -0.03877767 0.035534114
-0.08733246 0.044350244 0.05850352 0.022796547 -0.039630003 -0.006845038 0.002272945 -0.032560334
-0.08608247 0.08578849 -0.005790043 -0.00870687 -0.010729263 -0.013175825 -0.08321144 0.023945415
0.0683026 0.041669827 0.043514743 0.07136032 0.061581668 -0.033783805 0.047291573 0.018491235
0.04298221 0.06994039 -0.07844504 0.054385606 0.004334582 -0.0016934498 -0.046198763 -0.08397548
0.05115664 0.0035321587 -0.0136284465 -0.06760861 0.007306925 0.057807416 -0.010204869 0.13130297
0.043099158 0.01601086 -0.055860553 0.022167878 -0.037511963 0.012850938 0.085235074 0.06441688
-0.010067175 0.022613892 0.06584199 -0.013157972 -0.0014395659 0.04368332 0.07681676 0.018688798
0.05713825 0.08452834 0.06995556 0.020195695 0.08499213 -0.11178041 -0.039315484 0.02379785
0.023475077 -0.07895348 0.04951143 0.010250463 -0.046112265 -0.046626333 -0.033897087 0.051229257
-0.10053449 -0.069519274 -0.05861556 -0.0657456 -0.015977228 0.02702006 0.06320732 0.07869693
0.0743946 0.06759273 0.01203204 -0.080856964 0.054290377 0.08719538 0.07732706 0.032631654
-0.06305797 -0.081324674 0.04734973 -0.04216981 -0.06549793 0.04759693 -0.05765926 0.04781155
-0.04039625 0.0672589 0.055627707 0.05768933 -0.07536202 0.075283244 -0.07329166 -0.0015456809
-0.030563498 -0.06150522 -0.026334358 0.022916075 -0.036597326 0.10704129 0.053653225 0.030185167
-0.03254739 -0.039465077 0.06059754 0.01840964 0.08191025 -0.059903823 0.039628066 -0.0038424227
00000000: 7707 be3c 0f7f fcbc acfe b13d 1742 203d
00000010: f63a 5abc d2fc 90bd bb94 3cbd f18e 66bd
00000020: 2955 c6bc 0756 83bd 472b d03b 01e6 10bd
00000030: f75d d9bc 89c2 9ebd 3c3e 8a3d b336 83bd
00000040: 4ee8 683d 96eb 5dbd 8283 703d a738 14bd
00000050: b370 5a3c b76d b43d b2ba 553d 3c75 743d
00000060: e040 9cbc 0aab 533d 60be 893c 0dbc 30bb
00000070: abab a1bc 279a 3fbd e551 303c c343 4abd
00000080: fac9 6e3d a315 88bd 024b 4e3d 7205 8b3d
00000090: fc59 a33d 4994 2ebc 5a15 60bd bb7e 0e3d
000000a0: a8f0 593d 9367 0abc 8d7c 3bbd ef59 f43c
000000b0: 7589 e5bb 3aaf 6e3d 424e 823d 5ba6 9e3b
000000c0: fa1c 2dbd 2e97 923d e578 06bd ac31 ae3d
000000d0: 7439 bd3c 821d fbbc dbe7 653b 231e 16bd
000000e0: 0926 81bc ebe0 7a3d b0e1 d5bc f8d9 5a3d
000000f0: 0d85 ad3d 4599 ac3d 7265 423d 0fa4 b13d
00000100: 2353 12bd ba36 41bd 7c0f 47bd afb0 a23d
00000110: 81cb 723d fcca 5fbd 0cdd 83bd 34a5 5c3d
00000120: 28b5 9f3c 83c3 4f3b a79b 8b3c e551 ac3c
00000130: b549 61bc 9beb 2b3d 1108 a0bd ba5e a53d
00000140: 6c84 e03c e91d fabc 9967 66bd a996 6739
00000150: f566 98bd 72a7 b03d b990 c03c ac84 81bd
00000160: 3561 563b a27b 39bc cdcf 1e3d 76b5 133c
00000170: 950b ac3c 60be 9ebd d6de c0bc f50f 5c3d
00000180: 9152 b3bd 9795 2abd 3b86 7abd 0286 35bd
00000190: 66e8 363d 90a3 3dbc 3d04 a9bc 0e24 7abd
000001a0: c2d9 95bc 1580 013d 666d a5bc 8d31 acbd
000001b0: 0a71 2a3d d42c 9dbd 3dfa 59bd 58d0 e1bc
000001c0: 1fc4 16bd 0b58 6c3d 052b 7b3d 2ea5 1bbd
000001d0: ea43 5dbd 4e6b 85bd c98a b4bd d078 053d
000001e0: 334e e8bc 3b51 4abc 393f 1bbd 8f56 6bbc
000001f0: 3dbc a1bc 5e2f 45bd b216 0fbd b1c9 953b
00000200: a0b6 ee3c 726b e7bc 873c 43bd d0a2 ab3d
00000210: 0075 423c c0d9 cfbc 56d5 1ebd 388c 113d
00000220: 5cdb b2bd 9aa8 353d 63a1 6f3d d3bf ba3c
00000230: 1253 22bd 574c e0bb b0f5 143b fc5d 05bd
00000240: 024c b0bd e0b1 af3d 67ba bdbb 42a7 0ebc
00000250: cac9 2fbc 6adf 57bc c26a aabd 2d29 c43c
00000260: 3ce2 8b3d fbad 2a3d 843c 323d 5c25 923d
00000270: 0f3d 7c3d e360 0abd cfb4 413d ee7a 973c
00000280: 1d0e 303d e83c 8f3d cba7 a0bd 71c3 5e3d
00000290: 1c09 8e3b bff6 ddba ea3a 3dbd 56fb abbd
000002a0: a089 513d ca7b 673b d949 5fbc 6276 8abd
000002b0: ee6e ef3b 78c7 6c3d 5332 27bc 4974 063e
000002c0: be88 303d 3529 833c 09ce 64bd 6999 b53c
000002d0: 25a6 19bd be8c 523c ba8f ae3d ffec 833d
000002e0: cbf0 24bc c540 b93c 2ad8 863d 8994 57bc
000002f0: d1af bcba 48ed 323d 1b52 9d3d 4019 993c
00000300: cc09 6a3d 321d ad3d dc44 8f3d 7171 a53c
00000310: 5b10 ae3d 21ed e4bd 4609 21bd b5f3 c23c
00000320: ce4e c03c 5db2 a1bd 7fcc 4a3d 8ff1 273c
00000330: 37e0 3cbd 41fb 3ebd acd7 0abd c5d5 513d
00000340: 07e5 cdbd 1f60 8ebd df16 70bd a1a5 86bd
00000350: ade2 82bc 2c59 dd3c d772 813d db2b a13d
00000360: 325c 983d 0f6e 8a3d 0922 453c 5698 a5bd
00000370: 965f 5e3d 7e93 b23d a65d 9e3d c5a8 053d
00000380: 8924 81bd 8d8d a6bd caf1 413d 40ba 2cbd
00000390: c723 86bd 00f5 423d 1e2c 6cbd 0bd6 433d
000003a0: 8a76 25bd 09bf 893d e1d9 633d a64b 6c3d
000003b0: 6757 9abd 1a2e 9a3d f019 96bd 7298 caba
000003c0: 4d60 fabc e6ec 7bbd 27bb d7bc 7eba bb3c
000003d0: 14e7 15bd 7738 db3d 7cc3 5b3d e246 f73c
000003e0: 6950 05bd 22a6 21bd 2035 783d d0cf 963c
000003f0: 90c0 a73d b65d 75bd 0a51 223d 28d1 7bbb

residual_blocks.0.fc1.bias f4 [128]
-0.0880243 -0.01907871 -0.037704516 0.000531556 -0.06462643 -0.0055506458 -0.042783946 -0.054971922
-0.08334914 -0.071460046 0.068703346 -0.030601915 0.04824871 -0.05713782 0.06139755 0.034747716
-0.08714675 0.06704648 0.077050686 -0.07667243 0.019076992 0.034853123 -0.034469992 -0.004489398
-0.03791694 0.044767965 0.048211895 0.019991405 0.018400136 -0.06589429 -0.06603131 -0.07755439
-0.0032807528 -0.052532148 0.013378044 -0.054249767 -0.060534317 -0.06237611 0.019252898 -0.06394259
0.048448086 0.023060644 -0.053980228 -0.0067009376 0.0031096928 -0.048294757 -0.025258424 0.015301687
-0.081051014 0.039302263 0.006056207 -0.06565674 0.010795979 0.024411025 0.06750444 0.019673264
0.017984295 -0.0715466 0.08559826 -0.0037655996 -0.005252551 -0.0565448 -0.00325956 -0.09051302
-0.045041144 0.047978986 -0.015157731 -0.04990073 -0.058560807 0.08002751 -0.009603265 0.07192618
0.032222718 0.04924134 0.04763349 0.04873179 0.0663553 -0.07961253 0.008126349 0.081692345
0.03591612 -0.0018422808 0.005121236 -0.08495678 -0.007012772 0.060217403 -0.000943078 -6.0565726e-05
0.03661376 0.060238626 -0.038130227 0.040815264 -0.017447397 -0.042728074 0.042297848 -0.05982204
0.08722487 -0.07783008 -0.008756451 -0.023298373 -0.016094362 -0.061318547 -0.005417223 0.023026159
0.07578223 0.07587729 -0.053944677 0.02134982 0.054032188 0.053867295 0.06789405 -0.08349667
0.06888783 0.020530446 -0.023683008 -0.0028797942 -0.024060477 0.05068556 0.026673378 -0.04420587
0.0018786511 0.05877777 -0.05715038 0.065769725 -0.018453417 0.028297065 -0.030114433 0.023565043
00000000: 1646 b4bd f44a 9cbc 0d70 1abd 1f58 0b3a
00000010: dd5a 84bd 31e2 b5bb 383e 2fbd 3d2a 61bd
00000020: f4b2 aabd a559 92bd 57b4 8c3d deb0 fabc
00000030: 70a0 453d 5909 6abd ff7b 7b3d 9f53 0e3d
00000040: ff79 b2bd aa4f 893d c0cc 9d3d 6f06 9dbd
00000050: 5a47 9c3c 26c2 0e3d 6830 0dbd cd1b 93bb
00000060: cb4e 1bbd 9d5e 373d d679 453d 04c5 a33c
00000070: e2bb 963c 96f3 86bd 6c3b 87bd d6d4 9ebd
00000080: e601 57bb f32b 57bd 952f 5b3c 0135 5ebd
00000090: d5f2 77bd 187e 7fbd 41b8 9d3c 55f4 82bd
000000a0: 8071 463d ade9 bc3c 5f1a 5dbd 8a93 dbbb
000000b0: fdcb 4b3b b9d0 45bd c1ea cebc edb3 7a3c
000000c0: 13fe a5bd 69fb 203d 2673 c63b 0a77 86bd
000000d0: 9ee1 303c a1f9 c73c c53f 8a3d d329 a13c
000000e0: cd53 933c 0687 92bd 244e af3d 47c8 76bb
000000f0: 971d acbb 859b 67bd 589e 55bb e45e b9bd
00000100: 107d 38bd 9d85 443d 2258 78bc b564 4cbd
00000110: 75dd 6fbd 77e5 a33d 0357 1dbc 084e 933d
00000120: f8fb 033d 4ab1 493d 561b 433d fc9a 473d
00000130: 4ae5 873d e50b a3bd 6124 053c 514e a73d
00000140: c81c 133d b078 f1ba 0bd0 a73b d2fd adbd
00000150: 65cb e5bb 86a6 763d e538 77ba f407 7eb8
00000160: 4ff8 153d c7bc 763d 712e 1cbd e82d 273d
00000170: d8ed 8ebc a203 2fbd 8240 2d3d f507 75bd
00000180: f4a2 b23d 6165 9fbd 3877 0fbc 3bdc bebc
00000190: 53d8 83bc 2829 7bbd f682 b1bb 5ba1 bc3c
000001a0: b733 9b3d 8d65 9b3d 18f5 5cbd d1e5 ae3c
000001b0: db50 5d3d f4a3 5c3d 090c 8b3d 4d00 abbd
000001c0: 1015 8d3d 772f a83c de02 c2bc eeba 3cbb
000001d0: 7a1a c5bc a99b 4f3d 2182 da3c 3711 35bd
000001e0: 123d f63a f5c0 703d 8416 6abd 47b2 863d
000001f0: 9f2b 97bc 3fcf e73c 8bb2 f6bc 7a0b c13c

residual_blocks.0.fc2.weight f4 [128, 128]
0.07832451 0.013209181 0.0133602135 0.045728646 -0.030768303 -0.080719985 0.051808033 -0.07358009
0.014209557 -0.06502873 0.0031002692 -0.028205903 -0.020090535 0.035769757 -0.0073057893 -0.056560133
0.051290154 -0.09007694 0.022537312 -0.08972857 -0.026952531 -0.070619345 -0.033021916 -0.031378686
0.049967594 0.068651386 -0.023482507 0.038303126 0.0020702607 -0.05996006 0.06913086 0.073699296
-0.044062328 0.03993011 -0.030886078 0.021221157 -0.038871184 -0.07826109 -0.03885018 0.015589185
0.040509067 0.08860268 0.04709436 -0.081845134 -0.07855439 -0.0035298618 0.06207126 0.029103726
-0.0696127 -0.051020924 0.00013734604 0.07736125 -0.02023848 0.06724394 0.009425384 -0.044031475
-0.07954493 0.056825817 -0.024959305 0.029393876 0.03723574 0.06677855 0.072347626 0.006638367
-0.06424788 0.0839339 0.026984658 0.023755211 -0.09899387 -0.043621317 -0.073947676 0.0031888336
0.00059843255 0.000559394 0.012852963 0.09016994 -0.055052333 -0.08081844 -0.065752596 0.06982685
-0.016654685 -0.043719705 0.033106994 0.02191045 0.012371723 -0.034876887 0.004070478 0.05569626
-0.066139854 0.022922976 0.04849432 0.024677485 0.04072937 -0.02672619 -0.049582407 -0.022845743
-0.072844885 -0.06398272 0.033907186 -0.0717026 -0.0848973 -0.053749267 0.0011096285 0.057248566
-0.07560091 0.032089684 -0.062273 -0.090143226 0.041336898 0.017776942 0.09592363 -0.077224836
0.0038040301 -0.0315866 0.053644683 0.032167803 -0.06420673 0.039153803 0.00923157 -0.047622744
0.06092908 -0.07400838 -0.050273784 -0.044910554 -0.039558936 0.07149976 -0.009978301 -0.016332438
0.016076177 0.09057715 0.02982291 -0.008416936 -0.06804893 -0.0066755875 0.06909394 -0.004955616
0.052139882 -0.0033091072 -0.01189224 -0.08342943 -0.0057676123 0.040375743 -0.016590478 0.03536911
-0.0642909 0.05493722 0.09177415 -0.051227115 0.039493255 0.0921557 0.0060600815 -0.07531573
-0.035942648 -0.043977287 -0.051667225 -0.012957678 -0.04840374 0.048398066 0.020339252 0.034464743
0.031717252 -0.051960584 0.017902661 0.0361782 0.02044667 0.040554963 0.035433967 -0.07030239
-0.032079726 -0.06582564 0.050753962 0.004752215 -0.053977534 -0.008957733 0.06659253 0.03319589
-0.05222659 0.041327413 -0.040276665 -0.015285018 -0.071239784 -0.033192877 -0.07695005 0.031021038
0.025091311 -0.05817384 0.056838993 0.06503912 0.04945469 -0.008634488 0.011670891 0.053897474
-0.01065172 -0.025906775 0.07041288 -0.018063085 0.08011266 -0.013526564 -0.051569812 0.08636766
0.02902862 0.05682376 -0.07826276 0.009877588 -0.020436151 -0.013025673 -0.029014932 -0.015286985
-0.054054134 -0.05715514 0.014105946 0.013348992 -0.032503743 0.00048982014 -0.065273196 0.04721717
-0.0678143 0.05911325 -0.061793216 0.046352826 0.02342109 0.001432055 -0.04523889 0.015203853
0.07955492 -0.031571213 0.037850127 -0.03916441 -0.035304215 0.035546605 -0.025945475 0.045998793
0.018956684 0.054418188 -0.007424462 -0.02361005 0.04986389 0.0608076 -0.09486934 -0.026706066
-0.08208817 0.018119352 0.022882586 -0.034288615 0.013706829 0.05958097 0.05674002 0.066239186
-0.09750149 -0.062497303 0.044771362 -0.015811833 0.000106473475 0.049469605 -0.053306494 -0.0093019055
00000000: 9a68 a03d 526b 583c cce4 5a3c f64d 3b3d
00000010: cf0d fcbc 8550 a5bd a934 543d 29b1 96bd
00000020: 34cf 683c c82d 85bd e32d 4b3b 1110 e7bc
00000030: e894 a4bc 4f83 123d 6765 efbb 99ab 67bd
00000040: a015 523d 427a b8bd 2ba0 b83c 9dc3 b7bd
00000050: 8ecb dcbc e0a0 90bd fd41 07bd f086 00bd
00000060: d2aa 4c3d 1999 8c3d 635e c0bc bde3 1c3d
00000070: 36ad 073b ae98 75bd 7b94 8d3d a8ef 963d
00000080: b37a 34bd c18d 233d cd04 fdbc fed7 ad3c
00000090: 6437 1fbd 5a47 a0bd 5e21 1fbd c869 7f3c
000000a0: d6ec 253d 5275 b53d 04e6 403d 6c9e a7bd
000000b0: 20e1 a0bd 4155 67bb 6f3e 7e3d f06a ee3c
000000c0: 1a91 8ebd 51fb 50bd 8c04 1039 936f 9e3d
000000d0: 2bcb a5bc 31b7 893d ed6c 1a3c 595a 34bd
000000e0: 74e8 a2bd 30c2 683d 7577 ccbc 6dcb f03c
000000f0: 8184 183d 31c3 883d fe2a 943d a986 d93b
00000100: 6494 83bd 89e5 ab3d ee0e dd3c 4a9a c23c
00000110: 4cbd cabd 44ac 32bd e171 97bd c0fb 503b
00000120: 21e0 1c3a 4ca4 123a 3c95 523c 04ab b83d
00000130: 8e7e 61bd 2384 a5bd 4ca9 86bd 6101 8f3d
00000140: 686f 88bc 6f13 33bd 339b 073d 8b7d b33c
00000150: c4b2 4a3c 11db 0ebd a561 853b c321 643d
00000160: 5574 87bd f7c8 bb3c fba1 463d 7028 ca3c
00000170: d7d3 263d e2f0 dabc ec16 4bbd ff26 bbbc
00000180: b32f 95bd 5f09 83bd 43e2 0a3d d0d8 92bd
00000190: a3de adbd 3128 5cbd f470 913a 797d 6a3d
000001a0: a6d4 9abd 7970 033d f911 7fbd 039d b8bd
000001b0: e150 293d f3a0 913c 9c73 c43d 0e28 9ebd
000001c0: 094d 793b f360 01bd 87ba 5b3d 63c2 033d
000001d0: d17e 83bd bd5f 203d 0340 173c 1110 43bd
000001e0: c590 793d b591 97bd e2eb 4dbd 21f4 37bd
000001f0: 8d08 22bd 776e 923d 077c 23bc 9bcb 85bc
00000200: 30b2 833c 8380 b93d 2d4f f43c 30e7 09bc
00000210: 3d5d 8bbd e3be dabb 2081 8d3d b862 a2bb
00000220: a190 553d 9bdd 58bb abd7 42bc 0ddd aabd
00000230: 3dfe bcbb 0961 253d c1e8 87bc 33df 103d
00000240: f3aa 83bd da05 613d 16f4 bb3d 86d3 51bd
00000250: aec3 213d 21bc bc3d a693 c63b 223f 9abd
00000260: 9938 13bd 8721 34bd 03a1 53bd 714c 54bc
00000270: 0043 46bd 0d3d 463d 819e a63c e72a 0d3d
00000280: f3e9 013d 9fd4 54bd 9aa8 923c 982f 143d
00000290: c67f a73c f61c 263d 3523 113d b3fa 8fbd
000002a0: 0866 03bd 98cf 86bd 63e3 4f3d 78b8 9b3b
000002b0: 8c17 5dbd 75c3 12bc aa61 883d 6af8 073d
000002c0: 8deb 55bd ef46 293d 25f9 24bd 036e 7abc
000002d0: 2ae6 91bd 41f5 07bd fd97 9dbd d51f fe3c
000002e0: 4b8c cd3c b147 6ebd 01d0 683d 3b33 853d
000002f0: 0091 4a3d ab77 0dbc 4437 3f3c 99c3 5c3d
00000300: 8d84 2ebc 723a d4bc a134 903d 09f9 93bc
00000310: 1b12 a43d 869e 5dbc de3a 53bd 87e1 b03d
00000320: 6ecd ed3c 08c0 683d 3a48 a0bd 9bd5 213c
00000330: b769 a7bc a269 55bc b9b0 edbc 4376 7abc
00000340: de67 5dbd 821b 6abd a01c 673c bbb5 5a3c
00000350: a522 05bd 4667 003a f4ad 85bd cb66 413d
00000360: 39e2 8abd bc20 723d e21a 7dbd 76dc 3d3d
00000370: 96dd bf3c cbb3 bb3a 6a4c 39bd 9519 793c
00000380: b1ed a23d d150 01bd bc08 1b3d dc6a 20bd
00000390: 279b 10bd 5199 113d 9b8b d4bc 3b69 3c3d
000003a0: 0c4b 9b3c 9be5 5e3d e748 f3bb dd69 c1bc
000003b0: 143e 4c3d 6411 793d db4a c2bd aec6 dabc
000003c0: d81d a8bd 096f 943c 4374 bb3c 3872 0cbd
000003d0: 9c92 603c 2d0b 743d 3968 683d 69a8 873d
000003e0: dcae c7bd 2cfd 7fbd 2d62 373d d187 81bc
000003f0: 834a df38 a4a0 4a3d e957 5abd 0567 18bc

residual_blocks.0.fc2.bias f4 [128]
0.08191975 -0.03261123 0.015844805 -0.073221445 -0.08576402 -0.08132397 -0.028265165 -0.04270054
0.06588314 -0.044649344 0.03528642 0.06545994 0.028994383 0.07309397 -0.026696434 -0.058340456
-0.033919476 -0.08470385 -0.069014944 0.017129187 0.03100379 -0.024366945 0.051423244 -0.01129254
0.01777897 0.034579586 0.056815717 0.07381033 0.004960373 0.019713327 -0.042422164 0.0062696515
-0.03246638 0.027901638 -0.08586163 0.05219833 -0.007052267 0.034756318 0.040883973 -0.06131788
0.07448323 -0.03216685 0.059050333 -0.008866698 0.090313435 0.08076806 0.014175863 0.07859928
-0.048799295 -0.06286277 -0.06557423 -0.08350317 0.05455388 -0.07264625 -0.016925922 0.011308593
-0.004967459 0.06438878 0.010937735 0.06290519 0.013426324 -0.022610698 -6.770441e-05 0.084668696
-0.06467847 0.07339084 -0.03557099 -0.028607335 -0.02852603 -0.041643985 -0.068870865 -0.058745854
0.07192367 -0.02539239 -0.037895877 -0.069638394 -0.08699821 0.048851456 0.03531372 -0.048431102
0.097817026 0.04151499 -0.015452468 0.025674071 -0.075272046 0.03647569 -0.044400346 0.057491552
-0.06735469 -0.021044511 0.002262373 -0.014967263 -0.015169962 0.04754521 -0.044501957 0.025707468
0.03715283 -0.0010084793 0.053067114 -0.08165034 -0.026490737 -0.069996305 -0.010700926 0.06902926
0.086896844 0.032140546 0.04190951 0.07828336 0.023375418 0.054313894 -0.046799175 -0.0021238343
-0.03575639 -0.016920732 -0.0778059 -0.06347951 -0.005669784 0.09308952 0.024281576 -0.06003103
0.07167204 0.030764053 0.086773984 -0.067620955 0.070190564 -0.028885521 -0.009408182 -0.035914235
00000000: 8bc5 a73d 5a93 05bd f7cc 813c 20f5 95bd
00000010: 0ca5 afbd 2e8d a6bd 598c e7bc c3e6 2ebd
00000020: bded 863d 3be2 36bd 7e88 103d dc0f 863d
00000030: a185 ed3c 4bb2 953d 7bb2 dabc 67f6 6ebd
00000040: 26ef 0abd 3679 adbd b557 8dbd 8252 8c3c
00000050: a9fb fd3c 309d c7bc 2ea1 523d 5804 39bc
00000060: 34a5 913c 53a3 0d3d 99b7 683d df29 973d
00000070: a08a a23b d87d a13c ddc2 2dbd a671 cd3b
00000080: 78fb 04bd fa91 e43c 39d8 afbd ebcd 553d
00000090: b416 e7bb a45c 0e3d f475 273d 7528 7bbd
000000a0: aa8a 983d 63c1 03bd c3de 713d a045 11bc
000000b0: 40f6 b83d ba69 a53d e141 683c a9f8 a03d
000000c0: c5e1 47bd 32be 80bd c84b 86bd b603 abbd
000000d0: e473 5f3d 8fc7 94bd 3ba8 8abc ad47 393c
000000e0: 11c6 a2bb 44de 833d 3034 333c 70d4 803d
000000f0: 16fa 5b3c 123a b9bc 87fc 8db8 c866 ad3d
00000100: 2576 84bd f04d 963d e3b2 11bd ee59 eabc
00000110: 6caf e9bc e292 2abd 2b0c 8dbd 7e9f 70bd
00000120: b84c 933d b403 d0bc b538 1bbd 939e 8ebd
00000130: 1e2c b2bd 7718 483d 1fa5 103d b15f 46bd
00000140: 4b54 c83d 9f0b 2a3d 592c 7dbc 6e52 d23c
00000150: 3b28 9abd 8867 153d 23dd 35bd 437c 6b3d
00000160: 41f1 89bd 8a65 acbc 5244 143b 4039 75bc
00000170: 6f8b 78bc c4be 423d af47 36bd 7898 d23c
00000180: 912d 183d f32e 84ba e75c 593d 4b38 a7bd
00000190: 1a03 d9bc 395a 8fbd f052 2fbc 365f 8d3d
000001a0: f9f6 b13d cea5 033d 4ea9 2b3d 0753 a03d
000001b0: ce7d bf3c 3f78 5e3d 7eb0 3fbd 0730 0bbb
000001c0: 4b75 12bd 599d 8abc b358 9fbd 8c01 82bd
000001d0: 98c9 b9bb b8a5 be3d 28ea c63c 19e3 75bd
000001e0: cac8 923d e504 fc3c 8fb6 b13d db7c 8abd
000001f0: 12c0 8f3d 54a1 ecbc c724 1abc ce1a 13bd

residual_blocks.1.fc1.weight f4 [128, 128]
-0.04472855 -0.069418274 -0.05657458 -0.103403695 0.03036635 0.0119543085 0.034374576 -0.026928538
0.1030426 -0.009707398 0.038286764 0.004154168 -0.07749018 0.04623356 -0.10171152 -0.021950081
0.08401367 0.07829885 0.0013410355 0.06694597 0.014361107 0.021144396 -0.0010226708 -0.06680084
0.05805428 0.073199034 0.07282894 -0.046302356 -0.068071775 -0.00640087 0.01909477 0.021418529
-0.052803915 0.026808562 0.001607544 -0.063248344 0.0108344415 -0.07414727 -0.04664915 0.08279745
-0.069345675 -0.051751327 -0.011790019 0.08472974 -0.08837203 0.071121044 -0.018613975 -0.06593883
0.055548847 0.04626896 0.10594148 0.1130206 0.034289595 -0.031367656 -0.012394663 0.0716729
0.06792164 0.07369101 0.0324156 0.058702365 0.062006358 -0.0071038078 0.086339146 -0.034233518
-0.07866843 0.033918325 0.017648181 0.06280639 0.0027230128 -0.046214674 -0.022371849 -0.03234093
-0.020343643 0.05757873 -0.07924054 -0.061611332 0.026993997 0.06651688 0.08539775 -0.029896924
-0.07122634 -0.029324828 0.05675164 0.07649819 0.021049302 -0.03269654 0.02135371 0.08538329
0.027944919 0.055694792 0.07239861 0.08157851 -0.020130567 0.025135465 -0.08506157 -0.049114257
0.010622665 -0.02461908 -0.082124695 -0.06018511 0.070278056 0.008247801 -0.051043876 0.08860163
-0.005056073 0.089463145 0.030456042 0.1140089 0.07124838 0.052527927 -0.029486261 0.058258466
-0.050656587 0.07647115 0.0037967658 -0.062176187 0.057624664 0.012807797 0.09110035 0.038396083
-0.043422252 -0.07461724 -0.019588735 0.09877816 0.06416293 -0.037339736 0.117928796 0.039940428
0.022214992 -0.0006795442 0.07488325 -0.03840441 -0.04387859 0.018101776 0.019736769 0.08497599
-0.04302936 -0.02972183 -0.08020989 -0.0762409 0.069445856 0.055503804 0.0032701422 -0.03265272
-0.07470681 -0.06533827 0.051976893 0.07245178 0.017407985 0.031028993 0.08776153 -0.017034702
-0.042231828 0.059312552 -0.013689549 0.032813385 0.03866084 -0.030943405 -0.049327303 -0.057763215
0.039197043 0.045373622 -0.07189611 0.0521095 -0.06374839 0.01969498 0.0696697 0.042290516
-0.08588491 0.002507495 0.019149937 0.07375243 -0.051358864 -0.026264124 0.03434967 -0.0049517276
0.0032597743 -0.06922773 -0.08594699 0.07399801 -0.038739085 0.05477459 0.020368043 -0.0001063365
-0.07073917 -0.0071274536 0.0203348 -0.07482764 0.011329283 -0.015349387 -0.03762074 -0.032509856
-0.030109214 -0.047077134 0.0072207246 -0.032508716 0.05632234 -0.023577569 0.0053319028 -0.05914778
0.014275485 0.0058602556 0.03608117 -0.046700858 -0.0646949 0.08632469 -0.0661579 -0.015789147
-0.07649121 -0.077317454 -0.0132559 -0.07575604 0.06437635 -0.05609954 -0.017626602 -0.007043191
-0.010317653 -0.013512332 0.017774707 0.017730009 -0.023981009 -0.086703435 0.020646233 0.008750855
0.026932247 0.0697648 -0.02519056 -0.04904518 0.017255025 -0.079357564 -0.08541464 0.022319464
0.04968771 -0.034287356 -0.06798688 0.0770176 -0.0046243416 0.0010821203 0.014568774 -0.07837634
-0.06616198 0.062267207 0.0011718931 0.061815202 -0.08827072 0.028288184 0.034256503 0.06775071
0.026434988 0.011064643 -0.01512368 0.07938323 -0.03572312 -0.06940938 -0.076516114 -0.015505467
00000000: 4935 37bd 2b2b 8ebd bfba 67bd 51c5 d3bd
00000010: dac2 f83c 01dc 433c 5bcc 0c3d 3d99 dcbc
00000020: 0008 d33d c70b 1fbc 95d2 1c3d b01f 883b
00000030: 2cb3 9ebd 675f 3d3d 214e d0bd a8d0 b3bc
00000040: 5c0f ac3d 265b a03d afc5 af3a f81a 893d
00000050: d94a 6b3c 0337 ad3c 230b 86ba e1ce 88bd
00000060: 53ca 6d3d 60e9 953d 5727 953d 8aa7 3dbd
00000070: 3769 8bbd 64be d1bb a36c 9c3c e975 af3c
00000080: eb48 58bd a19d db3c 3ab4 d23a 5988 81bd
00000090: f182 313c 86da 97bd 2e13 3fbd b691 a93d
000000a0: 1b05 8ebd 33f9 53bd ed2a 41bc c986 ad3d
000000b0: 65fc b4bd e9a7 913d 567c 98bc f00a 87bd
000000c0: 3087 633d 8584 3d3d d9f7 d83d 5877 e73d
000000d0: 3f73 0c3d 5f7b 00bd fc12 4bbc 3ec9 923d
000000e0: 801a 8b3d 50eb 963d 38c6 043d e471 703d
000000f0: 61fa 7d3d 0fc7 e8bb 94d2 b03d 7238 0cbd
00000100: ea1c a1bd f1ed 0a3d eb92 903c a3a0 803d
00000110: 9374 323b 994b 3dbd 2b45 b7bc ec77 04bd
00000120: b6a7 a6bc add7 6b3d dd48 a2bd 2a5c 7cbd
00000130: 8422 dd3c 013a 883d 04e5 ae3d 65ea f4bc
00000140: 1edf 91bd 9f3a f0bc 6874 683d 15ab 9c3d
00000150: 966f ac3c cfec 05bd faed ae3c 6fdd ae3d
00000160: beec e43c 3920 643d b945 943d a212 a73d
00000170: dce8 a4bc e4e8 cd3c c334 aebd 082c 49bd
00000180: b00a 2e3c f4ad c9bc fe30 a8bd a984 76bd
00000190: f1ed 8f3d c921 073c 6213 51bd c574 b53d
000001a0: 6aad a5bb 7438 b73d f37e f93c 807d e93d
000001b0: acea 913d 8627 573d 2c8d f1bc 6ea0 6e3d
000001c0: 487d 4fbd e89c 9c3d 29d3 783b 75ac 7ebd
000001d0: d707 6c3d cbd7 513c d292 ba3d 3645 1d3d
000001e0: 88db 31bd ecd0 98bd 8e78 a0bc 344c ca3d
000001f0: db67 833d 8df1 18bd a784 f13d 9398 233d
00000200: 37fc b53c 7023 32ba 645c 993d f14d 1dbd
00000210: 09ba 33bd 2d4a 943c 01af a13c e407 ae3d
00000220: 8e3f 30bd 327b f3bc 1545 a4bd 3024 9cbd
00000230: a139 8e3d f557 633d e24f 563b dcbe 05bd
00000240: e2ff 98bd 12d0 85bd b9e5 543d 9961 943d
00000250: 319b 8e3c 8430 fe3c 51bc b33d 5c8c 8bbc
00000260: 48fb 2cbd b8f1 723d 214a 60bc 5467 063d
00000270: d45a 1e3d 067d fdbc 6d0b 4abd 1f99 6cbd
00000280: 148d 203d b1d9 393d 453e 93bd c570 553d
00000290: 848e 82bd 5e57 a13c fdae 8e3d d238 2d3d
000002a0: 6de4 afbd c954 243b 54e0 9c3c 840b 973d
000002b0: ac5d 52bd dc27 d7bc 3db2 0c3d 1a42 a2bb
000002c0: f0a1 553b 45c7 8dbd fa04 b0bd 458c 973d
000002d0: e0ac 1ebd 525b 603d e2da a63c f900 dfb8
000002e0: b3df 90bd 6a8d e9bb 2b95 a63c 3c3f 99bd
000002f0: 759e 393c ff7b 7bbc 3418 1abd 0e29 05bd
00000300: 99a7 f6bc f4d3 40bd d49b ec3b dc27 05bd
00000310: 41b2 663d bf25 c1bc 3eb7 ae3b f144 72bd
00000320: b9e3 693c 6307 c03b d9c9 133d 6649 3fbd
00000330: c27e 84bd 00cb b03d cb7d 87bd 3e58 81bc
00000340: 6ca7 9cbd 9d58 9ebd 462f 59bc fc25 9bbd
00000350: bfd7 833d a2c8 65bd aa65 90bc 92ca e6bb
00000360: 600b 29bc d462 5dbc 439c 913c 863e 913c
00000370: d273 c4bc 9291 b1bd 4a22 a93c bf5f 0f3c
00000380: 04a1 dc3c d9e0 8e3d 6f5c cebc 99e3 48bd
00000390: 695a 8d3c 3886 a2bd dfed aebd 4fd7 b63c
000003a0: 5785 4b3d e670 0cbd b53c 8bbd 67bb 9d3d
000003b0: ca87 97bb efd5 8d3a deb1 6e3c c683 a0bd
000003c0: ef7f 87bd e60b 7f3d 359a 993a f031 7d3d
000003d0: 47c7 b4bd 9fbc e73c 8c50 0c3d e2c0 8a3d
000003e0: 308e d83c 7a48 353c 50c9 77bc ad93 a23d
000003f0: 6852 12bd 8126 8ebd 7bb4 9cbd a40a 7ebc

residual_blocks.1.fc1.bias f4 [128]
-0.023829913 0.08154368 0.052880038 -0.009019178 -0.041285742 0.07936021 0.032542396 -0.08562514
-0.012900181 -0.078869544 -0.03361615 -0.056241617 -0.041515928 0.054953925 0.015492643 -0.039956085
0.02066678 -0.0028968733 -0.06162408 0.08429314 0.01841774 -0.088008836 0.008741745 -0.019559309
0.053080156 0.03386096 -0.0054748757 0.041890167 -0.08535859 0.04234162 -0.034111418 0.050960995
-0.08613062 0.049459618 0.0624131 -0.08353169 -0.03477158 -0.046811722 -0.063614145 -0.06883652
-0.023261651 0.019231154 -0.050338976 0.019557972 -0.027344918 0.0074020103 -0.04605781 -0.066853665
-0.043052226 -0.093013674 0.0046330974 -0.0029259133 0.05066935 0.038840994 0.070925154 -0.013207737
0.0588013 -0.06137603 0.029495692 0.044376727 0.017555257 0.0009684686 -0.052375752 0.08080045
-0.07996044 0.034374345 0.017731566 0.00854814 0.04531453 -0.031223597 0.05360219 -0.05284591
0.07039559 0.007940479 0.020568293 -0.074902326 0.02897853 0.017507887 0.0033166083 0.012817099
0.06621653 0.026087588 -0.0023588322 0.06223344 0.037761565 0.013829132 -0.080805406 0.013796538
-0.07354637 -0.080557704 -0.0075984243 0.0382385 0.01737257 -0.038985673 0.08574908 -0.045548856
0.086669885 0.006151638 -0.035466004 -0.06915482 -0.07683794 0.0213775 -0.051791213 0.07861857
-0.039269272 0.03648916 0.005673043 0.06265188 0.08429462 0.023465855 0.016978726 0.08434853
-0.013102568 0.008233768 0.018616863 0.006442698 0.08877946 0.08966758 0.028696919 0.058597174
-0.07919615 -0.030778768 -0.040147044 0.00969211 0.05427891 0.022517629 -0.032930534 0.052128524
00000000: f336 c3bc 5f00 a73d bd98 583d 2dc5 13bc
00000010: 3d1b 29bd 9b87 a23d 2d4b 053d 3c5c afbd
00000020: 485b 53bc 5b86 a1bd 17b1 09bd 9c5d 66bd
00000030: 9b0c 2abd 5e17 613d dbd4 7d3c fea8 23bd
00000040: 614d a93c 78d9 3dbb 8869 7cbd e2a1 ac3d
00000050: cde0 963c fa3d b4bd 8939 0f3c d83a a0bc
00000060: 946a 593d cab1 0a3d 9666 b3bb 0695 2b3d
00000070: 7cd0 aebd 686e 2d3d 6ab8 0bbd 7abc 503d
00000080: 4065 b0bd 2b96 4a3d e1a4 7f3d aa12 abbd
00000090: a56c 0ebd a6bd 3fbd 2248 82bd 29fa 8cbd
000000a0: 388f bebc a78a 9d3c 3e30 4ebd 0a38 a03c
000000b0: 7302 e0bc 908c f23b 1da7 3cbd 93ea 88bd
000000c0: 8857 30bd f47d bebd 3dd1 973b aec0 3fbb
000000d0: aa8a 4f3d bc17 1f3d 3541 913d 4465 58bc
000000e0: a2d9 703d 6f65 7bbd f3a0 f13c 5fc4 353d
000000f0: 0bd0 8f3c d4e0 7d3a f587 56bd b57a a53d
00000100: 4dc2 a3bd 1dcc 0c3d ca41 913c 7f0d 0c3c
00000110: bb9b 393d a1c8 ffbc f88d 5b3d f474 58bd
00000120: 902b 903d c818 023c d67e a83c 6466 99bd
00000130: 6264 ed3c b36c 8f3c 745b 593b cffe 513c
00000140: 889c 873d a3b5 d53c a396 1abb 7ee8 7e3d
00000150: dfab 1a3d 9593 623c 4e7d a5bd e00a 623c
00000160: 7b9f 96bd 70fb a4bd 34fc f8bb f99f 1c3d
00000170: eb50 8e3c 71af 1fbd 379d af3d 7091 3abd
00000180: fb7f b13d ae93 c93b cd44 11bd 0ba1 8dbd
00000190: 365d 9dbd de1f af3c 0623 54bd c602 a13d
000001a0: d1d8 20bd a875 153d efe4 b93b a14f 803d
000001b0: a8a2 ac3d 773b c03c f816 8b3c ecbe ac3d
000001c0: 27ac 56bc ede6 063c 6482 983c 451d d33b
000001d0: 01d2 b53d a3a3 b73d cd15 eb3c 9703 703d
000001e0: 9731 a2bd c123 fcbc 3a71 24bd a8cb 1e3c
000001f0: 9053 5e3d e476 b83c 2be2 06bd b884 553d

residual_blocks.1.fc2.weight f4 [128, 128]
0.07687302 0.017936444 -0.0038411822 -0.029792016 0.031411503 -0.015946228 0.07824188 -0.015821625
-0.058971595 0.05851159 0.03201146 0.031690247 -0.01482299 0.08797373 -0.03531763 -0.0023122919
0.05760847 -0.07443594 -0.045691036 -0.037654467 0.043546334 -0.08122151 0.041287135 0.08412433
-0.03228473 0.026256716 -0.07260071 -0.044033658 -0.052841242 0.07479311 0.0069457027 -0.04648261
0.039436504 0.07791461 -0.025261704 -0.036511056 -0.033249322 -0.018415365 0.05362594 0.06029352
-0.11198281 0.001498784 0.028522052 -0.04133474 0.033839468 0.025372868 -0.03296783 0.06915532
0.0015541192 -0.02252643 -0.039245322 -0.11650552 0.040075276 -0.054881353 0.020396154 0.0877161
0.016164714 0.0708254 -0.00789088 -0.09712381 0.05624192 -0.05041906 0.05009828 0.029720945
0.081792705 -0.048644938 -0.022370195 -0.06584101 0.021970872 0.03355279 -0.0131704165 0.07806255
-0.03270311 0.042923342 0.02166007 0.08223418 -0.04178865 0.014529693 0.040282376 -0.080696754
-0.068015225 -0.041637037 0.026625862 0.09150153 -0.007607633 0.051353347 -0.094757326 0.01280997
0.03435169 -0.065397486 0.08336076 0.04920738 0.021893 -0.061227076 -0.010584067 -0.04232622
-0.025320077 -0.049654014 0.06805405 -0.02358978 -0.071171515 -0.02980923 0.017266888 -0.050002348
-0.045451984 -0.074992895 0.08507401 0.07634621 0.021447068 -0.050776917 -0.073048234 -0.08797098
-0.10776369 0.073744714 -0.015648808 0.005410556 0.037748132 0.054379907 0.047372065 0.07156849
-0.022860313 0.07668271 -0.08135335 0.03493395 -0.0628506 -0.06021559 0.055423614 0.033246964
0.042143155 0.081713125 0.07006665 -0.054212354 0.079409115 0.0053407433 -0.07767959 -0.07052503
-0.037166797 0.005018348 -0.04474046 0.08134686 -0.01537452 0.074235834 -0.06229136 -0.017703615
0.07864259 0.013741569 -0.0064899717 0.029626932 -0.026187217 -0.061310936 -0.043566886 0.028839054
0.04155531 -0.013067864 0.039959732 -0.08642926 0.015362684 -0.020142242 0.07412793 -0.016382383
0.046389736 -0.07432921 -0.05299149 0.02777589 -0.0637377 -0.008295585 0.012478512 0.010713497
-0.03376273 -0.008525897 -0.06623323 -0.07218553 -0.078674644 -0.01582052 -0.09234837 0.019042145
-0.06999795 0.051230554 0.08391416 0.095965914 0.027044242 -0.051379077 -0.063322656 0.0540998
0.08921099 -0.075965814 0.056236908 0.0888111 -0.027762808 -0.020807099 -0.08811491 -0.02384001
-0.06044663 0.00682684 -0.05644646 -0.02143281 -0.013937327 0.05614898 0.047717858 0.023623344
-0.061028905 0.033815116 0.053269926 0.06611701 -0.09112406 0.04685357 0.044824712 0.06405279
0.041213054 -0.030086985 0.08707682 -0.010713363 -0.09061295 -0.014865736 -0.0692855 0.022942645
-0.00916469 0.07601125 0.06916315 0.009504275 -0.03310249 0.06561995 0.089323305 0.010347973
-0.015883392 0.07436274 -0.019177256 0.06773063 -0.036380824 -0.019056816 0.0103373155 -0.051876873
0.04701971 -0.054257978 -0.048599098 -0.013374786 -0.022399487 0.006444904 0.035736714 -0.07870275
0.06915368 -0.06279809 -0.0039696535 -0.004978636 0.034235895 0.01642051 0.062163394 -0.020048663
0.028796634 0.045642864 -0.009792314 -0.06197108 -0.07409598 0.038935475 0.05177949 0.09290505
00000000: 9a6f 9d3d 73ef 923c 58bc 7bbb 630e f4bc
00000010: 59a9 003d aaa1 82bc 473d a03d 5a9c 81bc
00000020: 338c 71bd d9a9 6f3d 731e 033d a2cd 013d
00000030: 20dc 72bc 922b b43d 38a9 10bd d289 17bb
00000040: dcf6 6b3d df71 98bd 8626 3bbd 923b 1abd
00000050: a45d 323d 7757 a6bd b31c 293d 6049 ac3d
00000060: fe3c 04bd 5318 d73c aeaf 94bd a35c 34bd
00000070: 0f70 58bd 212d 993d c798 e33b 8d64 3ebd
00000080: 2c88 213d b291 9f3d a2f1 cebc 9e8c 15bd
00000090: 7130 08bd d2db 96bc e0a6 5b3d 57f6 763d
000000a0: 3e57 e5bd d972 c43a 14a7 e93c 9e4e 29bd
000000b0: 419b 0a3d c3da cf3c 4609 07bd 4ea1 8d3d
000000c0: 96b3 cb3a 5989 b8bc b4bf 20bd 729a eebd
000000d0: f925 243d 45cb 60bd d615 a73c 80a4 b33d
000000e0: dd6b 843c e80c 913d c048 01bc d9e8 c6bd
000000f0: ed5d 663d 3784 4ebd db33 4d3d 5779 f33c
00000100: ef82 a73d ea3f 47bd b341 b7bc a7d7 86bd
00000110: 42fc b33c a66e 093d bbc8 57bc 42df 9f3d
00000120: b2f3 05bd 63d0 2f3d 7670 b13c 656a a83d
00000130: 932a 2bbd f30d 6e3c 22ff 243d 5744 a5bd
00000140: 914b 8bbd 998b 2abd 7b1e da3c 2765 bb3d
00000150: 7349 f9bb e357 523d 2110 c2bd e9e0 513c
00000160: 5cb4 0c3d 1eef 85bd 0cb9 aa3d ad8d 493d
00000170: f358 b33c 3ec9 7abd cb68 2dbc 425e 2dbd
00000180: 0d6c cfbc 0262 4bbd ec5f 8b3d 5b3f c1bc
00000190: 5fc2 91bd 7c32 f4bc 4a73 8d3c 43cf 4cbd
000001a0: dc2b 3abd e095 99bd 483b ae3d 675b 9c3d
000001b0: c3b1 af3c 75fb 4fbd 509a 95bd 212a b4bd
000001c0: 36b3 dcbd 7807 973d ee31 80bc 094b b13b
000001d0: c99d 1a3d 77bd 5e3d 3609 423d 8092 923d
000001e0: 8d45 bbbc d30b 9d3d 969c a6bd e716 0f3d
000001f0: d1b7 80bd 9fa4 76bd df03 633d f82d 083d
00000200: 4d9e 2c3d 3659 a73d 1b7f 8f3d c60d 5ebd
00000210: 3fa1 a23d 6701 af3b 7a16 9fbd 6d6f 90bd
00000220: 363c 18bd f470 a43b c641 37bd 2f99 a63d
00000230: 69e5 7bbc f508 983d 3a25 7fbd 2c07 91bc
00000240: 5e0f a13d 5124 613c d4a9 d4bb 2eb4 f23c
00000250: 9386 d6bc 2d21 7bbd 3173 32bd e13f ec3c
00000260: e735 2a3d 981a 56bc d1ac 233d d301 b1bd
00000270: c4b3 7b3c 5801 a5bc 62d0 973d 5934 86bc
00000280: 2a03 3e3d ea39 98bd 9b0d 59bd 438a e33c
00000290: e988 82bd 35ea 07bc ac72 4c3c aa87 2f3c
000002a0: ca4a 0abd 34b0 0bbc 4aa5 87bd 02d6 93bd
000002b0: 2c20 a1bd 099a 81bc 2421 bdbd 46fe 9b3c
000002c0: 165b 8fbd 21d7 513d 30db ab3d c789 c43d
000002d0: e38b dd3c de72 52bd 4faf 81bd c097 5d3d
000002e0: 40b4 b63d f793 9bbd ac58 663d 98e2 b53d
000002f0: d46e e3bc a673 aabc 9775 b4bd 204c c3bc
00000300: e396 77bd afb3 df3b 6734 67bd dc93 afbc
00000310: 6359 64bc 79fc 653d cd73 433d be85 c13c
00000320: 72f9 79bd b881 0a3d 9131 5a3d 5b68 873d
00000330: 409f babd 87e9 3f3d 1e9a 373d 1c2e 833d
00000340: 05cf 283d fb78 f6bc 5555 b23d 1a87 2fbc
00000350: 4893 b9bd 6a8f 73bc 8ee5 8dbd 37f2 bb3c
00000360: 7f27 16bc c9ab 9b3d 69a5 8d3d d2b7 1b3c
00000370: 7a96 07bd c163 863d 23ef b63d 8b8a 293c
00000380: e31d 82bc 7e4b 983d 9f19 9dbc 5bb6 8a3d
00000390: 0f04 15bd 0a1d 9cbc d85d 293c d87c 54bd
000003a0: bd97 403d 9d3d 5ebd d90f 47bd eb21 5bbc
000003b0: 217f b7bc c62f d33b a960 123d e82e a1bd
000003c0: 72a0 8d3d 499c 80bd de13 82bb d323 a3bb
000003d0: f03a 0c3d 4e84 863c 0b9f 7e3d 183d a4bc
000003e0: ebe6 eb3c 03f4 3a3d f16f 20bc 63d5 7dbd
000003f0: a2bf 97bd ce7a 1f3d bb16 543d 0145 be3d

residual_blocks.1.fc2.bias f4 [128]
0.051464926 0.08680132 -0.049120538 0.005015939 -0.0027239702 0.020806123 0.074869476 -0.028229294
0.078933164 -0.031674862 0.07385722 0.058083545 -0.07675308 0.080096096 -0.009549759 0.0024234753
-0.07387937 -0.0025184005 -0.054354746 0.0736412 -0.033959385 0.044308044 -0.07055627 0.01694288
0.026531382 0.06746824 0.040825725 -0.04277999 0.036393657 0.02114043 0.07061762 0.073094696
-0.08422136 -0.004713987 0.08145818 0.067768715 -0.010622122 -0.0109047815 0.08361793 0.036717847
-0.072100505 -0.020783326 -0.044769652 0.076630734 -0.032725226 -0.03785638 0.04973994 0.0663146
-0.021751944 0.012585894 -0.014220875 -0.02981801 0.045449633 -0.03542121 -0.042559795 -0.086032495
0.007197944 -0.0021652943 0.08853259 -0.039644856 0.05206873 -0.058292948 0.070079766 0.066018976
-0.06162553 0.07428349 0.07599211 -0.07891302 0.05390565 -0.04698518 0.050001938 0.052945632
0.055341892 0.05421428 -0.05167847 0.093786046 0.04680415 0.047196355 -0.08007131 0.06623381
-0.06619747 -0.041614786 0.00932704 0.0018694656 0.021040494 -0.07626209 -0.079014316 -0.0058656274
-0.04497897 -0.009697542 0.010812145 -0.0063482416 -0.028479489 0.05236217 -0.07300697 -0.0035925973
-0.0053620064 0.014739026 -0.056059808 -0.049076296 0.07663104 -0.024638778 0.08865085 0.013929239
-0.08725196 0.0071851155 0.07975167 -0.028538378 -0.05844185 0.016144473 -0.0033589734 -0.062207777
-0.07321076 0.08764194 -0.07582269 -0.0030140292 0.057445254 0.07337153 0.05996176 0.068924814
-0.045011684 0.054974664 0.07908741 0.08125136 -0.06845165 -0.08592884 0.056307923 0.016582942
00000000: e3cc 523d e4c4 b13d 9e32 49bd bf5c a43b
00000010: a384 32bb 9a71 aa3c 2b55 993d 1f41 e7bc
00000020: b6a7 a13d 80bd 01bd 7442 973d 03e9 6d3d
00000030: b830 9dbd 6c09 a43d 9876 1cbc 2bd3 1e3b
00000040: 114e 97bd c00b 25bb 15a3 5ebd 33d1 963d
00000050: ff18 0bbd 5a7c 353d ce7f 90bd cbcb 8a3c
00000060: 5758 d93c ca2c 8a3d e038 273d 123a 2fbd
00000070: 8411 153d b22e ad3c f99f 903d acb2 953d
00000080: 407c acbd ca77 9abb 8cd3 a63d 53ca 8a3d
00000090: 6908 2ebc f8a9 32bc e13f ab3d 7465 163d
000000a0: 6ea9 93bd cb41 aabc 6260 37bd 93f0 9c3d
000000b0: e30a 06bd 4b0f 1bbd 1bbc 4b3d f3cf 873d
000000c0: 2231 b2bc 1135 4e3c acfe 68bc e644 f4bc
000000d0: 6529 3a3d d515 11bd 2e53 2ebd ce31 b0bd
000000e0: bbdc eb3b 9ce7 0dbb 9350 b53d a562 22bd
000000f0: 0546 553d 96c4 6ebd fb85 8f3d f534 873d
00000100: 0d6b 7cbd f121 983d c0a1 9b3d 269d a1bd
00000110: 2ccc 5c3d 8873 40bd d5ce 4c3d 85dd 583d
00000120: 2eae 623d cb0f 5e3d ceac 53bd e612 c03d
00000130: b5b5 3f3d f750 413d 6dfc a3bd 97a5 873d
00000140: 8a92 87bd 4474 2abd 71d0 183c db08 f53a
00000150: 1d5d ac3c 4c2f 9cbd 42d2 a1bd 7334 c0bb
00000160: de3b 38bd 70e2 1ebc 6c25 313c e904 d0bb
00000170: d14d e9bc b779 563d ae84 95bd c871 6bbb
00000180: c5b3 afbb f57b 713c f89e 65bd 3a04 49bd
00000190: bcf0 9c3d 43d7 c9bc 948e b53d 7637 643c
000001a0: 28b1 b2bd 1e71 eb3b d854 a33d 51c9 e9bc
000001b0: b960 6fbd 6a41 843c 3922 5cbb 95cd 7ebd
000001c0: 86ef 95bd 9e7d b33d ed48 9bbd 0587 45bb
000001d0: b74b 6b3d d043 963d 769a 753d 7428 8d3d
000001e0: 2c5e 38bd 1d2d 613d 94f8 a13d 1d67 a63d
000001f0: 6130 8cbd 76fb afbd 23a3 663d f3d8 873c
