outputs/weights/mlp_debug/a1_bigfoot.pth (torch, 292597 bytes, 12 tensors)

input_proj.weight f4 [128, 8]
-0.17323712 0.051009696 0.04661711 0.10845894 -0.040579222 -0.20089416 0.24013634 -0.17882338
0.19949186 0.2635497 -0.15487854 -0.18060502 -0.32112226 -0.14298019 -0.08892193 -0.20160928
0.11891506 -0.043182816 -0.007816597 0.026446125 -0.41240126 0.333583 0.3684088 0.2703648
-0.18414493 0.16423075 0.27268985 -0.053013824 0.35476992 0.12205962 0.25598836 0.23162752
-0.13686974 0.1268079 -0.073985964 0.16941237 0.0026650277 0.07987023 -0.28502133 0.058278307
-0.010207924 -0.28626275 -0.21889378 -0.23456874 0.32238778 0.0036930754 -0.10561937 0.0056750732
0.28403625 0.040307265 0.30275416 -0.15238579 -0.3844462 -0.15875709 -0.3834903 0.1792793
-0.25362876 0.038052533 0.2870196 0.13635351 -0.12964706 0.00525719 0.38399774 0.11966922
0.17735352 -0.2351666 -0.32581267 0.23813212 0.2099239 -0.22602586 0.3113683 0.2570484
0.32970724 -0.27321896 -0.31092167 0.30660337 0.06760553 -0.34493273 -0.06341623 -0.11467132
-0.21195869 -0.3195342 0.14611626 0.0075844377 0.04823868 0.34522623 0.18880959 0.16082704
0.0013045714 -0.29245192 0.022088952 0.14104143 -0.27059054 -0.043871425 -0.3616506 0.024103018
0.114717565 -0.23434478 -0.10982352 -0.0349488 -0.2718934 -0.34613958 -0.1284566 -0.11526801
0.07439606 -0.29248706 0.064984284 -0.08727035 0.1882326 -0.17181414 0.2718025 -0.011082733
0.22271891 -0.032309353 -0.29288426 0.115111895 0.3294467 0.20605628 0.1403381 -0.21704404
-0.112811014 0.030786714 0.073477425 0.24191758 -0.1602215 0.04322478 0.37705463 -0.30977085
-0.17226031 -0.2216429 0.15828717 -0.22629051 -0.16557035 -0.28866607 0.046268135 -0.27570355
-0.254951 -0.24930716 -0.25644925 0.22282492 0.36920655 0.23278458 0.22942302 -0.075402886
0.3435337 -0.21478447 -0.2865834 -0.0065612886 0.26836276 -0.11787228 -0.31694075 0.32708833
-0.13743846 0.030281793 0.07510075 0.15881191 0.31411532 -0.052502375 -0.4737016 0.34002557
0.18581277 -0.05253655 -0.28098422 -0.16472982 -0.27961108 -0.021362863 0.015657661 0.1383077
-0.20931414 -0.30642465 -0.07096004 -0.10084013 0.044520054 0.18547466 0.2595547 -0.22603068
-0.30466005 0.20265608 0.036859654 0.02819319 0.17222871 0.12786576 0.2780374 -0.028352115
-0.06112439 0.06643641 -0.02156574 -0.28321677 -0.06478194 -0.32227916 0.040557195 0.23563911
-0.13201025 -0.29768437 -0.055279594 0.3230853 -0.13317059 0.3185556 -0.27383813 0.22857758
0.08497209 -0.31090334 0.1537837 -0.12648973 -0.016349353 0.30813572 0.1713805 -0.12455127
-0.13357702 0.123143435 -0.0732634 0.14985631 0.41009828 -0.2682861 0.05083771 -0.0484728
0.014138244 0.026723377 0.0349343 -0.26689264 -0.30520198 0.015242197 0.30513716 -0.24174538
-0.00080972526 -0.085156105 -0.13049081 0.14778635 0.31938842 -0.3955782 0.09182148 0.20027706
-0.1357107 0.057566863 -0.06755689 -0.04936878 -0.11622805 0.20438781 -0.1830305 -0.25041562
-0.13663852 -0.30045632 -0.31636658 -0.02545843 -0.14116982 -0.42675957 -0.0023864533 0.23320374
-0.24762672 0.21165735 -0.25980657 0.101272315 0.39097288 -0.15417191 -0.20932145 0.2924763
00000000: 1265 31be 8bef 503d 95f1 3e3d b91f de3d
00000010: 6636 26bd 33b7 4dbe 4de6 753e 7a1d 37be
00000020: 9847 4c3e fcef 863e 7b98 1ebe 86f0 38be
00000030: 236a a4be 6669 12be b31c b6bd aa72 4ebe
00000040: bd89 f33d 77e0 30bd 2f11 00bc 8ba5 d83c
00000050: 4226 d3be 64cb aa3e 14a0 bc3e 416d 8a3e
00000060: 7d90 3cbe 1b2c 283e 019e 8b3e 0625 59bd
00000070: 67a4 b53e 65fa f93d e810 833e c42f 6d3e
00000080: 9527 0cbe eed9 013e f485 97bd 707a 2d3e
00000090: bfa7 2e3b 0193 a33d 51ee 91be 3cb5 6e3d
000000a0: 233f 27bc 0891 92be b125 60be ca32 70be
000000b0: 0310 a53e 8607 723b f84e d8bd f7f5 b93b
000000c0: 336d 913e 3b19 253d 9802 9b3e 050b 1cbe
000000d0: 22d6 c4be 3891 22be d758 c4be fe94 373e
000000e0: a1db 81be f9dc 1b3d 3cf4 923e 41a0 0b3e
000000f0: 33c2 04be 8244 ac3b 5a9b c43e 2315 f53d
00000100: 299c 353e 83cf 70be ebd0 a6be e8d8 733e
00000110: 4af6 563e 5373 67be aa6b 9f3e d99b 833e
00000120: 63cf a83e 5be3 8bbe 2031 9fbe 1efb 9c3e
00000130: c574 8a3d 069b b0be 5ee0 81bd ccd8 eabd
00000140: b30b 59be fd99 a3be 809f 153e e086 f83b
00000150: ec95 453d 7ec1 b03e 4d57 413e d8af 243e
00000160: 27fe aa3a 42bc 95be e4f3 b43c 2a6d 103e
00000170: d88a 8abe 86b2 33bd 442a b9be b173 c53c
00000180: 0bf1 ea3d 14f8 6fbe 27eb e0bd 7926 0fbd
00000190: 9d35 8bbe 3539 b1be 208a 03be a211 ecbd
000001a0: f65c 983d ddc0 95be 7b16 853d ccba b2bd
000001b0: 0cc0 403e 0cf0 2fbe b329 8b3e 5a94 35bc
000001c0: 6d10 643e d056 04bd edf4 95be c9bf eb3d
000001d0: 3dad a83e 6b00 533e cab4 0f3e cb40 5ebe
000001e0: 7609 e7bd 6b34 fc3c 557b 963d 3eb9 773e
000001f0: 1b11 24be 780c 313d 4e0d c13e 499a 9ebe
00000200: 0265 30be 5bf6 62be 0816 223e b3b8 67be
00000210: 468b 29be 0acc 93be a883 3d3d 0429 8dbe
00000220: f088 82be 604a 7fbe 514d 83be 372c 643e
00000230: a408 bd3e 155f 6e3e deed 6a3e d46c 9abd
00000240: a6e3 af3e 76f0 5bbe 0fbb 92be 1400 d7bb
00000250: d866 893e 0667 f1bd 0f46 a2be 1f78 a73e
00000260: abbc 0cbe 8611 f83c 6cce 993d 979f 223e
00000270: b9d3 a03e bb0c 57bd 0489 f2be d517 ae3e
00000280: b445 3e3e 9130 57bd 2add 8fbe efae 28be
00000290: 2f29 8fbe 2c01 afbc 7f44 803c 89a0 0d3e
000002a0: 7256 56be b1e3 9cbe 7f53 91bd 4585 cebd
000002b0: a95a 363d 12ed 3d3e 5be4 843e 9674 67be
000002c0: 67fc 9bbe 1385 4f3e 26fa 163d 68f5 e63c
000002d0: b95c 303e 3eef 023e eb5a 8e3e b242 e8bc
000002e0: 925d 7abd d00f 883d a3aa b0bc ca01 91be
000002f0: 65ac 84bd c601 a5be 4d1f 263d 614b 713e
00000300: b22d 07be 166a 98be db6c 62bd 706b a53e
00000310: df5d 08be b819 a33e 8334 8cbe 3e10 6a3e
00000320: d905 ae3d b92e 9fbe 7979 1d3e 8686 01be
00000330: 14ef 85bc f7c3 9d3e 5f7e 2f3e bc14 ffbd
00000340: 6ac8 08be a032 fc3d 1f0b 96bd ef73 193e
00000350: 67f8 d13e cc5c 89be 343b 503d 6a8b 46bd
00000360: 18a4 673c fcea da3c 4517 0f3d 27a6 88be
00000370: 6f43 9cbe 68ba 793c f03a 9c3e 1a8c 77be
00000380: be43 54ba 5366 aebd 629f 05be 4e55 173e
00000390: e186 a33e 3a89 cabe e60c bc3d 6e15 4d3e
000003a0: bff7 0abe 3bcb 6b3d 445b 8abd eb36 4abd
000003b0: f908 eebd 0a4b 513e 596c 3bbe 7a36 80be
000003c0: f8ea 0bbe 69d5 99be cdfa a1be 338e d0bc
000003d0: d28e 10be 3b80 dabe 0b66 1cbb f6cc 6e3e
000003e0: dc91 7dbe b4bc 583e 5e05 85be dc67 cf3d
000003f0: 992d c83e 3edf 1dbe 5d58 56be 74bf 953e

input_proj.bias f4 [128]
0.09381171 -0.21951558 -0.024089592 0.3069304 0.31666288 -0.27855915 0.16891724 0.12220849
-0.007839412 0.2613834 0.22930285 -0.067237385 -0.2873402 0.18503529 -0.17302157 0.14105833
-0.30613935 0.13233142 -0.20827566 0.29635006 0.101147026 -0.2569754 0.099180624 -0.20843138
0.33607945 -0.006556364 0.27327985 -0.08617568 -0.20216438 0.36536434 0.16566885 -0.27071688
0.14445543 -0.25113207 0.34360644 -0.0486889 0.06670239 -0.32652852 -0.10546296 -0.21240748
-0.017518552 -0.2879801 -0.27318102 -0.09204041 -0.18418743 -0.17532043 0.10306931 -0.118783556
-0.34043592 -0.06304004 -0.15124914 -0.244429 -0.28718147 0.17429018 0.11707046 0.25208282
0.31309485 0.041128516 -0.069804035 -0.28464153 -0.03506532 -0.2965818 -0.28596413 0.24988227
-0.03259245 0.21900897 0.044368576 -0.20456146 0.055785064 0.047552347 0.13113065 -0.30750883
-0.18094572 0.13138251 -0.08329469 0.28175277 -0.03672689 -0.09996166 0.33612704 0.18548542
-0.16762589 -0.0930151 -0.26295513 0.34765756 -0.22479051 0.07472526 0.268437 -0.077347055
0.33777362 0.0034078956 0.000625262 0.1604225 -0.017446645 0.09788702 -0.32442054 -0.053662766
-0.18668221 -0.004730478 0.042551205 -0.017454095 0.31812593 -0.2889966 0.107178256 -0.005466267
-0.16240153 -0.016243393 -0.13984622 0.31760398 -0.3125678 -0.22493519 -0.3385776 0.32135376
0.03424629 0.3319794 -0.30385396 -0.10697527 -0.24341638 -0.15691622 -0.3328074 0.19660506
-0.34708887 0.040993627 0.24181516 0.16045347 0.3508114 -0.056926776 -0.0056525245 -0.15237232
00000000: 5b20 c03d b1c8 60be 8957 c5bc fb25 9d3e
00000010: a321 a23e 4e9f 8ebe a4f8 2c3e 7248 fa3d
00000020: e170 00bc 0cd4 853e 5ece 6a3e c1b3 89bd
00000030: 411e 93be e479 3d3e 912c 31be 9871 103e
00000040: 4cbe 9cbe e381 073e 3746 55be 32bb 973e
00000050: 2c26 cf3d 4892 83be 361f cb3d 096f 55be
00000060: 9b12 ac3e c4d6 d6bb 56eb 8b3e e07c b0bd
00000070: 2e04 4fbe 0911 bb3e 18a5 293e 679b 8abe
00000080: 20ec 133e 6294 80be 2fed af3e 036e 47bd
00000090: 439b 883d bf2e a7be f7fc d7bd 5981 59be
000000a0: 1183 8fbc 2172 93be 62de 8bbe af7f bcbd
000000b0: a19b 3cbe 3387 33be 0116 d33d cb44 f3bd
000000c0: 9e4d aebe 231b 81bd 0ee1 1abe 994b 7abe
000000d0: 7309 93be 2079 323e a3c2 ef3d 0011 813e
000000e0: f84d a03e 6076 283d 6bf5 8ebd 89bc 91be
000000f0: a7a0 0fbd 92d9 97be e469 92be 23e1 7f3e
00000100: a97f 05bd e343 603e d3bb 353d 8f78 51be
00000110: e17e 643d 40c6 423d 1d47 063e cc71 9dbe
00000120: d649 39be 2389 063e 6896 aabd e641 903e
00000130: ef6e 16bd b3b8 ccbd d818 ac3e e4ef 3d3e
00000140: 1fa6 2bbe b37e bebd 0ea2 86be 2c00 b23e
00000150: 7c2f 66be 8f09 993d 9370 893e 2268 9ebd
00000160: aaf0 ac3e 0057 5f3b 9fe8 233a cc45 243e
00000170: 44ec 8ebc fd78 c83d 731a a6be 7dcd 5bbd
00000180: 9f29 3fbe 2002 9bbb 2c4a 2e3d e4fb 8ebc
00000190: 67e1 a23e 5df7 93be 4680 db3d 5f1e b3bb
000001a0: 964c 26be dd10 85bc d933 0fbe fd9c a23e
000001b0: e308 a0be 6955 66be 0b5a adbe 7b88 a43e
000001c0: d645 0c3d 34f9 a93e bf92 9bbe da15 dbbd
000001d0: 2542 79be a5ae 20be bb65 aabe d652 493e
000001e0: a2b5 b1be efe8 273d 659e 773e ea4d 243e
000001f0: 8d9d b33e 0d2c 69bd d038 b9bb 7d07 1cbe

residual_blocks.0.fc1.weight f4 [128, 128]
0.0013977159 0.07876504 0.014517914 -0.08776531 0.052204203 -0.058157645 -0.06256811 0.037143268
-0.08150015 -0.027036844 0.038774554 0.04875228 -0.07748825 -0.04687602 -0.0006919775 -0.027685126
-0.010422578 -0.025921196 -0.07030332 0.085513994 -0.010105898 0.07660746 -0.022019083 -0.04363112
-0.006688441 -0.08744902 0.05591317 -0.029737499 -0.03896712 0.05374152 0.07857774 0.009004053
0.05340763 -0.067586884 -0.020807456 -0.07308111 -0.061895628 -0.023252321 0.028379517 0.027323917
0.014686817 -0.07661447 -0.007745284 0.07474919 0.020894637 -0.017052477 0.03415278 0.017448425
-0.06855019 -0.08774199 -0.0858092 -0.036676355 -0.056163065 -0.087797835 -0.07219388 -0.073215954
0.053107947 0.033501275 -0.017312102 0.072176 0.05964626 0.05856038 -0.07659731 -0.08560049
0.022299707 0.0051730094 0.020230286 0.048725095 -0.053737346 -0.018618517 0.07692788 0.0855869
-0.07675038 0.0656006 -0.017815504 0.0075936923 -0.08198975 0.07803987 0.03977509 -0.08589525
-0.017613536 0.071899794 -0.048220903 -0.07012753 -0.043398377 -0.03328701 -0.01737941 0.045157712
-0.06340678 -0.05781441 -0.08787303 0.026042178 -0.04483765 0.046464793 0.06813011 -0.03530084
0.018730765 -0.006213299 -0.06146845 -0.0005486677 -0.06134226 -0.041391324 -0.08738721 0.02895183
-0.04447717 -0.030613426 -0.03079588 0.0753102 -0.017158234 -0.082539484 -0.018555688 0.080215216
0.040794946 0.022834383 -0.00909844 0.035549782 0.013193502 0.032996956 0.05981607 0.03995969
0.061751537 0.035400126 -0.020926258 -0.06874646 0.018753946 -0.081411466 -0.08081867 -0.053373788
0.06645141 -0.05711587 -0.03248431 0.059142336 0.038342018 -0.0023659028 0.034105785 -0.0038983105
0.01710174 -0.08737769 -0.06099782 0.042928353 0.030040935 -0.0062226183 -0.03491582 0.046929076
0.035178952 -0.0015259654 0.02751507 0.082993776 -0.0077106627 0.07490241 -0.085237294 0.084591895
-0.055852894 -0.07591781 -0.0010827428 0.012357487 -0.088568196 -0.043732565 -0.045453347 0.018886112
-0.078689 -0.028602758 -0.047140185 -0.055409048 0.028062109 0.012837182 0.08632931 -0.020671397
-0.04399572 0.037721675 0.042086113 0.087563045 -0.07538812 0.070836976 0.08619886 -0.039263584
0.074754134 -0.03884119 -0.013793862 0.017423844 0.029794345 0.032761652 0.05740888 -0.05845809
0.041919496 0.03148708 -0.06897422 0.03173741 0.08159421 0.06052717 0.062304314 0.05211515
0.08351227 -0.033429746 0.052831665 -0.06321681 -0.0026380976 0.068981536 0.0827141 -0.050873037
-0.036825433 0.06877174 -0.043627776 0.014857437 -0.031159902 0.060584925 -0.053001475 -0.05014114
0.025046831 0.00815277 0.007912097 -0.0051359367 0.020020444 0.0041372715 0.081194386 -0.073165946
0.080227666 0.08130959 -0.009593768 0.1033407 0.039374344 0.049895357 0.07815848 -0.0014724031
0.011365298 0.053712703 0.024576997 -0.06450772 0.075454675 0.03751654 0.061572243 0.03474166
-0.07722758 -0.038115658 0.05244429 0.08790608 0.03885207 -0.1279969 -0.05645022 -0.09082973
0.03941916 0.016459765 -0.0196402 -0.029728869 0.03365572 0.068782546 -0.043125615 0.022185087
-0.0410418 0.020513222 -0.052598145 -0.030499931 -0.01970508 -0.051394243 0.018498093 -0.052757543
00000000: 9033 b73a 914f a13d 8bdc 6d3c 4dbe b3bd
00000010: 13d4 553d b636 6ebd b623 80bd 8a23 183d
00000020: 8de9 a6bd 5f7c ddbc 11d2 1e3d 79b0 473d
00000030: 29b2 9ebd 1201 40bd d365 35ba ebcb e2bc
00000040: 76c3 2abc b058 d4bc 30fb 8fbd f621 af3d
00000050: 3593 25bc 5fe4 9c3d 5d61 b4bc 8cb6 32bd
00000060: b62a dbbb 7918 b3bd 3505 653d 0e9c f3bc
00000070: fd9b 1fbd 1120 5c3d 5eed a03d bc85 133c
00000080: f6c1 5a3d fe6a 8abd 6674 aabc 8dab 95bd
00000090: 4586 7dbd a77b bebc 297c e83c 68d6 df3c
000000a0: faa0 703c 0ce8 9cbd 27cc fdbb 1a16 993d
000000b0: 3b2b ab3c a3b1 8bbc c9e3 0b3d 00f0 8e3c
000000c0: 0b64 8cbd 13b2 b3bd bcbc afbd f239 16bd
000000d0: 3e0b 66bd 5acf b3bd 63da 93bd 3ff2 95bd
000000e0: b887 593d a238 093d 1cd2 8dbc 03d1 933d
000000f0: a34f 743d 02dd 6f3d 0ddf 9cbd 4f4f afbd
00000100: e0ad b63c 5982 a93b fcb9 a53c f793 473d
00000110: b11b 5cbd dc85 98bc 5d8c 9d3d 2f48 af3d
00000120: 4e2f 9dbd 9b59 863d d2f1 91bc 82d4 f83b
00000130: 3eea a7bd 5ed3 9f3d 34eb 223d d9e9 afbd
00000140: 434a 90bc 3340 933d 4883 45bd 069f 8fbd
00000150: 7fc2 31bd f657 08bd 445f 8ebc 4bf7 383d
00000160: 6adb 81bd cece 6cbd c6f6 b3bd 6856 d53c
00000170: afa7 37bd de51 3e3d cd87 8b3d 9d97 10bd
00000180: 4371 993c ee98 cbbb 57c6 7bbd 77d4 0fba
00000190: 0642 7bbd f389 29bd 11f8 b2bd 632c ed3c
000001a0: b12d 36bd 02c9 fabc a447 fcbc 3c3c 9a3d
000001b0: 6d8f 8cbc 760a a9bd 1902 98bc e047 a43d
000001c0: 9a18 273d 2c0f bb3c a011 15bc a69c 113d
000001d0: 8f29 583c d127 073d b201 753d c6ac 233d
000001e0: 2eef 7c3d b9ff 103d 8b6d abbc f2ca 8cbd
000001f0: e0a1 993c 0ebb a6bd 4284 a5bd 799e 5abd
00000200: ad17 883d 55f2 69bd 450e 05bd 3c3f 723d
00000210: 850c 1d3d 430d 1bbb 82b2 0b3d cc7a 7fbb
00000220: f318 8c3c 13f3 b2bd dad8 79bd a4d5 2f3d
00000230: 6818 f63c 1be7 cbbb e403 0fbd b438 403d
00000240: ce17 103d e702 c8ba 4967 e13c a4f8 a93d
00000250: baa9 fcbb 6f66 993d e490 aebd 843e ad3d
00000260: 01c6 64bd cc7a 9bbd d2ea 8dba 0f77 4a3c
00000270: 3e63 b5bd eb20 33bd 4a2d 3abd 0cb7 9a3c
00000280: b327 a1bd 5550 eabc 1116 41bd 99f4 62bd
00000290: 82e2 e53c 0b53 523c 6ccd b03d 1057 a9bc
000002a0: db34 34bd 0b82 1a3d 7d62 2c3d 4154 b33d
000002b0: 1665 9abd fa12 913d 0789 b03d dad2 20bd
000002c0: b218 993d f117 1fbd a7ff 61bc 73bc 8e3c
000002d0: 4513 f43c 1531 063d 9325 6b3d c071 6fbd
000002e0: c7b3 2b3d 99f8 003d 5b42 8dbd 16ff 013d
000002f0: dd1a a73d 56eb 773d cf32 7f3d b276 553d
00000300: 7b08 ab3d a1ed 08bd 0466 583d d177 81bd
00000310: efe3 2cbb 3146 8d3d 0366 a93d 3f60 50bd
00000320: 44d6 16bd 33d8 8c3d 0ab3 32bd 9c6c 733c
00000330: 0d43 ffbc e627 783d 1318 59bd cc60 4dbd
00000340: 032f cd3c 3293 053c bda1 013c 5c4b a8bb
00000350: ea01 a43c f391 873b 3e49 a63d 07d8 95bd
00000360: 674e a43d a485 a63d 2e2f 1dbc 4aa4 d33d
00000370: fe46 213d 135f 4c3d 8e11 a03d a6fd c0ba
00000380: 8435 3a3c da01 5c3d b355 c93c a01c 84bd
00000390: fb87 9a3d f2aa 193d 2d33 7c3d 454d 0e3d
000003a0: 7e29 9ebd 2a1f 1cbd d3cf 563d 1a08 b43d
000003b0: 5923 1f3d 9f11 03be 5938 67bd f004 babd
000003c0: fc75 213d a1d6 863c 7ce4 a0bc f589 f3bc
000003d0: 95da 093d dddd 8c3d 7ca4 30bd 80bd b53c
000003e0: 721b 28bd 580b a83c 2771 57bd feda f9bc
000003f0: 8c6c a1bc c582 52bd 5089 973c 4b18 58bd

residual_blocks.0.fc1.bias f4 [128]
0.03672516 0.041851573 -0.074085966 0.046569213 0.0814074 0.024789171 -0.06167083 0.061588515
0.008943561 0.08260992 -0.07675469 -0.045461472 -0.04543485 0.041407485 -0.048166674 -0.02347671
0.07934755 0.056432027 -0.038672462 0.027268337 -0.0743073 -0.06380956 0.021456977 0.03445387
-0.0822283 -0.013108362 -0.00989007 -0.03383139 0.078579 0.04936003 -0.048067167 0.003618146
0.030264914 -0.04459977 0.024155213 0.075078234 0.019461919 0.052615974 0.08120369 -0.043200456
0.050039098 0.009659578 0.04145289 -0.03537926 0.0009918523 0.07025171 -0.04113657 -0.013221646
-0.07308866 -0.01952569 0.046715256 -0.07785694 -0.02739423 -0.012649123 0.04318614 -0.062023845
-0.090054154 -0.06757002 -0.06316881 -0.08207471 0.037366875 -0.03559575 -0.041346554 0.041513857
-0.0032722282 -0.043383062 0.06882639 -0.06084964 0.04459792 0.03809639 0.07996413 -0.037990216
-0.0077547883 0.024813145 -0.061576303 -0.0070045795 0.06090684 -0.07683549 0.022406107 0.037043937
-0.02449082 0.08910663 -0.070317484 0.021053057 0.06429103 0.022452837 -0.03485421 0.08690455
0.043978225 -0.017542899 0.080860965 0.075490355 0.06618192 0.030058889 0.044895247 0.05199503
0.013858209 0.038782384 0.049304128 0.028717903 -0.04871299 0.00013474633 -0.03591159 0.0025950614
0.062117856 0.010319993 -0.01635135 0.0021228509 -0.041467864 0.019818867 -0.08337525 0.07303804
-0.05882582 0.031143207 -0.057121612 -0.071731426 -0.048327558 0.0076545496 0.054470934 -0.018716775
-0.06426572 -0.054867703 -0.08596618 0.057222825 0.02068418 0.024550969 0.026866788 -0.046610482
00000000: 1f6d 163d 8e6c 2b3d 62ba 97bd 5cbf 3e3d
00000010: ecb8 a63d a912 cb3c 8d9a 7cbd 3d44 7c3d
00000020: 0488 123c 642f a93d 9031 9dbd cf35 3abd
00000030: e519 3abd e59a 293d 6b4a 45bd 3b52 c0bc
00000040: f880 a23d 4525 673d 0467 1ebd d961 df3c
00000050: 6d2e 98bd 96ae 82bd 8bc6 af3c 801f 0d3d
00000060: 5067 a8bd 75c4 56bc f609 22bc c992 0abd
00000070: 07ee a03d be2d 4a3d 14e2 44bd 6b1e 6d3b
00000080: 20ee f73c 40ae 36bd 27e1 c53c 9ec2 993d
00000090: 9a6e 9f3c d983 573d 1f4e a63d f6f2 30bd
000000a0: ccf5 4c3d 3543 1e3c 81ca 293d d8e9 10bd
000000b0: 0a01 823a 21e0 8f3d d27e 28bd 9a9f 58bc
000000c0: 82af 95bd 57f4 9fbc 7f58 3f3d 7673 9fbd
000000d0: dd69 e0bc 443e 4fbc f3e3 303d b70c 7ebd
000000e0: 506e b8bd 2762 8abd a65e 81bd c916 a8bd
000000f0: 020e 193d d9cc 11bd 015b 29bd 6f0a 2a3d
00000100: e172 56bb 70b2 31bd daf4 8c3d 793d 79bd
00000110: 4fac 363d f60a 1c3d 3cc4 a33d a19b 1bbd
00000120: e11b febb f044 cb3c 6f37 7cbd ac86 e5bb
00000130: 7379 793d ed5b 9dbd 038d b73c 62bb 173d
00000140: f9a0 c8bc 897d b63d 9d02 90bd 7677 ac3c
00000150: 04ab 833d 03ef b73c 4ac3 0ebd 03fb b13d
00000160: 8322 343d 20b6 8fbc 6f9a a53d b09a 9a3d
00000170: 638a 873d 0f3e f63c 14e4 373d bef8 543d
00000180: 8b0d 633c 47da 1e3d 20f3 493d cf41 eb3c
00000190: 4687 47bd b14a 0d39 0818 13bd e811 2a3b
000001a0: 4b6f 7e3d 3015 293c 44f3 85bc 871f 0b3b
000001b0: 35da 29bd 2d5b a23c a5c0 aabd f894 953d
000001c0: 58f3 70bd 0a20 ff3c 5af8 69bd ede7 92bd
000001d0: 1ef3 45bd 04d3 fa3b ea1c 5f3d ec53 99bc
000001e0: bf9d 83bd f5bc 60bd 090f b0bd 7b62 6a3d
000001f0: df71 a93c 1d1f c93c bd17 dc3c a2ea 3ebd

residual_blocks.0.fc2.weight f4 [128, 128]
0.06778567 -0.081266455 0.024023792 -0.03933807 0.05382317 0.012369837 -0.027949704 -0.065564334
0.050908502 0.03322426 -0.061339024 0.015074505 0.011027133 -0.06336662 -0.04088318 0.07477695
-0.07666334 -0.028965259 0.058524534 -0.01715597 -0.0044974154 0.046512954 0.0746052 0.09604595
0.028706366 0.07277122 0.078426786 -0.04227176 0.07243745 0.0129574165 -0.08834528 -0.07416487
-0.03922079 0.016151318 -0.034407254 0.06269443 -0.053427335 -0.05953159 0.07998095 0.049973417
-0.06745666 -0.052211147 -0.049602594 0.053895354 0.08118753 -0.0663724 0.068127126 0.078317344
0.0556841 0.017244142 0.070047654 -0.08478753 0.04579433 -0.07107296 0.0218716 0.022851992
0.02997518 0.06581244 0.025621554 0.014339285 -0.06447769 0.017685913 0.029331446 -0.04704074
0.027395014 0.0045179417 0.0071334504 0.031277504 0.004945871 0.04917148 -0.06594655 0.08279884
0.08081794 0.022843549 0.066051014 0.045247674 0.0760242 0.035789642 -0.03540937 0.027763722
-0.05758503 -0.019142864 -0.08501401 0.07752989 0.043137174 -0.039548043 0.039495073 -0.033116873
-0.0554142 -0.07107561 0.08731479 0.047076754 -0.028374268 -0.08767032 -0.07900807 -0.007360346
-0.034627724 0.06423974 -0.07282604 -0.07426593 -0.061707895 0.056062043 -0.03278543 0.040317588
-0.0677172 -0.0881136 -0.013386031 0.049350012 0.04211903 -0.034780458 -0.009745689 -0.07141711
-0.08680619 -0.017022885 -0.019790938 0.020472357 0.05914008 -0.049127325 -0.06708953 -0.0004157349
-0.06680257 0.08378613 0.007056004 -0.010176307 0.015820071 0.023336088 -0.054814234 -0.08511782
-0.082425095 0.068565674 -0.0597164 0.07956322 -0.09308631 -0.0053303186 -0.063795425 -0.07414713
0.01257721 0.047294352 -0.08573528 -0.042734407 0.069478996 -0.05099425 0.06727176 -0.06773177
-0.046520818 -0.027801929 0.04708043 0.06355033 0.05465967 -0.007124303 -0.0013843367 -0.094792746
-0.07012032 -0.044245303 -0.04270341 0.052912112 -0.033315778 -0.02498919 -0.057291567 -0.013732444
-0.06126975 0.037869565 0.0044043353 0.009986975 0.04361438 -0.06835564 0.051832814 0.041325998
0.020933734 0.025384601 0.074809074 -0.0115337605 -0.07913141 0.06626845 -0.08414579 0.042985886
-0.03676105 -0.07204095 0.050925996 -0.04699298 0.055718496 0.06286362 0.053293526 0.036359057
0.00097176246 -0.007778443 0.08300524 -0.02342329 -0.062229864 -0.04743925 0.074589625 -0.031750876
0.0570297 0.005258969 -0.0030127538 -0.04850118 -0.027268982 -0.052382555 0.0341172 0.07029311
0.044014048 -0.042464327 -0.073617734 -0.020062856 -0.066894315 0.022739766 0.06725927 -0.04957288
0.038164668 -0.030967986 0.05358313 0.010125049 -0.0075280275 -0.008836508 -0.0037144464 -0.053333
0.051854894 -0.06345401 -0.06708001 0.052983753 -0.07644739 -0.07995475 0.07292148 -0.07684118
0.029393997 0.013217431 0.02176088 -0.04654348 -0.046920504 -0.0010236207 0.010422273 -0.048112135
0.011097391 -0.027679615 0.026234046 -0.07524928 -0.051244378 -0.025429917 -0.0067570144 -0.080151536
-0.057634834 0.059153732 0.08109753 -0.077906534 0.082882315 -0.046037264 -0.015923923 -0.06052071
-0.08999001 -0.031438753 0.022303596 -0.08947762 0.07251183 0.007736739 -0.083780855 -0.08251082
00000000: 37d3 8a3d 076f a6bd 8bcd c43c f520 21bd
00000010: af75 5c3d dbaa 4a3c c7f6 e4bc 9846 86bd
00000020: 6f85 503d 2916 083d a13e 7bbd 0efb 763c
00000030: 26ab 343c 5cc6 81bd 1f75 27bd a824 993d
00000040: ab01 9dbd 8d48 edbc 6cb7 6f3d ad8a 8cbc
00000050: 0e5f 93bb 5e84 3e3d 9cca 983d bdb3 c43d
00000060: 9d29 eb3c 1409 953d 399e a03d 2725 2dbd
00000070: 165a 943d 584b 543c 5fee b4bd c0e3 97bd
00000080: fba5 20bd c54f 843c 9fee 0cbd f065 803d
00000090: 9fd6 5abd 66d7 73bd 0dcd a33d edb0 4c3d
000000a0: b826 8abd 5bdb 55bd 172c 4bbd 60c1 5c3d
000000b0: a645 a63d 41ee 87bd 3c86 8b3d d864 a03d
000000c0: 0315 643d 9643 8d3c 2575 8f3d 16a5 adbd
000000d0: d692 3b3d b38e 91bd 122c b33c 1a34 bb3c
000000e0: 828e f53c acc8 863d 4be4 d13c 52ef 6a3c
000000f0: e10c 84bd 0ce2 903c 8048 f03c caad 40bd
00000100: 826b e03c 3e0b 943b b8bf e93b d71c 003d
00000110: f910 a23b 0968 493d fc0e 87bd 7092 a93d
00000120: e083 a53d 6522 bb3c c145 873d a055 393d
00000130: 93b2 9b3d 2998 123d 6a09 11bd bf70 e33c
00000140: 48de 6bbd 7fd1 9cbc d31b aebd fec7 9e3d
00000150: 9bb0 303d 21fd 21bd 96c5 213d 8fa5 07bd
00000160: 00fa 62bd 1790 91bd 19d2 b23d 8ed3 403d
00000170: 2771 e8bc 7f8c b3bd fcce a1bd 0f2f f1bb
00000180: cdd5 0dbd 2090 833d d225 95bd bc18 98bd
00000190: 6bc1 7cbd 50a1 653d 044a 06bd 0e24 253d
000001a0: 51af 8abd e774 b4bd 1551 5bbc 3d23 4a3d
000001b0: 0185 2c3d f475 0ebd 62ac 1fbc 2243 92bd
000001c0: 72c7 b1bd 9473 8bbc 9b20 a2bc a5b5 a73c
000001d0: de3c 723d bc39 49bd 3c66 89bd fef6 d9b9
000001e0: c9cf 88bd 1098 ab3d 0d36 e73b 86ba 26bc
000001f0: 1899 813c 532b bf3c e484 60bd 4052 aebd
00000200: 7dce a8bd 296c 8c3d 2f99 74bd 0bf2 a23d
00000210: 09a4 bebd f4a9 aebb 2da7 82bd 73da 97bd
00000220: a410 4e3c b9b7 413d fa95 afbd 460a 2fbd
00000230: 014b 8e3d 59df 50bd c7c5 893d f4b6 8abd
00000240: 9d8c 3ebd dfc0 e3bc 69d7 403d ad26 823d
00000250: d1e2 5f3d fc72 e9bb a272 b5ba b322 c2bd
00000260: 3e9b 8fbd 903a 35bd c5e9 2ebd 5fba 583d
00000270: 2076 08bd 21b6 ccbc 90aa 6abd 0bfe 60bc
00000280: fdf5 7abd 1e1d 1b3d 3e52 903b 69a0 233c
00000290: fea4 323d 0bfe 8bbd a54e 543d 7345 293d
000002a0: 397d ab3c 5ef3 cf3c 8035 993d 19f8 3cbc
000002b0: a60f a2bd c1b7 873d a154 acbd f811 303d
000002c0: c192 16bd 358a 93bd c797 503d b67b 40bd
000002d0: 1439 643d a4be 803d 504a 5a3d 3ced 143d
000002e0: e0bd 7e3a 4fe2 febb a7fe a93d 33e2 bfbc
000002f0: bee4 7ebd a94f 42bd 72c2 983d 350d 02bd
00000300: fa97 693d 6e53 ac3b 9f71 45bb 2ca9 46bd
00000310: 3363 dfbc 178f 56bd 7abe 0b3d d6f5 8f3d
00000320: 1348 343d 13ef 2dbd e5c4 96bd dc5a a4bc
00000330: e3ff 88bd bf48 ba3c 3abf 893d ef0c 4bbd
00000340: 8e52 1c3d 93b0 fdbc fc79 5b3d 89e3 253c
00000350: acad f6bb 00c7 10bc 126e 73bb b473 5abd
00000360: cc65 543d 2df4 81bd 3f61 89bd 7e05 593d
00000370: 7390 9cbd 51bf a3bd db57 953d e95e 9dbd
00000380: aecb f03c ec8d 583c df43 b23c 60a4 3ebd
00000390: b72f 40bd 032b 86ba 2ec2 2a3c 3b11 45bd
000003a0: d5d1 353c 5cc0 e2bc c8e8 d63c 4b1c 9abd
000003b0: a0e5 51bd 6752 d0bc f269 ddbb 7d26 a4bd
000003c0: 8112 6cbd 2f4b 723d 7616 a63d 768d 9fbd
000003d0: 34be a93d 9291 3cbd e372 82bc 90e4 77bd
000003e0: af4c b8bd ecc5 00bd 08b6 b63c 0b40 b7bd
000003f0: 1581 943d 7884 fd3b 4c95 abbd 6ffb a8bd

residual_blocks.0.fc2.bias f4 [128]
0.0019983163 0.040225342 0.023825249 0.015969528 -0.012594559 -0.076931134 0.07670261 -0.010862322
0.030452846 0.009667231 -0.08372684 0.08431766 -0.009946533 0.01740575 -0.043441515 -0.016740788
-0.08302401 -0.02351946 0.032346684 -0.01409076 0.09373907 0.03138239 0.03964934 -0.06180746
-0.0151250735 0.009800262 0.061100505 0.052879296 0.08057269 -0.01704715 -0.086070955 -0.04882535
-0.06498604 0.0026212411 0.053908367 0.043917928 0.054006055 0.041864432 -0.08126953 -0.03980104
0.036428336 0.08104647 0.013696065 0.079301916 -0.020496937 -4.1926658e-05 -0.020779818 -0.022432681
-0.026429234 0.053992815 -0.072121896 -0.06878424 -0.0378075 0.0082779685 0.0769128 0.004393556
0.029772617 -0.06466695 0.047181197 0.04539531 -0.01841439 0.05313582 0.059323587 -0.077432
-0.029193914 0.021789713 -0.050182797 -0.044134073 0.0654976 0.096839145 -0.019025693 0.06719276
-0.0045546205 0.005337845 -0.08561243 0.0070847697 -0.084245004 -0.03676124 -0.06080173 0.056245804
-0.0039351075 0.0687476 0.08336843 0.038841296 -0.013329822 0.089964814 -0.08668021 0.0229498
0.022886561 -0.023097 -0.058985136 0.069142185 -0.03697606 0.037404913 -0.06943983 0.054051187
0.07479342 -0.02831176 0.07068853 -0.011128698 0.020494934 -0.08110719 -0.0644649 0.015346028
-0.037336107 -0.06140375 0.06667827 -0.048607547 0.023632312 -0.000816946 0.004577193 0.03466246
-0.027615037 0.07767794 0.027739374 -0.0330709 0.074853405 -0.03764565 -0.048884526 0.004187786
0.055341188 -0.050106157 -0.009899076 0.031304803 0.030499956 -0.074307844 -0.0030453485 -0.011021588
00000000: 2ff6 023b 54c3 243d 2b2d c33c 87d2 823c
00000010: 6959 4ebc 128e 9dbd 4216 9d3d e1f7 31bc
00000020: 3f78 f93c 4e63 1e3c fa78 abbd bdae ac3d
00000030: c8f6 22bc 8196 8e3c bbef 31bd fa23 89bc
00000040: 7e08 aabd e2ab c0bc f57d 043d eedc 66bc
00000050: 45fa bf3d d28a 003d 5967 223d d229 7dbd
00000060: 28cf 77bc 4791 203c 8644 7a3d f697 583d
00000070: 4b03 a53d 77a6 8bbc f845 b0bd 17fd 47bd
00000080: 6717 85bd 21c9 2b3b 05cf 5c3d 49e3 333d
00000090: 7435 5d3d 0a7a 2b3d a470 a6bd 6a06 23bd
000000a0: e135 153d b1fb a53d 7665 603c 0b69 a23d
000000b0: 31e9 a7bc 68da 2fb8 703a aabc bec4 b7bc
000000c0: 1f82 d8bc 9227 5d3d a5b4 93bd c0de 8cbd
000000d0: 0adc 1abd 51a0 073c 7584 9d3d d2f7 8f3b
000000e0: b4e5 f33c 1b70 84bd 1241 413d 6ff0 393d
000000f0: c6d9 96bc f2a4 593d 4afd 723d ab94 9ebd
00000100: 1328 efbc 5780 b23c 7a8c 4dbd eec5 34bd
00000110: 9b23 863d 9a53 c63d c5db 9bbc 5c9c 893d
00000120: ed3e 95bb 17e9 ae3b 9255 afbd 5b27 e83b
00000130: a588 acbd f492 16bd 3c0b 79bd 0062 663d
00000140: 13f2 80bb 8bcb 8c3d 11bd aa3d 0d18 1f3d
00000150: 5365 5abc 793f b83d 6585 b1bd 3801 bc3c
00000160: 997c bb3c eb35 bdbc 669a 71bd 6b9a 8d3d
00000170: 3674 17bd e535 193d 7836 8ebd c764 5d3d
00000180: 4b2d 993d 10ee e7bc 26c5 903d 2455 36bc
00000190: fee4 a73c 871b a6bd 2c06 84bd e86d 7b3c
000001a0: bfed 18bd 8082 7bbd 9e8e 883d b518 47bd
000001b0: 8d98 c13c 5128 56ba 47fc 953b 39fa 0d3d
000001c0: ee38 e2bc 9d15 9f3d af3d e33c 5a75 07bd
000001d0: be4c 993d 5332 1abd 243b 48bd b239 893b
000001e0: 71ad 623d 1d3c 4dbd bc2f 22bc 7739 003d
000001f0: 0bdb f93c b62e 98bd 7894 47bb e493 34bc

residual_blocks.1.fc1.weight f4 [128, 128]
-0.00020283597 -0.00019547327 -0.037448876 -0.060910452 0.03204877 -0.013297331 -0.090836875 0.09634
0.008907863 -0.0451572 0.066608824 -0.02509562 -0.009761424 0.052774414 0.028741758 -0.010188595
0.039453346 -0.05006969 0.0046810936 0.058388546 0.059181903 0.017190965 -0.02549836 -0.030608177
0.029019043 0.04945665 0.012761027 -0.053908538 -0.03606223 -0.07092418 0.07563403 -0.06497455
-0.07596163 -0.057885997 -0.013644194 0.037578557 -0.012315607 0.08144581 -0.07096155 -0.064873904
-0.06354472 0.07850687 0.008812843 -0.037440464 0.078119256 -0.057163443 -0.039353523 -0.022656923
-0.04986032 -0.06029801 -0.060945354 -0.06279463 0.037010264 0.07010893 0.02271742 0.032341387
-0.08026128 0.083367616 -0.0065475632 0.0056950343 0.09031636 0.05285653 0.04995484 0.07813037
-0.048245903 -0.031865537 0.072559044 -0.00095592893 0.08182104 0.058151737 -0.030090429 -0.039845735
0.071954645 -0.042288672 0.07397723 -0.030962454 -0.06800061 0.06541426 -0.07786094 0.02853497
-0.035154603 -0.035655722 0.059026416 0.05199794 -0.026817398 -0.01776608 0.048139393 0.017725946
0.00083963195 0.0391249 0.119869016 -0.06862198 0.07616115 -0.023594452 -0.06908864 -0.027098086
0.077648744 0.09091826 -0.06471384 0.0953573 0.06030611 0.056993317 -0.030677592 -0.04099201
0.051541254 0.10552264 0.081726 -0.032951687 -0.07372902 0.06802267 -0.056321334 0.10225933
0.08657343 -0.029166818 0.053635616 -0.0044520767 -0.019319667 -0.053797826 0.03418494 -0.018798571
0.067131676 0.038849648 0.026016086 -0.076238036 -0.037464894 -0.038919754 0.02440153 -0.026869098
-0.0014187329 -0.080712974 0.0337309 -0.070244394 -0.08376129 0.021424064 -0.0018702458 0.08301456
0.0013011969 -0.015657585 0.014813513 -0.04536643 0.001434627 0.07940222 -0.03097413 -0.10011178
-0.019734556 -0.0048006545 0.056376267 0.065522425 0.035378676 -0.069478855 0.0025517254 0.08863152
0.05079553 0.029967232 0.071074255 -0.016297024 0.076075345 -0.056108087 0.032731906 0.10900563
-0.07331601 -0.018533299 -0.036890958 -0.06796845 0.056789532 -0.041338198 0.0070391214 0.010800313
-0.09620339 0.05445906 0.04854761 -0.015970722 -0.02981582 -0.045139246 -0.078760594 -0.0100587355
0.018743178 0.014086897 -0.059277613 -0.061359175 0.044904467 -0.030881781 -0.049604792 -0.07782092
-0.051123902 0.02706526 -0.011527886 -0.054375384 -0.03136961 -0.08834311 0.017041756 -0.016385358
-0.017486414 -0.059474315 0.07934174 0.008788562 0.052185915 -0.05722157 -0.08160621 -0.0058948086
-0.048365682 0.049156122 0.08537359 0.0069414875 0.035874438 -0.04359465 0.075901665 0.06881847
-0.052554134 0.054516774 -0.016077599 0.06868757 0.03192652 -0.041796483 0.048982687 0.035307474
-0.030010015 0.035278063 0.042935673 -0.06787662 -0.079246685 0.07522386 -0.04025793 0.060471773
0.052197747 0.02900491 -0.089181125 -0.044785567 -0.029453108 -0.07127839 0.01990476 -0.053671632
-0.012396313 -0.07059304 -0.024112746 0.06563693 0.023027103 -0.078634374 -0.07986409 0.04919403
-0.015781263 -0.0670618 0.06275455 -0.0860643 -0.05636021 -0.030224305 0.009426355 0.0113903945
-0.07837997 0.03169115 0.012578545 0.03870881 -0.06871133 -0.039061796 -0.03927366 0.052042283
00000000: 5eb0 54b9 f5f7 4cb9 fe63 19bd 3d7d 79bd
00000010: 9245 033d 0cdd 59bc af08 babd e84d c53d
00000020: 49f2 113c c2f6 38bd 356a 883d 5495 cdbc
00000030: 61ee 1fbc fc29 583d d673 eb3c 11ee 26bc
00000040: d599 213d e015 4dbd dc63 993b d428 6f3d
00000050: b968 723d 11d4 8c3c f0e1 d0bc 00be fabc
00000060: 58b9 ed3c 0e93 4a3d a013 513c 33cf 5cbd
00000070: fdb5 13bd b240 91bd 04e6 9a3d 6011 85bd
00000080: c591 9bbd de19 6dbd e68b 5fbc f9eb 193d
00000090: 66c7 49bc 10cd a63d 4a54 91bd 9cdc 84bd
000000a0: bc23 82bd 36c8 a03d be63 103c 2c5b 19bd
000000b0: fdfc 9f3d 3724 6abd 2931 21bd 039b b9bc
000000c0: 563a 4cbd 0cfb 76bd d6a1 79bd 799a 80bd
000000d0: 1398 173d 4595 8f3d e219 ba3c 6778 043d
000000e0: 0760 a4bd a4bc aa3d f18c d6bb 699d ba3b
000000f0: c9f7 b83d 1780 583d 729d 4c3d d102 a03d
00000100: 7f9d 45bd 7085 02bd d699 943d 4e97 7aba
00000110: ca91 a73d 8430 6e3d 3480 f6bc 4835 23bd
00000120: f55c 933d e336 2dbd 6081 973d f9a4 fdbc
00000130: e743 8bbd e9f7 853d 8e75 9fbd 2bc2 e93c
00000140: 46fe 0fbd bc0b 12bd afc5 713d cbfb 543d
00000150: 29b0 dbbc 2c8a 91bc d02d 453d 0136 913c
00000160: bf1a 5c3a 6e41 203d e37d f53d ae89 8cbd
00000170: 61fa 9b3d 2749 c1bc 587e 8dbd cefc ddbc
00000180: 4e06 9f3d 5a33 ba3d b188 84bd b04a c33d
00000190: 8a03 773d d371 693d 934f fbbc 3de7 27bd
000001a0: ec1c 533d 411c d83d f65f a73d 59f8 06bd
000001b0: 3eff 96bd 784f 8b3d 33b1 66bd 576d d13d
000001c0: 694d b13d 40ef eebc 05b1 5b3d bae2 91bb
000001d0: 4744 9ebc 1c5b 5cbd 8205 0c3d 76ff 99bc
000001e0: 557c 893d cf20 1f3d b01f d53c b022 9cbd
000001f0: ca74 19bd 526a 1fbd b8e5 c73c 951c dcbc
00000200: c7f4 b9ba d84c a5bd 6a29 0a3d 4bdc 8fbd
00000210: 0a8b abbd 8581 af3c 0923 f5ba 8a03 aa3d
00000220: ec8c aa3a 5644 80bc 60b4 723c 26d2 39bd
00000230: 180a bc3a a29d a23d 75bd fdbc 6807 cdbd
00000240: 5daa a1bc cf4e 9dbb cdea 663d 9f30 863d
00000250: 3be9 103d ee4a 8ebd d93a 273b 7184 b53d
00000260: f90e 503d d77d f53c 618f 913d 5681 85bc
00000270: 64cd 9b3d 98d1 65bd e411 063d 583e df3d
00000280: b426 96bd 25d3 97bc f91a 17bd 0b33 8bbd
00000290: 249c 683d 3e52 29bd 6ea8 e63b ccf3 303c
000002a0: 4806 c5bd 7710 5f3d dcd9 463d 08d5 82bc
000002b0: 4e40 f4bc eee3 38bd 3c4d a1bd 65cd 24bc
000002c0: 4b8b 993c bacc 663c 15cd 72bd c253 7bbd
000002d0: bfed 373d cafb fcbc 652e 4bbd 9360 9fbd
000002e0: 4c67 51bd f7b7 dd3c 75df 3cbc b9b8 5ebd
000002f0: 6c7d 00bd 3ced b4bd 279b 8b3c 963a 86bc
00000300: ab3f 8fbc 579b 73bd ec7d a23d e7fd 0f3c
00000310: e6c0 553d 2a61 6abd 2821 a7bd 3d29 c1bb
00000320: 181b 46bd ee57 493d 59d8 ae3d 6b75 e33b
00000330: 13f1 123d 4e90 32bd 5572 9b3d b3f0 8c3d
00000340: 0143 57bd fb4c 5f3d 2bb5 83bc 12ac 8c3d
00000350: 62c5 023d ca32 2bbd 12a2 483d 929e 103d
00000360: 90d7 f5bc bb7f 103d 51dd 2f3d e602 8bbd
00000370: 164c a2bd f80e 9a3d 80e5 24bd 40b1 773d
00000380: 4ecd 553d b49b ed3c 98a4 b6bd 1271 37bd
00000390: a547 f1bc 68fa 91bd 4f0f a33c c9d6 5bbd
000003a0: e819 4bbc 1593 90bd 1888 c5bc a86c 863d
000003b0: 56a3 bc3c 0f0b a1bd c98f a3bd ae7f 493d
000003c0: b547 81bc b257 89bd 7585 803d 7b42 b0bd
000003d0: f7d9 66bd f698 f7bc 0071 1a3c c79e 3a3c
000003e0: ad85 a0bd 94ce 013d 3e16 4e3c 218d 1e3d
000003f0: 87b8 8cbd 43ff 1fbd 6bdd 20bd 4a2a 553d

residual_blocks.1.fc1.bias f4 [128]
0.05606293 0.057562392 0.06445149 -0.011615328 0.045498997 -0.08247448 0.023750555 0.07503998
0.018007388 -0.08523635 0.029498663 0.029435275 -0.0027305188 -0.023532882 0.032046672 0.08809058
0.010263998 -0.037014406 0.048152868 0.0722226 0.0598514 0.02770746 0.01342319 -0.025208207
-0.07914317 0.027462836 -0.029019454 0.043548647 -0.08642149 0.060070157 -0.05028785 -0.05379978
0.018038737 -0.082302146 0.086619645 0.0012780796 0.08177307 0.035319403 -0.07933741 0.06440847
-0.05823635 -0.063097775 -0.03838701 -0.06710081 0.05056402 0.03891521 -0.035354413 -0.017359292
0.008191208 -0.08567404 0.022397567 -0.0073684384 0.050535884 -0.06919865 0.062302493 0.026474701
-0.05495952 -0.06252344 0.018526057 -0.042162664 0.037196323 0.024751062 -0.0028435213 0.0021755865
-0.08026348 -0.015343991 0.07118903 0.028980685 -0.048156843 -0.080281235 -0.08361318 -0.04705915
0.011467989 -0.012111971 0.053802107 -0.0059918477 0.0005905659 -0.013044797 -0.018202366 0.0808395
0.0023931942 -0.0015466546 -0.019532414 -0.08716118 -0.06948761 -0.055334404 -0.05590304 -0.051565245
0.016012061 0.0069955825 0.061330948 0.03237964 -0.0336191 0.07364241 -0.092721604 -0.023484498
0.02296228 0.040697157 0.06633268 -0.017281976 -0.083475254 0.033759303 0.07888952 0.028535059
-0.016303027 -0.057463054 0.0014453102 -0.09048866 -0.010299414 0.038938995 0.026077906 0.084628165
0.019368123 -0.075226106 0.020927407 0.072000094 -0.07592402 -0.016945267 -0.02744605 -0.030530913
0.041531414 0.085227795 -0.078128755 -0.0008254973 -0.010005676 -0.017381 0.06430323 -0.07468929
00000000: 3ea2 653d 8bc6 6b3d 25ff 833d 374e 3ebc
00000010: 285d 3a3d 61e8 a8bd 8690 c23c 90ae 993d
00000020: 3b84 933c 6590 aebd 2ea7 f13c 3f22 f13c
00000030: 81f2 32bb 08c8 c0bc 5f43 033d d668 b43d
00000040: 542a 283c 6b9c 17bd f13b 453d 71e9 933d
00000050: be26 753d c1fa e23c f1ec 5b3c 7181 cebc
00000060: d015 a2bd bef9 e03c 35ba edbc 1160 323d
00000070: c0fd b0bd 200c 763d a2fa 4dbd 285d 5cbd
00000080: f9c5 933c 078e a8bd a465 b13d 3c85 a73a
00000090: a478 a73d 14ab 103d a77b a2bd 97e8 833d
000000a0: 3d89 6ebd 6839 81bd b33b 1dbd 266c 89bd
000000b0: 381c 4f3d 8e65 1f3d cacf 10bd 1335 8ebc
000000c0: 6b34 063c df75 afbd 1a7b b73c f172 f1bb
000000d0: b7fe 4e3d 06b8 8dbd e630 7f3d 79e1 d83c
000000e0: 3c1d 61bd 4a0c 80bd f5c3 973c c2b2 2cbd
000000f0: 2c5b 183d bdc2 ca3c 5f5a 3abb 4994 0e3b
00000100: 2e61 a4bd 5d65 7bbc 8ecb 913d e768 ed3c
00000110: 1c40 45bd 7d6a a4bd 633d abbd 18c1 40bd
00000120: 3be4 3b3c 4a71 46bc 995f 5c3d 4357 c4bb
00000130: 35d0 1a3a d8b9 55bc 211d 95bc 2e8f a53d
00000140: 23d7 1c3b 1eb9 caba 7102 a0bc 9081 b2bd
00000150: 854f 8ebd 54a6 62bd 96fa 64bd 1436 53bd
00000160: ba2b 833c 333b e53b 2936 7b3d 83a0 043d
00000170: 2eb4 09bd d5d1 963d d3e4 bdbd 9062 c0bc
00000180: 641b bc3c 10b2 263d 6ed9 873d ee92 8dbc
00000190: 13f5 aabd 3247 0a3d d490 a13d 5bc2 e93c
000001a0: ed8d 85bc 615e 6bbd 9070 bd3a 1e52 b9bd
000001b0: e0be 28bc 7f7e 1f3d 55a1 d53c 8851 ad3d
000001c0: e6a9 9e3c 2510 9abd f46f ab3c c974 933d
000001d0: 0d7e 9bbd cdd0 8abc 8ad6 e0bc f71b fabc
000001e0: d81c 2a3d e98b ae3d f801 a0bd 3066 58ba
000001f0: d9ee 23bc 9962 8ebc 69b1 833d b3f6 98bd

residual_blocks.1.fc2.weight f4 [128, 128]
-0.0857968 0.07100305 0.051510114 0.05279952 0.08738422 -0.046098042 0.06425182 -0.011459528
0.033882145 -0.04060848 -0.08634809 0.08799468 0.035683874 -0.026179357 -0.017918248 0.04783273
0.04212808 -0.028319363 -0.08034013 0.04184871 0.024971973 0.0211244 -0.09746952 -0.025597034
-0.047056288 -0.08281145 -0.021185784 -0.007780178 -0.08368115 -0.009555091 0.00805422 0.026855614
-0.0153167 -0.03619826 -0.05099129 0.0045431294 0.08250767 0.06268671 0.07750526 0.04256032
-0.03293732 -0.12314851 -0.058097415 0.032924432 -0.024994045 -0.08365283 0.07837597 -0.07554001
-0.012206907 0.0070136674 0.08229078 0.07942763 0.03208504 -0.07145301 0.06741316 -0.038227886
-0.026570247 0.07475196 0.029563349 -0.011922774 -0.028457128 0.06328609 -0.030243872 -0.08040256
-0.08251105 -0.031694416 -0.046279926 -0.007219086 0.011027652 0.05696769 -0.039414246 0.06851655
0.0177255 0.025289858 -0.022318548 -0.04512175 0.078977965 -0.049598843 -0.026492685 -0.07645949
-0.04108317 0.08211008 0.035471614 -0.03940092 0.023581471 -0.07035068 -0.006823912 0.001919399
0.015475497 -0.03542342 0.08660057 0.0010322839 -0.025830539 0.007514085 -0.013555707 -0.045526825
-0.05919247 -0.000676193 -0.08108853 -0.005133891 0.008752753 -0.03885542 -0.08102803 -0.018098539
-0.094752744 0.0848577 -0.031899948 -0.0711473 0.046363715 0.0382015 0.045832697 0.02384776
-0.09695782 0.07782218 0.08362823 0.07107952 0.061435554 0.030566074 -0.043406658 -0.08365331
0.09939975 0.048819683 -0.072965726 0.059679013 0.050741795 -0.052095503 0.06587998 0.046375874
-0.000711309 0.019516895 -0.06569187 0.053979695 -0.02757287 0.020353345 -0.101079404 0.03305397
-0.01937576 -0.114585385 -0.06920388 -0.070995785 -0.07159909 -0.08456064 0.09875759 -0.07662243
-0.047841735 -0.016154824 0.05718325 -0.06301305 -0.00067740545 -0.036429513 -0.026709335 -0.019313408
-0.037650984 0.0075329975 0.06838393 0.0532975 0.029710377 -0.013967513 -0.07290393 0.029797832
0.08068297 -0.06692681 0.03129163 -0.02887839 0.0069677522 0.0083311135 0.08084391 0.059744537
0.053627107 0.031282384 -0.0009752274 0.004086664 0.044988547 -0.01800556 0.035720546 0.0070046536
0.058475684 0.06256221 0.014559471 0.055646885 0.053622905 -0.068883754 0.028137524 0.05862813
-0.08314934 0.061124206 -0.05615169 -0.015772015 -0.09533062 0.05468926 -0.017660404 0.062131304
-0.020780524 -0.026013417 -0.07602572 0.04930748 -0.030792449 0.01822596 -0.04791395 0.05101176
-0.074162066 0.005805172 0.03363867 0.04429085 0.035585966 0.06031272 0.0074387053 0.063455395
-0.079912096 0.0040017962 -0.07251463 -0.044331215 0.05340859 -0.09541254 0.033150043 -0.08599027
-0.020546494 0.072036274 -0.060566835 0.007544228 -0.049718644 0.052597217 0.043424323 0.03387871
-0.08286113 0.0031999038 0.10403044 -0.076035365 -0.091224656 0.033198915 0.07887343 0.05173012
-0.092378214 0.06714873 -0.0013618595 -0.0534984 0.010300711 -0.05839806 -0.025611455 -0.0009008046
-0.05791945 -0.038323328 -0.010553191 0.022292607 0.0769878 0.058647003 0.033872914 -0.08640916
0.03234891 0.07045089 -0.09640267 -0.051409476 0.04281912 -0.01707572 0.063949585 -0.05878166
00000000: 3cb6 afbd 0c6a 913d 45fc 523d 4f44 583d
00000010: 7ff6 b23d 4dd1 3cbd 7596 833d bec0 3bbc
00000020: 01c8 0a3d 1455 26bd 44d7 b0bd 8e36 b43d
00000030: 4129 123d 1776 d6bc 4ac9 92bc 41ec 433d
00000040: 7e8e 2c3d 02fe e7bc 5e89 a4bd 8e69 2b3d
00000050: 0692 cc3c 140d ad3c 1a9e c7bd dfb0 d1bc
00000060: 18be 40bd 0d99 a9bd cf8d adbc ddf0 febb
00000070: 0661 abbd f58c 1cbc d9f5 033c 4e00 dc3c
00000080: e5f2 7abc a044 14bd 3edc 50bd 88de 943b
00000090: c8f9 a83d e461 803d 14bb 9e3d bb53 2e3d
000000a0: 49e9 06bd 4935 fcbd 8ef7 6dbd c5db 063d
000000b0: 50c0 ccbc 2d52 abbd 9583 a03d b9b4 9abd
000000c0: 7bff 47bc e8d2 e53b 1288 a83d f4aa a23d
000000d0: 9a6b 033d f555 92bd e90f 8a3d d894 1cbd
000000e0: d9a9 d9bc 8e17 993d d62e f23c bd57 43bc
000000f0: ec1e e9bc 239c 813d ffc1 f7bc 19aa a4bd
00000100: 8efb a8bd 01d2 01bd 0590 3dbd 158e ecbb
00000110: 53ad 343c f456 693d d570 21bd 6852 8c3d
00000120: 1135 913c ad2c cf3c 63d5 b6bc 96d1 38bd
00000130: 33bf a13d 2828 4bbd 3007 d9bc cb96 9cbd
00000140: d346 28bd 5429 a83d af4a 113d dc62 21bd
00000150: ee2d c13c 0414 90bd 1f9b dfbb 5894 fb3a
00000160: f08c 7d3c 2618 11bd a45b b13d b34d 873a
00000170: 919a d3bc b738 f63b c218 5ebc 567a 3abd
00000180: ce73 72bd 8b42 31ba be11 a6bd 333a a8bb
00000190: b567 0f3c dc26 1fbd 06f2 a5bd 6343 94bc
000001a0: ba0d c2bd e0c9 ad3d 85a9 02bd adb5 91bd
000001b0: e1e7 3d3d 2d79 1c3d 11bb 3b3d 615c c33c
000001c0: d291 c6bd 3c61 9f3d 4745 ab3d 2492 913d
000001d0: d9a3 7b3d b465 fa3c 2ecb 31bd 6d52 abbd
000001e0: 1992 cb3d 26f7 473d 0e6f 95bd fb71 743d
000001f0: a1d6 4f3d 1862 55bd 15ec 863d a1f4 3d3d
00000200: 2477 3aba e5e1 9f3c 7689 86bd d019 5d3d
00000210: 80e0 e1bc 0fbc a63c b802 cfbd 9a63 073d
00000220: eab9 9ebc beab eabd c4ba 8dbd 3d66 91bd
00000230: 8ba2 92bd 212e adbd 6b41 ca3d 38ec 9cbd
00000240: b2f5 43bd 1f57 84bc fc38 6a3d fc0c 81bd
00000250: e993 31ba 1d37 15bd 89cd dabc 2737 9ebc
00000260: eb37 1abd 5dd7 f63b e00c 8c3d 7b4e 5a3d
00000270: 2d63 f33c ffd7 64bc a84e 95bd 951a f43c
00000280: 1d3d a53d ec10 89bd a72b 003d 6092 ecbc
00000290: be51 e43b 397f 083c 7e91 a53d b0b6 743d
000002a0: 19a8 5b3d f521 003d 67a6 7fba 6ce9 853b
000002b0: e945 383d 6580 93bc b54f 123d 4b87 e53b
000002c0: 3384 6f3d 9e20 803d d98a 6e3c fded 633d
000002d0: b1a3 5b3d ed12 8dbd aa80 e63c 0d24 703d
000002e0: 334a aabd 605d 7a3d 51ff 65bd 5034 81bc
000002f0: b33c c3bd d801 603d 8dac 90bc 657d 7e3d
00000300: eb3b aabc 171a d5bc 5fb3 9bbd a4f6 493d
00000310: 7240 fcbc 9c4e 953c 6b41 44bd b5f1 503d
00000320: 48e2 97bd 5039 be3b b4c8 093d 536a 353d
00000330: 97c2 113d 780a 773d 62c0 f33b e7f4 813d
00000340: f4a8 a3bd 8021 833b 8d82 94bd a694 35bd
00000350: f7c2 5a3d a667 c3bd 57c8 073d ab1b b0bd
00000360: 1f51 a8bc c187 933d ee14 78bd 9235 f73b
00000370: c7a5 4bbd 2e70 573d b4dd 313d 67c4 0a3d
00000380: 19b3 a9bd 7ab5 513b e90d d53d 6eb8 9bbd
00000390: fed3 babd 96fb 073d 6588 a13d f6e2 533d
000003a0: ca30 bdbd 4685 893d 6c80 b2ba 2321 5bbd
000003b0: 50c4 283c ce32 6fbd 1dcf d1bc f923 6cba
000003c0: f23c 6dbd ecf8 1cbd 4be7 2cbc fc9e b63c
000003d0: c8ab 9d3d d737 703d 53be 0a3d 49f7 b0bd
000003e0: 4a80 043d 8e48 903d c36e c5bd be92 52bd
000003f0: 1a63 2f3d 61e2 8bbc 00f8 823d 0ac5 70bd

residual_blocks.1.fc2.bias f4 [128]
-0.083958276 0.042611767 0.042600192 0.0051611443 -0.011049861 0.07874251 -0.03261487 0.040121242
-0.013881149 0.02947602 -0.0738287 0.023436375 -0.014846665 -0.042030208 0.08611567 -0.05460195
-0.076233715 -0.08145287 -0.024824241 -0.0834077 0.084653415 0.06498593 0.018271811 0.010673429
0.04114509 -0.041031767 -0.037691534 0.025078304 -0.030091964 0.02632981 0.017865233 0.05055421
0.002131981 -0.059377953 -0.0674419 0.06261752 -0.02394028 -0.072310664 0.009442363 -0.037004925
-0.0047225445 -0.086624086 -0.06320152 0.014025925 -0.022862578 0.0065471125 -0.05149731 -0.063176125
-0.062307343 -0.019514183 0.05890957 -0.057245914 -0.055105392 0.06704466 0.007996331 0.017204825
-0.05261866 -0.045949712 0.062770426 -0.026989855 0.043537654 0.019223843 0.063270934 -0.01339939
-0.016254101 0.04863164 0.058908664 -0.0018588114 -0.061696872 -0.037699796 0.0598798 -0.04375214
-0.046337865 0.03626919 -0.08634698 0.0107923355 -0.005731241 -0.022021655 0.013266268 0.02945867
0.0043051075 0.05784747 0.07790066 -0.033104695 0.059171073 0.07275942 -0.053298693 -0.013695559
0.040607385 0.047528557 -0.024747292 -0.03020176 -0.07303607 -0.004037906 -0.016876418 0.057392232
-0.026492866 0.06437995 0.036060583 -0.024445677 0.05375082 0.008433848 -0.058637172 -0.07501318
-0.04909331 -2.0752193e-05 -0.014151331 0.040263847 0.087515324 -0.08624762 -0.03705661 -0.06749583
-0.005873781 -0.015373172 -0.08163611 -0.01571666 -0.007234981 -0.06892609 0.008394233 0.06156856
-0.03760123 0.0097405445 0.05904446 0.03967894 -0.08851702 0.077671625 0.036862634 0.026205683
00000000: 51f2 abbd ad89 2e3d 8a7d 2e3d d11e a93b
00000010: 7a0a 35bc c143 a13d 2c97 05bd 2c56 243d
00000020: c26d 63bc b277 f13c 8033 97bd a4fd bf3c
00000030: 6d3f 73bc de27 2cbd 6a5d b03d 4ba6 5fbd
00000040: 6c20 9cbd c3d0 a6bd 355c cbbc a8d1 aabd
00000050: c55e ad3d 5817 853d c4ae 953c 9bdf 2e3c
00000060: c187 283d ed10 28bd 7062 1abd 0471 cd3c
00000070: 6c83 f6bc 9db1 d73c 1c5a 923c ee11 4f3d
00000080: b5b8 0b3b 4c36 73bd fb1e 8abd 9d3d 803d
00000090: 681e c4bc 9d17 94bd 24b4 1a3c 7a92 17bd
000000a0: 93bf 9abb f867 b1bd cc6f 81bd fecc 653c
000000b0: 4d4a bbbc 2989 d63b d8ee 52bd 7c62 81bd
000000c0: fc35 7fbd 35dc 9fbc 294b 713d b17a 6abd
000000d0: 31b6 61bd b64e 893d 0b03 033c 22f1 8c3c
000000e0: aa86 57bd c435 3cbd c88d 803d d419 ddbc
000000f0: 8a54 323d 527b 9d3c 3194 813d 1d89 5bbc
00000100: 5227 85bc f831 473d 364a 713d 5ca3 f3ba
00000110: dcb5 7cbd 1a6b 1abd 8544 753d 7235 33bd
00000120: c6cc 3dbd 018f 143d afd6 b0bd 56d2 303c
00000130: 22cd bbbb c266 b4bc c35a 593c 4f53 f13c
00000140: dc11 8d3b 78f1 6c3d 628a 9f3d ca98 07bd
00000150: 5e5d 723d e402 953d bb4f 5abd 5763 60bc
00000160: ee53 263d 4ead 423d d5ba cabc ae69 f7bc
00000170: ef93 95bd 6950 84bb 6a40 8abc 1e14 6b3d
00000180: 9107 d9bc a3d9 833d 43b4 133d 4d42 c8bc
00000190: d229 5c3d 1f2e 0a3c 882d 70bd 83a0 99bd
000001a0: 1116 49bd ff14 aeb7 fcda 67bc b4eb 243d
000001b0: 3c3b b33d 98a2 b0bd acc8 17bd 413b 8abd
000001c0: d978 c0bb c2df 7bbc d530 a7bd 3ac0 80bc
000001d0: 6b13 edbb 1f29 8dbd f787 093c 502f 7c3d
000001e0: bf03 1abd ce96 1f3c 9bd8 713d 6286 223d
000001f0: 6948 b5bd 4d12 9f3d 46fd 163d 4dad d63c
