outputs/weights/mlp_debug/v3.pth (torch, 282405 bytes, 12 tensors)

input_proj.weight f4 [128, 8]
000000 5e bb a1 be d8 67 40 be 7b d1 70 be a9 6b 65 be
       -0.31588262 -0.18789613 -0.2351741 -0.2240435
000010 81 06 66 3e a5 be 06 be 01 b7 2d bd a5 f0 81 bd
       0.22463419 -0.13158663 -0.042410854 -0.063447274
000020 8a b4 9e 3e 83 e2 ed 3d 58 84 73 3d 45 40 1e bd
       0.30997115 0.11615469 0.059452385 -0.03863551
000030 d2 f4 bc 3b 60 d1 86 3e ec 0a 8a bd f5 5f 0b be
       0.0057664895 0.26331615 -0.067403644 -0.13610823
000040 7f 0b 73 3e b3 7d 9d be 20 03 0d 3e c5 a5 18 be
       0.23734854 -0.30759963 0.13770723 -0.14906986
000050 1e 61 a0 be 05 c4 a6 3e bf 55 42 be 88 50 c0 bd
       -0.31324095 0.32571426 -0.18978022 -0.0939036
000060 54 dd 7e 3e 4f cf 92 3e 37 74 b3 3e 15 59 72 3e
       0.24889117 0.2867379 0.35049602 0.23666795
000070 dc 85 08 be 4f 29 b0 bd 45 e7 cb bd ec 60 f9 3d
       -0.13332313 -0.08601629 -0.099562205 0.121766895
000080 05 9c 0c be 9f f4 a7 be c1 67 05 3e b4 37 35 be
       -0.13731392 -0.3280382 0.1302786 -0.1769703
000090 ef f4 85 3e 6b 1a 30 3e 55 72 8f 3e f5 04 f6 3d
       0.26163432 0.17197578 0.28016916 0.12012664
0000a0 da ef 89 3e 82 06 3d 3e cc 60 a9 be 81 48 43 be
       0.26940805 0.18459514 -0.33081663 -0.19070627
0000b0 2f 28 bb 3d ef 4a 26 be 44 9e 3a 3e 08 60 93 be
       0.09138524 -0.16239522 0.18224436 -0.28784204
0000c0 ea 12 5b 3e 50 4f 90 3e 2f de 9d be b6 7e 7e 3e
       0.21393934 0.2818551 -0.30833575 0.24853024
0000d0 80 3b 48 3e a3 29 ab 3e 40 71 cf 3e 9e 34 9f 3e
       0.19553947 0.33430204 0.4051609 0.3109483
0000e0 ee c8 24 3c 2b 7e 91 3e 92 fe 2c be 60 3d 35 3e
       0.010057671 0.2841657 -0.16893986 0.17699194
0000f0 52 f0 3f 3e 40 1f 3a 3e d4 cf 30 3e 2d 8c 8b be
       0.18744019 0.18175983 0.1726678 -0.27255383
000100 24 df 06 bd a9 90 fe bd 3d cf 26 bd 6b c1 00 3e
       -0.032927647 -0.124299355 -0.04072498 0.12573783
000110 18 1b 9f be b4 b4 a1 3e c9 d7 94 be b5 98 73 3e
       -0.31075358 0.31583178 -0.2907088 0.23788722
000120 9b 5b 9a be 09 61 5e bd 53 16 66 3e 75 5d 9a 3e
       -0.30148014 -0.05429176 0.22469454 0.30149427
000130 5f b8 62 3e 40 42 20 3d 08 38 d8 3d f7 a1 97 3e
       0.22140644 0.03912568 0.10557562 0.29615757
000140 17 48 c0 3c 11 81 53 be 19 9b 74 3e be 30 09 3e
       0.023471875 -0.20654704 0.2388729 0.133975
000150 5d a5 95 bd 95 0c 04 be 2b b2 e7 be a3 95 7f 3e
       -0.07306931 -0.12895425 -0.4525312 0.24959426
000160 9e a5 65 3e 1a 35 92 3e 78 d5 c8 bd 8b 77 ed 3d
       0.22426459 0.28556138 -0.09806341 0.11595067
000170 09 d0 a1 3d f4 cd 46 3e b5 f7 0b be 7a ef 53 3e
       0.07901008 0.19414502 -0.13668711 0.20696822
000180 44 a0 4b bd 36 6d 2f 3e af b8 a7 3e a8 19 8c 3e
       -0.049713388 0.17131504 0.3275809 0.27363324
000190 28 16 97 3e 0b 2c 8a 3e 17 3e a9 be 0a 78 2a be
       0.2950909 0.26986727 -0.33055183 -0.16647354
0001a0 38 b6 a3 bc ef 0d 4c 3e 21 72 31 3d c3 0c 8c be
       -0.01998435 0.1992719 0.043321732 -0.27353486
0001b0 e1 d9 e7 3d c0 7f a2 3e 2d a7 93 be 7e 54 fe bd
       0.11320854 0.3173809 -0.28838482 -0.12418459
0001c0 c1 63 03 3e ac 02 46 be 24 55 82 be 1a 28 c9 3e
       0.12831022 -0.19336957 -0.25455582 0.39288408
0001d0 a5 35 b1 bb 9d f5 a8 be c6 34 72 3e c8 1a 8c be
       -0.0054080063 -0.32999888 0.23652944 -0.27364182
0001e0 d5 7e 32 bd 55 dc a8 bd 11 45 4c 3d 3c 16 10 be
       -0.043577988 -0.0824515 0.049870554 -0.14070982
0001f0 fd e4 a8 bd 6c 79 99 3e b8 3b 8b bd 55 27 61 3e
       -0.08246801 0.2997545 -0.067985 0.2198766
000200 cd 99 8f be 5a 5f f8 bd fd ad a5 be 82 29 0b be
       -0.28047028 -0.12127562 -0.32359305 -0.13590053
000210 49 12 08 be 59 61 0b be 7c d2 9d be 27 54 b4 3e
       -0.13288225 -0.13611354 -0.3082465 0.35220453
000220 e3 89 a8 3e a8 95 02 3e 0b 73 3a be 9f 5e fc 3d
       0.329177 0.12752402 -0.18207948 0.12322735
000230 0a 67 5f be fc 81 b3 3d bc 7f 11 3e 56 f2 42 be
       -0.2181665 0.08765027 0.14208883 -0.19037756
000240 89 06 62 be 74 c5 4b be c5 a6 d6 3c c3 42 37 3e
       -0.22072805 -0.19899541 0.026202569 0.17896561
000250 8e f6 a3 be 1d 2c 85 3d 34 ac 4b 3e 0f fc e9 3d
       -0.32024044 0.065025546 0.19889909 0.114250295
000260 60 28 49 3e 22 dc 00 be 13 91 03 be 9f 9c 85 be
       0.19644308 -0.12583974 -0.1284831 -0.26096055
000270 ef 17 1b be e1 fd da 3d 28 04 95 be c5 3d d1 bd
       -0.15145849 0.10692955 -0.29104733 -0.1021686
000280 0b de 0f 3e 84 12 83 3c b3 05 8a be c0 34 ad be
       0.14049546 0.01600004 -0.26957473 -0.33829308
000290 07 2b 21 3e 3b a7 13 be a7 7b e8 3d 8a e8 13 be
       0.1573907 -0.14419262 0.1135171 -0.14444175
0002a0 d3 e4 44 bd 96 25 87 3e 30 87 a8 be 61 ef 9c 3e
       -0.048069786 0.26395863 -0.3291564 0.30651382
0002b0 74 8a c5 3e 71 f9 68 bd 90 68 5c be 9a 86 a9 be
       0.38582194 -0.05687851 -0.21524262 -0.33110505
0002c0 ec 3a 90 3e 36 c6 a4 be 26 ef 43 bd e8 c1 e7 3d
       0.28169954 -0.32182473 -0.04783549 0.113162816
0002d0 88 cb 8d 3e 7b 9f 1d 3e 54 53 8d be 83 1a a6 3e
       0.27694345 0.15392868 -0.27602637 0.32442102
0002e0 ea 22 5f bc eb 2e 75 be 66 9a a7 be b6 15 73 3e
       -0.013619164 -0.23943679 -0.32734984 0.23738751
0002f0 af 5c 96 3d ff c1 43 3e 68 e8 ea 3d 3c fc c4 3d
       0.07341897 0.19116972 0.11470109 0.096184224
000300 f9 d6 39 3e e8 41 6d 3e 12 c2 e5 3d e1 8f 06 3d
       0.18148412 0.23169672 0.112186566 0.032852057
000310 2d e0 ff bd 53 a2 d0 bd d7 e2 b0 3e e1 05 34 3e
       -0.1249393 -0.10187211 0.34548065 0.17580368
000320 33 ab 04 be ae 94 9e bd a4 25 8d bd 73 c9 39 be
       -0.12955932 -0.07743202 -0.06891945 -0.18143253
000330 96 9a 3c be df 2e 1f 3e b5 dd 29 be 3a 4d 3e be
       -0.18418345 0.15545224 -0.16588481 -0.18584147
000340 8d c1 af be 55 e1 18 3e a3 c3 0b be c0 e8 93 be
       -0.34327355 0.14929707 -0.13648848 -0.28888512
000350 1e 86 9f 3e c6 5e 9d be f7 5b 57 bd 9c 5e fa bd
       0.3115701 -0.3073637 -0.05257794 -0.122250766
000360 5a df 5c bd 5f e8 6a be 2d e1 8c be 4c 6c 8a 3e
       -0.053923942 -0.22940205 -0.27515545 0.2703575
000370 f4 31 5e be b3 36 95 3e 9c 53 8b be 6c 46 a7 be
       -0.21698743 0.29143295 -0.27212226 -0.32670915
000380 3d 56 1b be f8 bc 91 be e4 01 11 be 3a 3b 3e 3e
       -0.15169616 -0.28464484 -0.14160877 0.1857728
000390 0c f4 69 be d7 47 e3 3d e4 a1 82 3e dc cf fd 3d
       -0.22847003 0.11097687 0.25514138 0.12393162
0003a0 7d a3 9f 3e d1 16 a3 be d1 af 8d be 1b 8d 23 be
       0.3117942 -0.31853345 -0.276732 -0.15971796
0003b0 95 82 e1 bc 87 77 5e 3e 78 b1 4d be e5 be 35 be
       -0.027528087 0.21725284 -0.2008723 -0.17748602
0003c0 72 64 1d 3d 39 83 33 bc 4e a7 a4 be 8d 26 65 be
       0.03842587 -0.010956579 -0.32158893 -0.22377987
0003d0 4f f4 17 be 59 33 32 bc 90 65 23 3e 6e f0 50 be
       -0.1483929 -0.0108765 0.15956712 -0.20404217
0003e0 3a 40 52 3e 0e 3b 67 be 3b 4d 22 3e bb 70 b1 3e
       0.20532313 -0.22581121 0.15849774 0.3465632
0003f0 aa ae cd 3e c0 a1 d7 be 92 dc 48 be 00 f5 41 be
       0.4017232 -0.42115593 -0.19615391 -0.18941116

input_proj.bias f4 [128]
000000 bb 59 a1 3d 4c b5 7c be bd 4f fa bd 37 a4 8a be
       0.07878443 -0.24678534 -0.1222224 -0.2707841
000010 e3 71 8b 3e 30 ec 32 be 64 ef a9 3d b4 48 d6 bd
       0.27235326 -0.17472911 0.08297613 -0.10463086
000020 b3 78 94 3e 05 0e cb bd d6 c8 99 3e 03 bd be 3c
       0.28998336 -0.099147834 0.30036038 0.023283487
000030 66 50 a9 3d 82 9a 8e 3b 0e fc 1f 3d 75 0f 9a 3e
       0.08267288 0.004351915 0.039058737 0.30089918
000040 0c ad b8 bb 00 32 32 be b2 87 b6 bc 8d db 73 be
       -0.005635863 -0.17401886 -0.022281501 -0.2381422
000050 9c 12 9d 3e d0 24 a8 3e 88 83 34 3d a2 93 63 3e
       0.3067826 0.32840586 0.04407075 0.22224286
000060 c9 59 e0 bc 8a e4 1c be 0e c5 7e bc b6 06 74 3e
       -0.027386563 -0.15321556 -0.015549911 0.23830685
000070 ff 41 80 be 41 35 bd bd ee 05 ee 3d 3c f5 17 be
       -0.2505035 -0.09238673 0.11622225 -0.14839643
000080 e8 cb a3 be e0 30 b3 3d 76 9c 82 3e 3b b9 86 be
       -0.31991506 0.087495565 0.25509995 -0.26313195
000090 7c 89 2f 3e 8e 01 09 3e 82 60 0a 3d 8f 56 5e 3c
       0.1714229 0.133795 0.033783443 0.013570442
0000a0 05 80 5b 3e 8d 6a b7 3e e2 7b 00 bd 12 b9 3e be
       0.21435554 0.3582348 -0.031368144 -0.18625286
0000b0 fb 52 96 3e 2c ae a1 3e 97 bb 25 be 60 4b 6b 3e
       0.29360184 0.31578195 -0.16184841 0.22977972
0000c0 80 1f 2a be 3b 14 98 3e 68 9a 8c 3e b6 92 89 be
       -0.16613579 0.29702935 0.27461553 -0.26869744
0000d0 5a 21 8e 3d 25 3e a2 bd 3b e5 8e be bc 16 e5 bd
       0.06939955 -0.079220094 -0.27909264 -0.11185977
0000e0 8b 84 89 3e 0e 12 92 bc 4d 70 8e 3e 90 12 bd 3e
       0.26858935 -0.017830875 0.27820054 0.36928225
0000f0 8b af 55 3d 80 9e 82 be c4 ab 9f be 81 ad b0 be
       0.052169364 -0.2551155 -0.31185734 -0.34507373
000100 5f c9 25 3e 51 e8 16 3e 79 3e 81 3e f2 79 01 bd
       0.16190098 0.14737059 0.25242975 -0.031610437
000110 c8 16 11 bd 4b 77 02 be 5d c7 a5 3e b3 fc e0 3d
       -0.035422117 -0.12740819 0.32378665 0.109856986
000120 27 e7 3c 3e 33 55 67 3e 56 ce a0 3e b1 94 e1 bd
       0.18447553 0.22591095 0.31407422 -0.11014689
000130 3b 83 72 be 0c 77 96 3e 6a c2 27 3e d2 ad 43 3d
       -0.23682873 0.293877 0.16382757 0.04777319
000140 f0 db 4a 3e 58 31 8e be e5 3a cb 3d 3d a6 96 be
       0.19810462 -0.2777202 0.099233426 -0.29423705
000150 21 2b 14 be 7b 62 46 3e 76 3f 1e be f1 5d 85 3d
       -0.14469577 0.19373505 -0.15453896 0.065120585
000160 fd bc 58 bd 47 c8 b8 3d d7 e7 81 be 0c ef 65 be
       -0.05291461 0.09022575 -0.25372192 -0.2245447
000170 4f 88 8f bd e0 c4 c4 3c 90 b1 b6 3e a5 de 8f be
       -0.07008421 0.024019659 0.35682344 -0.28099552
000180 02 e7 92 be fd 1b 99 3d a5 98 a4 be c7 21 ac 3e
       -0.2869187 0.074760415 -0.3214771 0.3361952
000190 72 28 6d 3e ed 23 93 be 02 d0 4f be b5 90 a9 3e
       0.2315996 -0.28738347 -0.20294192 0.33118215
0001a0 29 e7 8c bc f0 90 85 3e cb 62 36 3e 73 5f 92 3e
       -0.01720007 0.2608714 0.17811124 0.28588447
0001b0 e3 d8 0b 3e ef 01 bb 3e 8b 4c ae 3e 6c 1d 27 3e
       0.13656954 0.36524913 0.34042773 0.16319817
0001c0 51 20 75 be 95 df fc 3d 7f 21 85 be 96 2b 48 bd
       -0.23938109 0.123473324 -0.26002118 -0.04886969
0001d0 e8 91 bb bd 3a 81 35 3e a4 18 05 3e 28 be 62 3e
       -0.09158689 0.17725077 0.12997681 0.22142851
0001e0 8e 07 6a be 20 de 10 be 5a e0 4a 3e ca 85 08 be
       -0.22854444 -0.14147234 0.19812146 -0.13332286
0001f0 72 0f 60 3e a9 6c 36 3e b0 0f f4 bd 2c 02 ac 3d
       0.21880892 0.17814888 -0.11917055 0.08398852

residual_blocks.0.fc1.weight f4 [128, 128]
000000 9c 88 8a 3d 54 41 5d 3d 0e bf 02 3d 3b b7 fc bc
       0.067643374 0.05401738 0.031920485 -0.03084909
000010 70 88 b4 bd cb f3 ac 3d ae f2 59 bd 03 e9 db 3b
       -0.08815086 0.08444937 -0.053209953 0.006711127
000020 ad 9b c1 bb cc 50 89 bc cd 28 af bd ce 89 03 3d
       -0.0059084506 -0.01676216 -0.08552704 0.032113843
000030 80 e2 92 bc 8e cb cf 3c 40 a0 7e 3d 70 75 fe bc
       -0.01793027 0.025365617 0.062164545 -0.031061858
000040 98 3a a0 bd 5c 79 d6 3c fd 8d 73 bd e0 4e 9e 3d
       -0.07823676 0.026180916 -0.059461582 0.07729888
000050 0e f9 0b bd 01 07 ad 3d ac ec 15 3d 00 18 83 bd
       -0.034173064 0.084486015 0.03660266 -0.06401062
000060 c7 e5 33 bd e0 b1 5a 3d b5 26 9d 3c 20 f2 9a bd
       -0.043920305 0.05339229 0.019183496 -0.07565713
000070 1c d2 dd 3c 0f 6b 7f bd fb af 24 bd 8b d2 a4 3d
       0.027077727 -0.06235796 -0.04020689 0.080479704
000080 d9 9e d8 3b 95 84 8a 3d 9e c2 59 3d 27 f6 83 3d
       0.006610733 0.06763569 0.053164117 0.06443434
000090 1d 84 8a 3d ac ee 69 bd 6e 77 a6 bd 2a e1 9d ba
       0.0676348 -0.05711238 -0.08128248 -0.0012045254
0000a0 5a 07 90 3c be 85 61 3d 28 77 09 3c 3c 11 f0 bc
       0.01758163 0.055059187 0.0083902255 -0.029305093
0000b0 8f d8 12 bd 77 25 85 bd db cf b2 3d 2b 32 2b bc
       -0.035851058 -0.065012865 0.087310515 -0.010448973
0000c0 4c dc 9e 3d 9e 0f 9f bd b7 3c 8c 3c a0 fc bb bc
       0.07756862 -0.077666506 0.017118795 -0.02294761
0000d0 c4 80 66 3b 84 65 93 3b fb de 9f bd a4 0c 97 bd
       0.0035171965 0.0044981856 -0.07806202 -0.07375458
0000e0 89 1a 42 bd 0f 96 ac bd 34 ee a4 bd af a4 87 bd
       -0.047388587 -0.08427059 -0.08053246 -0.06623208
0000f0 49 ed 91 bd 95 3c 7a 3d 7b b6 7a 3d b1 5d a7 bd
       -0.07125337 0.06109293 0.061209183 -0.08172167
000100 89 ff 9f 3c 4d d8 9a bd 17 40 2b 3c 39 06 39 3d
       0.019531028 -0.07560787 0.010452292 0.04517195
000110 b5 40 ab bc d9 b4 af 3d c4 c4 a5 3d 73 40 80 3c
       -0.020904878 0.08579416 0.08094171 0.015655732
000120 17 0d 07 bd e8 99 72 bd 15 71 a7 3d 38 f2 5f bd
       -0.032971468 -0.059228808 0.081758656 -0.054674357
000130 b0 69 95 3d 19 76 5d 3d a6 cc 85 bd 20 c4 e9 3c
       0.07295549 0.054067705 -0.06533174 0.028535903
000140 0e 06 8d 3d fd f6 0d bc 96 16 06 bc 14 bc 83 3d
       0.068859205 -0.008664844 -0.008184096 0.064323574
000150 df 8e 54 bc 67 e8 d1 bc 23 6b 55 bc d5 2d b1 bd
       -0.012973516 -0.025623513 -0.013026032 -0.0865132
000160 3f 76 8a 3c 62 2f 27 bd 82 f8 5e 3d 6d 04 3a bd
       0.016902087 -0.040816672 0.054436214 -0.045414377
000170 e7 cc 1a bd 7d 20 a7 3d ff ed a6 3c 38 06 57 3d
       -0.037793066 0.081604935 0.020377157 0.052496165
000180 a6 2c 90 bd b5 10 54 3d 9f 58 90 3d 09 43 99 3d
       -0.07039766 0.051773746 0.07048153 0.07483489
000190 a7 ef 0b bd 19 1f 8e 3d a9 52 a4 bd aa 22 0a bd
       -0.034164097 0.06939525 -0.08023579 -0.033724464
0001a0 3a a7 0e bd c6 c0 84 bd 40 57 70 3d 31 e2 60 3d
       -0.03482745 -0.06482081 0.058676958 0.054903213
0001b0 6b 2c 98 bd 4e a7 03 3d 31 77 9c 3d ab b9 77 3d
       -0.07430347 0.032141976 0.076399215 0.0604798
0001c0 d6 36 80 bc b2 dc f6 3b a2 e4 a0 bd 59 01 48 bd
       -0.015651148 0.007533633 -0.07856108 -0.04882941
0001d0 03 ee b4 3c 22 d1 a9 3d aa e7 ac bd fc e7 33 3c
       0.02208615 0.08291842 -0.08442624 0.010980602
0001e0 6e 27 b2 3d b4 58 cd 3c ad 3e 2b 3d 6f 5d ab bd
       0.08698927 0.025066711 0.04180782 -0.083674304
0001f0 04 7b d6 3b 06 c4 3d 3d fe 59 d0 bc 90 d6 a8 bc
       0.0065454263 0.04632952 -0.025433537 -0.020610124
000200 05 b9 b9 3c 0c 59 f9 bc 55 0a bf 3b 07 c9 87 3d
       0.022671232 -0.030437969 0.005830089 0.0663014
000210 52 22 ba bd 9b ac 6d 3d 6a b6 2c bd 40 9d 7d bd
       -0.09088577 0.058025938 -0.04216615 -0.061917543
000220 f6 d7 15 bd 32 13 6b bb 30 95 a2 3d 9c a6 74 bd
       -0.03658291 -0.0035869596 0.079386115 -0.059729204
000230 de 1d fe 3c 08 7f 23 bd 2a bb c0 3c 4b 62 ab bd
       0.031020101 -0.03991607 0.023526747 -0.08368357
000240 1d 9e 8d 3d d0 a1 73 bd 9b 7f b8 3d 6b 39 40 bd
       0.06914923 -0.05948049 0.09008714 -0.046929758
000250 04 82 77 3d 10 68 88 3d ed f6 b2 bd 88 eb 9f bd
       0.060426727 0.06660473 -0.087385036 -0.07808596
000260 51 ba 94 3d 3e f4 84 bd ee 62 8f bc 8b 73 3b 3d
       0.072620995 -0.06491898 -0.017503228 0.045764487
000270 f2 17 71 3d f8 ae 8f bd 82 54 01 3d 25 c7 3a 3d
       0.058860727 -0.070157945 0.031574734 0.045600075
000280 42 17 02 bd 32 43 15 3c 7f 2c c6 3c 2d 80 ae bd
       -0.03176046 0.009110259 0.02419114 -0.08520541
000290 9c ff f8 3c 09 ab 85 3d 2c 65 3f bd 54 6d 7e bc
       0.030395322 0.06526763 -0.046727344 -0.015528996
0002a0 0c d6 0b 3d f2 51 a7 bd 1e 1d 44 3d b0 1f 20 3b
       0.034139678 -0.08169927 0.04787933 0.002443295
0002b0 a6 d5 82 bd 71 6b 23 bc 56 41 8f bd 6e 5f 1b 3d
       -0.063884065 -0.0099743465 -0.06994884 0.037932806
0002c0 c2 d4 9a bc 3b a5 b4 bd 44 d5 90 3d d1 32 6f 3d
       -0.018900279 -0.08820578 0.07071927 0.05839807
0002d0 69 dd 7a 3d d9 fb 90 3c 26 fd 0a 3d 41 84 7a bd
       0.06124631 0.017698215 0.033932827 -0.061161283
0002e0 5b 53 0c bc 02 bd ed 3b 90 6f 93 3d eb c2 96 3d
       -0.008564795 0.0072551975 0.07199013 0.073613964
0002f0 6b ff ab 3c 91 f9 0f 3d ba 60 4d 3d 46 ff a5 3d
       0.020995816 0.035150114 0.050141074 0.0810533
000300 f4 2f 07 bd cd 4e d3 3c 20 07 c4 3d 50 56 45 3d
       -0.033004716 0.025794411 0.095716715 0.048178017
000310 a6 80 28 bc 23 a5 ad ba e6 c5 7a bd 8a b9 57 bd
       -0.010284578 -0.0013248067 -0.061223887 -0.05266718
000320 02 0f 2c bc b3 7a 40 3d 0c 87 ed 3d a5 d0 f2 3d
       -0.010501625 0.046992015 0.11598024 0.11856202
000330 6c 98 bb 3d 1a 81 7e 3d 84 45 c1 bc 74 77 b1 3d
       0.091599315 0.06213484 -0.023592718 0.08665362
000340 cd e8 3f 3d 4b 0f 1b bd 07 1e 17 3c dd e0 f9 3b
       0.046852876 -0.03785638 0.009223468 0.0076256827
000350 9a a5 16 3c 36 23 17 3d 1c 3b a7 3d 30 af 06 3d
       0.009194756 0.036898814 0.08165571 0.032881916
000360 61 29 81 3d f4 d6 d3 3d 6f 39 3d bd 4f db 3c 3d
       0.063067205 0.103437334 -0.04619735 0.046107586
000370 9b a2 9e bd 24 b1 41 3d 9b b0 03 3c 5e 39 02 bd
       -0.07745858 0.047288075 0.0080377115 -0.03179299
000380 bf 20 b2 bd 7c ce 82 3d c9 d0 af 3b 52 ed 43 3d
       -0.08697652 0.0638704 0.0053654653 0.04783375
000390 84 61 d7 3c 16 31 8b bd b6 ee a4 3c 16 f2 d3 3c
       0.026291616 -0.06796472 0.020133357 0.025872272
0003a0 e8 6e 81 3d f7 7e 3a bd 01 d3 f2 3c c5 bd 16 3d
       0.06319982 -0.04553124 0.02964163 0.036802072
0003b0 47 2e 1b 3d 48 73 a0 3d 6d bd 39 3d 07 67 b7 3d
       0.03788593 0.07834488 0.045346666 0.08955198
0003c0 13 e9 c5 3d 69 60 98 bd 40 1d 2e bd a2 75 70 bd
       0.09663596 -0.07440264 -0.042508364 -0.058705933
0003d0 99 52 83 bb 46 1b 96 bd bf 98 86 3d 60 1e 73 bd
       -0.004007649 -0.07329421 0.06572103 -0.05935514
0003e0 3d b2 71 bd 6f 35 76 bd c6 2d 8e 3d 6c 4f 2e 3d
       -0.059007872 -0.060109552 0.06942324 0.04255621
0003f0 fd d3 c4 3d 90 04 a5 3d 38 9e 41 bd da d2 a1 3c
       0.09610746 0.08057511 -0.04727003 0.019753862

residual_blocks.0.fc1.bias f4 [128]
000000 bd 57 86 bd f9 2b a6 3a 0d df c0 3d 9a b9 9c bd
       -0.065597035 0.00126779 0.094175436 -0.07652588
000010 c8 88 a2 3d c3 c1 41 bd 75 da 56 3d 2d 29 ac 3c
       0.07936245 -0.047303926 0.05245443 0.021015728
000020 52 91 b6 bd 86 9c 6d bd c0 d2 06 3c f4 9a 75 3d
       -0.089144364 -0.0580106 0.008228958 0.059962228
000030 da d5 08 3d 5b c2 80 bd c8 a8 c8 3c 78 e6 a1 3d
       0.03340707 -0.0628707 0.024494544 0.079052866
000040 ef 84 68 bd 9f e4 3b 3d 56 ca 84 3c c8 32 c3 3d
       -0.0567674 0.045872327 0.016209763 0.0953117
000050 81 4f ed bc 99 91 50 bc 38 8d 8e 3d 10 48 b9 3c
       -0.028968574 -0.012730026 0.06960529 0.02261737
000060 10 15 9c 3d 03 a8 61 3d c3 59 bd 3b 85 c3 84 3d
       0.07621205 0.05509187 0.0057785227 0.06482605
000070 67 90 44 3d 85 8b 7c bc 55 ee 9f bc a5 c7 9e bd
       0.047989275 -0.015414123 -0.019522825 -0.07752923
000080 32 67 27 bd 10 ed a0 3d 3f 18 b2 3d 6b 47 b8 3c
       -0.0408699 0.07857716 0.08696031 0.022494992
000090 e0 c1 64 bc 80 0c 6a bd 7e d4 a3 3d a3 54 33 3d
       -0.013962239 -0.057140827 0.07999514 0.043781888
0000a0 ad d7 57 bc 96 48 ad bc ba 01 ca bc 17 a8 96 bd
       -0.01317398 -0.021152776 -0.024659026 -0.07356279
0000b0 b4 40 de 3c 65 c9 74 3b c9 d0 30 ba 61 cc d0 3d
       0.027130462 0.0037351486 -0.00067449786 0.10195232
0000c0 2e c0 b6 bd 71 14 4e bd 5c b9 80 bc 8d 88 38 bd
       -0.08923374 -0.050312463 -0.015713386 -0.0450521
0000d0 de 8a 1d 3d da 33 0f 3d 37 1e a0 3d ad a3 c1 bc
       0.038462512 0.03496156 0.07818263 -0.023637617
0000e0 67 8f f5 3c 40 65 a9 3d b7 46 08 bd dd c5 b6 bd
       0.029975606 0.08271265 -0.033270564 -0.08924458
0000f0 c7 c3 3a 3c ac 42 73 bd 98 99 8a 3d ef a5 8c 3d
       0.011399216 -0.059389755 0.06767577 0.06867587
000100 e7 37 07 bd 70 82 da 3b 9a 46 20 3c 82 9a 2a bd
       -0.033012297 0.0066683814 0.009782458 -0.041651256
000110 a7 3a 74 bd 0f f8 37 bd 4e 8f 5e bc 64 4f 91 bc
       -0.059626248 -0.0449143 -0.013583971 -0.017738052
000120 e8 4f 8d 3d 18 b3 4f 3d 35 11 30 bd 22 44 9e 3d
       0.069000065 0.050707906 -0.04298516 0.07727839
000130 d3 39 94 bd 18 dd 82 3a 14 33 60 bd be 5d 8b bd
       -0.072375916 0.0009984104 -0.054736212 -0.06804989
000140 79 fd 85 3d f2 f2 a0 bd 06 a6 a0 bd 64 7d d6 bc
       0.06542487 -0.07858838 -0.078441665 -0.026182838
000150 03 53 19 bd e0 77 07 bd 46 50 23 3d 8a 83 79 bd
       -0.03743268 -0.033073306 0.039871477 -0.06091646
000160 a4 c3 01 bd 77 c6 ab 3b ea 00 62 bd 23 ef 7e bd
       -0.031680718 0.0052421647 -0.055176653 -0.062239777
000170 31 02 60 bd ca 5a b7 3d ec b7 3a bc c4 ac 44 3d
       -0.05468959 0.089528635 -0.011396389 0.048016325
000180 10 b6 8f 3d 3f 15 c6 bb f8 a6 97 bd 3e ea a7 3d
       0.070171475 -0.006045013 -0.07404894 0.08198975
000190 bf 33 2e 3d 84 2d 3a 3d 96 c1 60 bd bb f5 9a 3c
       0.042529818 0.045453563 -0.054872118 0.018916002
0001a0 2d 40 5a 3c 75 80 3d bd ff 12 9a 3d 2a f3 b8 3a
       0.013320965 -0.046265084 0.075231545 0.0014110554
0001b0 a1 f8 0c bc e5 e5 6f 3d 69 b7 f4 bc 29 85 97 3d
       -0.0086042 0.058568854 -0.029872613 0.07398445
0001c0 eb 73 59 3d 14 0c 82 3d 4d 16 91 bd e5 b3 82 bd
       0.053089064 0.0634996 -0.07084332 -0.063819684
0001d0 16 51 11 3d a6 03 a9 3c f2 24 b4 bc 79 bb 2a 3b
       0.03547772 0.020631623 -0.021990273 0.0026051684
0001e0 19 9e 3b 3b c6 b2 32 bd 43 b6 80 3d 51 9d f2 3c
       0.002862817 -0.043627523 0.06284764 0.02961603
0001f0 fa ab 06 3c be 00 d0 bc 1c 08 b1 bc d3 06 8c 3c
       0.008219713 -0.025390979 -0.021610312 0.017093098

residual_blocks.0.fc2.weight f4 [128, 128]
000000 43 6d 80 bc ea 2b 7b 3c bc 65 89 bd 98 66 b0 3d
       -0.0156771 0.015330294 -0.067088574 0.08613318
000010 e6 6d 1a bd 60 f4 41 3d d7 cf 08 bc 78 e2 2b bd
       -0.037702464 0.047352195 -0.008350334 -0.041964024
000020 50 0a e0 3c 2a 95 81 bd 43 f2 48 3d 41 54 46 3d
       0.027348667 -0.06327279 0.049059164 0.048420195
000030 6a 20 c6 3b 7a d2 28 bd 99 ee 71 3d fd ea 2d bd
       0.0060463445 -0.04121635 0.059065435 -0.04246043
000040 3a 8b 02 3d 08 3e 60 bd 67 e3 3f 3d dc 2a a8 3d
       0.031871058 -0.054746658 0.046847727 0.082113
000050 91 9a b0 3d a8 95 1f bd d6 ab 6c bd 6d 29 f5 3c
       0.08623231 -0.038961083 -0.057781063 0.02992698
000060 a0 e0 25 3d bd f6 43 3d c7 b3 83 3d f6 b5 ab bd
       0.040497422 0.04784273 0.06430774 -0.08384316
000070 60 32 ae bd a0 cb 02 bb c1 59 03 bb 51 ac 34 3d
       -0.08505702 -0.0019957796 -0.0020042511 0.044109646
000080 85 f0 98 bd 12 f9 88 3d 50 bf d7 3b 28 de 80 bd
       -0.074677505 0.066881314 0.0065840855 -0.06292373
000090 86 fd 0a 3d 3b 1a 39 3c 8e 50 74 bd 5b c0 a4 bc
       0.033933185 0.011297758 -0.059647135 -0.020111253
0000a0 3d 2b f1 3c 3d e9 85 3d 24 77 a3 3d c5 35 51 3c
       0.029439563 0.06538627 0.07981709 0.012769167
0000b0 1d 16 94 bd eb 75 53 bd 25 87 24 3d 4c 67 a0 3d
       -0.0723078 -0.051626127 0.040167946 0.07832202
0000c0 29 fa a4 3b 88 bc f4 3c d4 dc 76 3d ea 27 53 3d
       0.005034704 0.029875055 0.06026919 0.051551737
0000d0 dd b2 46 3d fc 30 01 bd 8a 61 86 bc 46 5c 0e 3d
       0.04851042 -0.031540856 -0.016403932 0.034755968
0000e0 0c bd 71 3d 42 80 5e 3d 05 eb 32 3b d5 c8 43 3d
       0.05901818 0.054321535 0.0027300727 0.04779895
0000f0 81 4a 99 3d 80 57 cf 3c 32 a7 2d 3d 43 1a 46 bd
       0.074849136 0.025310278 0.042395778 -0.04836489
000100 80 4e 72 3c 40 38 61 bb 4d 7d 09 3c e5 25 7d 3d
       0.014789224 -0.0034365803 0.00839169 0.061803717
000110 78 17 7a 3d 85 ef a0 bd 59 13 8f bd d6 54 cd bc
       0.061057538 -0.07858185 -0.06986112 -0.025064867
000120 38 2a 80 3c 75 eb 15 bd 68 c5 d4 3b 8b 53 34 bd
       0.015645131 -0.036601502 0.006493259 -0.044024985
000130 44 4c ae 3d 1f d5 75 bd 09 a0 a7 3c 86 4d 93 3d
       0.0851064 -0.0600177 0.020462053 0.07192521
000140 6c fa 91 bd ca 1c 10 bd 8e 19 42 3d 54 ad 4a bc
       -0.07127842 -0.035183705 0.047387652 -0.012370426
000150 66 64 a7 3d 5f ed 69 bd 9c a2 2b bd b2 dd 47 3d
       0.08173446 -0.05711114 -0.041903123 0.04879541
000160 18 fd f5 bc 21 ce ea bc c7 08 9a 3d b6 7c 94 bc
       -0.030027911 -0.028662743 0.075212054 -0.018125873
000170 ac 76 1e bd ca 9c 85 bd 93 16 9d ba 03 c5 1f 3d
       -0.038687393 -0.06524046 -0.0011984877 0.039006244
000180 3c 3c 8b 3d e8 36 23 bd 3a 53 b3 3c 00 42 e0 3a
       0.06798598 -0.039847285 0.021890271 0.0017109513
000190 df cb a1 3d 2c 1c 89 bd 03 3e 27 bd 46 14 cc 3c
       0.079002135 -0.066948265 -0.040830623 0.02491201
0001a0 11 6a df bc d7 6a 11 bd bc e6 40 bd 9f 26 98 3d
       -0.027272256 -0.03550228 -0.047095045 0.074292414
0001b0 18 b7 ec bc 01 d5 37 bc 62 47 09 3b e8 c9 9f bc
       -0.0288959 -0.011220218 0.0020947088 -0.019505456
0001c0 6c 0c 30 bc 6d 2b 6f bd 87 96 69 3d eb 23 37 3d
       -0.010745149 -0.058391023 0.05702832 0.04471199
0001d0 31 91 aa bd 7e 80 2b 3d 1a a5 6d 3d 21 7c 1a bb
       -0.08328474 0.041870587 0.05801878 -0.0023572522
0001e0 a9 5a 3c 3d c3 cc 8c bd c5 60 27 3c c9 2f 8d bd
       0.045984898 -0.06874993 0.010215943 -0.0689388
0001f0 cd 8a ab bc bd d3 8e bd ee a7 9f bd 94 ed 0f bd
       -0.020940209 -0.069739796 -0.07795702 -0.03513868
000200 30 ec aa 3c 7b a9 85 3d 36 e6 30 bd 96 25 87 bb
       0.020864576 0.065264665 -0.043188296 -0.0041243536
000210 03 51 b2 bd 63 ef ff bc 66 34 73 bd 55 0f 94 3c
       -0.08706858 -0.031242078 -0.059376143 0.018073717
000220 03 91 94 3d ac fd 6e bd ae 8d 09 3d 7a de a1 3c
       0.07254221 -0.05834739 0.033582382 0.019759405
000230 c2 23 b8 bd a5 ec ea bc a8 e1 53 3d 8f 0a 72 bd
       -0.08991195 -0.028677294 0.051728874 -0.0590921
000240 14 d3 8d bd f8 3c f9 bc eb 5f cf 3c 79 be 75 3d
       -0.069250256 -0.03042458 0.025314292 0.059996102
000250 6c 59 50 3c a7 59 d4 3c 90 16 2e 3b ee 4d ef bc
       0.012716632 0.025921656 0.0026563741 -0.029211964
000260 92 51 89 3d b8 14 84 bd af d7 86 bd 35 29 5c bc
       0.067050114 -0.06449264 -0.06584107 -0.013437559
000270 79 73 5b 3d 6e ec 02 3d a2 24 72 bd 1b 71 28 bd
       0.05357692 0.03196376 -0.059116967 -0.04112349
000280 ad 21 92 bd f6 07 a6 bd 72 6a 23 3d 85 d8 c4 bd
       -0.071353294 -0.08106987 0.039896436 -0.0961161
000290 00 c2 0f 3c 1e 23 00 3c 7d 85 97 bc 54 69 a2 3d
       0.008774281 0.007820873 -0.01849627 0.07930246
0002a0 e8 33 58 3d 43 22 50 bb 2f 26 02 3d f3 c0 0a bd
       0.052783877 -0.0031758703 0.031774696 -0.033875417
0002b0 8d e8 1d bd 30 6c 3d bd 07 76 3c bd e4 87 70 bc
       -0.038551856 -0.046245754 -0.046010997 -0.014680836
0002c0 37 50 8b bd d3 83 b0 bd a6 59 80 3d 31 4b 3e 3d
       -0.06802409 -0.086188935 0.06267099 0.046458427
0002d0 a4 94 34 bc 13 12 13 bd 94 cf 6b 3d 62 82 98 3d
       -0.011021767 -0.03590591 0.05757101 0.074467435
0002e0 e6 7e b6 bc 7e ca a0 3d cc c7 0c bd a5 29 71 bd
       -0.022277307 0.07851122 -0.03437023 -0.058877606
0002f0 42 55 4d 3d 86 72 6b bc 45 b1 26 3d 15 50 1b 3d
       0.050130136 -0.014370566 0.0406964 0.03791817
000300 15 08 87 3d 96 be 6f 3d 19 fc 98 3c 2e f6 94 3d
       0.065933384 0.058531366 0.018674897 0.072735175
000310 a1 a2 85 3d e3 27 7b bd 94 e1 8a 3d 07 a5 77 3d
       0.065251596 -0.061317336 0.06781307 0.060460117
000320 94 61 4f bd 08 cd 49 3d 0b 2e d8 bc 71 a7 98 bd
       -0.050630167 0.0492678 -0.026389142 -0.07453812
000330 5a a6 87 3d 83 b1 bd bd 76 1b 0e bd 36 ce aa bd
       0.06623526 -0.09262373 -0.034694158 -0.08340113
000340 e7 d7 38 3d 6d 89 e3 bc 3d da 19 3d e5 0d 73 bd
       0.045127776 -0.02777549 0.037561644 -0.059339423
000350 34 a8 73 3a 12 19 97 3d f3 cc 8c bd 4f 1e d5 bc
       0.00092947786 0.07377829 -0.068750285 -0.026015429
000360 e8 b2 9b bd 4d 68 56 bd e5 aa 34 3d f2 e2 7f 3d
       -0.07602483 -0.052345563 0.04410829 0.06247229
000370 6c 70 4f bb 77 9a 59 bd 9a 7c 6a 3d 38 09 a5 3d
       -0.0031652702 -0.053125825 0.057247736 0.08058399
000380 c2 ff ab bd ae 8c 22 3c 70 5b 8b bd 34 43 a6 bd
       -0.08398391 0.009921236 -0.0680455 -0.08118287
000390 8f 33 07 3d 22 dd 3c b9 2e a2 b3 3c 36 12 22 bc
       0.033008154 -0.00018011456 0.02192792 -0.009892037
0003a0 37 c2 54 3d d2 83 6c bd d9 5d b2 bb 88 ae a7 3d
       0.05194303 -0.0577429 -0.0054433164 0.08187586
0003b0 22 82 a8 bc db c8 ab bd 4a d9 b1 3c 3b aa 0d bd
       -0.020569865 -0.083879195 0.021710057 -0.034586173
0003c0 40 20 d9 39 f1 d1 4c 3d 39 58 5d bc f9 62 37 3d
       0.00041413493 0.050004903 -0.013509803 0.044772122
0003d0 11 e7 6c bd b4 8e f8 bc fe 3a 0d 3d eb f3 86 3d
       -0.05783755 -0.030341484 0.034480087 0.065894924
0003e0 ed 38 7c 3c 2b b4 bd bd 51 9d 55 3b dd e6 4c bd
       0.015394432 -0.0926288 0.0032594989 -0.050024856
0003f0 60 81 0d bd ff 06 e5 3b 1e 1a e8 3c 19 70 07 3d
       -0.03454721 0.0069893594 0.028332766 0.03306589

residual_blocks.0.fc2.bias f4 [128]
000000 7b 5e a0 bd 66 34 30 bd 12 83 bc 3c b7 fc c2 bd
       -0.07830521 -0.04301872 0.023011718 -0.09520858
000010 e2 40 b3 bd 1c d2 94 bd 83 a7 20 3d f3 8d 2b bd
       -0.0875261 -0.07266638 0.03922225 -0.04188342
000020 e0 ca ac 3d f9 b8 9b 3c 92 8a 0d 3a 21 72 22 bd
       0.08437133 0.0190091 0.0005399372 -0.039659623
000030 0f d2 a3 3b 8e 8b 18 3d eb 89 42 3d 3e a5 26 3d
       0.004999406 0.037242465 0.04749481 0.04068493
000040 25 8d 25 3d 41 77 82 3d b0 ab 29 bd 5b 59 64 bd
       0.04041781 0.06370402 -0.0414235 -0.05574928
000050 fa fa 9b bd 36 d4 fc bc 87 61 9c bd b1 51 54 3d
       -0.07616229 -0.030862909 -0.07635789 0.05183572
000060 dd 8b 37 3b d5 fa c9 3a af fd 81 bd 5f fa c1 3d
       0.002800695 0.0015409837 -0.063472144 0.094715826
000070 f5 e5 23 3d 2b 56 d8 bc 92 ad 00 bd f0 e4 74 3d
       0.040014226 -0.026408276 -0.03141553 0.059788644
000080 cf 5b 81 bc ee be c2 3d 75 6a 54 3b 12 f9 ae bc
       -0.015790848 0.09509073 0.0032412086 -0.021359
000090 ae aa 3d bc 40 c7 44 bd bb 84 98 bd c0 8b 24 3d
       -0.011576338 -0.048041582 -0.07447191 0.04017234
0000a0 7a a2 88 3d 56 04 7d 3d f7 e3 c7 3c ed 8a 47 bc
       0.06671615 0.061771713 0.024400694 -0.012179119
0000b0 e4 f4 60 bd a4 1d 84 bd dc 9d be 39 14 a1 28 3c
       -0.054921046 -0.06450966 0.00036357238 0.01029231
0000c0 9d 8d d8 bd 20 23 10 3d e1 55 30 bd af aa 7d 3d
       -0.105738856 0.035189748 -0.04305065 0.061930355
0000d0 3d d0 c7 3c ff ab 3d bd c9 4d b2 bb ee df 6b 3d
       0.024391288 -0.046306606 -0.0054414016 0.057586603
0000e0 7d d3 08 3d b3 d2 92 3d 44 aa 63 bd 17 24 1b 3d
       0.033404816 0.07169094 -0.0555823 0.037876215
0000f0 8e 08 8e 3d b5 d3 7f 3d 44 6f 81 3c e6 93 5d bd
       0.069352254 0.06245776 0.015800126 -0.054096125
000100 2b e1 12 3d 30 5b ab 3d 65 16 01 3d 2d 51 3d bd
       0.03585927 0.08367002 0.031515498 -0.046219993
000110 ea 9b bb bd 69 a8 97 bd f0 e9 44 3d 3e 68 36 bd
       -0.091605976 -0.074051686 0.048074663 -0.044533007
000120 49 0c 80 3d 7b af 6d bc 1e 29 a2 3c d0 8b b9 3d
       0.06252343 -0.01450717 0.019794997 0.0905987
000130 26 a6 5a bd 54 10 e0 bd 60 66 5f bd 62 b5 e3 3c
       -0.053381108 -0.10940614 -0.05454099 0.027796451
000140 a4 48 9f 3d b6 a5 7f 3d a8 a8 a8 bd e8 7f 3c 3c
       0.07777527 0.062413894 -0.082352936 0.011505105
000150 78 1e c2 bc f9 df 81 3d f3 78 81 3c 63 58 f2 bb
       -0.02369617 0.063415475 0.015804743 -0.0073957904
000160 ac ca 98 bd 3f bb a7 bd f0 e5 64 bb a5 a7 93 bd
       -0.074605316 -0.08190011 -0.0034927092 -0.0720971
000170 56 36 8f 3d 2e e1 8f 3d d1 b6 a7 3d 40 19 4e bc
       0.06992786 0.070253715 0.08189166 -0.012579262
000180 d4 d6 a9 3d f1 ac 8b bd a8 47 79 bd ee ee 77 3d
       0.08292928 -0.06820095 -0.060859352 0.060530595
000190 15 13 b4 bc a6 f8 de 3b 2d a9 83 bd 04 5e 72 3d
       -0.021981755 0.0068045435 -0.06428752 0.05917169
0001a0 36 af 82 bd 5a 74 0c 3d 10 05 4f 3d cc 62 be 3c
       -0.06381075 0.03429065 0.050541937 0.02324047
0001b0 c2 28 4c 3c 42 cd 3a 3c 6a 54 4d bd 88 d1 a9 bd
       0.012460889 0.011401476 -0.05012933 -0.08291918
0001c0 16 c4 69 3c f8 d7 b7 3d bf 65 11 3b f0 77 7a 3d
       0.014267942 0.0897674 0.002218589 0.061149538
0001d0 86 d4 99 3d fc a7 32 3c 06 42 63 3d 7a d9 9f bd
       0.07511239 0.010904308 0.055482887 -0.07805152
0001e0 82 11 e6 bc da b6 3f 3c 92 b9 90 3d 9d 27 9e 3d
       -0.02808452 0.01170131 0.07066645 0.077223994
0001f0 c9 ce 80 bd a8 88 49 bc be 01 57 bd 45 fd a3 bd
       -0.06289441 -0.012300648 -0.052491896 -0.08007292

residual_blocks.1.fc1.weight f4 [128, 128]
000000 32 c3 91 3c 36 65 0b 3d a0 dd a6 3d f9 b9 29 bd
       0.017793272 0.03403207 0.0814774 -0.041437123
000010 2e 29 b6 3b d8 1b 6d 3d c7 68 50 3d 2c 9d 1d 3d
       0.005559108 0.057887882 0.050881173 0.03847997
000020 2b 60 0a bd 72 0f a5 3c 7c 9a cd 3c be 39 45 3d
       -0.03378312 0.020148966 0.025098078 0.04815077
000030 24 78 b8 3d 4d db 61 3d c2 9a bf 3b f8 7d ba 3d
       0.0900729 0.055140782 0.005847306 0.09106058
000040 04 39 ba 3b 24 14 f2 3c 67 2a 9f bc fa c9 dd bc
       0.0056830663 0.02955062 -0.019429399 -0.027073849
000050 5d 8e 84 bd 5f 89 38 3c 5c 64 87 3d 19 45 b3 3c
       -0.06472466 0.011263221 0.06610939 0.021883534
000060 d1 66 43 3d 4d 4b 8e bd 45 8c 09 3d cd b2 24 3d
       0.047705475 -0.06947956 0.033581037 0.04020958
000070 7b 4f 17 bd 02 38 95 3d 13 7b 64 3d 78 b3 97 bd
       -0.036941033 0.07286073 0.055781435 -0.07407278
000080 b3 d3 b5 bd be 69 9b 3d d0 94 0a bc 70 9e a5 3d
       -0.08878269 0.07588528 -0.008458331 0.0808686
000090 31 37 32 3c f2 70 ab 3b fa fc 07 3e a1 04 08 3d
       0.0108774165 0.00523197 0.13280097 0.03320754
0000a0 19 90 26 bd ae 29 e7 3c a0 f1 98 3c 8a 44 bc bd
       -0.040664766 0.028218117 0.018669903 -0.0919276
0000b0 21 a1 8e bd ad 25 88 3d 5f 2d 2b bc e4 94 5b b9
       -0.06964327 0.06647811 -0.010447829 -0.00020940934
0000c0 2b 89 8e bd a3 4e 8b 3d 67 df a1 bd da 19 0d 3c
       -0.069597565 0.06802108 -0.07903939 0.0086121205
0000d0 a7 bb 0f 3c a6 95 22 bb a1 9a cb bc b2 5c f3 bc
       0.008772767 -0.0024808436 -0.024854006 -0.029707287
0000e0 07 3d 99 3d 7d 71 10 3d 5a 7a 0e 3d 8a 9b 2c 3d
       0.07482343 0.03526448 0.034784652 0.04214052
0000f0 31 74 ca 3b fd ea b5 3c fa 45 99 bd 45 04 bc bc
       0.006178402 0.022206778 -0.0748405 -0.022951255
000100 91 66 ca 3d 70 0f e7 bc 2e 9f 97 3d f6 28 b5 3c
       0.09882844 -0.028205603 0.07403408 0.022114258
000110 ae da 5e bd 7a 5d 44 3d 20 71 36 bd 18 82 a9 3d
       -0.054407768 0.04794071 -0.04454148 0.082767665
000120 1b a4 60 bb e6 37 cf 3d ea e3 7f bc 41 d2 eb bd
       -0.0034277502 0.10118084 -0.015618304 -0.11514712
000130 bf 63 4d 3c 97 94 c3 3c 0d a7 c0 bd 14 ce 86 bd
       0.012535988 0.023874564 -0.094068624 -0.06582275
000140 76 41 26 bd 67 0a e1 bd bc b3 07 bd 5c 12 49 bd
       -0.040589772 -0.10988312 -0.033130392 -0.049089774
000150 6f b4 cc 3c a5 80 db bb 08 b4 06 bd 7f 75 c4 3c
       0.024988381 -0.006698685 -0.032886535 0.023981808
000160 4d 03 9a 3c 7e 03 03 be 90 33 f6 3c 76 b7 22 3d
       0.018800402 -0.12794301 0.030053884 0.039725743
000170 cf 17 66 3c 35 ab 13 be 18 64 5f 3d 5e a2 8f bd
       0.014043762 -0.14420779 0.054538816 -0.07013391
000180 ec b0 42 bd 2b 71 a9 3d 0e f6 52 3d 81 ff 15 3d
       -0.047532007 0.08273538 0.051504187 0.03662062
000190 41 b6 35 3c 6f 56 03 bc 19 e4 a5 3c 9c aa d8 bd
       0.011090816 -0.008016213 0.020250367 -0.10579416
0001a0 cc 4a 28 be ef 8c 91 3d 5e d1 8e bd fc f2 ab bd
       -0.16434783 0.07106959 -0.06973527 -0.08395955
0001b0 3e 7a d6 3c 45 34 4d 3d de fb ff bb b9 81 13 bd
       0.026181336 0.050098676 -0.0078120073 -0.036012385
0001c0 f5 09 d0 3b ed 1f 9c 3d b9 2e 2b bc d4 ab 34 bd
       0.006348843 0.07623277 -0.010448151 -0.04410918
0001d0 59 61 73 3d 81 8c 0a bd 91 1b 9e bd f4 fc cf bc
       0.05941901 -0.0338254 -0.077201016 -0.025389172
0001e0 6e 85 28 bd 17 1b 01 3d c9 54 9c bc e7 16 8f 3c
       -0.041142873 0.031519976 -0.019083397 0.017466975
0001f0 b4 b0 85 3c 29 c2 86 3d 74 38 c9 3d 9b ad 4b ba
       0.01631961 0.06580002 0.09825221 -0.00077697047
000200 76 a8 b2 3b f7 62 85 bd 26 e2 60 bd 0e 0d 2f be
       0.005452211 -0.06513017 -0.054903172 -0.17094824
000210 9d ce 11 3d 1d dc 3d bd 9a 03 26 bc e7 86 71 bd
       0.035597432 -0.046352495 -0.010132695 -0.058966544
000220 05 f0 5b 3d 86 3b 50 3d 64 0e 00 3d bb b7 84 3b
       0.053695697 0.050838016 0.031263724 0.0040502227
000230 4a 98 84 bd a3 16 b9 3d 1f b8 4f bc ab 4c 3a 3d
       -0.06474359 0.09037521 -0.012678175 0.045483273
000240 36 ec 23 bd de 0f c7 3d 90 2e 88 3d 9d ce 9f 3d
       -0.04002019 0.09719823 0.06649506 0.0780308
000250 d6 09 98 bd 30 cc 4f bd 48 5b 11 bc e1 a7 67 3d
       -0.07423751 -0.050731838 -0.008871861 0.056556586
000260 ab dd c5 bc 02 6f 14 bc 3a 20 ad bd d4 93 17 bd
       -0.024153551 -0.009059669 -0.08453412 -0.037006214
000270 84 54 01 bc a4 6c 21 3d f7 50 00 be d6 34 eb 3d
       -0.007893685 0.03941025 -0.12530886 0.11484687
000280 84 6d fb 3c eb d5 94 bd 2f 3c ab bb de 01 5d bd
       0.03069187 -0.07267364 -0.0052256803 -0.05395686
000290 43 cc 4e bb 76 99 85 3d 33 f1 8a 3d 78 1e 0b 3d
       -0.0031554855 0.06523411 0.06784286 0.033964604
0002a0 86 16 cf bd 17 75 de bc e1 62 5b 3b 4d a7 05 3c
       -0.10111718 -0.027155442 0.0033475684 0.008157563
0002b0 c5 fe a0 3d aa 44 78 3d b2 f3 eb bc 28 84 aa bd
       0.078610934 0.06061236 -0.028802726 -0.08325988
0002c0 89 44 59 bc ca c1 c7 3d 3b ff f3 bc aa 14 7c 3d
       -0.013260969 0.09753759 -0.02978479 0.061543144
0002d0 29 cc c5 3c 12 37 86 3d a7 c6 ec 3d 32 f1 20 be
       0.024145203 0.065534726 0.115613274 -0.15717009
0002e0 b2 22 e4 bb 60 e0 9d bc a9 d1 03 bd 86 75 7f 3d
       -0.006962144 -0.01927203 -0.03218237 0.06236794
0002f0 25 ca dc 3d 11 69 99 3d 30 5f 20 bd 14 04 a3 bd
       0.107807435 0.07490743 -0.039153278 -0.07959762
000300 3a cf 94 bc d3 c9 34 bc 90 08 ff 3d f8 df 8f bd
       -0.01816522 -0.011034447 0.12452805 -0.070251405
000310 71 fe 15 be 79 b9 4f bc ad e7 6b 3c 0c 26 e2 3b
       -0.14647843 -0.0126784975 0.0143984975 0.006901508
000320 ff 01 c6 bd f3 7e 34 3d 83 0b d8 bc 6b 41 bd 3c
       -0.096683495 0.04406638 -0.026372677 0.023102483
000330 ea f4 31 3e 7d d7 45 bd 1b 49 11 be 97 55 ce bc
       0.17378584 -0.04830121 -0.14188044 -0.025187297
000340 13 85 b7 3d a0 a4 8f bd aa 08 4a 3c 24 87 30 bc
       0.08960929 -0.070138216 0.012331167 -0.010774408
000350 01 9f 54 3c 62 19 6a 3d 92 3e 23 3d 72 e2 19 bd
       0.012977363 0.057153113 0.039854594 -0.03756947
000360 95 f1 6e bd 31 7d 8e bd bb 9d 86 bb 36 b4 57 3d
       -0.05833586 -0.06957472 -0.0041081584 0.052662097
000370 a9 38 53 3d 5c a7 72 3c 79 29 82 3d 70 1c b3 bc
       0.051567707 0.014810409 0.063555665 -0.021864146
000380 ed 32 6a 3d d2 9b b2 3c 11 20 51 3d e7 bf 0a be
       0.057177473 0.021802817 0.05105597 -0.13549767
000390 0a 45 f6 3c 30 13 16 be 99 0d f5 bd d1 a9 c8 bc
       0.030062217 -0.14655757 -0.11965484 -0.024495037
0003a0 87 3f b0 3c 5f 71 8b bd 71 03 50 bd d0 10 dd bd
       0.021514667 -0.06808733 -0.050784532 -0.10794222
0003b0 8f a4 14 bd a2 c5 81 bc d3 e5 7c 3d d3 14 73 bd
       -0.036289748 -0.015841309 0.061742615 -0.05934603
0003c0 78 6d ff 3c bf cb df bc 15 b3 80 3d dd a9 63 bd
       0.031180128 -0.027318833 0.06284157 -0.055581916
0003d0 89 de 45 3c ac 94 99 3d b5 ed 2d 3d bc 09 0c bd
       0.012076982 0.0749906 0.042463023 -0.03418897
0003e0 10 64 5a bd b9 c9 68 bd 86 78 c4 bd 5d 63 3f 3d
       -0.053318083 -0.056833003 -0.095933005 0.04672562
0003f0 39 fe 78 bd b7 0c c9 3d 84 e6 fd 3c 36 09 8c 3d
       -0.06078932 0.09816878 0.030993707 0.06837694

residual_blocks.1.fc1.bias f4 [128]
000000 06 48 ae 3d a1 14 c5 3c e7 4a 35 3d f1 fa 9d bd
       0.08509831 0.024057688 0.044260886 -0.07713879
000010 c0 a3 92 bc 88 61 29 bd 28 2b 6a bd bf 96 28 bd
       -0.017900348 -0.04135278 -0.057170063 -0.041159388
000020 08 b8 b0 bd 12 c9 94 3d d7 bb 97 bd d3 e7 78 bd
       -0.08628851 0.072649136 -0.074088745 -0.06076796
000030 67 9a 07 bc aa 51 cd 3c a3 3e 4f bd 8f c8 75 bc
       -0.0082765585 0.025063355 -0.050596844 -0.01500143
000040 6a ab 68 3d 7c bb 0e bd bc 76 6c bd 93 9a 20 3c
       0.0568041 -0.034846768 -0.05773042 0.009802478
000050 85 89 7c bd d7 c2 df bc e2 85 96 bd 72 6d 46 bd
       -0.061654586 -0.027314587 -0.07349755 -0.04844422
000060 95 ec 19 bd 35 73 5a bd d5 11 3c bd f5 c9 34 3d
       -0.037579138 -0.053332526 -0.045915443 0.044137914
000070 b1 ac 1d 3d b9 29 74 3c 1c 55 7b 3d e6 2b 67 3c
       0.03849477 0.014902526 0.061360464 0.014109587
000080 dd 66 20 bd b6 f1 1d 3b c5 b0 9c 3d 6f 73 0a 3d
       -0.039160598 0.002410037 0.076509036 0.033801492
000090 5f d2 8e 3a eb dc 6c 3d 7d 8c 9d bb db dd 82 bd
       0.0010896436 0.05782787 -0.0048080073 -0.06389972
0000a0 90 e7 1c 3d 7b 66 31 3d c6 6d b1 bd e0 ad 13 3d
       0.038306773 0.043310624 -0.08663516 0.036054492
0000b0 62 a5 51 bc 4e 1c 78 3d 74 ae 3a bd a8 18 13 3d
       -0.012795778 0.06057387 -0.045576528 0.035912186
0000c0 7f b7 2e bd 62 33 d2 3a 95 27 7a 3c 2c c2 c0 3d
       -0.042655464 0.0016037042 0.015268226 0.09412035
0000d0 b5 2a 84 3b f5 e7 fe bc 21 51 d9 bc 7c 71 04 3d
       0.0040334114 -0.031116465 -0.026527943 0.03233479
0000e0 8b 43 6f bd ec 85 1c 3d 0e c7 7e 3d 46 76 a8 bd
       -0.058414023 0.038213655 0.062201552 -0.08225684
0000f0 a2 d9 2d 3d a1 4e 39 3c 5c 84 34 3d 98 34 18 3d
       0.04244388 0.0113102505 0.04407154 0.037159532
000100 35 ef 70 3d 47 80 6c bd f3 69 a4 3d 8f 49 98 bb
       0.058821876 -0.057739522 0.08028021 -0.0046474407
000110 4e 5a c8 3c e1 0d 02 bd e1 b8 99 3d 98 88 14 bd
       0.024457123 -0.031751517 0.07505966 -0.03626308
000120 d8 73 50 3c 2f 82 98 3d dc d8 42 bd e1 e2 2a bd
       0.012722932 0.074467055 -0.047570094 -0.041720275
000130 13 27 ce bb 68 07 d2 bc 39 4d 4d 3d 33 76 5f 3d
       -0.006291279 -0.025638297 0.050122473 0.054556083
000140 33 83 6c bc 64 d4 ae 3d a2 4f 18 bc 8a 6b 30 3d
       -0.014435577 0.08536604 -0.00929633 0.043071307
000150 fb c1 01 3b c1 5c 93 bd b9 53 fb 3c 83 14 a7 bd
       0.001979946 -0.07195426 0.03067957 -0.08158209
000160 67 13 a1 3d 8e 8d 97 bd 64 b2 ac bb 6e 6a 9b 3d
       0.07865029 -0.07400046 -0.0052702893 0.07588659
000170 e0 6c 1f bd cb 03 5c 3d 64 72 47 bd 5c 4b a1 bc
       -0.03892219 0.053714555 -0.048693076 -0.019689254
000180 ad 4d b2 3c 56 1a 84 3d 11 8f b3 bd 22 a9 93 3d
       0.021765554 0.06450336 -0.08767522 0.07209994
000190 1d 42 9c bd 96 1f 6a bd a8 4d 6f 3d a9 fe 64 3d
       -0.076297976 -0.05715903 0.05842367 0.055906925
0001a0 81 5a 36 bd e3 3d 51 bd fe 45 8e bd a9 9a cb 3c
       -0.044519905 -0.05108441 -0.06946944 0.024854021
0001b0 e5 e6 97 3c 80 18 96 bd 21 28 3d bd fa b2 74 bd
       0.018542716 -0.07328892 -0.046180848 -0.059740998
0001c0 08 3a 70 3d f3 5e 53 3c c0 04 90 bd b4 60 99 3c
       0.058649093 0.012901056 -0.07032156 0.01872287
0001d0 78 31 1f bd f5 45 8a 3d 6a 8c 28 3c 5f dc 66 3d
       -0.038865536 0.067516245 0.010287384 0.056362506
0001e0 47 ec 8c 3c e4 4a b7 3d 22 2b 9a bd 2f 3a b0 bd
       0.01720251 0.08949831 -0.07527758 -0.08604848
0001f0 9d 41 1f bd e2 e7 eb 3c 5d 4c ab bd bd f3 67 bd
       -0.038880933 0.028797094 -0.083641745 -0.05662893

residual_blocks.1.fc2.weight f4 [128, 128]
000000 b1 e7 c9 bc 7a f7 b2 bd fe 76 b1 bd 34 24 97 bd
       -0.024646612 -0.08738609 -0.08665274 -0.07379952
000010 02 15 9b bd 08 85 85 3d 8a 5d d2 3c c5 be 93 bd
       -0.07572366 0.06519514 0.025679369 -0.07214121
000020 82 c6 97 3d a3 ba a6 bd 82 72 a4 bd 9f 4d 77 bd
       0.07410909 -0.08141067 -0.08029653 -0.06037676
000030 68 3b 81 ba d1 0e 9f bd f0 b7 5f 3b 7d 6c 3b bd
       -0.0009859623 -0.07766498 0.0034136735 -0.04575776
000040 5f 6f e7 bc 75 cb 8d 3c d5 29 19 3d c6 49 aa 3c
       -0.028251348 0.01730893 0.03739341 0.020787131
000050 51 09 11 3d 8b 44 57 3d 55 c9 64 bd 9e 5c b0 bd
       0.035409275 0.052555602 -0.055856068 -0.08611415
000060 da 81 2d 3d 5d 63 ed 3c 71 fd ee 3b fc 09 4f bc
       0.042360164 0.028978044 0.007293396 -0.012636658
000070 58 6d 85 bd 18 a5 03 bd 30 48 ec 3c 09 8c 79 bd
       -0.06514996 -0.032139868 0.028843015 -0.060924564
000080 bd 3d 87 3d cc 0c 9f bd fb 21 ab 3d ac 9b a0 bc
       0.066035725 -0.07766113 0.08356091 -0.01960548
000090 7d 3c 14 3d 45 66 43 bd 83 ce 9d 3b de 67 9e bb
       0.0361905 -0.047704954 0.004815878 -0.0048341593
0000a0 ef a4 0d 3d ea 27 23 bc 11 9a 8f 3d 83 a3 75 3d
       0.03458112 -0.009958247 0.07011808 0.05997039
0000b0 5f bd 9b bd fb 98 b9 ba 97 37 ed bc e9 01 33 bc
       -0.07604479 -0.0014159972 -0.028957171 -0.010925748
0000c0 9d 58 3f bd 2c 54 6b bc f6 f6 7c bb 08 bd 63 bd
       -0.046715368 -0.01436333 -0.0038599349 -0.055600196
0000d0 10 14 4a bd cc 7d 9d 3d 0d 7f 49 bd 49 79 51 bd
       -0.04933554 0.076900095 -0.04919343 -0.051141057
0000e0 66 34 66 3c f6 90 4d bd 70 9d 25 bd 46 48 90 bd
       0.014050579 -0.050187074 -0.040433347 -0.07045035
0000f0 a2 fa f7 3a 4e 3b f9 ba a8 62 21 3b 0e 4d ae 3d
       0.0018919299 -0.0019014867 0.0024625454 0.08510791
000100 ca 18 ac 3d 18 fa 70 3d ce 39 ec bb ba a0 45 3d
       0.08403166 0.058832258 -0.0072090393 0.048248984
000110 1b ef 21 3c f3 16 0d bd 8f 19 17 bd b2 81 2f bc
       0.009883667 -0.034445714 -0.03688961 -0.010712074
000120 4f 6a 39 3d 52 6f 9f 3d 1f d8 93 3d 83 28 a4 3d
       0.0452674 0.077849045 0.07218956 0.080155395
000130 83 5b af bd b1 dd e5 3c e3 58 28 bd 4a ba b1 bd
       -0.08562376 0.028059812 -0.041100394 -0.0867811
000140 12 3a 11 bd 57 91 85 3c f9 39 7e 3d 28 6a 1b bd
       -0.03545577 0.016304655 0.062067006 -0.037943035
000150 da e0 87 bd cd 07 4e bb f2 f6 b4 3d c8 91 51 bb
       -0.06634684 -0.0031437755 0.088361636 -0.0031977762
000160 cf b2 a0 3d 8b ba 0f bd 9d 99 88 3d 76 b6 1b bd
       0.07846605 -0.03509001 0.066699244 -0.038015805
000170 97 8a 80 3d f9 11 25 3d b8 5a 22 3c 90 12 65 bd
       0.06276434 0.040300343 0.009909324 -0.055925906
000180 89 ac 54 bd 68 30 17 bd 81 c5 d2 bc be a2 ba 3c
       -0.051922355 -0.0369114 -0.025728943 0.02278268
000190 75 73 91 bd 9f c8 65 bd 24 e2 2d 3b aa 80 30 3d
       -0.071021 -0.05609953 0.0026532495 0.043091454
0001a0 f3 21 af bd b3 27 26 3d 33 82 45 3b 7b b7 29 bd
       -0.08551397 0.040565204 0.003013742 -0.041434746
0001b0 6b e4 61 bd d5 ef ae 3d 5d c6 5b 3b ac e8 8d bc
       -0.055149477 0.08541838 0.0033534982 -0.01732286
0001c0 43 53 5d 3d 0c 10 8b 3d f0 9c 49 bd 85 36 79 3d
       0.054034483 0.0679017 -0.049221933 0.06084301
0001d0 e5 60 ec bc 79 5d 9b 3d 32 b1 1c bc 00 06 a4 3d
       -0.028854797 0.07586188 -0.009563731 0.08008957
0001e0 4e 70 c4 3c d8 a0 1a bd 9c b1 30 bd 03 73 cf bc
       0.023979332 -0.03775105 -0.04313813 -0.025323397
0001f0 ce 59 28 3d 96 e3 92 bb a3 7a 57 bd 66 4d 81 bd
       0.04110127 -0.0044826968 -0.05260719 -0.06313591
000200 d3 09 8f 3b 08 71 da bd cb ce d2 3c c3 9e ee 3c
       0.004365185 -0.1066609 0.025733372 0.029128438
000210 ac 56 2f 3c 5a 42 90 3d cf df cc 3b fe 39 55 3c
       0.0107018165 0.070439056 0.006252266 0.013014315
000220 a3 90 ff 3c d7 66 54 3d 7e ed 9a 3d e3 e7 4b 3d
       0.031196898 0.05185589 0.07564829 0.04978169
000230 c4 2f a6 bc 69 df 77 bc 8a 0b 86 3d 23 2c 43 3c
       -0.020286448 -0.015128949 0.0654517 0.0119123785
000240 e5 83 1f 3c db 3e 95 3d d0 b9 c8 bd b0 c7 cf bd
       0.009736036 0.07287379 -0.09801066 -0.10145509
000250 ae 2f 11 bc 23 cc 59 bb 73 47 dd bc 52 6f 10 3c
       -0.008861465 -0.0033233247 -0.027011609 0.008815603
000260 5e ee 1f 3d f2 7f 52 3c a0 78 8f bc 4c 36 ca bc
       0.039045684 0.012847887 -0.017513573 -0.024684094
000270 6e 01 e0 bd 61 b8 7f 3d 38 46 8a 3d 23 3d 90 be
       -0.10937773 0.062431697 0.067516744 -0.28171644
000280 de f4 9b bc 07 c9 95 bc 60 72 25 bd ea 15 21 bc
       -0.01903766 -0.018284334 -0.04039228 -0.009831885
000290 60 81 7d 3d 7f e0 24 bd d1 8c 90 3c 9f 11 9b 3d
       0.06189096 -0.04025316 0.017645271 0.0757172
0002a0 51 5a b8 3d 24 a6 8f bc 86 05 82 3d 6d f2 b7 3d
       0.090016015 -0.017535277 0.0634871 0.08981786
0002b0 10 e6 83 3d 5a fc 8a 3c 32 d5 a4 bd bb e1 5c 3d
       0.06440365 0.016966034 -0.08048476 0.05392621
0002c0 34 df 80 3c db 77 5a 3c db 3c 83 bd f0 ee b5 3d
       0.015731432 0.01333424 -0.06408092 0.08883464
0002d0 e8 75 16 bd 78 d7 b9 3c 7b 7b 9a be 9d 2c 02 bd
       -0.036733538 0.022685751 -0.30172333 -0.031780828
0002e0 9e b3 bb 3c eb 39 a4 3b 13 32 78 3d ea e8 81 3d
       0.022912797 0.005011787 0.06059463 0.06343253
0002f0 3d bc f6 3c 5f d9 7f bc 66 71 1a bd 77 ad 6f 3d
       0.030119056 -0.01561579 -0.0377058 0.05851504
000300 ca 15 b4 3c e6 44 83 bd 40 9e 35 ba 21 51 1d bd
       0.021983046 -0.06409626 -0.0006928183 -0.03840745
000310 ab ed ae bc 2a c5 2c 3d 69 fe 94 bd 90 fd 97 3d
       -0.021353563 0.042180218 -0.072750874 0.0742141
000320 47 01 a9 3d 38 20 0c 3c bc 39 12 3d 05 d8 a3 bc
       0.08252197 0.008552603 0.03569959 -0.020000467
000330 ef 81 13 3d b1 01 04 bc 7b 50 94 bd 58 fd ba 3d
       0.036012586 -0.008057044 -0.07241913 0.09130353
000340 b4 4d 3f bd bf 9a b2 3d aa 32 79 bc 22 42 99 bd
       -0.046704963 0.08720922 -0.015209833 -0.07483317
000350 fe 3f a0 3d cc 13 09 bd 0e dc 5c bc e7 62 90 bd
       0.078247055 -0.033466145 -0.0134801995 -0.07050114
000360 9d 9f 63 bd f5 e2 6c bd 54 72 36 bd 2b 4c f8 3c
       -0.05557214 -0.05783363 -0.044542626 0.030309757
000370 4a a5 e7 3b d2 0c 81 3c 4d 6d 84 3d 03 78 c1 bd
       0.0070692645 0.015753184 0.0646616 -0.094467185
000380 d4 c5 aa bd 29 47 fe 3c 32 bc cb 39 16 b3 3b bc
       -0.08338514 0.031039791 0.00038859394 -0.011456272
000390 8c 93 c8 3d fd bf 6e bd 8b 59 a8 3d 1b f3 5c bd
       0.09793767 -0.058288563 0.08220204 -0.05394278
0003a0 ae 7b 14 3d 4c 5c 14 3d 57 ff 33 3d 99 17 57 3c
       0.036250763 0.036220834 0.043944683 0.013128185
0003b0 9e c5 1f 3c 3e 66 30 bd 3d 70 86 3b 2b 90 3a 3d
       0.009751705 -0.043066256 0.0041027353 0.045547646
0003c0 f2 e8 9b bd ad 86 12 bd 8a f3 32 bd 48 9c aa bc
       -0.0761279 -0.035772968 -0.04368929 -0.020826474
0003d0 ec df 35 3d 42 aa 40 bb 61 eb 8d 3c 78 5a bc 3d
       0.044403 -0.0029398357 0.017324151 0.09196943
0003e0 d1 c0 9c 3c 80 20 b2 3d e1 d3 24 3d 27 0e 39 3d
       0.01913491 0.08697605 0.040241126 0.045179512
0003f0 cf 0a 93 bc 83 eb af 3d 3a 18 b3 3c 20 9a c3 bc
       -0.01794949 0.08589842 0.021862138 -0.023877203
