space_robot_planning/weights/mlp_debug/1764303478.9939415.pth (torch, 152935 bytes, 8 tensors)

net.0.weight f4 [128, 8]
0	0x3ee2e55d	0.44315615
1	0xbd62a6b7	-0.055334773
2	0x3e2611e7	0.16217767
3	0xbee591d3	-0.44837818
4	0x3eece099	0.46265104
5	0xbb8279f9	-0.0039818254
6	0xbe4fc430	-0.20289683
7	0xbd679eff	-0.056548115
8	0xbefd3eb8	-0.49461913
9	0x3de51873	0.11186304
10	0x3ea9e937	0.3318574
11	0xbeb1752a	-0.34659702
12	0xbd8418fe	-0.064500794
13	0xbeeebdfa	-0.46629316
14	0xbecd0332	-0.400415
15	0xbedbfe52	-0.42967469
16	0xbc1adfdf	-0.009452789
17	0xbebeab40	-0.37240028
18	0x3e919dc7	0.28440687
19	0x3e9491e4	0.29017556
20	0x3e95a525	0.29227558
21	0x3eb1cce9	0.34726647
22	0x3da3c72f	0.07996976
23	0xbea1a195	-0.3156859
24	0xbe2b2fed	-0.16717501
25	0xbe4d5e2e	-0.20055458
26	0x3e6603f0	0.2246244
27	0xbe22e271	-0.15906693
28	0xbea3a266	-0.31959838
29	0x3de2af99	0.11068649
30	0xbe14975d	-0.14510866
31	0xbdd4343f	-0.10361528
32	0xbe7224ca	-0.23646846
33	0x3de8d85b	0.113693915
34	0x3d686b09	0.0567427
35	0xbee09dbf	-0.4387035
36	0x3e0abdca	0.13548961
37	0xbce05343	-0.027383452
38	0x3ea0118c	0.31263387
39	0xbe8f6c14	-0.28012145
40	0xbda225ee	-0.07917391
41	0x3e6fdb8b	0.23423593
42	0xbe355ddf	-0.1771159
43	0xbeb7874b	-0.35845408
44	0xbecce529	-0.40018585
45	0xbdfcc030	-0.12341344
46	0x3e55c4b7	0.20875822
47	0xbec06f7e	-0.37585062
48	0x3e7ff910	0.24997354
49	0x3a1c5890	0.00059641246
50	0x3e25e952	0.16202286
51	0xbde2a711	-0.11067022
52	0x3e3204a2	0.1738458
53	0xbe595dd2	-0.21227196
54	0xbe39cf92	-0.18145588
55	0xbeaf8c4a	-0.3428672
56	0x3e9a70b9	0.30164126
57	0x3e9a4fa4	0.30138886
58	0xbe92e69b	-0.28691563
59	0x3ee7630b	0.4519275
60	0x3d5e2f75	0.054244477
61	0x3f00b842	0.50281155
62	0x3e9372e4	0.28798592
63	0x3ea38bbe	0.31942552
64	0xbe040549	-0.12892641
65	0xbcddec47	-0.027090205
66	0x3e4a2f92	0.19744709
67	0x3eab9610	0.33512926
68	0xbdd30dbe	-0.103053555
69	0xbe7044d7	-0.2346376
70	0x3ee9280d	0.4553837
71	0xbe242ee4	-0.16033512
72	0x3ed4f6b5	0.41594473
73	0x3ccc9a15	0.024975816
74	0x3e306dfd	0.17229457
75	0x3e6d8524	0.2319532
76	0x3e715e7b	0.23571198
77	0x3ebba4ac	0.36649072
78	0x3d63ad45	0.055585165
79	0x3e736a6d	0.23771067
80	0x3e18b8e9	0.14914288
81	0xbe5bb2b5	-0.2145489
82	0xbd3f9401	-0.046772007
83	0x3efce0fa	0.49390393
84	0xbb0015bc	-0.0019544205
85	0x3e6732c5	0.22577961
86	0x3ec299c7	0.38007948
87	0x3eb9f40c	0.36319005
88	0x3e81fc92	0.25388008
89	0xbeb9ec5a	-0.36313134
90	0xbd3ba4b7	-0.04581138
91	0xbd6852ac	-0.056719467
92	0x3c1cc021	0.0095672915
93	0xbda3b122	-0.0799277
94	0xbe87dda3	-0.26536283
95	0x3e8130b3	0.25232467
96	0xbd834bb4	-0.064109236
97	0x3e5b1b23	0.2139707
98	0x3ef2dc00	0.47433472
99	0x3e9871e6	0.29774398
100	0x3e2967ed	0.16543551
101	0x3e301a43	0.17197518
102	0xbe90e338	-0.28298354
103	0xbea6fcae	-0.32614654
104	0xbeac7fff	-0.33691403
105	0x3df906a4	0.1215947
106	0x3e792a38	0.24332511
107	0x3eae4a8d	0.34041253
108	0xbdb9dd67	-0.09075432
109	0xbe51d45d	-0.20491166
110	0x3e83528d	0.2564892
111	0xbeeb4747	-0.45952818
112	0xbd502299	-0.050814245
113	0x3e67f3e4	0.2265163
114	0xbf1894b9	-0.5960193
115	0x3e0f9c34	0.1402443
116	0x3de38ee5	0.11111239
117	0xbc2ec492	-0.010666983
118	0xbef23e33	-0.4731308
119	0x3e936e7a	0.28795224
120	0x3e125a25	0.142922
121	0xbed42472	-0.41434056
122	0xbd58d48b	-0.05293707
123	0x3e5df6e6	0.21676216
124	0xbe55bd06	-0.20872888
125	0x3df5a619	0.11994571
126	0x3ecd8379	0.40139368
127	0x3e997784	0.29973996
128	0xbe27d01b	-0.1638798
129	0x3e30c871	0.17263962
130	0xbee9a27f	-0.45631787
131	0x3eef8041	0.46777537
132	0xbe9fc27a	-0.3120306
133	0xbe73fb61	-0.23826362
134	0x3eb8e1bc	0.36109722
135	0x3eb09543	0.34488878
136	0xbec2dbb9	-0.3805826
137	0x3e6a8dc1	0.22905637
138	0x3da6d655	0.08146349
139	0x3edc1ea6	0.42992133
140	0x3e4ccc75	0.19999869
141	0xbe8c3ba6	-0.27389258
142	0x3ed5908a	0.41711837
143	0x3e94caac	0.29060876
144	0x3eb34349	0.35012272
145	0x3d8b2ce6	0.06795673
146	0xbe84871f	-0.2588434
147	0x3e325936	0.17416844
148	0x3e9aa9d0	0.30207682
149	0x3e13fa34	0.14450914
150	0xbe8c7c3f	-0.27438542
151	0x3e761a69	0.24033512
152	0xbe82b557	-0.25528976
153	0x3aa98552	0.0012933409
154	0xbe99cbf4	-0.30038416
155	0x3d64e123	0.05587877
156	0xbe1b6e3b	-0.15178768
157	0xbe378504	-0.17921835
158	0xbe65ac6f	-0.2242906
159	0x3e4511b7	0.19245039
160	0xbe85723b	-0.26063713
161	0xbe85d800	-0.26141357
162	0x3dda1935	0.10649339
163	0x3de7f585	0.11326126
164	0xbd282513	-0.04105098
165	0x3e90fc8e	0.28317684
166	0xbe93d625	-0.28874317
167	0xbea340ac	-0.31885278
168	0xbc099ac0	-0.008398712
169	0x3e91a0e9	0.28443077
170	0x3e08a43f	0.13343905
171	0xbed03764	-0.4066726
172	0xbe19d940	-0.1502428
173	0x3eccedea	0.40025264
174	0xbd045afc	-0.032313332
175	0x3ead8ad7	0.3389499
176	0xbe4f11c5	-0.20221622
177	0x3de2bf2e	0.11071621
178	0xbea20c3b	-0.31649956
179	0x3ded57db	0.11589023
180	0x3e8d00e4	0.27539742
181	0x3e4d2a11	0.20035578
182	0x3e1aab05	0.15104301
183	0x3da26961	0.07930256
184	0x3e11fdb3	0.14256935
185	0x3ddae0ca	0.10687406
186	0xbeb3ebb9	-0.3514078
187	0xbe64f046	-0.22357282
188	0xbe39eda1	-0.18157054
189	0x3e3d6935	0.18497165
190	0x3eb6ddbf	0.35716054
191	0xbd51d186	-0.051225208
192	0xbe24ae61	-0.16082145
193	0xbee7f98f	-0.45307586
194	0x3e9defe7	0.30847093
195	0xbd0c38c0	-0.03423381
196	0x3ee089d3	0.43855152
197	0x3dabb546	0.083841845
198	0xbead0177	-0.3379018
199	0x3e7ca2fd	0.2467155
200	0xbf2286fb	-0.63487214
201	0xbdfc5c66	-0.12322311
202	0xbd983018	-0.07431048
203	0xbc717347	-0.014736957
204	0xbe995e0c	-0.29954565
205	0xbed12b8e	-0.40853542
206	0xbe99213e	-0.29908174
207	0x3e30243a	0.1720132
208	0x3e93b128	0.28846097
209	0xbde85c93	-0.11345782
210	0x3e17ce2c	0.14824742
211	0x3f00025f	0.5000362
212	0x3d930f22	0.07180621
213	0x3e9cf2f1	0.306541
214	0x3ef5b207	0.47987387
215	0xbe5136ed	-0.20431109
216	0xbe8f51b4	-0.27992022
217	0x3e155f09	0.14587034
218	0x3ee0efc3	0.43932924
219	0x3ea51d05	0.32248703
220	0xbd84275f	-0.06452822
221	0xbeb40b41	-0.35164836
222	0x3efd06fc	0.4941939
223	0xbd1b9951	-0.03798801
224	0x3eb30611	0.34965566
225	0x3ef31f32	0.47484738
226	0x3e686256	0.22693762
227	0xbe753052	-0.23944214
228	0xbe35729f	-0.17719506
229	0x3eb4007b	0.35156617
230	0xbe77d86e	-0.24203655
231	0xbef8e0a7	-0.48608896
232	0x3e2f5ef4	0.17126065
233	0xbef058f7	-0.46942875
234	0x3ddc907f	0.10769748
235	0xbd9ec214	-0.07751861
236	0x3ec623ef	0.3869929
237	0x3d67408b	0.056458037
238	0xbe6a41e5	-0.228767
239	0xbe68d0f5	-0.22735961
240	0x3ea19592	0.31559426
241	0xbed2b16a	-0.4115098
242	0xbeb4846d	-0.35257283
243	0xbcd7f45d	-0.026361639
244	0x3efa5b2d	0.48897687
245	0xbe9fe2fb	-0.3122786
246	0xbe264168	-0.16235888
247	0xbe02519c	-0.12726444
248	0xbe94b637	-0.2904527
249	0xbe30fff7	-0.17285143
250	0x3cd75aac	0.026288353
251	0x3eb31e95	0.3498427
252	0xbe463de7	-0.19359551
253	0x3e483af6	0.19553742
254	0x3eb302bb	0.3496302
255	0xbe355085	-0.17706497

net.0.bias f4 [128]
0	0x3e95933f	0.29213902
1	0x3c80d326	0.015725683
2	0xbda45f1d	-0.08025954
3	0xbe0020f1	-0.12512566
4	0x3e66e5c6	0.22548589
5	0x3e05d64f	0.13070033
6	0x3eb4a9be	0.35285753
7	0x3d6683de	0.056278102
8	0x3e898f49	0.2686713
9	0x3dbe9182	0.09305097
10	0xbcbe39cf	-0.023220925
11	0x3bb8ab58	0.00563566
12	0xbd95c81f	-0.07313561
13	0xbc31c791	-0.010850803
14	0x3e61611a	0.22009698
15	0x3e160f05	0.14654167
16	0x3c6c83c4	0.014435712
17	0x3db7a0dc	0.08966228
18	0xbdf49fea	-0.11944564
19	0x3e9be343	0.30446824
20	0x3e869382	0.26284415
21	0xbda4fcc7	-0.08056026
22	0x3d02c2e4	0.031924143
23	0xbe0fa617	-0.14028202
24	0xbe86dde1	-0.26341155
25	0x3e1dba94	0.15403205
26	0xbc98981c	-0.018627219
27	0x3df9fc62	0.12206341
28	0x3d4370de	0.04771506
29	0xbcf8ba07	-0.030362142
30	0x3e43268e	0.19057676
31	0x3e198c3b	0.149949
32	0x3da07f94	0.078368336
33	0x3e690808	0.2275697
34	0x3e093c3e	0.13401887
35	0x3d2a2435	0.041538436
36	0xbe92584a	-0.28582984
37	0xbda0d8c0	-0.07853842
38	0x3ead90f0	0.3389964
39	0x3d4b3b84	0.049617305
40	0x3d8785ca	0.06617315
41	0x3ea080e3	0.31348333
42	0xbdcad2e6	-0.09903507
43	0x3e909d13	0.28244838
44	0x3d3e1ab0	0.04641217
45	0x3e6ebbae	0.23313782
46	0x3e998db5	0.29990926
47	0x3c342904	0.010996107
48	0xbce82330	-0.028337091
49	0x3d1137be	0.03545355
50	0x3daee31f	0.08539414
51	0x3e5de89b	0.21670763
52	0x3ea94800	0.33062744
53	0xbe1e9547	-0.15486632
54	0x3dfe1f7a	0.124083474
55	0x3d793650	0.060842812
56	0xbe171c77	-0.14756952
57	0x3cfd3253	0.030907786
58	0xbe9699d1	-0.29414228
59	0x3d438c52	0.04774124
60	0xbc9da28a	-0.019242544
61	0xbe491e58	-0.19640481
62	0x3e0a7521	0.13521244
63	0x3e7e8673	0.24855976
64	0x3e1d5338	0.15363777
65	0xbd550b69	-0.052012835
66	0xbd967fd8	-0.07348603
67	0x3da09cb0	0.07842386
68	0xbe1ec2e2	-0.1550403
69	0x3eb9cb32	0.36287838
70	0x3ea53de0	0.3227377
71	0x3be5fc45	0.0070185983
72	0x3d0594f8	0.03261277
73	0x3e6e9f74	0.23303014
74	0x3eaf2ece	0.34215397
75	0x3cececc2	0.028921489
76	0x3d570e9c	0.052504167
77	0xbdcf24a0	-0.101144075
78	0x3e956bee	0.29183906
79	0xba9820e6	-0.0011606484
80	0x3d0ed980	0.034875393
81	0x3d308870	0.043098867
82	0xbdac07c8	-0.08399922
83	0x3d9c4dd1	0.0763203
84	0x3e37df40	0.17956257
85	0xbd1f960e	-0.038961463
86	0x3ea88d3f	0.32920262
87	0xbe9d354d	-0.30704728
88	0x3dfb8997	0.122821026
89	0xbe31eeec	-0.17376298
90	0xbe88a239	-0.26686266
91	0xbe719347	-0.23591338
92	0x3d94646e	0.07245718
93	0xbdb52d12	-0.08846487
94	0x3e879a15	0.26484743
95	0xbdd73b74	-0.10509387
96	0xbe2a1661	-0.166101
97	0xbc8d63c3	-0.017259484
98	0x3ce12726	0.027484488
99	0x3e949e42	0.2902699
100	0xbe4dbb5f	-0.20091008
101	0x3e94a396	0.29031056
102	0x3e399eed	0.18127032
103	0xbbf0fa03	-0.0073540225
104	0x3c02bded	0.007979852
105	0x3dbe06e8	0.09278661
106	0x3d3605e9	0.04443923
107	0xbd950b02	-0.0727749
108	0x3d15ef3e	0.036605112
109	0xbdc5ad50	-0.09652197
110	0x3cb5bcf5	0.022184828
111	0x3dda0023	0.10644557
112	0xbcbb740a	-0.02288248
113	0x3e9c3569	0.305095
114	0x3e33ac07	0.17546092
115	0x3c173286	0.009228354
116	0xbc24f616	-0.010068437
117	0x3e84811b	0.2587975
118	0x3cc66b69	0.024221139
119	0xbcfda9db	-0.030964782
120	0xbda18efb	-0.078885995
121	0x3dedce03	0.11611559
122	0x3c7f3481	0.015576483
123	0xbc297a5b	-0.010344113
124	0x3eb2632e	0.34841293
125	0x3e306592	0.17226246
126	0xbe4dc653	-0.20095186
127	0xbd1662c2	-0.036715277

net.2.weight f4 [128, 128]
0	0xbd936236	-0.071964666
1	0x3d2c33a6	0.042041443
2	0xbc94b79b	-0.018153956
3	0x3c8c9e97	0.017165465
4	0x3d1e9496	0.03871592
5	0xbd481273	-0.04884572
6	0x3d07b2ff	0.03312969
7	0xbd40c18a	-0.047059573
8	0xbd613f97	-0.054992285
9	0x3bc16e97	0.005903076
10	0xbda4497d	-0.08021829
11	0xbe8a3c91	-0.26999334
12	0xbdc99c29	-0.09844238
13	0xbd865740	-0.0655961
14	0x3e2cd6ed	0.16878863
15	0xbd2158ff	-0.039391514
16	0xbce5411c	-0.027985148
17	0xbd628339	-0.055300925
18	0xbcc37128	-0.023857668
19	0x3d97be4e	0.074093446
20	0x3e3e9e6a	0.18615118
21	0x3dd684f6	0.10474579
22	0x3cef594b	0.029217383
23	0x3da10146	0.07861571
24	0xbe28994c	-0.16464728
25	0x3c4fdd8e	0.0126871
26	0xbb10e40f	-0.002210859
27	0xbd65ecdb	-0.056134086
28	0xbec52dd2	-0.3851152
29	0xbbd926ff	-0.006626963
30	0x3e09ca02	0.13455966
31	0x3c7d4d29	0.015460291
32	0xbdeb1ada	-0.11479731
33	0x3da4652c	0.080271095
34	0xbe0294a3	-0.12752013
35	0xbba27542	-0.004957826
36	0x3dfcc3b8	0.12342018
37	0xbe744fcb	-0.23858564
38	0xbd266d2e	-0.040631466
39	0x3db276ac	0.08714041
40	0xbdc0551a	-0.09391232
41	0xbc218d25	-0.009860312
42	0x3d860a4e	0.06544934
43	0x3dabe9a4	0.08394173
44	0xbcf3ca41	-0.029759528
45	0x3d77301d	0.06034862
46	0xbc2fa4e3	-0.010720464
47	0xbe8321d6	-0.25611752
48	0x3e069dfa	0.13146201
49	0x3c4cd0f1	0.012500987
50	0xbd2431bd	-0.040086497
51	0xbd63532b	-0.055499237
52	0x3d56e9c9	0.05246905
53	0x3e752217	0.23938785
54	0x3e25e7aa	0.16201654
55	0x3bc647a0	0.006051019
56	0x3d6d362f	0.057913
57	0xbd26f217	-0.04075822
58	0x3e1eabb5	0.15495189
59	0x3d952186	0.07281785
60	0x3e4c4ad1	0.19950415
61	0x3e5d38ef	0.2160375
62	0xbc90ddb1	-0.017683836
63	0xbd3397a9	-0.043845806
64	0xbdb2b2a8	-0.08725482
65	0x3ce9049c	0.02844458
66	0x3d7006dc	0.05860029
67	0xbddfa615	-0.109203495
68	0xbea7dbca	-0.32784873
69	0x3c7df2ab	0.015499751
70	0x3c8c72ee	0.017144646
71	0xbcadef7a	-0.021232355
72	0xbd6f2a6f	-0.058390077
73	0x3afef00b	0.00194502
74	0x3c10600b	0.008811961
75	0x3cde0e4d	0.027106429
76	0x3b92336d	0.004461697
77	0xbcfece14	-0.031104125
78	0x3d7b260f	0.061315592
79	0x3e008900	0.12552261
80	0xbcbc8405	-0.02301217
81	0x3e0e203a	0.13879481
82	0x3de531a6	0.1119111
83	0xbe53fb37	-0.207013
84	0x3c490bdb	0.012270893
85	0x3dc88a01	0.09791947
86	0x3dc52422	0.096260324
87	0x3da49946	0.08037047
88	0x3d983077	0.07431119
89	0x3ddc6810	0.10762036
90	0x3e274433	0.1633461
91	0x3e00a8d7	0.12564407
92	0xbe44a890	-0.19204926
93	0xbd98a186	-0.07452683
94	0xbc987e61	-0.01861495
95	0x3e29b5e1	0.16573288
96	0x3c808845	0.015689978
97	0xbadf3670	-0.0017029773
98	0x3e1a30cb	0.15057676
99	0xbd2488b8	-0.040169448
100	0x3e88282b	0.26593146
101	0xbbdbafd3	-0.0067043095
102	0xbd7af4ff	-0.061268803
103	0x3bd9930f	0.006639845
104	0x3e356996	0.17716059
105	0xbe154fda	-0.14581242
106	0x3df9ea25	0.12202863
107	0x3d63616c	0.05551283
108	0x3db7df14	0.08978096
109	0xbe07ac63	-0.13249354
110	0x3d137c00	0.036006927
111	0x3de44aeb	0.11147102
112	0xbd909cdc	-0.070611686
113	0x3cf71554	0.030161537
114	0xbdc9c32b	-0.098516785
115	0xbe1b3b6b	-0.15159385
116	0x3e00905c	0.12555069
117	0xbdcc0cec	-0.09963402
118	0xbc3fa73a	-0.011697585
119	0xbeb8f134	-0.36121523
120	0xbdc6cc7f	-0.09706973
121	0x3e0ccfd8	0.13751161
122	0xbe8cfc73	-0.27536353
123	0x3e0149e3	0.12625842
124	0xbd8c6896	-0.06855886
125	0xbe4b4bbd	-0.1985311
126	0x3e076f6d	0.132261
127	0xbdc408ea	-0.09572013
128	0x3e07412b	0.13208453
129	0xbdd592c8	-0.10428387
130	0xbdad1281	-0.08450795
131	0xbd790fed	-0.060806204
132	0x3d4149a7	0.04718938
133	0x3d73bc17	0.05950555
134	0x3c8f71bc	0.017510287
135	0xbd36367f	-0.044485565
136	0xbc99f03a	-0.018791307
137	0x3e2044dc	0.15651268
138	0x3d7a7fb7	0.061156955
139	0x3d26f6fb	0.040762883
140	0x3e26ce12	0.16289547
141	0xbdf496f8	-0.119428575
142	0x3dc19403	0.09452059
143	0x3db16d45	0.0866342
144	0xbdbfeb2d	-0.09371028
145	0xbdea40dc	-0.11438152
146	0xbc5eb8dc	-0.013593879
147	0x3db3910e	0.08767901
148	0x3d0bac8c	0.0341001
149	0x3d1e9923	0.03872026
150	0x3d23e56e	0.040013723
151	0xbc738bfb	-0.014864917
152	0xbdc07291	-0.09396852
153	0xbdbfb3e8	-0.09360486
154	0xbe329fbb	-0.17443745
155	0x3be5ad47	0.0070091817
156	0xbd049254	-0.032366112
157	0xbe36f7f6	-0.17868027
158	0x3dc62981	0.09675885
159	0x3dca6294	0.098820835
160	0xbd84e945	-0.06489805
161	0x3cac6a4e	0.021046784
162	0x3cf9dbec	0.030500375
163	0xbe19af1e	-0.15008208
164	0xbe58bbc7	-0.21165381
165	0x3ccb65c1	0.024828793
166	0x3e1e5ae5	0.15464361
167	0x3c0087d3	0.007844883
168	0x3c7a144e	0.01526363
169	0x3dbb99cd	0.091601945
170	0xbda70da9	-0.08156902
171	0x3d29431d	0.04132377
172	0xbcae5905	-0.021282682
173	0x3d8abc08	0.06774145
174	0x3c997df6	0.01873682
175	0xbcb5505e	-0.022133049
176	0xbe236dd5	-0.15959866
177	0x3cba436f	0.022737233
178	0x3bc2ed1b	0.0059486753
179	0x3ccd0a51	0.025029333
180	0xbc326300	-0.010887861
181	0x3e02cd18	0.1277355
182	0xbd2bcad9	-0.041941497
183	0x3c3b72b8	0.011440925
184	0x3ad5c2ee	0.0016308704
185	0x3dd184f4	0.10230437
186	0xbd0ad8d3	-0.033898186
187	0xbd76742d	-0.060169388
188	0xbd97d555	-0.07413737
189	0xbd7f98bf	-0.06240153
190	0xbc13136f	-0.008976801
191	0x3d6ddb29	0.058070336
192	0x3b74d102	0.0037356024
193	0xbc4807dc	-0.012208905
194	0xbdbbf506	-0.09177594
195	0x3cde34c8	0.027124777
196	0x3d820a05	0.06349567
197	0x3d8a9faa	0.06768735
198	0x3dc68b28	0.09694511
199	0xbd623d86	-0.055234455
200	0xbdbf11a2	-0.09329535
201	0xbbfb3d59	-0.0076672253
202	0xbd0d4397	-0.034488287
203	0xbc206c9d	-0.00979152
204	0xbb8403c9	-0.0040287715
205	0xbc80c104	-0.015717037
206	0xbc5a2b31	-0.013315962
207	0xbc83bfbd	-0.016082639
208	0xbdac61f2	-0.08417119
209	0x3c9f3840	0.019436002
210	0x3c81cbac	0.015844189
211	0x3de3ba95	0.11119572
212	0xbc92e346	-0.017930638
213	0xbe067616	-0.13130984
214	0x3df84f01	0.12124444
215	0x3c731c9c	0.014838364
216	0xbce9b584	-0.028528936
217	0x3c7e95b0	0.015538618
218	0xbd752e92	-0.059858866
219	0xbbed8586	-0.0072485832
220	0x3e012a79	0.12613858
221	0x3e07ceaa	0.1326243
222	0xbd89d35a	-0.06729765
223	0xbe3e4c4b	-0.18583791
224	0x3d07702e	0.033065967
225	0xbde1e2b1	-0.11029566
226	0xbd9bdcd2	-0.076104775
227	0x3d3875d3	0.04503424
228	0xbd990c1e	-0.07473014
229	0xbb824b07	-0.003976229
230	0x3c84f1c5	0.016228566
231	0x3d128db5	0.035779674
232	0x3cb639df	0.022244392
233	0xbd45b14c	-0.048264787
234	0x3c406124	0.01174191
235	0xbcc66133	-0.02421627
236	0x3d075d7a	0.03304813
237	0xbce90c35	-0.028448204
238	0x3d0abe02	0.03387261
239	0xbd77e6e0	-0.060522914
240	0xbd18add7	-0.03727516
241	0x3dca0cb5	0.09865705
242	0x3d1b1bcb	0.037868302
243	0xbdd40ba3	-0.10353782
244	0xbd35437a	-0.044253804
245	0x3d7deb4f	0.061991986
246	0xbd9d78d3	-0.07689061
247	0xbd23601b	-0.039886575
248	0x3e473ced	0.19456835
249	0xbd543210	-0.051805556
250	0x3bc69018	0.006059658
251	0xbcc70baa	-0.024297554
252	0x3d9dc2c2	0.07703163
253	0x3e00dd5e	0.12584445
254	0xbb5b7ae0	-0.0033489987
255	0xbbb91822	-0.005648629

net.2.bias f4 [128]
0	0x3c37e089	0.011222967
1	0x3d98ea78	0.07466596
2	0xbd53c7ba	-0.051704146
3	0xbd182ae3	-0.037150275
4	0xbc8e22e9	-0.01735063
5	0x3ded2394	0.115790516
6	0xbd01c685	-0.031683464
7	0xbd461f2f	-0.048369583
8	0x3cbcdba4	0.023053952
9	0xbd7bd800	-0.06148529
10	0x3b4f4119	0.0031624495
11	0xbd3eaa9c	-0.046549425
12	0x3cb27d0b	0.02178814
13	0x3ceb3789	0.028713005
14	0xbd812db0	-0.06307542
15	0x3d1a35a8	0.037648827
16	0x3bc43a08	0.005988363
17	0xbd2d41df	-0.042299148
18	0x3e242524	0.16029793
19	0x3d869105	0.06570629
20	0xbc497e0c	-0.012298118
21	0xbd073c50	-0.033016503
22	0x3da89d3a	0.082331136
23	0x3d9362da	0.07196589
24	0xbda51cb6	-0.08062117
25	0x3d88b9ab	0.06676038
26	0xbd34bb7a	-0.044124104
27	0xba691904	-0.0008891972
28	0x3d618869	0.05506173
29	0xbcf4da77	-0.029889328
30	0xbd8be072	-0.06829919
31	0xbd919596	-0.071086094
32	0xb97c06c1	-0.00024035109
33	0x3c419291	0.011814729
34	0x3d59b249	0.05314854
35	0xbd7c4e7d	-0.06159829
36	0x3e09065d	0.13381334
37	0xbdadd407	-0.08487707
38	0xbd8ee2cd	-0.069768526
39	0xbd694ca6	-0.056957863
40	0xbc2f69c0	-0.010706365
41	0xbd1b53c8	-0.037921697
42	0x3d781075	0.06056257
43	0x3d8de6ee	0.06928812
44	0xbd6bf77e	-0.057609074
45	0x3e13a072	0.14416674
46	0x3dc6ba2d	0.09703479
47	0x3df61d4f	0.12017309
48	0x3da39ae5	0.07988528
49	0xbc2f7902	-0.010710003
50	0x3d95ec6f	0.07320487
51	0xbd21069d	-0.039312948
52	0xbcc972e8	-0.024590924
53	0xbd833e4a	-0.06408365
54	0x3cb15e80	0.021651506
55	0xbd69a75e	-0.05704438
56	0x3dc90b07	0.098165564
57	0x3d203182	0.039109714
58	0x3dcd1a9f	0.10014843
59	0x3d881454	0.06644502
60	0x3c3f847b	0.011689301
61	0xbcf94b75	-0.030431489
62	0xbd8f6cfc	-0.07003209
63	0xbc294579	-0.010331505
64	0xbd24c33d	-0.040225256
65	0xbd3223bb	-0.043491106
66	0x3d09b813	0.033622812
67	0xbd2c9650	-0.042135537
68	0x3ca9c639	0.020724403
69	0xbda70e13	-0.08156981
70	0x3c0c51e3	0.008564445
71	0x3cabdddc	0.020979814
72	0x3d7a9ff2	0.061187692
73	0x3cd10be7	0.02551837
74	0x3dca3e15	0.098751225
75	0x3de66584	0.11249831
76	0x3d5115a4	0.05104603
77	0xbb9e4324	-0.004829781
78	0x3d2cf7d3	0.04222853
79	0x3bbbf6bb	0.0057361997
80	0x3da40b58	0.08009976
81	0xbd987629	-0.07444412
82	0xbb496bd1	-0.003073443
83	0x3d5589b5	0.05213328
84	0xbda389d6	-0.079852745
85	0x3d0f2ead	0.034956623
86	0xbcf8375e	-0.030299839
87	0x3dc14069	0.094361134
88	0x3d0186d0	0.031622708
89	0x3ce0bd75	0.02743409
90	0xbd564081	-0.05230761
91	0x3cedd392	0.029031549
92	0xbd1a43be	-0.03766226
93	0x3d7665d1	0.060155693
94	0x3d944ffc	0.07241818
95	0x3c2a770c	0.01040436
96	0xbbce402b	-0.0062942705
97	0x3cc7ad41	0.024374606
98	0xbd2a80eb	-0.041626852
99	0x3db1a86e	0.086747035
100	0xbcfdbf8d	-0.030975128
101	0x3d517a21	0.05114186
102	0xbc4c5626	-0.012471711
103	0x3d4fbbd5	0.05071624
104	0x3da8370b	0.082136236
105	0x3dab39f7	0.08360665
106	0x3d38c977	0.045114007
107	0x3e10c820	0.14138842
108	0x3c8ca5c5	0.017168889
109	0xbca7fe5f	-0.020507036
110	0x3de7b6e8	0.113141835
111	0x3dbe5b6e	0.092947826
112	0xbb753760	-0.003741704
113	0x3dcfe1c1	0.10150481
114	0x3d5d493a	0.054024912
115	0x3dd8e770	0.10591018
116	0x3cce07a4	0.025150128
117	0xbbe96577	-0.0071226913
118	0xbdb22adb	-0.0869958
119	0x3d8e6e29	0.06954605
120	0x3c906553	0.01762644
121	0xbdc68064	-0.09692457
122	0x3e790099	0.24316634
123	0xbc6d873d	-0.014497575
124	0x3d959e16	0.07305543
125	0x3cafe476	0.021471243
126	0xbd785069	-0.06062356
127	0x3da48968	0.08034021

net.4.weight f4 [128, 128]
0	0xbd997354	-0.074927
1	0xbb0437fa	-0.0020174966
2	0xbd8b0a60	-0.06789088
3	0x3d5f5362	0.05452288
4	0xbbdb4235	-0.006691242
5	0x3d1647f1	0.036689702
6	0xbc8f7f6a	-0.01751681
7	0x3c4e2f7f	0.012584566
8	0x3ce86d4e	0.028372433
9	0xbd0185fb	-0.031621914
10	0xbd7a8c95	-0.061169226
11	0xbd8ef03f	-0.06979417
12	0x3d0a6ff5	0.033798177
13	0x3a29c70f	0.00064765004
14	0xbd00eba6	-0.03147473
15	0xbc391831	-0.011297272
16	0x3d9accd2	0.075585976
17	0xbdc8185c	-0.09770271
18	0xbd4dec16	-0.050273977
19	0xbd909993	-0.07060542
20	0xbdba06eb	-0.09083351
21	0x3ce56ce5	0.028006027
22	0xbc36ab91	-0.011149303
23	0xbdfa500c	-0.12222299
24	0xbce15d70	-0.027510375
25	0xbd9abace	-0.075551614
26	0x3aa1c300	0.001234144
27	0xbd82a273	-0.06378641
28	0xbdd47e9a	-0.1037571
29	0xbcfb4132	-0.030670736
30	0xbd8c66a1	-0.068555124
31	0xbd810f61	-0.063017614
32	0x3c8b9af9	0.01704167
33	0x3cdd0992	0.026982103
34	0x3cef5d0d	0.029219175
35	0xbcbd803b	-0.023132434
36	0x3d466e95	0.048445303
37	0xbc991fb4	-0.018691875
38	0x3b98ec6c	0.0046668556
39	0xbcba1b08	-0.022717968
40	0xbd921e1f	-0.071346514
41	0xbcfe3154	-0.03102938
42	0x3d98ada1	0.07454992
43	0xbdc7e7a4	-0.09760979
44	0x3d79aa4e	0.06095343
45	0xbd89b8e3	-0.067247175
46	0xbcddf6fd	-0.027095312
47	0xbc08986a	-0.00833712
48	0xbded246d	-0.11579213
49	0xbdd9a06d	-0.10626302
50	0xbdb58d10	-0.08864796
51	0xbd682fe2	-0.05668629
52	0xbd31d4e2	-0.04341591
53	0xbc203f78	-0.009780757
54	0xbcf7d811	-0.030254396
55	0xbd99d2af	-0.07510888
56	0xbd185a2c	-0.03719537
57	0xbd269f74	-0.04067941
58	0x3c901ca7	0.017591788
59	0xbd959231	-0.073032744
60	0x3d2a354d	0.041554738
61	0xbd66abc6	-0.05631616
62	0x3cf13633	0.02944479
63	0xbe05270c	-0.13003176
64	0xbd361239	-0.044450972
65	0x3d82d898	0.06388968
66	0xbdc3ad0e	-0.09554492
67	0xbb8aafbd	-0.0042323754
68	0xbcd24486	-0.02566744
69	0xbd2a96fe	-0.041647904
70	0xbcd9670c	-0.026538394
71	0xbc02495d	-0.0079520615
72	0x3d81700b	0.063201986
73	0x3c9adc8e	0.018903997
74	0xbc70943f	-0.014683782
75	0xbded4363	-0.115851186
76	0x3c070001	0.008239747
77	0xbd6cf1e5	-0.057847876
78	0x3d06e4f8	0.032933205
79	0xbdb49151	-0.088167794
80	0xbd7a1f98	-0.061065286
81	0xbce18c70	-0.027532786
82	0xbc76833d	-0.015045938
83	0x3c006f8c	0.007839095
84	0xbd008e6b	-0.03138582
85	0xbc40397f	-0.011732458
86	0xbcfaabaf	-0.030599443
87	0x3d5bffcb	0.05371074
88	0xbda2c353	-0.079474114
89	0xbdb456ff	-0.08805656
90	0xbc80402d	-0.015655601
91	0x3d18deff	0.03732204
92	0xbd68a4a0	-0.056797624
93	0xbc2af5ad	-0.01043455
94	0xbd1cef07	-0.03831389
95	0xbdcecc82	-0.100976005
96	0xbdeee514	-0.11664787
97	0x3d5ee850	0.05442077
98	0xbdb0e28e	-0.08636962
99	0xbd81fd2d	-0.063471176
100	0x3c3dcef7	0.011584989
101	0xbd411c21	-0.047145966
102	0xb9185e94	-0.00014531083
103	0x3cfddcfd	0.030989164
104	0xbd84fc67	-0.064934544
105	0xbd931d0f	-0.07183277
106	0xbdc09272	-0.09402932
107	0xbd45a0b5	-0.048248965
108	0xbd79cd6b	-0.060986917
109	0xbd427ee4	-0.047484294
110	0x3c51c11f	0.012802391
111	0x3b25f5a4	0.0025323415
112	0x3a815215	0.0009866381
113	0xbccd1071	-0.025032254
114	0x3cf32bf1	0.029684039
115	0xbc957c9e	-0.018247899
116	0x3d39dff1	0.045379583
117	0xbd289a4b	-0.04116277
118	0xbd5f2cde	-0.054486148
119	0xbd155ded	-0.036466528
120	0xbddc60ba	-0.10760637
121	0xbdabe9ec	-0.083942264
122	0xbde82d47	-0.11336761
123	0x3d0c6b52	0.034282036
124	0x3ca821ca	0.020523924
125	0x3c2b0500	0.010438204
126	0xbd8adb33	-0.0678009
127	0x3c400d20	0.011721879
128	0x3e90dab7	0.28291866
129	0xbbd380f5	-0.006454582
130	0xbe052e18	-0.13005865
131	0x3e3a4d79	0.18193616
132	0xbd32e94e	-0.043679528
133	0x3d638ff3	0.055557203
134	0xbdcc32ee	-0.099706516
135	0x3df0fd8f	0.117671125
136	0xbd955d9a	-0.07293244
137	0xbd5aaa2a	-0.053384937
138	0xbd3d9758	-0.04628691
139	0xbbf5c5d0	-0.0075003877
140	0xbe8ab9bb	-0.27094826
141	0x3d7b627a	0.06137321
142	0xbe11156b	-0.14168327
143	0xbdf57867	-0.119858555
144	0xbee22a9f	-0.44173142
145	0x3c8cb11d	0.017174298
146	0xbd02fd3a	-0.031979777
147	0x3cc5f51a	0.024164725
148	0xbdb14e97	-0.08657568
149	0x3d3dca7d	0.046335686
150	0x3d47186e	0.048607282
151	0xbe73162f	-0.23738931
152	0xbdb1b571	-0.08677185
153	0x3e1e7ead	0.1547801
154	0xbdfefdcf	-0.12450754
155	0xbdee3bb3	-0.116324805
156	0x3e1b3b86	0.15159425
157	0xbd97695c	-0.073931426
158	0xbc859954	-0.016308464
159	0xbe9bb01b	-0.30407795
160	0xbe8bbfac	-0.27294672
161	0x3c95f078	0.018303141
162	0x3d58b3ce	0.05290585
163	0xbd9016ab	-0.070355736
164	0x3e127078	0.14300716
165	0x3c0f071f	0.008729725
166	0xbdafc7e9	-0.08583052
167	0xbe8ba82b	-0.2727674
168	0x3e13238e	0.14369032
169	0xbdbd8b98	-0.09255141
170	0x3d5c254f	0.053746518
171	0x3e3ee4da	0.18641987
172	0xbe42edd7	-0.19036041
173	0xbe906dba	-0.28208715
174	0x3ddc1cea	0.107477024
175	0xbc81ae96	-0.01583032
176	0x3d6d0901	0.057869915
177	0xbe661768	-0.22469866
178	0x3de48c6b	0.11159595
179	0x3e892c3f	0.2679157
180	0x3e77b973	0.24191837
181	0x3e67f194	0.22650748
182	0xbd0ced68	-0.034406096
183	0xbd65587b	-0.055992585
184	0xbe135e8b	-0.14391534
185	0x3e9e2920	0.3089075
186	0xbc84132c	-0.016122423
187	0xbd51a71d	-0.051184762
188	0x3da263a7	0.079291634
189	0xbd41c839	-0.047310088
190	0x3d251012	0.04029853
191	0xbe9aa985	-0.30207458
192	0x3e1f5929	0.15561356
193	0x3cb3b8dc	0.021938734
194	0xbe4f3213	-0.20233946
195	0xbd89bda0	-0.06725621
196	0x3e854073	0.26025733
197	0x3dcbb46e	0.099465236
198	0x3e7106c5	0.23537739
199	0x3de9360d	0.113872625
200	0xbf29c3be	-0.66314304
201	0x3d5f1fca	0.054473676
202	0xbd49365c	-0.049124107
203	0x3b9bcdb8	0.004754748
204	0xbe18bc63	-0.14915614
205	0xbca01299	-0.019540118
206	0x3e39d4e1	0.18147613
207	0x3dc4f7b5	0.09617559
208	0xbcc6fc9f	-0.024290381
209	0xbe251bbb	-0.1612386
210	0xbdab9fcc	-0.08380088
211	0x3d237787	0.039908912
212	0xbe05cf41	-0.13067342
213	0xbe953972	-0.2914539
214	0x3aaa31cc	0.0012984811
215	0xbca8d481	-0.020609142
216	0xbd2cb236	-0.042162143
217	0x3d220669	0.039556894
218	0xbe2d764d	-0.1693966
219	0x3e98f4a1	0.29874137
220	0x3b56782e	0.0032725441
221	0xbe207234	-0.15668565
222	0x3e153078	0.1456927
223	0xbe2b7767	-0.16744767
224	0x3d06b201	0.0328846
225	0x3e12c1c6	0.14331731
226	0xbe20ee95	-0.15716012
227	0x3e5401f5	0.20703872
228	0x3addb02d	0.0016913466
229	0x3ca701ac	0.02038654
230	0xbe4e456c	-0.2014367
231	0xbe135574	-0.14388067
232	0x3da7f9f4	0.08201972
233	0x3e4691c3	0.19391541
234	0x3caae0b8	0.020859107
235	0xbde920d2	-0.11383213
236	0x3e485d6d	0.19566889
237	0x3e089c66	0.13340911
238	0x3dddda98	0.10832709
239	0x3e0ac14b	0.13550298
240	0xbe2ad6bf	-0.16683482
241	0xbd3acedf	-0.045607444
242	0xbdcc2fcb	-0.09970053
243	0xbef5ab39	-0.47982195
244	0x3e2206c6	0.15822896
245	0x3babeda2	0.005246834
246	0x3ba073be	0.00489661
247	0x3d8c2d44	0.06844571
248	0xbcb544cd	-0.022127533
249	0xbce6c764	-0.028171249
250	0x3c04e608	0.008111484
251	0x3e05e488	0.13075459
252	0xbcea86bf	-0.028628705
253	0x3d287f66	0.04113712
254	0x3de5b8df	0.11216902
255	0x3e205d17	0.15660511

net.4.bias f4 [128]
0	0xbdf82451	-0.12116302
1	0xbcb70111	-0.022339376
2	0x3e031847	0.1280223
3	0x3df19c7e	0.11797427
4	0x3dd5cb0f	0.10439121
5	0x3d059229	0.032610092
6	0x3d8e7ec5	0.06957773
7	0x3e767063	0.2406631
8	0x3d457df9	0.04821584
9	0x3e17d4ff	0.14827345
10	0x3df34485	0.118783034
11	0x3dab6fd1	0.08370937
12	0x3d9a64bc	0.07538745
13	0xbdd018aa	-0.10160954
14	0x3d468ae3	0.048472296
15	0x3e23084e	0.15921137
16	0x3db61c2c	0.08892092
17	0xbb1dbcd8	-0.0024068858
18	0x3cd47e80	0.025939226
19	0xbd937b56	-0.07201259
20	0x3d902dde	0.070399985
21	0xbdb3f292	-0.08786501
22	0xbdb7938a	-0.08963688
23	0x3e7d984b	0.24765126
24	0x3da0d24a	0.078526095
25	0x3cc35aa7	0.023846937
26	0xbdbd2beb	-0.09236892
27	0x3e0520af	0.13000749
28	0x3def19c1	0.11674834
29	0x3c914aeb	0.017735919
30	0x3d32d716	0.043662153
31	0x3d2c5ab5	0.042078692
32	0x3a639ac5	0.0008682425
33	0x3e65db7e	0.22447011
34	0x3d5997b7	0.053123202
35	0x3d099327	0.0335876
36	0xbbc43c22	-0.0059886137
37	0x3d4abc4d	0.049495984
38	0x3dd9170c	0.10600099
39	0xbd83fc97	-0.06444662
40	0x3c3f924e	0.011692597
41	0x3da6f315	0.08151833
42	0xbdaa148a	-0.08304699
43	0x3d1ef86d	0.038811136
44	0xbdd517e3	-0.10404947
45	0x3d83a099	0.06427116
46	0x3d34a3d6	0.04410156
47	0x3cba6371	0.022752495
48	0xbbb44dee	-0.005502454
49	0xbdc2a606	-0.09504323
50	0x3da7da70	0.081959605
51	0x3dea6dad	0.114467
52	0xbd197038	-0.037460536
53	0xbd9404e6	-0.07227497
54	0xbd9e1125	-0.07718114
55	0xbc253179	-0.010082596
56	0x3d3c8acb	0.0460308
57	0x3e2759fe	0.16342923
58	0x3dae1a93	0.085011624
59	0x3d5287c7	0.05139902
60	0xbd282d5c	-0.041058883
61	0xbdc1a560	-0.09455371
62	0x3e03e16b	0.12878959
63	0xbb68a23d	-0.0035497092
64	0xbc5efe9e	-0.01361051
65	0x3b1e6c0b	0.0024173285
66	0xbb0f60fc	-0.0021877876
67	0xbb766bd3	-0.003760089
68	0x3d45bf57	0.04827818
69	0x3d1e97e4	0.038719073
70	0x3db95f94	0.09051433
71	0xbd34458e	-0.044011645
72	0x3d4f5192	0.0506149
73	0x3cc6b1e4	0.024254747
74	0x3d1a8319	0.03772268
75	0x3e1793c5	0.14802463
76	0x3c256d8b	0.010096918
77	0x3b7d98a5	0.003869572
78	0x3cbacc96	0.022802632
79	0xbc6bca94	-0.01439156
80	0x3c5d209d	0.013496545
81	0x3d5220c8	0.051300794
82	0x3dacec91	0.08443559
83	0x3d930e76	0.071804926
84	0x3dcc6c8c	0.09981641
85	0x3cfee29f	0.03111392
86	0x3dd24c22	0.102684274
87	0x3d63ed6c	0.055646345
88	0xbd45b6b8	-0.048269957
89	0x3dc3347e	0.095314965
90	0x3d91dc3e	0.07122086
91	0x3d2f1ad1	0.042750183
92	0x3dd768ae	0.10518013
93	0x3cbc9c08	0.02302362
94	0x3dfb3978	0.12266821
95	0x3cbca537	0.023028
96	0x3d675d14	0.05648525
97	0x3d939ec1	0.07208014
98	0xbdda1ea8	-0.106503785
99	0x3d6c3fc2	0.05767799
100	0x3c49053c	0.012269314
101	0x3d05af52	0.0326379
102	0x3cb4e3e1	0.022081317
103	0x3df924fc	0.12165257
104	0xbd72447c	-0.059147343
105	0x3d2e3e1c	0.0425397
106	0xbba1f386	-0.0049423603
107	0x3d5cad06	0.053875946
108	0x3d3f4204	0.046693817
109	0x3d3b3686	0.045706294
110	0x3e26130f	0.16218208
111	0x3dd2f57f	0.10300731
112	0xbc1dd379	-0.009632939
113	0x3de69703	0.11259272
114	0xbdc835f2	-0.09775914
115	0x3d9d2abd	0.07674167
116	0x3e352087	0.1768819
117	0xbd5b8c4a	-0.053600587
118	0x3c920580	0.017824888
119	0xbcc595b8	-0.024119243
120	0x3d8cdb2d	0.06877742
121	0x3c7ce140	0.015434563
122	0x3b7c26a7	0.0038475187
123	0xbcf06a88	-0.029347673
124	0xbce81a38	-0.028332815
125	0x3da6852d	0.0813087
126	0x3b212449	0.0024588278
127	0x3dfc7481	0.12326909

net.6.weight f4 [24, 128]
0	0xbc3bcc79	-0.011462324
1	0x3e3696e1	0.17830993
2	0x3c114a9e	0.008867888
3	0x3bad9529	0.0052973223
4	0x3cddf05c	0.027092151
5	0xbe5678ee	-0.20944569
6	0xbdd5a7d3	-0.104324006
7	0x3e06abd8	0.1315149
8	0x3e2429f5	0.1603163
9	0x3d7d0e5d	0.061781276
10	0x3d86be8c	0.06579313
11	0x3de74022	0.11291529
12	0x3cef26c5	0.029193291
13	0xbe0435ec	-0.12911195
14	0x3de1b7e8	0.110214055
15	0x3dec5dad	0.11541305
16	0x3da8da6e	0.08244787
17	0xbe66efbf	-0.22552393
18	0xbcc5f058	-0.024162456
19	0xbdbadbfe	-0.091239914
20	0xbc8ecde9	-0.01743217
21	0x3d87aa6e	0.06624304
22	0x3cfec9a0	0.031102002
23	0x3da23493	0.07920184
24	0xbd547dd0	-0.051877797
25	0xbe87cbc5	-0.2652265
26	0xbe259e3a	-0.1617364
27	0x3dc0886a	0.09401019
28	0xbcc0c73e	-0.023532506
29	0xbe2a3f33	-0.16625671
30	0x3d8bd4f4	0.06827727
31	0xbdc066e3	-0.09394624
32	0x3e123470	0.14277816
33	0x3daf8429	0.085701294
34	0xbd404d13	-0.046948504
35	0xbda73cc1	-0.08165885
36	0xbc311f86	-0.010810738
37	0x3f0185dd	0.50594884
38	0xbd670e26	-0.056409977
39	0xbdb86c51	-0.09005035
40	0xbe090ae3	-0.13383059
41	0x3c8e2715	0.01735262
42	0x3d6deca2	0.058087
43	0x3d79267c	0.060827717
44	0x3d884ab5	0.06654874
45	0xbe20003a	-0.15625086
46	0x3dc05d46	0.093927905
47	0xbd966654	-0.07343736
48	0xbdabaebe	-0.08382939
49	0xbd36ecbe	-0.04465937
50	0x3ec5f0ac	0.3866018
51	0x3d334126	0.043763302
52	0xbdac4233	-0.08411064
53	0xbcdd61e9	-0.027024226
54	0xbdb908f8	-0.09034914
55	0xbe9d7d89	-0.30759838
56	0x3cbea046	0.023269784
57	0x3dd9f0e4	0.10641649
58	0xbd3d1fa1	-0.04617274
59	0xbdf52ee4	-0.11971834
60	0x3cf8d461	0.030374708
61	0xbce14fc6	-0.02750386
62	0xbd142e45	-0.03617694
63	0xbdf4e397	-0.11957472
64	0x3e7a948b	0.24470727
65	0xbbab62c0	-0.005230278
66	0xbdc97865	-0.098374166
67	0xbd8dcd5f	-0.06923937
68	0xbe0164bb	-0.12636082
69	0xbcbb59e7	-0.022870017
70	0x3d7ab73e	0.06120991
71	0x3a1fa2c0	0.00060896203
72	0x3e9b4c72	0.3033176
73	0x3df34c09	0.11879737
74	0xbd552f78	-0.052047223
75	0x3d65e748	0.05612877
76	0xbcae7c9e	-0.021299656
77	0xbd8f14f5	-0.06986419
78	0xbc1e0271	-0.009644137
79	0x3ea03a8f	0.31294677
80	0x3f0fde2a	0.5619837
81	0x3e289458	0.16462839
82	0xbef19a8f	-0.4718823
83	0xbdcec328	-0.10095817
84	0xbe3c5a3d	-0.18393798
85	0x3ea6c7bb	0.32574257
86	0x3f1cdb15	0.6127179
87	0xbca334bc	-0.019922607
88	0xbd21ef70	-0.039534986
89	0x3e17c6ca	0.14821926
90	0xbe1ef0ac	-0.15521497
91	0xbc1efacd	-0.00970335
92	0x3e24d8b6	0.16098294
93	0x3d64baa1	0.055842046
94	0x3d991015	0.074737705
95	0x3e7a1acb	0.24424283
96	0x3ef8c18a	0.4858516
97	0xbdcab00e	-0.09896861
98	0x3d82976e	0.06376539
99	0x3e00027b	0.12500946
100	0x3e1bdfb2	0.15222052
101	0x3dff01d7	0.12451523
102	0xbd6ba8f0	-0.05753416
103	0x3f03d3cd	0.5149506
104	0x3ceca7d2	0.028888617
105	0xbdea803d	-0.11450241
106	0xbe229ceb	-0.15880172
107	0x3ddc7327	0.10764151
108	0x3e8865d9	0.26640204
109	0xbe9a179e	-0.30096143
110	0x3de49af4	0.111623675
111	0x3d99490f	0.07484638
112	0xbce46cf3	-0.027883982
113	0x3ebb18a4	0.36542237
114	0x3d677669	0.05650941
115	0xbd9506ac	-0.07276663
116	0x3d9bf943	0.07615902
117	0xbe96170b	-0.29314455
118	0x3d0a7d0c	0.03381066
119	0x3d4a4edd	0.049391616
120	0xbdc1b443	-0.0945821
121	0x3f3f81e3	0.74807566
122	0xbec28c8f	-0.37997863
123	0x3f4cf6df	0.80064195
124	0x3e35ef47	0.17767058
125	0x3e255a31	0.16147687
126	0xbd318411	-0.04333884
127	0x3d0649ef	0.032785352
128	0x3d575f46	0.052581094
129	0xbe2efa05	-0.17087562
130	0x3e44ff41	0.19237997
131	0x3dbdf31b	0.09274884
132	0x3e496eae	0.19671127
133	0xbe59caf8	-0.21268833
134	0x3e6fee11	0.23430659
135	0x3e253d3e	0.16136643
136	0xbe104a5f	-0.1409087
137	0x3e314411	0.17311122
138	0x3e467e01	0.19384004
139	0x3cbc252a	0.02296694
140	0x3e886b6b	0.26644453
141	0x3dfc4d38	0.12319416
142	0x3e3d7846	0.18502912
143	0x3de2c4e8	0.11072713
144	0x3dcd007e	0.100098595
145	0x3de13992	0.10997309
146	0xbe95d520	-0.29264164
147	0xbe491603	-0.19637303
148	0x3e0dfa76	0.13865075
149	0x3d54a1a5	0.05191197
150	0x3d852b70	0.06502426
151	0x3dd10d3a	0.10207601
152	0xbe0a066c	-0.13479012
153	0x3e95f307	0.29286978
154	0xbd90bde7	-0.07067471
155	0x3e1b6589	0.15175451
156	0x3e390423	0.18067984
157	0x3ef51b8f	0.47872588
158	0x3e180368	0.1484505
159	0x3e14bdfe	0.14525601
160	0x3e0be1c8	0.13660347
161	0x3e240654	0.16018039
162	0xbe13c566	-0.1443077
163	0xbdbeccf5	-0.09316436
164	0x3e2b4aeb	0.16727798
165	0xbe848b8a	-0.2588771
166	0xbe9f5c3f	-0.31125066
167	0xbcc6489b	-0.024204543
168	0x3f92b978	1.146285
169	0x3e47318d	0.19452496
170	0x3d29f14e	0.04148989
171	0x3ea77940	0.32709694
172	0xbd0b17db	-0.033958297
173	0x3c726541	0.014794649
174	0xbc909184	-0.017647512
175	0x3e38e1eb	0.18054931
176	0x3db19d5b	0.08672591
177	0xbd0c7af0	-0.03429693
178	0xbdebf073	-0.115204714
179	0x3e4bb685	0.19893844
180	0xbe14fe7f	-0.14550208
181	0x3d309646	0.043112062
182	0xbc65fe05	-0.014037614
183	0xbe1bbdf4	-0.1520918
184	0x3e56048f	0.20900176
185	0x3e354a62	0.17704156
186	0x3da409e0	0.08009696
187	0xbe7f87bd	-0.24954124
188	0x3daaba81	0.08336354
189	0x3d72e69f	0.05930197
190	0x3c80fdb1	0.01574597
191	0x3d4c74d5	0.049916107
192	0x3da647ee	0.08119188
193	0x3e44f8fe	0.19235608
194	0x3d393ec1	0.045225862
195	0xbeb40fa1	-0.35168174
196	0x3db35c34	0.08757821
197	0xbcad2d28	-0.021139696
198	0x3e60e6e1	0.21963073
199	0x3e0a2663	0.13491206
200	0x3de10cfd	0.109888054
201	0x3dc70ee6	0.097196385
202	0x3e1d8892	0.15384129
203	0x3db9c291	0.09070314
204	0x3e14017e	0.14453694
205	0x3dcc59a8	0.09978038
206	0x3f4907c0	0.7852745
207	0x3dbee153	0.09320321
208	0x3dbee0a2	0.09320189
209	0x3dbe52d2	0.092931405
210	0x3d111dd1	0.035428826
211	0x3d187ca6	0.03722825
212	0x3a926fa0	0.0011172183
213	0xbeb42f87	-0.3519251
214	0xbeea3f8d	-0.4575161
215	0x3e44e280	0.19227028
216	0xbd970791	-0.0737449
217	0x3e0b1c54	0.13585025
218	0x3bfde9ff	0.007748842
219	0x3de47f5b	0.11157104
220	0x3e5747a1	0.21023418
221	0x3cb7c661	0.022433462
222	0xbbcc0498	-0.0062261336
223	0xbd037578	-0.03209445
224	0xbda4e780	-0.080519676
225	0x3e547349	0.20747103
226	0xbce915db	-0.028452804
227	0x3e2aeb4a	0.16691318
228	0x3da45c73	0.08025446
229	0x3d1e7cbe	0.038693182
230	0x3e811a7b	0.25215515
231	0xbe7babef	-0.24577306
232	0xbd995a46	-0.074879214
233	0x3e948998	0.29011226
234	0xbe36cb72	-0.17851046
235	0x3de1972d	0.110151626
236	0xbd0c4e39	-0.034254286
237	0xbea3fd40	-0.32029152
238	0x3e2385d4	0.1596902
239	0x3daba5d4	0.083812386
240	0xbc5dbae1	-0.013533325
241	0x3e2ec9e6	0.17069206
242	0xbd2aa692	-0.04166276
243	0x3df356b1	0.118817694
244	0x3e17dcd8	0.14830339
245	0x3d9332ce	0.071874246
246	0x3e4b98bd	0.19882484
247	0x3da83106	0.082124755
248	0x3e73202d	0.23742743
249	0xbec913cc	-0.39272916
250	0xbe5a8296	-0.21338877
251	0xbeaaea12	-0.33381706
252	0xbce14cf0	-0.027502507
253	0x3dc46ac5	0.09590677
254	0xbd9c1e17	-0.07622927
255	0x3e481a85	0.19541366

net.6.bias f4 [24]
0	0x3e31558c	0.1731779
1	0x3dc6409f	0.09680294
2	0xbd478d09	-0.048718486
3	0xbda66517	-0.0812475
4	0xbe64ddf5	-0.22350295
5	0x3d5c5015	0.05378731
6	0xbe039551	-0.12849928
7	0x3c8af1fe	0.016961094
8	0x3d590285	0.05298092
9	0xbd5ece97	-0.05439624
10	0x3d63ed56	0.055646263
11	0xbfda3f8c	-1.7050643
12	0xbb660452	-0.003509779
13	0x3e03802c	0.12841862
14	0xbc254d90	-0.010089293
15	0x3d7f5c38	0.062343806
16	0x3b8f5a1f	0.004374757
17	0x3fb2fbb8	1.3983068
18	0x3df888e7	0.12135487
19	0x3d881ecf	0.06646501
20	0x3cf5d954	0.030010857
21	0x3d9560e4	0.07293871
22	0x3c02fadc	0.00799438
23	0xbfa9e8bc	-1.327415
