space_robot_planning/weights/mlp_debug/v1.pth (torch, 152071 bytes, 8 tensors)

net.0.weight f4 [128, 8]
0.25283775 0.03231736 -0.13915409 0.28762394 0.35612324 0.39252967 -0.6252015 0.4363639
-0.03413334 0.28580093 -0.31560123 -0.34926856 0.21817379 -0.29118112 0.13487269 0.0021996018
-0.29806575 -0.24906701 -0.13595115 0.10970457 0.11404611 0.18578634 -0.12832469 0.3073163
0.34442666 -0.29660198 0.017553614 -0.34680066 -0.027347108 0.043907363 0.2444735 0.15804191
-0.010015397 -0.16903591 -0.29445735 0.16601074 -0.5729897 0.026942074 0.5255654 -0.36282352
0.0023965118 0.22165583 0.12226337 -0.13815507 0.14264745 0.32644567 -0.5719578 0.448373
0.017672427 0.059610564 0.06708316 0.12951964 -0.19593748 -0.44023815 0.733434 -0.41077167
-0.29010308 -0.2860333 0.3226034 -0.31896487 -0.2358613 -0.4341342 -0.096628286 -0.10962494
-0.3292073 0.32438987 0.32836205 0.17674085 -0.004485719 0.09999345 -0.5223765 0.40270692
0.33830214 -0.1682734 -0.12824506 -0.0031162058 0.3946734 -0.30164695 0.36650994 -0.22256026
0.3247283 0.07972456 0.17120227 0.30876902 0.3535764 0.24888143 -0.57154214 0.5232152
-0.011515868 -0.026078572 -0.19330142 -0.25110888 0.41950092 0.214706 -0.48546082 0.04363417
0.24264215 -0.06332901 -0.1700361 -0.016600365 0.302292 -0.36464083 0.68293345 -0.36365762
0.16487151 0.26074594 -0.118482836 -0.14702405 0.24216694 -6.47312e-05 -0.06880421 0.37557432
0.07080869 0.21446955 -0.1329017 0.3229806 -0.2706311 -0.2695397 0.57861924 -0.4560089
-0.31363258 -0.117689386 -0.15004669 0.15229297 0.28860185 -0.06383235 -0.15836509 0.085085414
-0.2450784 -0.15138735 0.14438502 -0.036693193 0.25323737 -0.4139375 0.29240644 0.23502554
0.30485073 -0.2625791 0.056836963 -0.05928205 -0.20644833 0.1771491 -0.24240476 0.40670744
0.19653678 -0.27678165 0.033845816 0.1214872 0.07475957 0.016367974 -0.41423297 0.4465858
-0.23747696 -0.27777454 -0.26656735 -0.34314647 0.19236095 -0.27049616 -0.16934666 0.20921867
0.13916114 -0.02627148 -0.08436189 -0.16509667 0.19731833 0.08081226 0.23502934 -0.322031
-0.087781645 -0.013298005 0.07728122 -0.26799276 -0.0649684 0.2656581 0.12291774 -0.2798874
0.05096106 0.22918575 0.19318198 0.087641925 -0.21762994 0.17628421 0.5138484 -0.18679495
0.1729925 0.02870664 0.08982724 -0.05276515 0.21626192 0.30049184 -0.1894085 0.11832685
-0.090152405 -0.26928002 0.24225628 -0.28425464 -0.22062239 -0.0029034542 -0.19411084 0.12761113
-0.067221016 0.14824837 0.30129868 0.20213783 0.2899533 0.05544788 -0.5678967 -0.26282468
0.12224799 0.27777916 -0.3487631 0.24492778 0.27672988 -0.31563312 0.62301946 -0.29739273
0.1978397 0.057809416 0.15991698 0.32020125 0.47734553 0.46457422 -0.549314 0.15982974
0.016471114 -0.2841221 0.0725346 -0.044875998 0.38261887 -0.19158295 0.3971237 -0.37301037
0.10328115 0.34384772 0.2669177 0.2155889 0.08720182 0.11557329 0.5825845 -0.24604264
-0.010569755 -0.081535734 -0.25036773 0.15627289 0.38607395 0.26661426 -0.53934056 0.28178793
0.32173386 0.30764788 -0.02745922 -0.095834866 -0.26339668 0.2913833 -0.018274432 0.414393
00000000: f373 813e 355f 043d 697e 0ebe 7243 933e
00000010: c955 b63e a6f9 c83e 350d 20bf 176b df3e
00000020: 67cf 0bbd 8054 923e 7c96 a1be 54d3 b2be
00000030: f368 5f3e b115 95be 111c 0a3e 3227 103b
00000040: 139c 98be 6c0b 7fbe c736 0bbe caac e03d
00000050: 0291 e93d c63e 3e3e 8c67 03be 9058 9d3e
00000060: b158 b03e 37dc 97be 99cc 8f3c db8f b1be
00000070: 0b07 e0bc 35d8 333d 4357 7a3e bdd5 213e
00000080: 9f17 24bc c017 2dbe 1dc3 96be b8fe 293e
00000090: 74af 12bf a0b5 dc3c 748b 063f 01c4 b9be
000000a0: cc0e 1d3b bff9 623e 3865 fa3d 8678 0dbe
000000b0: 2c12 123e e323 a73e d46b 12bf 2591 e53e
000000c0: c4c5 903c 352a 743d e562 893d cca0 043e
000000d0: d6a3 48be e566 e1be 55c2 3b3f aa50 d2be
000000e0: 6488 94be f572 92be 462c a53e 5d4f a3be
000000f0: a085 71be d646 debe 0de5 c5bd 0a83 e0bd
00000100: dc8d a8be 6e16 a63e 121f a83e 8efb 343e
00000110: f0fc 92bb 5ec9 cc3d 77ba 05bf 9a2f ce3e
00000120: f035 ad3e dd4f 2cbe ac52 03be 4239 4cbb
00000130: a212 ca3e 7871 9abe 31a7 bb3e d6e6 63be
00000140: ca42 a63e a146 a33d a64f 2f3e f916 9e3e
00000150: f707 b53e c6da 7e3e 9650 12bf 6ef1 053f
00000160: 0dad 3cbc bba2 d5bc cff0 45be 5891 80be
00000170: d3c8 d63e e4db 5b3e 528e f8be beb9 323d
00000180: 2f77 783e a4b2 81bd f21d 2ebe 7dfd 87bc
00000190: 04c6 9a3e 34b2 babe bad4 2e3f 5531 babe
000001a0: 14d4 283e 7e80 853e 21a7 f2bd 798d 16be
000001b0: 9cfa 773e 4cc0 87b8 39e9 8cbd 474b c03e
000001c0: 2504 913d e89d 5b3e 6217 08be b75d a53e
000001d0: 2990 8abe 1c01 8abe 6420 143f 007a e9be
000001e0: 7394 a0be 2207 f1bd d7a5 19be b0f2 1b3e
000001f0: 9fc3 933e 89ba 82bd 752a 22be 4341 ae3d
00000200: d5f5 7abe 4905 1bbe abd9 133e 9a4b 16bd
00000210: 54a8 813e 9eef d3be 4cb6 953e 89aa 703e
00000220: 6515 9c3e c570 86be e0cd 683d bcd1 72bd
00000230: 3167 53be 9366 353e f438 78be f53b d03e
00000240: f040 493e 53b6 8dbe e9a1 0a3d 48ce f83d
00000250: 8c1b 993d 2116 863c 5816 d4be e5a6 e43e
00000260: 292d 73be 7738 8ebe 847b 88be e5b0 afbe
00000270: 45fa 443e 797e 8abe 3669 2dbe 6b3d 563e
00000280: 4280 0e3e 4937 d7bc edc5 acbd 1a0f 29be
00000290: d10d 4a3e e680 a53d 88ab 703e 3fe1 a4be
000002a0: ddc6 b3bd e0df 59bc 9e45 9e3d 5936 89be
000002b0: 270e 85bd 5704 883e 4cbc fb3d 674d 8fbe
000002c0: 8bbc 503d abaf 6a3e 7fd1 453e 9c7d b33d
000002d0: 62da 5ebe d983 343e 928b 033f 2d47 3fbe
000002e0: f224 313e 302a eb3c 58f7 b73d 4520 58bd
000002f0: c473 5d3e 11da 993e 4df4 41be 5955 f23d
00000300: d3a1 b8bd 12df 89be 0812 783e d389 91be
00000310: d6ea 61be e147 3ebb fec4 46be 7eac 023e
00000320: 2cab 89bd 6cce 173e d243 9a3e 38fd 4e3e
00000330: c274 943e 511d 633d ae61 11bf f590 86be
00000340: 275d fa3d 1239 8e3e 1491 b2be 59ce 7a3e
00000350: 8aaf 8d3e aa9a a1be 347e 1f3f dc43 98be
00000360: 7e96 4a3e 91c9 6c3d 47c1 233e 6bf1 a33e
00000370: a266 f43e acdc ed3e d89f 0cbf 68aa 233e
00000380: 6eee 863c 7478 91be 058d 943d e5cf 37bd
00000390: 9fe6 c33e 522e 44be cc53 cb3e 37fb bebe
000003a0: 1185 d33d cf0c b03e 70a9 883e 56c3 5c3e
000003b0: de96 b23d b0b1 ec3d 4224 153f 9af2 7bbe
000003c0: c42c 2dbc 35fc a6bd 3330 80be 0006 203e
000003d0: 7cab c53e aa81 883e 3912 0abf 8246 903e
000003e0: 4dba a43e 0684 9d3e 28f2 e0bc 1245 c4bd
000003f0: eedb 86be 3130 953e 43b4 95bc 522b d43e

net.0.bias f4 [128]
-0.098586805 -0.074952565 -0.2470394 -0.018047197 -0.04964106 0.26090088 0.15390429 -0.06817061
0.03915326 -0.09429027 -0.19188035 0.43657145 0.023831114 -0.09611071 -0.080133125 -0.19648665
-0.061975215 -0.20356041 0.110619314 -0.04390393 0.2011911 -0.15421602 0.33629823 -0.005146272
-0.32426992 0.040732127 -0.21230277 -0.0030357244 -0.004357848 0.18265516 -0.03149719 -0.12721142
0.28989515 -0.061193515 0.31518593 -0.22521955 0.32562745 0.1781473 -0.14348648 -0.18065038
0.08771492 0.14663862 -0.3221135 0.02970802 0.101830855 -0.1762864 0.017434029 0.065455236
0.13645005 -0.07671618 -0.14067475 0.32434064 -0.14503765 0.114840694 0.09288807 0.35021365
-0.086126484 -0.043156467 -0.17234848 -0.116799355 0.37903848 0.013418096 0.13816707 0.108492486
0.08014084 0.13901672 0.13155068 -0.017747514 -0.0920433 0.006843528 0.026419224 0.07722282
0.10242404 0.17243339 -0.060039204 -0.27465895 -0.042407215 -0.22112952 0.18919016 0.22332725
0.13203374 0.123157114 -0.2077023 -0.11480773 -0.35662833 0.17648205 -0.34641248 -0.11083855
0.23326887 -0.2467155 -0.11078698 0.21852732 0.22177047 -0.3642129 0.07571471 0.27432492
-0.12628494 0.12946093 -0.29061958 0.10492184 -0.06332425 -0.20144969 0.21968712 -0.17581216
-0.18932255 -0.008765849 -0.24775755 -0.25776863 -0.12616919 -0.2779689 0.16027737 -0.038414225
0.031830058 -0.07569631 -0.23227923 -0.30344132 -0.080332085 -0.21140042 -0.05155452 -0.07627082
0.068719774 0.21621062 0.033416163 0.19515675 -0.3063297 0.14829333 -0.33955827 -0.10483464
00000000: e1e7 c9bd bb80 99bd e5f7 7cbe b7d7 93bc
00000010: 6d54 4bbd cd94 853e 1699 1d3e 089d 8bbd
00000020: 2b5f 203d 421b c1bd 487c 44be 4b86 df3e
00000030: 7839 c33c b1d5 c4bd d61c a4bd cc33 49be
00000040: b9d9 7dbd 2472 50be 618c e23d 9bd4 33bd
00000050: 0a05 4e3e ceea 1dbe 482f ac3e 0fa2 a8bb
00000060: b506 a6be bbd6 263d e665 59be 01f3 46bb
00000070: 47cc 8ebb f409 3b3e 3303 01bd b643 02be
00000080: 236d 943e 0da6 7abd 0d60 a13e f49f 66be
00000090: a4b8 a63e 3f6c 363e 1fee 12be 6afc 38be
000000a0: e1a3 b33d 6f28 163e 10ec a4be 3c5e f33c
000000b0: b28c d03d 6c84 34be cfd1 8e3c 650d 863d
000000c0: 90b9 0b3e 5f1d 9dbd 0b0d 10be fa0f a63e
000000d0: c084 14be 9931 eb3d 1a3c be3d 344f b33e
000000e0: 1563 b0bd d6c4 30bd 1f7c 30be 8034 efbd
000000f0: 5511 c23e 93d7 5b3c ab7b 0d3e 4f31 de3d
00000100: e120 a43d 665a 0e3e 39b5 063e 3c63 91bc
00000110: 3381 bcbd ac3f e03b 216d d83c ff26 9e3d
00000120: b2c3 d13d 6192 303e abeb 75bd 19a0 8cbe
00000130: 30b3 2dbd c76f 62be 11bb 413e e6af 643e
00000140: da33 073e cc39 fc3d e9af 54be 5120 ebbd
00000150: fd97 b6be b6b7 343e fa5c b1be 52ff e2bd
00000160: 09de 6e3e fda2 7cbe 49e4 e2bd a0c5 5f3e
00000170: cc17 633e 1d7a babe 5010 9b3d 5174 8c3e
00000180: d750 01be 6891 043e 17cc 94be 43e1 d63d
00000190: 25b0 81bd d448 4ebe a9f5 603e 1a08 34be
000001a0: c5dd 41be a39e 0fbc 28b4 7dbe 40fa 83be
000001b0: 7f32 01be f151 8ebe c01f 243e 3c58 1dbd
000001c0: 3c60 023d ab06 9bbd 9bda 6dbe a95c 9bbe
000001d0: 2685 a4bd 5a79 58be d52a 53bd e033 9cbd
000001e0: f4bc 8c3d 5166 5d3e 63df 083d 2cd7 473e
000001f0: 3fd7 9cbe 35da 173e 95da adbe 8bb3 d6bd

net.2.weight f4 [128, 128]
-0.18137032 0.050529633 -0.086722754 -0.06271087 0.18825844 -0.013054239 0.3571598 -0.06353095
-0.02967219 0.091028005 0.2135213 -0.25040632 0.3176996 0.24931782 0.124773964 0.0910964
0.2938365 -0.25293842 0.03247477 0.61733615 -0.025886888 -0.06106346 -0.1223046 -0.07931789
0.015040661 -0.0809957 0.01727179 -0.14184974 0.10933603 0.012299823 -0.040452644 -0.2105299
0.08560455 0.03617093 -0.017241042 0.2857608 -0.03687171 -0.010601425 -0.037644003 -0.29370996
0.013073523 -0.2880071 0.10304767 -0.06790293 -0.08337484 -0.054850634 0.17839156 0.13152102
0.024261158 -0.09040608 -0.07805933 -0.0015208214 0.018239766 -0.010953058 0.06691392 0.1660885
0.019305024 0.09981326 0.16739865 -0.39096558 -0.04968407 -0.06252973 -0.033215813 0.12290624
0.28410766 0.24275479 -0.1743344 -0.013189711 -0.024913117 -0.029057799 0.113247246 -0.09124095
0.13274956 -0.1090491 -0.0050776405 0.0045663733 -0.13969296 -0.1057793 0.20865455 0.04074431
0.13036236 -0.06535535 0.02836702 -0.012642832 0.5099199 0.11114563 -0.07935169 0.32344103
-0.5764962 -0.061632313 -0.03558827 0.0052836053 -0.08205727 0.05916526 0.03025224 0.04505632
0.060691945 -0.019855741 -0.02492495 0.030826334 0.02829976 0.15763159 0.17360395 -0.110999
-0.17647757 -0.07679512 -0.0018153838 -0.33056882 0.15319881 -0.047784884 0.02477285 -0.037542153
-0.06679399 -0.012102801 0.27518916 -0.056492515 -0.14547314 -0.53802776 0.06844386 0.24489619
0.08211966 0.12308222 -0.13399066 -0.07888634 0.059204824 -0.022001464 -0.04711592 -0.053070016
-0.012472787 -0.016195538 -0.06180787 0.018412104 -0.09822182 0.067563884 -0.0039618327 0.0142843025
0.062158637 0.017994266 -0.022284199 0.026876878 -0.0790384 0.0032112682 0.0049603367 0.0486552
-0.04189624 0.012708928 0.053540412 0.029317366 -0.019489547 -0.029344564 0.042112462 -0.09119248
-0.040847722 -0.079710096 -0.0836752 0.015391645 -0.02320729 0.044132326 0.016497662 -0.07913025
-0.035910107 0.079746015 -0.0884241 0.016054109 -0.09894605 0.03267441 -0.022812301 -0.011834158
-0.003853401 -0.04755433 -0.059827577 -0.0009806765 -0.04942722 0.038168173 -0.03257925 0.005066211
-0.01835289 -0.10232395 0.06869724 -0.07593577 -0.069971226 -0.070128724 -0.053678133 -0.0865575
0.010813581 -0.012257471 -0.07229378 0.052243955 -0.025541253 -0.121936314 0.0043606334 -0.05765591
0.017520148 0.030460754 -0.008011041 -0.05886183 -0.11226748 0.012738406 0.058087498 -0.0012995064
-0.08532637 0.007698152 -0.07771424 0.00015765453 0.061014093 0.010473859 0.011373734 -0.109730855
-0.00021953616 0.023643846 0.026203236 -0.05246361 0.068177246 -0.09250531 -0.076571465 0.040924292
-0.09481968 -0.08179556 0.009355547 0.021945195 0.022111295 -0.016299376 -0.011408348 -0.070490405
-0.0069057187 -0.033507187 -0.029576033 -0.03616252 0.0035981487 -0.11096085 -0.072150216 0.031126188
-0.06872406 0.03612607 -0.06827627 0.03197775 -0.030817423 0.021310562 -0.05347019 -0.11728246
-0.09501988 -0.036747377 -0.116465226 -0.03790763 -0.048797026 0.04651698 -0.044254456 -0.055751227
-0.022419717 -0.07604718 0.016978646 -0.032737155 -0.021271555 -0.06017399 -0.047308 -0.053584594
00000000: 24b9 39be 29f8 4e3d b39b b1bd 8e6e 80bd
00000010: d2c6 403e 72e1 55bc a6dd b63e 841c 82bd
00000020: 1813 f3bc e46c ba3d 54a5 5a3e 4235 80be
00000030: 86a9 a23e 2c4d 7f3e 7e89 ff3d c090 ba3d
00000040: bd71 963e 2581 81be 4404 053d be09 1e3f
00000050: bd10 d4bc ae1d 7abd d67a fabd 6b71 a2bd
00000060: 1b6d 763c 13e1 a5bd 927d 8d3c 0f41 11be
00000070: 92eb df3d 3285 493c acb1 25bd 2695 57be
00000080: 7051 af3d f827 143d 163d 8dbc 3d4f 923e
00000090: ca06 17bd 99b1 2dbc 9930 1abd 2761 96be
000000a0: 5432 563c ab75 93be a80a d33d b110 8bbd
000000b0: 6ec0 aabd 0fab 60bd 47ac 363e 72ad 063e
000000c0: 56bf c63c d326 b9bd 92dd 9fbd 4c56 c7ba
000000d0: 906b 953c 7474 33bc 2a0a 893d 1b13 2a3e
000000e0: 9225 9e3c e56a cc3d 8d6a 2b3e a42c c8be
000000f0: 8681 4bbd 960f 80bd 4e0d 08bd 44b6 fb3d
00000100: 8f76 913e b694 783e b884 32be a819 58bc
00000110: 9816 ccbc 9f0a eebc 2cee e73d 89dc babd
00000120: 80ef 073e 2255 dfbd 5662 a6bb 84a1 953b
00000130: ac0b 0fbe d1a2 d8bd 8aa9 553e 81e3 263d
00000140: b67d 053e 07d9 85bd f461 e83c e123 4fbc
00000150: 1c8a 023f 52a0 e33d 2483 a2bd 109a a53e
00000160: 4195 13bf 2a72 7cbd 01c5 11bd 1822 ad3b
00000170: a40d a8bd 4657 723d 8cd3 f73c fa8c 383d
00000180: 1e98 783d 82a8 a2bc 692f ccbc 8287 fc3c
00000190: e6d4 e73c 2d6a 213e 3cc5 313e 7253 e3bd
000001a0: 89b6 34be c346 9dbd 2cf2 edba 5140 a9be
000001b0: 26e0 1c3e 15ba 43bd 6ff0 ca3c cdc5 19bd
000001c0: 4acb 88bd d44a 46bc 98e5 8c3e b264 67bd
000001d0: e9f6 14be 30bc 09bf 4b2c 8c3d 11c6 7a3e
000001e0: 5a2e a83d 8812 fc3d d934 09be 298f a1bd
000001f0: c280 723d 6a3c b4bc 9ffc 40bd f25f 59bd
00000200: a95a 4cbc 81ac 84bc 402a 7dbd fbd4 963c
00000210: 8628 c9bd ef5e 8a3d 43d2 81bb b508 6a3c
00000220: 0e9a 7e3d b668 933c 5a8d b6bc e62c dc3c
00000230: e2de a1bd 2474 523b 528a a23b ad4a 473d
00000240: 649b 2bbd 1c39 503c 314d 5b3d f92a f03c
00000250: 8ba8 9fbc 0364 f0bc 1e7e 2c3d 1fc3 babd
00000260: f14f 27bd 0c3f a3bd e75d abbd 3d2d 7c3c
00000270: 371d bebc 19c4 343d 1b26 873c 0a0f a2bd
00000280: 7a16 13bd e151 a33d b217 b5bd e883 833c
00000290: 3aa4 cabd 9ad5 053d dde0 babc 0ee4 41bc
000002a0: 5789 7cbb 54c8 42bd c30d 75bd 0b8a 80ba
000002b0: 3274 4abd 3b56 1c3d d271 05bd 7502 a63b
000002c0: cd58 96bc 388f d1bd 23b1 8c3d 3784 9bbd
000002d0: 134d 8fbd a69f 8fbd 9add 5bbd 0f45 b1bd
000002e0: 722b 313c 8fd3 48bc c30e 94bd c2fd 553d
000002f0: e43b d1bc bfb9 f9bd a5e3 8e3b 9a28 6cbd
00000300: 6a86 8f3c d588 f93c be40 03bc 1a19 71bd
00000310: 7eec e5bd bfb4 503c 28ed 6d3d 3354 aaba
00000320: 98bf aebd c840 fc3b a528 9fbd 1150 2539
00000330: eae9 793d 8c9a 2b3c e658 3a3c 92ba e0bd
00000340: 4a33 66b9 bdb0 c13c 2ba8 d63c 15e4 56bd
00000350: 83a0 8b3d 6d73 bdbd 80d1 9cbd 3ba0 273d
00000360: d230 c2bd 6e84 a7bd 0248 193c 69c6 b33c
00000370: bf22 b53c 4586 85bc 14ea 3abc 465d 90bd
00000380: 5e49 e2bb d53e 09bd 7049 f2bc 271f 14bd
00000390: ebce 6b3b 713f e3bd 7ec3 93bd 59fc fe3c
000003a0: 33bf 8cbd eef8 133d 6ed4 8bbd 1afb 023d
000003b0: d274 fcbc 7d93 ae3c 8f03 5bbd c931 f0bd
000003c0: c899 c2bd 6b84 16bd 5285 eebd 0845 1bbd
000003d0: 64df 47bd 9788 3e3d 2944 35bd 665b 64bd
000003e0: 8ea9 b7bc a0be 9bbd cd16 8b3c 6517 06bd
000003f0: af41 aebc 0079 76bd 09c6 41bd 857b 5bbd

net.2.bias f4 [128]
0.010374847 0.030103114 0.050938405 0.11643309 -0.01532122 0.06730225 -0.003473845 -0.087113954
0.01588926 0.0085348785 -0.04887513 -0.015616564 -0.05443055 -0.05621057 -0.051114183 -0.07101719
-0.0055929637 0.103419125 -0.08334504 0.045123424 0.061564907 -0.026107611 0.04579681 -0.06849832
0.05479251 -0.07788198 0.1492738 -0.08353611 0.00023397064 0.043453176 0.0036180154 -0.027545728
-0.02915932 -0.0032959231 0.023344604 -0.03873286 0.0049908687 0.07002779 -0.10001471 0.08931517
-0.076056115 0.005671532 -0.04525246 -0.003920248 0.020274132 -0.009347424 -0.02124817 -0.068395995
-0.0043021482 0.008369455 -0.070157096 0.05157068 0.027978888 0.10166748 -0.051797405 0.09078337
0.107633114 -0.037173666 -0.09650271 -0.019517139 -0.07224346 0.09963285 0.03716324 0.05141679
-0.07232054 -0.017213257 0.09381133 0.062156525 0.10993938 0.03648082 -0.052045684 -0.0150375115
0.06688306 0.11889186 -0.06496386 0.12645176 0.019020267 -0.045793973 -0.012663716 -0.027640212
0.030091407 -0.031329665 0.09295828 -0.03551244 0.06791271 0.080216266 0.103448234 0.024994262
-0.024469389 0.10129391 0.026465038 -0.0446153 -0.08861536 -0.107548825 -0.041482527 -0.092263125
-0.026795387 -0.0323777 -0.032666918 -0.11483035 -0.06568904 0.04444332 0.048950918 -0.026270393
0.049842067 0.012232776 0.10159905 -0.05305649 0.010511722 -0.079144575 0.0517388 -0.0003298796
-0.073935874 -0.03443024 0.07297914 0.07170346 0.0399401 0.059181135 -0.045172296 -0.039401993
0.01931894 0.011961104 0.09337321 -0.011095066 0.01712988 -0.03194 0.11092553 -0.073819585
00000000: 43fb 293c ce9a f63c caa4 503d 7974 ee3d
00000010: db05 7bbc c3d5 893d 73a9 63bb cd68 b2bd
00000020: 322a 823c e0d5 0b3c 4a31 48bd 9edc 7fbc
00000030: 92f2 5ebd 0e3d 66bd 1b5d 51bd 7671 91bd
00000040: 2e45 b7bb 68cd d33d ceb0 aabd 57d3 383d
00000050: 7c2b 7c3d a1df d5bc 7095 3b3d d948 8cbd
00000060: 1c6e 603d 9680 9fbd 3bdb 183e fb14 abbd
00000070: 0456 7539 f5fb 313d 3a1c 6d3b 94a7 e1bc
00000080: 87df eebc 6a00 58bb 2f3d bf3c 59a6 1ebd
00000090: 718a a33b bb6a 8f3d 83d4 ccbd dfea b63d
000000a0: 4fc3 9bbd 42d8 b93b a55a 39bd 6c75 80bb
000000b0: f015 a63c f025 19bc a410 aebc 3313 8cbd
000000c0: 09f9 8cbb 0a20 093c 86ae 8fbd c73b 533d
000000d0: fb33 e53c 0a37 d03d 8429 54bd a2ec b93d
000000e0: c06e dc3d 6a43 18bd 36a3 c5bd 68e2 9fbc
000000f0: 61f4 93bd 4f0c cc3d 7b38 183d 699a 523d
00000100: cb1c 94bd d102 8dbc 2820 c03d d797 7e3d
00000110: e627 e13d ea6c 153d db2d 55bd e55f 76bc
00000120: fcf9 883d 937d f33d c60b 85bd 927c 013e
00000130: 64d0 9b3c 7692 3bbd 7a7b 4fbc ba6d e2bc
00000140: 4182 f63c 8953 00bd e960 be3d 7e75 11bd
00000150: d215 8b3d 6d48 a43d abdc d33d c4c0 cc3c
00000160: 0774 c8bc 2e73 cf3d 35cd d83c 88be 36bd
00000170: f87b b5bd 8f42 dcbd 95e9 29bd 73f4 bcbd
00000180: 0082 dbbc 7b9e 04bd bfcd 05bd 2d2c ebbd
00000190: fa87 86bd 330a 363d c280 483d 0235 d7bc
000001a0: 3227 4c3d fb6b 483c 2a13 d03d c351 59bd
000001b0: 5c39 2c3c 8d16 a2bd 10ec 533d b1f3 acb9
000001c0: b16b 97bd b906 0dbd 1676 953d 43d9 923d
000001d0: 3b98 233d eb67 723d 9606 39bd fc63 21bd
000001e0: c142 9e3c 82f8 433c 743a bf3d 14c8 35bc
000001f0: f653 8c3c 84d3 02bd ed2c e33d b92e 97bd

net.4.weight f4 [128, 128]
-0.3364688 0.02342741 0.013316743 -0.021336367 -1.9841678 0.09666146 0.12266227 -7.699787e-05
-0.6802523 0.2567487 -0.04861822 0.31624454 0.23381157 -0.5104676 -1.0932217 0.06384441
-0.26765957 0.08854996 0.05629522 -0.06791966 -0.047583103 0.06232952 0.0502028 -0.09742143
-0.049788043 0.021076417 0.112575635 -1.1916347 -0.1467427 -0.18359357 -0.44757047 0.06510027
-0.04337735 0.08029191 -0.05397922 0.0017739397 -1.1515054 -0.16535486 0.010748832 -0.7767565
0.072661236 -0.021022582 -0.75654066 0.023529833 0.010858412 0.026644774 0.038875237 -0.040237322
-0.46532166 -0.07454454 0.10440384 0.028165074 0.051030777 0.033510014 -0.86956644 0.21081714
0.07746128 -0.015473555 0.08258916 0.10255569 -0.999501 -0.06979411 -0.52760327 0.1143564
-0.53243333 0.0072646835 0.1530463 -0.025499731 0.18382803 0.035464104 -1.6982036 -0.9191199
-0.66439945 0.09535834 -0.042779803 -0.061041072 -0.31110555 0.059253894 -0.42179462 -0.867566
-1.1740513 -0.05941061 0.11214622 0.14231068 0.14518227 -0.14299564 0.034559645 0.082679495
0.19994304 0.16830623 0.053830624 -0.18689397 0.04925835 -0.0107846195 -0.44120002 -0.09694414
-0.37968475 0.055677313 -0.04941995 0.024960237 -0.052977692 0.08670929 -0.022166371 -0.02138961
0.3112052 0.060791645 -0.06475821 -0.3299323 0.111752145 0.07542772 -0.46966353 0.076494925
0.020769218 -0.016971154 -0.11803266 -1.1492528 0.01928342 -0.6956056 -0.18235593 0.14679512
-0.28867787 0.038615186 -0.38957444 0.009192666 -0.4613187 -0.00746525 0.120406836 -0.7599021
-0.2057168 -0.051813316 0.2171907 -0.03175733 -0.05087749 -0.0067298794 -0.0995179 -0.028166397
0.08921595 -0.0035139043 0.25946814 0.11582496 -0.05386265 0.019295767 -0.102628715 -0.093322664
0.13950029 0.24582021 0.016769525 0.07166914 0.0018955516 -0.04540151 0.01783496 0.027739182
0.007899834 0.084670626 0.12983468 -0.025670063 0.07503042 0.058968447 -0.00579426 -0.024056911
-0.09132042 -0.13526163 0.22041279 0.067028075 -0.05283412 -0.09567013 0.033791687 0.03202325
0.15896988 0.08704744 0.116240926 0.012744613 0.08967226 -0.013631929 0.052506275 -0.00069816667
0.06741852 -0.066669844 -0.10970787 -0.04145081 -0.19957878 0.23051244 -0.041863043 0.07978602
0.028663142 0.04284806 0.036654506 0.044731535 -0.21215601 0.0043107895 0.15338777 -0.07269541
-0.0066895117 0.023147725 -0.053058274 0.06739325 0.027383653 0.008563346 -0.087170936 0.03230198
-0.052010823 -0.00987614 0.019272245 0.23240279 0.008482988 -0.056487408 0.0360193 0.19271924
0.006865474 0.028030451 0.19916375 0.007595922 0.009640343 0.032254077 0.100667685 -0.14568314
-0.07160394 -0.025845954 -0.016471136 -0.0143750105 -0.016947608 -0.0001856387 0.11981313 -0.02470201
0.081342444 -0.08311342 0.020271769 -0.073690794 -0.07713918 0.016174432 -0.03743341 0.0076001934
0.09037053 0.17399561 0.10946071 0.0008708639 -0.0927188 -0.07628813 -0.07717379 0.020480074
-0.04898136 -0.0877928 0.10100323 -0.012706645 0.0051877545 -0.17069215 0.034603488 0.07333341
0.16150701 0.08229562 0.09442031 0.09632119 0.057145037 -0.040878195 0.30683738 0.03001212
00000000: a345 acbe d7ea bf3c 782e 5a3c 9bc9 aebc
00000010: 36f9 fdbf 72f6 c53d 5b36 fb3d eb79 a1b8
00000020: 0425 2ebf 9174 833e e623 47bd ceea a13e
00000030: 4d6c 6f3e 01ae 02bf b0ee 8bbf dcc0 823d
00000040: ad0a 89be ae59 b53d d195 663d 7619 8bbd
00000050: 80e6 42bd 3d4d 7f3d 74a1 4d3d e384 c7bd
00000060: 8cee 4bbd 73a8 ac3c 0e8e e63d 7c87 98bf
00000070: b843 16be f4ff 3bbe f527 e5be 4a53 853d
00000080: 73ac 31bd 1670 a43d 5119 5dbd 8a83 e83a
00000090: 8764 93bf c952 29be de1b 303c 84d9 46bf
000000a0: 6acf 943d 8d37 acbc a6ac 41bf a3c1 c03c
000000b0: 7be7 313c 2446 da3c a43b 1f3d e4cf 24bd
000000c0: a43e eebe cfaa 98bd aed1 d53d 71ba e63c
000000d0: a605 513d cc41 093d e89b 5ebf 73e0 573e
000000e0: 05a4 9e3d cb84 7dbc 8124 a93d b808 d23d
000000f0: 4cdf 7fbf 37f0 8ebd 0211 07bf b033 ea3d
00000100: 8d4d 08bf 950c ee3b 2bb8 1c3e d0e4 d0bc
00000110: 6a3d 3c3e cf42 113d bc5e d9bf 714b 6bbf
00000120: 1516 2abf 3c4b c33d e039 2fbd 3406 7abd
00000130: 3a49 9fbe 36b4 723d 77f5 d7be ce18 5ebf
00000140: 5047 96bf 8a58 73bd ebac e53d e4b9 113e
00000150: a9aa 143e 736d 12be 6a8e 0d3d de53 a93d
00000160: debd 4c3e 7858 2c3e 807d 5c3d 2261 3fbe
00000170: 20c3 493d f9b1 30bc f8e4 e1be a68a c6bd
00000180: 0a66 c2be e50d 643d 936c 4abd 6979 cc3c
00000190: 23ff 58bd a494 b13d 4096 b5bc 4339 afbc
000001a0: 4a56 9f3e a900 793d f49f 84bd e3ec a8be
000001b0: 4fde e43d d979 9a3d bd77 f0be 5fa9 9c3d
000001c0: 3524 aa3c 1707 8bbc 1bbb f1bd b71a 93bf
000001d0: 43f8 9d3c 3513 32bf 83bb 3abe 7651 163e
000001e0: 96cd 93be f52a 1e3d 4d76 c7be d69c 163c
000001f0: f731 ecbe 0e9f f4bb dc97 f63d f288 42bf
00000200: 6da7 52be 333a 54bd 3d67 5e3e f913 02bd
00000210: ea64 50bd 5286 dcbb 0ad0 cbbd 37bd e6bc
00000220: dab6 b63d 8849 66bb 02d9 843e a335 ed3d
00000230: 159f 5cbd 2812 9e3c 012f d2bd f41f bfbd
00000240: 2ad9 0e3e 4bb8 7b3e 3e60 893c 45c7 923d
00000250: 2874 f83a eff6 39bd 9f1a 923c 483d e33c
00000260: 4e6e 013c cb67 ad3d 62f3 043e 064a d2bc
00000270: 8da9 993d e688 713d c7dd bdbb 0013 c5bc
00000280: 3306 bbbd 0682 0abe e4b3 613e 0446 893d
00000290: 9768 58bd b3ee c3bd 2769 0a3d d02a 033d
000002a0: 00c9 223e ee45 b23d b90f ee3d c8ce 503c
000002b0: 17a6 b73d 7458 5fbc d210 573d 2c05 37ba
000002c0: b912 8a3d 338a 88bd 85ae e0bd 53c8 29bd
000002d0: 615e 4cbe 740b 6c3e 9578 2bbd da66 a33d
000002e0: f7ce ea3c 7381 2f3d 0923 163d 6a38 373d
000002f0: 6d3f 59be 8641 8d3b af11 1d3e 55e1 94bd
00000300: b133 dbbb 4ca0 bd3c a253 59bd 7905 8a3d
00000310: af53 e03c 474d 0c3c ad86 b2bd 154f 043d
00000320: 4d09 55bd 89cf 21bc d4e0 9d3c fffa 6d3e
00000330: 3bfc 0a3c 575f 67bd f988 133d 3158 453e
00000340: c5f7 e03b 1ea0 e53c 95f1 4b3e 36e7 f83b
00000350: 87f2 1d3c da1c 043d dc2a ce3d f62d 15be
00000360: 16a5 92bd e5ba d3bc 7aee 86bc 2a85 6bbc
00000370: b6d5 8abc 02a8 42b9 9660 f53d df5b cabc
00000380: de96 a63d 5e37 aabd fb10 a63c 33eb 96bd
00000390: 25fb 9dbd 3e80 843c c653 19bd 0b0b f93b
000003a0: 2f14 b93d e82b 323e f02c e03d b04a 643a
000003b0: 5be3 bdbd f33c 9cbd 4b0d 9ebd d4c5 a73c
000003c0: aea0 48bd b6cc b3bd c8da ce3d 882f 50bc
000003d0: 0afe a93b ecc9 2ebe 63bc 0d3d d42f 963d
000003e0: 1862 253e 9b8a a83d 6f5f c13d 0b44 c53d
000003f0: ea10 6a3d e56f 27bd ca19 9d3e fadb f53c

net.4.bias f4 [128]
-0.032831423 0.10118002 0.054662686 -0.008565197 0.15832083 -0.045687404 0.106197335 0.090559945
-0.09613942 0.0015066343 0.057606786 -0.008122681 0.06499426 0.086971514 -0.03742422 0.09031887
0.07935225 -0.067885116 0.166608 0.21198374 0.056237333 0.06473154 0.14645346 0.112839736
-0.011493742 0.018997587 0.09175678 0.053877026 -0.03351934 0.07784411 -0.00016322188 0.19542283
0.15492454 0.14983374 -0.02818038 0.049902756 -0.11753413 0.056412615 -0.04057449 0.058849987
0.071534365 0.0743974 -0.06878543 -0.0025423293 0.045080934 0.028092565 -0.037155237 -0.030560803
0.13855001 0.16983113 0.052928522 -0.010262545 0.09294376 -0.10131414 0.10877651 0.10665578
0.19991748 -0.039265465 0.053572696 -0.073608704 0.15192598 0.09219534 0.05626193 -0.06102437
0.07412361 -0.1211718 -0.032292318 0.12325907 0.0054983245 -0.051155105 -0.022122052 0.16266315
0.029918551 0.003781663 0.029996078 0.12722175 0.09084786 0.09091501 -0.06699342 0.04598597
-0.044680707 0.12203279 -0.03886324 -0.00021312133 0.043320514 0.09527189 0.12753545 0.08315551
0.14790791 -0.07597153 0.20979364 -0.096980095 -0.079906315 -0.007039413 0.11852842 0.091998234
0.051224526 -0.12892313 -0.004866233 0.033351574 0.01364446 0.06805247 0.112963155 0.1147719
0.07613894 0.17769146 -0.045456477 0.17005533 0.11532391 0.020991934 0.04978976 -0.024727356
0.090014234 0.09252584 -0.0012452864 0.11221489 -0.07630756 0.18984035 0.019128742 0.013990646
-0.0016394021 -0.110951796 0.075039074 0.09838291 -0.061971102 -0.029680183 0.17701083 0.1854612
00000000: 3e7a 06bd 7837 cf3d fbe5 5f3d 0a55 0cbc
00000010: db1e 223e b722 3bbd fd7d d93d 7e77 b93d
00000020: bfe4 c4bd 427a c53a 18f5 6b3d fe14 05bc
00000030: b61b 853d 1f1e b23d 244a 19bd 1af9 b83d
00000040: 6f83 a23d 5a07 8bbd 4a9b 2a3e 4412 593e
00000050: 1e59 663d f891 843d e5f7 153e 8518 e73d
00000060: 3f50 3cbc d4a0 9b3c fbea bb3d 28ae 5c3d
00000070: 934b 09bd bc6c 9f3d 8a26 2bb9 ec1c 483e
00000080: 8aa4 1e3e 046e 193e 8ada e6bc d566 4c3d
00000090: bcb5 f0bd ea10 673d 7031 26bd af0c 713d
000000a0: 9c80 923d aa5d 983d 60df 8cbd 359d 26bb
000000b0: c9a6 383d 6122 e63c 1730 18bd a65a fabc
000000c0: 0ee0 0d3e 36e8 2d3e 94cb 583d 3c24 28bc
000000d0: 4c59 be3d ca7d cfbd 38c6 de3d 586e da3d
000000e0: 2bb7 4c3e d3d4 20bd 0b6f 5b3d 29c0 96bd
000000f0: 7c92 1b3e e9d0 bc3d e972 663d b1f4 79bd
00000100: 1fce 973d ec28 f8bd f344 04bd 406f fc3d
00000110: 4a2b b43b 0488 51bd 4e39 b5bc 2b91 263e
00000120: c017 f53c c7d5 773b 56ba f53c 6b46 023e
00000130: 710e ba3d a631 ba3d d933 89bd c95b 3c3d
00000140: 1e03 37bd 54ec f93d 102f 1fbd 5279 5fb9
00000150: da70 313d e91d c33d a798 023e 704d aa3d
00000160: 2c75 173e f696 9bbd 25d4 563e 809d c6bd
00000170: eca5 a3bd e0aa e6bb 07bf f23d 9269 bc3d
00000180: cfd0 513d 6d04 04be ec74 9fbb a99b 083d
00000190: 038d 5f3c 185f 8b3d 3a59 e73d 880d eb3d
000001a0: bcee 9b3d c0f4 353e 9230 3abd fc22 2e3e
000001b0: f12e ec3d 47f7 ab3c 59f0 4b3d 0691 cabc
000001c0: 6259 b83d 307e bd3d e138 a3ba ecd0 e53d
000001d0: 2347 9cbd 8265 423e e1b3 9c3c 0639 653c
000001e0: 35e1 d6ba b23a e3bd 16ae 993d fb7c c93d
000001f0: 69d5 7dbd db23 f3bc 5442 353e 8ae9 3d3e

net.6.weight f4 [24, 128]
0.16949897 0.10737148 -0.935786 -0.21932659 0.07656336 -0.08815836 0.033658788 0.0368256
0.079087794 -0.3941379 0.08196673 -0.2046817 0.047886975 -0.5623502 0.0017671526 -0.27160752
-0.33532083 -0.120922305 0.17056613 0.12899898 0.02937391 0.05898874 0.13138074 0.07860755
-0.54441524 -0.62657964 -0.008390899 -0.8089344 -0.0050598565 -0.5404501 0.027732544 -0.04318608
0.2176454 0.16058207 -0.00022505954 0.12008983 -0.0036871047 0.13055624 -0.017925458 0.4431373
0.14805794 -0.22938894 -0.0038211842 0.057773083 -0.5945991 -0.20427638 -0.057191145 -0.0044269315
0.11848487 0.06394657 -0.13749835 0.1868424 -0.25304338 -0.013817903 0.109449446 0.26554847
0.21503066 0.0047398675 -0.06684382 -0.06818667 0.14986221 0.5507546 0.01834729 0.08622847
0.11849306 -0.0005536367 0.02253681 0.029788937 -0.01482081 -0.36651114 0.38750434 0.076610744
-0.047883462 -0.5907835 -0.012723289 0.12519069 0.015591797 -0.017240485 0.0067585036 -0.19582698
-0.09432322 0.4838094 0.3318776 -0.26057744 -0.22878797 -0.7986984 0.03434386 0.119872525
0.10159934 0.052977093 0.14269827 -0.017111659 0.058930114 0.23765905 -0.027794922 0.050785016
0.37643003 0.0701979 0.20450884 0.081168085 -0.46779934 0.09642466 -0.007115294 0.032899864
-0.052705497 0.031519607 0.17316025 0.12088977 -0.5809753 -0.4550482 -0.023384005 -0.00726535
-0.021203501 0.16351198 -0.20021324 0.018705897 0.012236548 0.09830975 -0.05155266 0.22876188
0.043521967 -0.007587105 0.08618719 0.051265012 -0.06079413 -0.06925128 0.0022472371 0.22717774
-0.24608658 -0.0057851 -0.14171347 -0.07049774 0.09304008 -0.024289407 -0.53144944 -0.16250727
-0.08777481 0.54851335 -0.14483514 -0.09175909 0.056934323 0.4885222 0.06349422 -0.15014343
0.51241016 0.21227385 0.1181184 0.16459084 0.044876073 -0.27454153 0.04331515 0.08849891
0.65701497 0.65421534 -0.3939356 -0.28739297 0.05149058 -0.067632355 -0.067611285 -0.06680267
0.12022361 0.054125912 0.09016658 -0.076938085 0.045647155 -0.13692237 -0.05099786 -0.1811284
-0.10515426 0.20340544 -0.039753478 -0.27901447 0.66515636 0.14377409 0.0022394399 -0.020329427
0.014561657 0.18946017 0.4885029 -0.16862166 0.122880496 -0.06843291 -0.028107312 0.020739015
0.29383412 0.0630074 0.045869708 0.47732675 0.09599551 -0.24557436 0.12503551 0.027029937
-0.53645504 0.027233802 -0.019253584 -0.038148772 -0.1357393 0.38270682 -0.42914796 0.08712005
-0.040976085 -0.18159606 0.22107597 0.09657824 0.09282733 0.24555759 -0.052764855 -0.18815136
0.045629464 -0.27619803 -0.026354533 0.0011315593 -0.30499044 0.8732829 0.05795949 0.14322752
0.012100667 0.028928842 0.014520629 -0.055715553 0.06765037 0.015793277 0.12381629 0.10636506
-0.15391393 0.055820346 -0.20369133 0.044478822 0.47864515 0.14056821 0.05577046 0.07261678
0.19614303 0.07838396 -0.06682524 0.14358321 0.21202266 0.38992062 0.38713613 -0.16333294
-0.22083192 0.20190337 0.07971123 0.067382 -0.04814427 -0.1368624 0.0017021694 0.16637456
0.09796862 0.023581551 0.15256615 -0.0072402423 -0.030479101 -0.0006228797 0.21958695 0.0036214811
00000000: 2391 2d3e 94e5 db3d ac8f 6fbf 2697 60be
00000010: 40cd 9c3d 5f8c b4bd ccdd 093d 71d6 163d
00000020: c8f8 a13d 71cc c9be 2cde a73d 1498 51be
00000030: 2225 443d 2ff6 0fbf cd9f e73a 2410 8bbe
00000040: 2caf abbe 1da6 f7bd e3a8 2e3e 4f18 043e
00000050: 8ea1 f03c 2d9e 713d ac88 063e fffc a03d
00000060: cc5e 0bbf 8667 20bf fb79 09bc 5316 4fbf
00000070: 27cd a5bb f05a 0abf 5c2f e33c e3e3 30bd
00000080: 70de 5e3e a06f 243e f6fd 6bb9 a8f1 f53d
00000090: 5aa3 71bb 89b0 053e 69d8 92bc e4e2 e23e
000000a0: 809c 173e efe4 6abe d56c 7abb 78a3 6c3d
000000b0: a637 18bf d42d 51be 4341 6abd cb0f 91bb
000000c0: 32a8 f23d 6bf6 823d 5ecc 0cbe 9d53 3f3e
000000d0: e78e 81be 7c64 62bc 0827 e03d f8f5 873e
000000e0: ff30 5c3e e450 9b3b 6ae5 88bd 74a5 8bbd
000000f0: 7b75 193e 41fe 0c3f 0e4d 963c 8d98 b03d
00000100: 7dac f23d ee21 11ba 1e9f b83c ee07 f43c
00000110: fcd2 72bc 59a7 bbbe f866 c63e 18e6 9c3d
00000120: 7321 44bd 963d 17bf 5875 50bc fd31 003e
00000130: bd74 7f3c eb3b 8dbc 7076 dd3b de86 48be
00000140: 882c c1bd deb5 f73e dceb a93e 686a 85be
00000150: 6547 6abe 8077 4cbf 26ac 0c3d ba7f f53d
00000160: 5113 d03d 82fe 583d 7f1f 123e c02d 8cbc
00000170: b460 713d e55c 733e 2db2 e3bc f303 503d
00000180: 70bb c03e ebc3 8f3d c46a 513e 743b a63d
00000190: 6583 efbe 4b7a c53d 6a27 e9bb 02c2 063d
000001a0: b8e1 57bd b41a 013d ec50 313e 0e95 f73d
000001b0: ccba 14bf 14fc e8be d08f bfbc 2c12 eebb
000001c0: f7b2 adbc af6f 273e b304 4dbe 1c3d 993c
000001d0: cd7b 483c 9f56 c93d e228 53bd 8e40 6a3e
000001e0: 1744 323d 409d f8bb e982 b03d 43fb 513d
000001f0: 4403 79bd 9dd3 8dbd 6246 133b 48a1 683e
00000200: 1ffe 7bbe f090 bdbb 561d 11be 1e61 90bd
00000210: cc8b be3d 94fa c6bc 120d 08bf 4e68 26be
00000220: 48c3 b3bd 5f6b 0c3f aa4f 14be 31ec bbbd
00000230: f733 693d 951f fa3e 4209 823d 33bf 19be
00000240: 502d 033f 515e 593e 0fe8 f13d 808a 283e
00000250: f9cf 373d b590 8cbe 3a6b 313d eb3e b53d
00000260: 2232 283f a87a 273f edb1 c9be 2c25 93be
00000270: c9e7 523d d582 8abd c977 8abd d7cf 88bd
00000280: cc37 f63d 22b3 5d3d 42a9 b83d b791 9dbd
00000290: 83f8 3a3d 6135 0cbe 22e3 50bd b979 39be
000002a0: 1e5b d7bd 8449 503e 8bd4 22bd fcda 8ebe
000002b0: b047 2a3f 8439 133e 91c3 123b e689 a6bc
000002c0: 0494 6e3c d901 423e 0d1d fa3e 28ab 2cbe
000002d0: c5a8 fb3d 8e26 8cbd 4e41 e6bc dee4 a93c
000002e0: 6d71 963e 060a 813d e0e1 3b3d 2c64 f43e
000002f0: 4b99 c43d d877 7bbe 4f09 003e e36d dd3c
00000300: 1e55 09bf 6c19 df3c b1b9 9dbc e341 1cbd
00000310: 3eff 0abe 26f2 c33e 48b9 dbbe ff6b b23d
00000320: 8ad6 27bd 51f4 39be bd61 623e d0ca c53d
00000330: 411c be3d 7373 7b3e f61f 58bd c0aa 40be
00000340: f6e5 3a3d d469 8dbe 76e5 d7bc d450 943a
00000350: b527 9cbe 788f 5f3f ee66 6d3d 3caa 123e
00000360: e041 463c 2efc ec3c efe7 6d3c fe35 64bd
00000370: 478c 8a3d e760 813c 6593 fd3d edd5 d93d
00000380: 9d9b 1dbe e0a3 643d 7694 50be 6d2f 363d
00000390: fa10 f53e 1df1 0f3e 916f 643d 1bb8 943d
000003a0: b8d9 483e c587 a03d acdb 88bd 7a07 133e
000003b0: 781c 593e ada3 c73e b536 c63e c040 27be
000003c0: c321 62be c2bf 4e3e a43f a33d 93ff 893d
000003d0: ed32 45bd a825 0cbe 541b df3a 185e 2a3e
000003e0: c6a3 c83d 192e c13c 4d3a 1c3e 8e3f edbb
000003f0: 4faf f9bc c048 23ba 67db 603e 5f56 6d3b

net.6.bias f4 [24]
0.048185926 0.11494679 -0.027634026 -0.066928916 -0.118754596 -0.3084981 -0.1526554 -0.26634294
-0.058565438 -0.0017906609 0.03220305 -0.19134498 0.12095685 -0.059654996 -0.07512055 0.004551473
0.02521483 3.0266287 0.16498405 0.12323676 0.021648929 0.033427298 0.11200604 -1.5755066
00000000: 9b5e 453d 3969 eb3d c160 e2bc 0712 89bd
00000010: 9c35 f3bd 77f3 9dbe b251 1cbe 1a5e 88be
00000020: 50e2 6fbd 9cb4 eaba 58e7 033d f0ef 43be
00000030: 3ab8 f73d cc58 74bd ced8 99bd 8624 953b
00000040: 558f ce3c 49b4 4140 94f1 283e 8e63 fc3d
00000050: 1859 b13c 10eb 083d 6c63 e53d 33aa c9bf
