space_robot_planning/weights/mlp_debug/v2.pth (torch, 148999 bytes, 8 tensors)

net.0.weight f4 [128, 8]
00000000: e851 ab3e adf8 803e 2614 42bd 1506 b3be
00000010: ded8 4dbd 6b2a 983e 7219 3d3e f28b b83d
00000020: 294c 263d 3f7e 233e eab5 333d eeed 70be
00000030: 5c4a 02bd 75d3 4abe aaf2 c73d 989d 46be
00000040: 6abc 943e 7d62 f43d 7dd5 9ebd 88ab 8cbd
00000050: 77e9 86be 0117 c4be 17e2 2e3e 5f55 a53e
00000060: f7a0 893d 000c 15be f411 91bd 22da d43d
00000070: e8c5 c2bd e2d6 7dbe 878d bf3d 2e8a b83e
00000080: a0b3 16be 456a c93d 5ccd 313e 4146 6a3e
00000090: 5a21 5f3e 40a9 423f e186 083d eb9e 9dbe
000000a0: f18f 0dbe 272d af3c 3218 b13d 8ba9 1a3d
000000b0: d337 1b3f 9fc7 9fbc 4d14 21bd 8a04 9b3e
000000c0: b037 82bd 5cb7 d7bd 5a77 213e 0659 8c3e
000000d0: 8deb 3d3e 609e 393f 677d 89bd de85 a8be
000000e0: 6a91 193d 795c 60be cb77 71be ebe5 9f3c
000000f0: a8d0 b63e 22c6 2fbc 4fc6 a0bd 7712 20be
00000100: 6908 84bc 2870 06be 4cb0 a6be befa c5bd
00000110: 5f4c c2bd 58cc a83e ee06 273e 98bf efbe
00000120: 9907 d7bd c6b9 813e 17a1 973d 549e b3be
00000130: 3bcc 2cbd ade2 573e fd0c 563e ee50 eb3e
00000140: fea3 2dbe 4fbf 3fbe b984 573e e016 76be
00000150: ed92 00be 1568 7cbe 52b7 283e bef5 b63c
00000160: 2f7c 723e 502c 963d 0af4 863e 49ab 163e
00000170: 90fb 92be 8aa1 90be df99 463e 159f bd3e
00000180: d5ec 2dbd c886 95be b45b 3dbd b262 113e
00000190: 8d6d 103f 9c4a dd3e 3084 bebd 20dd f93d
000001a0: 122c 993e 0ba6 913e c00b 9ebe fd90 b83e
000001b0: e4fb d5be c4e2 c6be a007 643e c40b 96be
000001c0: a3c3 8dbc cd49 79bd 5343 4b3d fe9d 093e
000001d0: 8387 a7bd 462b a13d 1383 7a3e 2a03 f0be
000001e0: 27fe 9bbe 11e1 d1bd 4c92 7e3e ef4a 023d
000001f0: 4782 96bd 3373 96be 757e e03e 5ba9 db3e
00000200: 024e cdbc d549 773e 8a32 19be 5224 ee3c
00000210: adba 003f f571 04bf 51e0 85be 33a4 1d3f
00000220: 8a01 aabd c4bf 4dbe 15df a23d bac3 803e
00000230: 23b9 10bf 384d 2e3e 4e8a 163e e58b 8fbd
00000240: 3ce9 b03e 753e b13e 8229 e1bd 5788 363e
00000250: b32f 573e 441a e23d 2571 8dbe 8e0b e43e
00000260: 93a1 67be 203d 1bbd edc3 a5be 4888 b2be
00000270: dcf4 f43d bb03 23be d205 1a3d c85c 7f3e
00000280: 9021 83bd 77b0 68be 2dc2 813d c49f 5a3e
00000290: 6d15 90be 798d 083e e900 ddbd 1818 2fbf
000002a0: c63a 91be 328c 0dbe 6ab5 ba3d c7d2 f23d
000002b0: 490d e83e e934 2abe 78ef 303e 2a4a 193f
000002c0: 4833 8b3e 9312 b73d 6ae7 58be 2318 9fbd
000002d0: b2d8 593e 00f7 d2be 6120 7ebe 142a 063f
000002e0: 1cf0 bdbc 5415 10be 700c 03be 23b5 093e
000002f0: 5519 d33e 71da d6bd 9eaf db3d e9d0 1d3f
00000300: bfbe 823d 261f adbe 5732 e73d 1484 17be
00000310: cc80 48be 43df 35bc 2205 b23e e1b6 b93d
00000320: f120 b23d 2a54 233e f495 673d 7949 b9bd
00000330: c7c5 f53d d572 e1be 06cd b83e f38f a73d
00000340: 38de 9d3e 5e51 233d 5a13 25be 05f6 c23e
00000350: 8eee bfbe 839a cd3d ae8b 92be 56f9 debe
00000360: 28ec ad3e 6a96 b33e cb5f a9be b9de 293e
00000370: 74d9 b6be 9e1a c03e d0c6 0d3e ed2c 28bf
00000380: 04b4 a63d b67c 16be 125a 86be 24bd 783e
00000390: 096f eebe 35da dabe db22 6e3d fa19 103e
000003a0: 0f75 31be 46b9 93be 073f 81bc 8122 9e3c
000003b0: a72f f93e b361 623f d8b7 04be 723c 37be
000003c0: 08c5 a83e cc92 8bbe f317 d7bd 130f a23e
000003d0: a8c2 a73d cace 073f 4371 9ebe 7d3e 58bd
000003e0: 294d ab3e 0a0f 52be 5669 87bd 7173 c33c
000003f0: ebdf 653e 3c07 c1be 41b4 5dbe 9927 2c3f
0.33460927 0.25189725 -0.047382496 -0.34965578 -0.05025565 0.29719862 0.18466738 0.090110675
0.040599976 0.15966128 0.04387466 -0.23528263 -0.031809196 -0.19807227 0.09763081 -0.19396055
0.2905 0.11932848 -0.077555634 -0.068686545 -0.26349995 -0.382988 0.17078434 0.32291695
0.06720155 -0.14555359 -0.070835024 0.10393168 -0.09510404 -0.24789003 0.09353166 0.36042923
-0.14716959 0.098347224 0.17363495 0.22878362 0.21790066 0.76039505 0.033331756 -0.30785307
-0.1382444 0.021383835 0.08647193 0.037759345 0.60632056 -0.019504366 -0.039326 0.302769
-0.06358278 -0.1053302 0.15768185 0.2741167 0.18546887 0.72507286 -0.06713372 -0.32914633
0.037492193 -0.21910276 -0.23580854 0.019518813 0.35706067 -0.010728391 -0.07850324 -0.15632044
-0.016117292 -0.13128722 -0.3255638 -0.09666966 -0.09487223 0.32968402 0.16311237 -0.46825862
-0.10499496 0.25337046 0.07403772 -0.35081732 -0.042186957 0.21082564 0.20903392 0.45960182
-0.1695709 -0.18725322 0.21046723 -0.24032164 -0.12556048 -0.24649079 0.16476181 0.022333976
0.23680185 0.07332671 0.26358062 0.14713778 -0.28707552 -0.28248245 0.19394635 0.37035432
-0.04246219 -0.29204392 -0.046230033 0.14197806 0.5641716 0.43220985 -0.093025565 0.12200379
0.29916435 0.28446993 -0.3086834 0.36048117 -0.4179374 -0.38844883 0.22268534 -0.2930585
-0.0173052 -0.060861398 0.049624752 0.13439175 -0.08180144 0.07869582 0.24464063 -0.46877414
-0.3046734 -0.10248006 0.24860495 0.031809743 -0.07349067 -0.29384765 0.4384648 0.42902645
-0.025061611 0.24149258 -0.14960685 0.029070053 0.50284845 -0.51736385 -0.26147702 0.61578673
-0.08301075 -0.20092684 0.07952706 0.25149328 -0.56532496 0.17021644 0.14701197 -0.07009105
0.34552944 0.34617963 -0.10994245 0.17825447 0.2101429 0.11040166 -0.27625385 0.44540066
-0.2262023 -0.03790009 -0.32376042 -0.348696 0.11960766 -0.15919392 0.037603207 0.24937737
-0.06402886 -0.22723566 0.06335864 0.21350008 -0.28141347 0.13335218 -0.10791189 -0.6839614
-0.28365153 -0.13823012 0.09116633 0.11856609 0.45322636 -0.16621746 0.1727885 0.5987879
0.27187562 0.089390896 -0.21182027 -0.077682756 0.21274069 -0.4120407 -0.24817039 0.52407956
-0.023185782 -0.14070636 -0.12797713 0.13448004 0.41230264 -0.10490883 0.10726856 0.61646897
0.06384038 -0.33812827 0.112888984 -0.14796478 -0.19580382 -0.011100593 0.3476954 0.090680845
0.08697689 0.15950075 0.05653949 -0.09047217 0.12000614 -0.44032922 0.3609392 0.08181753
0.30833602 0.03987252 -0.16120663 0.38078323 -0.3748669 0.100392364 -0.28622192 -0.43549603
0.33969235 0.35075694 -0.33080897 0.16588868 -0.3571278 0.37520307 0.13845372 -0.6569355
0.08139804 -0.14696011 -0.26240593 0.24290901 -0.46569088 -0.42744604 0.05813871 0.1407241
-0.1732981 -0.2885229 -0.015777124 0.019303562 0.48669168 0.8843033 -0.12960756 -0.17894152
0.32962823 -0.27260435 -0.10502615 0.31652126 0.081914246 0.5304991 -0.30945787 -0.05279397
0.33457306 -0.2051355 -0.06611888 0.023858758 0.22448699 -0.37700832 -0.21650793 0.6724792

net.0.bias f4 [128]
00000000: 33c9 1dbe 0075 d3bd dc21 07bd 9148 1d3e
00000010: 886e 47bd fcef 0abe 408a 36bd 26ff 0cbc
00000020: a343 173f 1cdc 723d eb85 d3bd b037 5fbd
00000030: 204f 4abe 16d7 10be 8072 be3e 3e22 b0bd
00000040: 1ec6 273d f0c3 10be 0a16 7fbe 2657 8abe
00000050: a475 bc3e a339 00be 21b1 633d 3141 31be
00000060: 9c65 c43d 6fc8 76be 005c 513e 8219 cf3e
00000070: 5dc5 19be 4061 e23d f7c3 f63b f3b9 89bd
00000080: bcfe 5b3e bd99 c43c 809c 363e df2e 863e
00000090: 6d5b ac3e 0108 8dbe 3a4e 2f3e b044 ea3a
000000a0: a33f 3f3e 671c 0d3e ab90 063f b005 873e
000000b0: 0b3c 57be abf0 c7ba 378a 713c 214e cb3e
000000c0: 15c9 9abe 4e5e 76bd 6a23 94be e102 a4be
000000d0: 3908 b9bd 08d1 473e 7a54 9c3e 58ca 943e
000000e0: a1ac b93e 9375 4e3e 2a61 023e fc99 153e
000000f0: 5921 c73e 49e7 923e acd6 83be 87e5 64be
00000100: c2b8 85be 1130 e43e 5fda 9abd f45b e03e
00000110: bfb2 c53e 453e 30bc fe0d 853e d93b 323d
00000120: 675e 77be 5db7 883b e380 8bbe 5105 c7bc
00000130: 5d90 c73d f399 b13e a73c c33e 7679 aa3a
00000140: f81a 6fbe 6913 6cbe 4f34 a63d 3bb1 e7bd
00000150: edbc 253e d44b e23d 88cf 15be ee6f 98be
00000160: 6c9e 333e 4f6a a4be eb88 323e 961e bf3e
00000170: 571a af3d e426 74be 7726 8ebd fd3e 2ebe
00000180: 5625 3bbe d8ba 5ebe 21d5 b0be ca05 47be
00000190: 92c5 30be 558a 7abe 02d0 d83e b7e2 443e
000001a0: 919a 1b3e 0f7d 913e ffe3 b93d 3485 fe3d
000001b0: 599b f53c acf8 173e 0600 20be 871a 003e
000001c0: 104e 633e 21bf a1be 6012 72be 0efb 7c3e
000001d0: 8d1e 223e 73fa f73e 68af 00bd b60b 403c
000001e0: 7066 6dbe 3926 993e 051b 1abe 1ab8 8cbe
000001f0: 875d b43c b095 3fbd 4820 6c3e 2e52 e7bd
-0.15408783 -0.1032505 -0.032991275 0.15359713 -0.048689395 -0.1356811 -0.04456544 -0.008605754
0.5908758 0.059291944 -0.10328277 -0.054496467 -0.19756746 -0.14144549 0.37196732 -0.08600281
0.040960424 -0.14137244 -0.24910751 -0.27019614 0.36808503 -0.12521987 0.055588845 -0.17310025
0.09589693 -0.24099897 0.20445251 0.40449148 -0.15016694 0.11053705 0.007530685 -0.0672492
0.21483892 0.02399909 0.17833138 0.26207635 0.33663502 -0.2754517 0.17119685 0.0017873254
0.18676619 0.13780366 0.52564496 0.26371527 -0.21018998 -0.001525422 0.014742426 0.39708045
-0.30231538 -0.06014853 -0.2893327 -0.32033446 -0.090347715 0.19513333 0.305332 0.29060626
0.36264518 0.20162039 0.12732378 0.14609522 0.3889263 0.28692082 -0.2574972 -0.22353183
-0.26117522 0.44567922 -0.07561182 0.43820155 0.38612935 -0.010757034 0.25987238 0.043514106
-0.24157105 0.004172249 -0.2724677 -0.024294527 0.09744332 0.34687766 0.38132212 0.0013006169
-0.23350132 -0.2305428 0.08115446 -0.11313101 0.1618535 0.11049619 -0.14629948 -0.29772896
0.17540902 -0.32112357 0.17435043 0.37328023 0.08549946 -0.2384296 -0.0694093 -0.17016216
-0.18275961 -0.21750963 -0.34537604 -0.19435802 -0.17262867 -0.24466832 0.42346197 0.1922711
0.15195681 0.28415725 0.0907669 0.1242775 0.029981302 0.14840955 -0.15625009 0.1251012
0.22197747 -0.31591132 -0.23639822 0.24705145 0.15831967 0.48433265 -0.03141728 0.011721542
-0.23183608 0.29911974 -0.1504937 -0.27484208 0.022017254 -0.046773612 0.2305919 -0.112949714

net.2.weight f4 [128, 128]
00000000: d334 a6bd 98b0 aebd 69cb 343d f972 963c
00000010: cd32 84bd f3f5 34bc 1452 793c 94b1 c6bd
00000020: f1c6 1dbd 7a2c f63b d990 ac3c e648 95bd
00000030: 3e56 51bc 9d23 4abd dff3 083d 97a7 39bd
00000040: 8105 91bd f019 cabd 738a 033d dea6 17bd
00000050: 59b5 8d3c 992f a73c eae9 b1bd a735 bcbb
00000060: 02c0 623d 7946 dc3c 4dd8 70bd 2d6d 883c
00000070: e0ba d2bd 4303 66bc 29b1 c139 de63 1cbd
00000080: 75fe 633d 1352 36bb 96d1 c7bc 242b 5b3d
00000090: a4d9 58bb 3cd4 243d 1e83 43bd 15ff a23b
000000a0: 78d0 323d 0b7f bd3c 442c af3c 9cb1 8dbd
000000b0: 2799 a1bc c53a d4bd 5529 5f3c 960f f1bc
000000c0: fbe5 c1bd 9dbb c1bd 87fa 56bd 38b2 1cbc
000000d0: e7ec 4e3d b538 a4bd 0faa 75bd ecd7 abbd
000000e0: cb85 553c 8503 bbbd 541f debc bb9d 9cbd
000000f0: 48f8 08bd fe0d 573c a2a6 0f3d e1a2 02bc
00000100: b5b5 92bd d0eb 6b3d bcff 27bd dc21 29bd
00000110: 59d0 d3bd 3588 e7bc e4eb c8bc e3d6 ac3b
00000120: 97ec 213d ecc0 ae39 5911 a43d ed9b 073d
00000130: 14fc 94bd 9251 993c 1a54 77bc ff4b a23d
00000140: a2ae 3f3d b28d 84bd 4e87 5cbc 9339 4f3d
00000150: f154 2abd b146 2f3d 7b2c afbd 629e f4bd
00000160: d656 bebd a9be 553d e34f 94bd 9715 c9bc
00000170: 02ff bfbc e937 b13d a882 583c c672 c0bd
00000180: fec2 a4bd 0c79 c9bd b0fe 64bd 9f95 d6bd
00000190: d0b0 79bd 7b9d 893d b309 a4bd 7375 b3bd
000001a0: 141e d1bd 9356 073c 6932 1fbd 5681 b5bd
000001b0: b3d1 1cbd cbc7 88bd 56b6 913d f56f 1f3d
000001c0: 5c6e 7fbd c7bd e3bc 803e 5d3c 1478 64bd
000001d0: ef85 b0bd 0c65 2dbd 915e 1abd 18dd 283d
000001e0: c920 8ebd c184 1bbd 1471 8a3c f860 38bb
000001f0: b405 4dbd afec 44bd 232e 563d 4e34 a23d
00000200: 078e 593b 3614 b23d 9311 193d f382 88bc
00000210: 9e7a 88bd d36a fcbd 06e8 b6bd c12f 2d3e
00000220: f2d8 d43d 4ef9 a3be a892 ec3c 6fad d5bd
00000230: 2d17 02bf d084 003c fca3 1f3e 0e63 73bd
00000240: 7662 babd b57f 44be 2ef0 cf3d 0ca9 b0bd
00000250: 3c00 263e 598e 703d 48e5 ba3b ef62 d43b
00000260: e382 47be fd5c 033e e131 c13d 851a a33c
00000270: 0e0f 45bd 47ab 9bbe f527 343e 86a3 8bbd
00000280: 095f 723e c6d8 973b a1b3 bc3d 5fdd 293e
00000290: fd43 f33d 397b 013d c573 193e 58bb 343e
000002a0: 1398 803d d449 493e 0ca7 db3d cb44 b73c
000002b0: cae3 943d 4e54 98be 6d95 43be 3e43 7c3d
000002c0: 7d69 25bc 8af2 36be a23a 1a3c 1f08 aebb
000002d0: 3846 163e 3a67 ed3d 5963 1b3e efb9 213d
000002e0: b523 283e d815 373e 6c46 3abd 573f 19bd
000002f0: 1e20 403e 93ac 2f3e 88c9 23bc d353 353d
00000300: 4d90 62bc a7e7 d33d 944f 7b3c 3937 a63d
00000310: c6f5 bb3d 8626 003d 54e6 593d 3151 d63d
00000320: bb1f c7be 8cb5 a6bd 8cd7 7a3b c0e8 ac3c
00000330: 1f59 0f3d d6d3 703d 49c2 0abd 0e78 7d3e
00000340: 9e6e a4be 4a83 b2bd 52a9 b03d 1e08 f9bd
00000350: a73b 2abe 7da3 a4be ff31 f23d e6f9 96be
00000360: 0ac4 ab3d 05f0 fc3c 2267 d43c 1538 d03d
00000370: 4b9e b5be 06b3 733d 172a 2ebf a8cc 56bd
00000380: 944d 133e 3b0a 87be 1007 063d 8946 8bbe
00000390: 4713 3bbe f1de 18be 2cc5 073e 4683 67bf
000003a0: b7e3 123e 664b 653e dbd3 913d 77fe 083d
000003b0: 1cd1 c1be be7c 713e c691 2e3e 7d84 b6bd
000003c0: f47f 4abc 8d9a 863e 1a0b 82bd 6300 c93d
000003d0: 4d54 953b 16da 093e ba89 e8bc 1841 89bf
000003e0: c7d4 b23c 66d3 853d 048f 7cbd 0987 393d
000003f0: 5d0f 17be f2dd 3e3e fa61 183e 580d ecbc
-0.08115544 -0.08529776 0.0441393 0.01836537 -0.06455002 -0.011044967 0.015217323 -0.09701839
-0.038519803 0.0075126262 0.021065162 -0.07289295 -0.012776909 -0.04935037 0.0334357 -0.04532584
-0.07081128 -0.098682284 0.032114457 -0.03702437 0.017298387 0.020408439 -0.08687194 -0.0057437005
0.055358894 0.026889073 -0.05880003 0.016653622 -0.1028955 -0.014038864 0.00036943823 -0.03818118
0.05566259 -0.0027819916 -0.02439193 0.05350794 -0.0033088708 0.040241465 -0.047732465 0.004974256
0.043655843 0.023131868 0.021383412 -0.06918642 -0.019726349 -0.10362772 0.013620694 -0.029426377
-0.094676934 -0.094596125 -0.052485015 -0.009563975 0.050518896 -0.080186285 -0.059976634 -0.08390793
0.013032387 -0.09131531 -0.027114548 -0.07647272 -0.033439904 0.013125895 0.035071023 -0.007973404
-0.07163564 0.057597935 -0.04101537 -0.041292056 -0.103424735 -0.02826319 -0.024526544 0.00527464
0.03953227 0.00033331604 0.08011121 0.033107687 -0.072746426 0.018715654 -0.015095735 0.07924651
0.046797402 -0.06472339 -0.0134599935 0.050592016 -0.041584913 0.042792026 -0.08553406 -0.119442716
-0.092939064 0.05218378 -0.072418 -0.024546428 -0.023437027 0.08653242 0.013214745 -0.09396891
-0.08045004 -0.09837541 -0.05590695 -0.10477757 -0.060959637 0.0671949 -0.080096625 -0.08762636
-0.10210815 0.008260387 -0.038866434 -0.088625595 -0.038285922 -0.066787325 0.07114856 0.03892513
-0.062361106 -0.027800454 0.013503671 -0.055778578 -0.08619296 -0.042332694 -0.03768784 0.041226476
-0.06939847 -0.0379684 0.016899623 -0.002813397 -0.050054267 -0.04807728 0.052290093 0.079201326
0.0033196227 0.08695261 0.037370276 -0.016664004 -0.06664012 -0.123250626 -0.08930974 0.16912748
0.103929415 -0.32026142 0.028878525 -0.104334705 -0.50816613 0.007844165 0.15589899 -0.059420638
-0.09100811 -0.19189341 0.101532325 -0.08625993 0.16211027 0.058729503 0.005703602 0.0064815204
-0.19483523 0.12828441 0.09433342 0.019910106 -0.04811006 -0.30404112 0.17593367 -0.06818299
0.23669066 0.0046339957 0.09213949 0.16588353 0.11878202 0.031611655 0.14985569 0.17649591
0.06279006 0.1965707 0.10725221 0.02237167 0.0727001 -0.2975182 -0.1909997 0.061587565
-0.010095951 -0.17865959 0.009413393 -0.0053110267 0.14675224 0.115919545 0.15174617 0.03948396
0.16419871 0.17879426 -0.045477316 -0.03741392 0.18762252 0.17155676 -0.009996779 0.044269394
-0.013828349 0.103469186 0.015338797 0.08116002 0.09177737 0.03128674 0.053198174 0.10464705
-0.38891396 -0.08140096 0.0038275449 0.021107078 0.034997102 0.058795772 -0.03387669 0.24752828
-0.32115644 -0.08716448 0.08626045 -0.12159751 -0.16624318 -0.32155982 0.11825942 -0.29487532
0.08387001 0.030876169 0.025928084 0.10166947 -0.3547233 0.059496902 -0.68032974 -0.05244127
0.14385062 -0.26374993 0.03272158 -0.27202252 -0.18269072 -0.14928795 0.13258809 -0.9043468
0.14344679 0.22392043 0.07120486 0.0334458 -0.3785485 0.23582742 0.17047796 -0.08911989
-0.012359608 0.26289788 -0.06349774 0.09814527 0.0045571686 0.134621 -0.028385986 -1.072299
0.021829976 0.06534462 -0.061659828 0.045294795 -0.14751954 0.18639353 0.14881125 -0.028814957

net.2.bias f4 [128]
00000000: a25f 513b 7dc6 86bb ab8d 29bd 5a5c 6ebd
00000010: 5fd6 16bd b755 bb3b 8ea8 95bd 0cc1 b63c
00000020: 871f 68bd 23bf 403e d950 9e3d 7b2e b4bd
00000030: 1743 843c fda2 983d 06d9 89bc c385 e53d
00000040: 84d0 a1bb 7561 d6bd d770 11bd b405 8f3d
00000050: c0a8 a5bb 0835 163e e17d 5e3d e776 ab3d
00000060: 88e6 093d 38ad 92bc 6f00 9e3d 72c9 95bd
00000070: 4981 92bd f243 103e 34c7 aabb 16ad 583c
00000080: 3252 ae3d 148d a23d d280 b839 fdac 053c
00000090: 0713 96bd 8a7c 233d de92 1f3e 7ebb b5bc
000000a0: 9f61 a23d 3af5 a43c a669 cfbd be9b d53c
000000b0: eff4 1e3e ed30 ffbc d6b1 cb3c 2402 b0bb
000000c0: 0a02 dc3c 6ffb 2f3b 81de c83c d159 983d
000000d0: 6089 8abd 7658 09be 24ff 843d 04e0 eb3c
000000e0: bb21 d33c 9a5c 8b3d e546 95bd 5de0 ac3d
000000f0: 33c8 a7bd 49b1 50bd ea8d 913d aa5d 413e
00000100: 2ec1 a8bc 82da dfbd d0d8 7fbd e77f bb3c
00000110: 6553 f4bc 2fab 1b3d 93da cfbc 5702 043e
00000120: 57fa d5bc 8d6d 023e 0d3f 093e a4d0 f4bc
00000130: 437e 92bd 2172 d4bd d259 90bd 8cca 943d
00000140: 1d3a 9d3d a25f b63c 60be 163a 6980 d93d
00000150: 8e83 22bc 94bf 0b3d e35a 6d3d d95c a83d
00000160: 42b1 513d 9305 5bbd 7ad8 b03c 37a5 793d
00000170: cae9 d6ba 6785 e2bc 4736 c93d 5779 a5bc
00000180: a970 243c 4f62 543d 1c86 333c 36bc 313e
00000190: bfcf 253e f6b7 1fbd 9ab0 f5bc f6c4 da3d
000001a0: 1e83 b2bc bb47 aebb 5153 99bb b54d 11bd
000001b0: f191 b53d b45b 82b8 20a9 3c3d d801 13bd
000001c0: be4d 5abd e9c2 1ebd 4ad8 93bc ed1e 52bd
000001d0: a6a8 7f3d 44ef 163e aa20 6cbd 7d0f d8bb
000001e0: a565 c83b 4256 52bc ddf1 d43d 8d1a 8ebb
000001f0: 5231 e63c cfeb 6e3d 6e89 913d 248d 993d
0.003194787 -0.004113017 -0.04139487 -0.058193542 -0.036825534 0.005717005 -0.0730754 0.022308849
-0.05667069 0.18822913 0.07730264 -0.08797928 0.016145272 0.074529625 -0.016827118 0.11207154
-0.004938187 -0.10467807 -0.035508003 0.0698351 -0.005055517 0.14668667 0.054319266 0.08372288
0.033667117 -0.017904863 0.077149265 -0.07313813 -0.071535654 0.14088419 -0.005211735 0.013224861
0.08511771 0.07937065 0.00035191193 0.008158919 -0.07327848 0.03991369 0.15583369 -0.02218413
0.07928776 0.020136464 -0.10127573 0.02607524 0.15523122 -0.03115126 0.024865072 -0.005371349
0.026856441 0.0026852747 0.02452016 0.07439006 -0.067644835 -0.13412651 0.06493977 0.028793342
0.02577292 0.06804772 -0.07288913 0.084412314 -0.08192482 -0.050950322 0.07107146 0.18883386
-0.020599928 -0.10930349 -0.062462628 0.022888137 -0.029824922 0.03800505 -0.025372779 0.12891518
-0.026120348 0.12737103 0.13402958 -0.029884644 -0.07152989 -0.10373331 -0.07048382 0.07265195
0.076771 0.022262398 0.0005750414 0.106201954 -0.00991906 0.03411825 0.057948004 0.08220834
0.051194437 -0.053472113 0.0215876 0.060948577 -0.0016396579 -0.027651502 0.09824806 -0.02019946
0.010036626 0.051851567 0.010957267 0.17356953 0.1619253 -0.0389938 -0.029991437 0.106820986
-0.021791037 -0.0053186095 -0.0046791215 -0.035474498 0.08865727 -6.215964e-05 0.046059728 -0.03589043
-0.053296797 -0.0387601 -0.01804747 -0.051299024 0.062416695 0.1473971 -0.05764834 -0.006593643
0.0061156326 -0.012837948 0.10397694 -0.004336661 0.02809969 0.058330353 0.07106291 0.074976236

net.4.weight f4 [128, 128]
00000000: 6932 68bd 9b96 60be 8e7d 13bc 6029 33bc
00000010: e893 d63c ce11 39bd 1fbb b13d e00b d0bf
00000020: 0046 80bd 5eb2 cc3d 6ec9 f5bc ff5a a8bc
00000030: 41cc 193d e8c7 96bc d6df 5c3c 8b29 d93c
00000040: 1237 f3bd 382d 293d 1fe4 5d3d 4533 b3bd
00000050: 315e c1be 0b02 b6bf e3f9 3abf aabb 30bf
00000060: db78 583d cb5f 2abe f9b4 b73d 8834 523e
00000070: 18aa 2abc a6cb 0cc0 0bfe 803d fbbb cbbf
00000080: 0a3f 6dbe bf67 e23d 56fa 0dbd 0ef6 95be
00000090: 1610 ecbc a97b 503d 2eb6 1cbf 2754 bebd
000000a0: c5ca 06bf 3a02 2e3e 5945 81be 692f 99bd
000000b0: d55f 2dbf e4bf 743c 7d20 1d3d ad1a 3f3b
000000c0: 3e62 b8bd e116 4b3e 47e7 0bbd 02cc d0bc
000000d0: 9385 883d 96c3 2ebe 871b 843d f68e b33d
000000e0: f82f 493b f925 563e e1f2 3dbd 5eaa 5dbd
000000f0: 9dc1 463d 6ec6 9abd 3cde 54bf a476 923d
00000100: f054 183b 089f 9e3d 8c80 183d 98d5 583d
00000110: c541 8cbe 6c40 43bf 7526 4b3e 37a9 8cbe
00000120: efe4 86bc b640 c73b 9b81 dfbf 37df 0cbe
00000130: 30a8 7cbe bdc8 82bd 92f2 f13c c2fc 533e
00000140: 1de7 023e 45dc f6bd 2183 533d 1bea 703e
00000150: ef68 0cbc 4b2f a8ba d04e 8e3c e192 0bbe
00000160: 7f0f 17c0 42b7 3c3d 50ae 323d 8623 43be
00000170: fae1 1abe c176 8cbd a8ba 87bb 919d 6d3d
00000180: 4ec1 0bbe b1c4 c1bc 8887 29be 20a0 16c0
00000190: eae6 14c0 a61c ecbc 7db3 9bbf 12c1 d93d
000001a0: 6c44 61be 2869 ccbb 1c03 25be dfb5 483d
000001b0: d925 903d fed0 e83d 47e5 2bbd 4cda b6bc
000001c0: 7a34 49bc 2aab e73c 97b1 f0bb f018 213c
000001d0: 6f48 453d b97e cebd 037c a3bd 01e0 693e
000001e0: daf4 9b3d ea1a 11bd 402e 17bf 9820 2d3b
000001f0: 1746 853d 8f6e 0f3e f7da ff3d d1c0 d7bb
00000200: e912 c0bd 042d e93d d0d0 84bd 4989 36bc
00000210: 113f 913d 6a1d 443c 2de1 adbd 935d 36be
00000220: 5030 05bf ae24 ba3c da3f fb3d c402 dabc
00000230: 25e8 ab3b e5ee b7bd 9ac6 34bd 97ce 1e3d
00000240: 6fb5 a9bb 14cc ccba f68f 283e 9de0 a1bd
00000250: df2d 90bd a78f 98bd d804 4d3e 3af7 223d
00000260: 90fb 203e ff0d 92bf 1f10 cf3d d697 44bf
00000270: a126 7abd cc30 61be 1481 bf3c 4991 1abe
00000280: d2aa 843d b400 903d 7262 6fbf ed99 0b3d
00000290: a0ef 583d 0fa6 843c e14d 193e f609 31bd
000002a0: e37f 143e 3b9e 99be 117c eb3c a19f 9b3d
000002b0: 5fd2 af3d 2990 873d 55cd c9be 2245 803e
000002c0: f3a2 ac3e e6d9 073e 7fc6 9f3d ed03 2d3c
000002d0: 71af fbba 49a4 e2bf 05c3 97bd 0d6b 963c
000002e0: 20f0 8dbf b2a2 823e a1ef 1a3e 2eaf c63c
000002f0: 11b4 81be ff07 c23c 6e8c 553c 8b50 443b
00000300: b511 a7bd a9a1 9ebe 7c45 94bd 2179 89bd
00000310: b63d d33d 3475 763d b392 433c 3810 0ebe
00000320: 2b1c b23d 4f83 dc3c 5572 78be bd54 b1bf
00000330: 1ee7 17bd f89b 803e 4f5d 1b3d a1d2 e1bd
00000340: 92c8 7abd 5785 3e3e fb01 903d 79dc 91be
00000350: 23c3 27bd 6a10 a53d 3b66 8a3d ae1c e93c
00000360: 1ab1 70be aa0c 9b3c e98e 07be fc98 663d
00000370: f08f ec3d 029e 6dbd 0576 9b3e 00b8 893d
00000380: efcc 903d ef7c 773e 4815 8c3e adcb b7be
00000390: 56fd 71be 4c61 87bf 600c 01be 2af8 0cbe
000003a0: df32 a7bf e31d 7e3d 67c9 f9bc 6d1f 413d
000003b0: 7a4b 7bbd b814 093d a7a9 643d 3406 f6bc
000003c0: 2c00 47bf 136f 53bf 3c31 ce3c 81bd 67bd
000003d0: 1aa2 84bc 9e62 803e d72c e5bf 748f 193e
000003e0: 65f7 563d c7cf 243d dcc4 4fbe ef27 183c
000003f0: b450 5c3d a357 103e 9496 e43d a3c3 443d
-0.0566887 -0.21932451 -0.009002103 -0.010935158 0.026193574 -0.045182995 0.08678269 -1.6253624
-0.062633514 0.09994958 -0.030003276 -0.020551203 0.037548307 -0.01840587 0.013481101 0.026509067
-0.11875738 0.04130289 0.05417263 -0.08750013 -0.37767175 -1.4219373 -0.73037547 -0.6903635
0.05284963 -0.16638105 0.08970065 0.20527852 -0.01041653 -2.1999297 0.06298455 -1.5916742
-0.23168579 0.11054944 -0.034662567 -0.29289287 -0.028816264 0.05089918 -0.61215484 -0.092933945
-0.5265315 0.16993037 -0.2524822 -0.07479746 -0.67724353 0.014938328 0.03836106 0.0029160187
-0.09003113 0.19832946 -0.03415611 -0.025487904 0.06666102 -0.17066798 0.06450563 0.08767502
0.0030698758 0.20912923 -0.046374205 -0.054117553 0.048524488 -0.07557379 -0.831516 0.07151535
0.0023243986 0.077451766 0.037231967 0.052938074 -0.27393928 -0.76270175 0.19838889 -0.2747285
-0.016466586 0.006080712 -1.7461427 -0.13757025 -0.24673533 -0.06385944 0.029534612 0.20701888
0.12783475 -0.12053732 0.051638726 0.23526804 -0.00856994 -0.0012831477 0.017371565 -0.13630249
-2.3603208 0.046073206 0.04362327 -0.1905652 -0.15125266 -0.06858588 -0.004142124 0.058011595
-0.13647959 -0.02365336 -0.16555607 -2.3535233 -2.3265939 -0.028822254 -1.216415 0.10632528
-0.21998757 -0.0062381215 -0.16114467 0.04900157 0.07038469 0.11367987 -0.041966703 -0.022320889
-0.012280578 0.02827986 -0.007345389 0.009832606 0.04816478 -0.10082764 -0.07982638 0.22839357
0.07615061 -0.035426058 -0.59054947 0.0026417132 0.06507509 0.14007019 0.12492936 -0.006584265
-0.09378607 0.11385539 -0.0648514 -0.01114113 0.07092107 0.0119699035 -0.084902145 -0.17809133
-0.52026844 0.022722568 0.12268038 -0.026612647 0.0052461796 -0.089811124 -0.044134714 0.03877124
-0.0051790993 -0.0015624785 0.16461167 -0.0790417 -0.07039999 -0.074492745 0.20021379 0.039786555
0.15720963 -1.1410521 0.10110497 -0.76794183 -0.061071996 -0.21991271 0.023376979 -0.15094484
0.06477894 0.07031384 -0.9350959 0.034082342 0.0529629 0.016192464 0.14971115 -0.04322239
0.1450191 -0.30003533 0.028745683 0.07598806 0.08585047 0.06619293 -0.39414468 0.25052744
0.3371807 0.13266715 0.07801532 0.010560018 -0.0019202066 -1.7706386 -0.07410244 0.018361593
-1.1088905 0.25514752 0.15130474 0.024253454 -0.25332692 0.023685453 0.013033969 0.0029955234
-0.08157674 -0.30982712 -0.072398156 -0.06712557 0.10314505 0.060170367 0.011936831 -0.13873374
0.08696779 0.026918082 -0.24262364 -1.3853985 -0.037085645 0.25118995 0.037930783 -0.110265024
-0.061226435 0.18605553 0.07031628 -0.2848852 -0.04095758 0.08059771 0.0675778 0.028456058
-0.23505059 0.018926937 -0.1323811 0.05629824 0.115508914 -0.058012016 0.3036348 0.06724548
0.07070338 0.24168752 0.27359986 -0.3589758 -0.23631796 -1.0576568 -0.12602377 -0.13766542
-1.30624 0.06204022 -0.030491544 0.04714911 -0.061351277 0.033467025 0.055825856 -0.030032255
-0.7773464 -0.8259136 0.025169961 -0.05657721 -0.016190577 0.2507524 -1.7904309 0.1499613
0.052482028 0.040237214 -0.2028994 0.009286865 0.053787902 0.14095931 0.11161533 0.048038136

net.4.bias f4 [128]
00000000: c6e4 c53d 4cba 9cbb c008 923d 8095 51bd
00000010: 655b 213e 126c 6d3d 9f05 643d e20f 813d
00000020: 3651 c23d ac3a 8a3d 4747 ed3d 0988 29bd
00000030: 5ddb 11bd 82a0 483e 5ba6 3cbd 6016 c43d
00000040: 0e7e 2d3d d988 383d 0e25 523d 4bca 86bd
00000050: 4835 fabd 0ba7 d2bd 9ca0 ab3d 9f34 dc3d
00000060: bd2a 323d 4dc1 87bc ac84 aebd 4691 1c3e
00000070: 8a3e e3bd 04b3 b63d 68ad 913d f19c 8f3d
00000080: 2607 503d 5bee 9bbc 95e0 b03d d0d5 9d3c
00000090: 7d08 49bc c5c0 27bd 490d 83bd 6912 2fbd
000000a0: 222c ff3c 239b e03b c79b 93bb 6df8 d6bc
000000b0: fae8 15bd 95e8 ab3d e45b 24bc 33cc d63b
000000c0: f860 593d 8956 33bb 951f d93d a9e4 863c
000000d0: f730 ae3d b2a6 033e 4339 d3bb 7819 273d
000000e0: 6ffd 88bd 283d b53c 0a14 febd 5ba9 dc3d
000000f0: d607 ea3c e036 2c3e 419b 0bbd b93c 153d
00000100: 3f28 9a3e 1e7f 713e ebc3 c6bd aa2c c1bc
00000110: 5430 ef3d cb39 b73c fd9c 00bd c879 e5bc
00000120: 8f7f c9bd f888 7e3e 68ba 52bd da91 183e
00000130: bd69 e5bc 13f3 0d3e cd16 193e 4417 14bd
00000140: a2d3 303e b6c3 be3d 08b9 973d 5755 12bd
00000150: c854 a0bd d91a 393e 85a4 923e 43b0 883e
00000160: 0b1c d0bd 2852 77bd 45ec 173c b9b6 153e
00000170: 5217 8a3d 5014 a63d 864c 57bd de86 edbc
00000180: 93ac e8bd af49 a1bb 5efa 473d 4451 123e
00000190: a73d 903c a8c5 933e 321c 4c3d 0678 883c
000001a0: a08a 633e e1fe 723e 7b8a bb3d a475 283d
000001b0: 870e 1e3c 00d7 ccba 8a49 fa3d 578b 923e
000001c0: 72f1 af3d 526c f93c e5fe 913d b703 373b
000001d0: cce4 773d 3756 473e 04bb 5c3e bccd 55bc
000001e0: b00d 30bd a601 893d 73ca 1c3e 7756 91bd
000001f0: c32f 9e3d c0e5 84bd 0aa1 a7bd 3b72 c73d
0.09662776 -0.0047829505 0.07130575 -0.051167965 0.1575752 0.057964392 0.055669423 0.063018575
0.09488146 0.06749472 0.11585861 -0.0413895 -0.03560959 0.19592479 -0.046057086 0.0957458
0.042356543 0.045052383 0.05130487 -0.06581553 -0.12217194 -0.10285767 0.08380243 0.10752224
0.04349779 -0.016571665 -0.08521399 0.15289792 -0.11095913 0.08920863 0.07113153 0.07012356
0.050788067 -0.019034555 0.086365856 0.019266993 -0.01227009 -0.040955324 -0.06399018 -0.042742167
0.031148974 0.0068544312 -0.004504654 -0.026241506 -0.036599137 0.08393971 -0.010031674 0.006555104
0.053070992 -0.0027364811 0.10601727 0.016466456 0.08505433 0.12856558 -0.006446035 0.040795773
-0.066889636 0.022123888 -0.12406166 0.107744895 0.02856819 0.16817808 -0.03408361 0.036434863
0.3010883 0.23583648 -0.09705337 -0.023580868 0.1167914 0.022366425 -0.031399716 -0.028012171
-0.09838783 0.24856937 -0.051447302 0.14899388 -0.028004522 0.13862257 0.14950104 -0.036155
0.17268232 0.09314673 0.07408339 -0.035725918 -0.07828671 0.18076648 0.28641143 0.26696977
-0.10161599 -0.060381085 0.00927264 0.14620484 0.06742729 0.08109343 -0.052563213 -0.028994974
-0.11361041 -0.004922114 0.048822753 0.14288813 0.017607523 0.28861737 0.049831577 0.016658794
0.2222085 0.23730041 0.091572724 0.041127816 0.009647018 -0.001562804 0.12221058 0.28621933
0.08590974 0.030447159 0.071286954 0.0027925798 0.060520932 0.19466482 0.21555716 -0.013049539
-0.042981803 0.066897675 0.15311603 -0.0709657 0.077239536 -0.06489134 -0.08185013 0.097385846

net.6.weight f4 [18, 128]
00000000: 79a3 543f 0694 773f 3e25 b6be 54ee 3ebc
00000010: 74b1 463e 5f19 f2be d8bd d13d a40d 443c
00000020: 8ccd 36bf 003d 0abf 1abe 043f 5a2d 2c3f
00000030: 69cb a7bc 0436 9c3c f713 b93c 7656 703e
00000040: 5ce6 b23f 595b 543f 7dac a8bd 4f37 14bd
00000050: 5dd4 7fbd b48d dbbd dabf 123d 22d3 db3d
00000060: 041e 19b9 f406 79be 8b92 923d fc39 7c3d
00000070: 85c8 5a3d 4c7d 87be 68f4 24bd 9757 c7bd
00000080: aee1 22be dc47 283e 8c72 9a3e e70c 283d
00000090: 4afd 55be e713 bb3d 8f6f c13d 635f 87bd
000000a0: fb1a 96bf 3f18 263f 5abf ae3f 5f92 4c3e
000000b0: d1fb 69be 7049 f7bc c2f0 83be 9a2f 013d
000000c0: 3af6 7a3e 73c6 e33c 5669 423f 98d4 3abc
000000d0: 05f3 833f aad4 e03d d813 28bd ad5a 663e
000000e0: c54f 453d 9c2e 783e f3eb 503c 7a6b 143f
000000f0: 4fc9 f3bd d1a7 3cbe 368b 77bc 30fc 0a3d
00000100: e5de 05be aee4 98bd 6d43 163d e176 803d
00000110: f5f6 35be 4e10 363f 0203 41bd dac5 c23e
00000120: f063 bbbb 4d3a 34bd 3037 3cbf 79da 203d
00000130: 9538 923f 6a06 48bd 0db4 0abe ca1d c53d
00000140: a3cc 34bd 469c be3e 9ba4 02be 769a b7bd
00000150: 0dd7 26be e834 27bd 48bb debd a9fd 59be
00000160: 0d77 8a3d 6b89 593d 75d0 6b3f 12b3 96be
00000170: 0b42 0f3e 21c2 bd3e d74d 553d c67d 5d3d
00000180: 0a92 aa3c 8e16 a43e ed6b 31be 6d1b 633f
00000190: add1 393d 470c 23be 84e0 0fbe 5528 2dbe
000001a0: 6465 ebbd 37ac 09be 13f6 0b3d 7620 203e
000001b0: 4f09 a0bc 2abc 613f 2511 37be 9501 d5bd
000001c0: 053c ab3d 99ca 343f e31c 5c3e d4df df3d
000001d0: 2149 803e 5394 0fbe 5851 7dbd 9d23 433e
000001e0: bdb7 d8bc 59d7 2b3f 39cb 9ebd eaf7 23bd
000001f0: 0176 df3e d48f 613e c1a4 c2bc 9e0b 29be
00000200: 51c4 74be 530d 2bbf 941c 37bd a6f0 413c
00000210: a91b f1bd ca7e debe edc7 34be 7ce1 76be
00000220: 3297 03bd e038 293f 674b bbbe cf0b de3e
00000230: e89e 02bd e948 09be dadc 0abb fb71 8cbe
00000240: 1062 8abd b242 883e e8c8 e9bb 8b68 d0bd
00000250: ffdf a9bd 415f 8e3d 0616 8e3e 902f 0bbe
00000260: 52db d8bc b800 033f a21b 8fbc c9d8 0d3e
00000270: 5ca4 fbbc 693c 6c3e de02 8bbd a3e1 903b
00000280: f6e8 59bd 91f9 c03d b6dd adbc d237 14be
00000290: edbd febd 502b dabc 593e 01be 167b f7be
000002a0: 351b b73d c147 42be 6dc8 e7bd 8e8b 54be
000002b0: c5ed 1bbf 9bac 42be 7145 8abd bb5d aebe
000002c0: 88cd 133f 3c90 8f3e c773 80be 446f 493c
000002d0: e89b 20be 49e7 d43e b9c0 e93c 61e5 0f3c
000002e0: 63c0 463d 49d7 bdbe e87c aebd 8091 af3c
000002f0: 9ebc 483e 3c87 53bd a4a9 e4bc 67b6 8bbe
00000300: c112 fabd 472b d3bd 922b 1c3d 5adc 55bd
00000310: 53f7 11be acaa 11be e9d5 9cbd 2131 6cbe
00000320: 73e9 953d e84a 9ebe 33d9 693e 0114 29be
00000330: 583f 0e3e fc56 67be 185b 843d 9d6e c43e
00000340: 4528 54be aad8 a0be d09b 80be ab4e a2bc
00000350: ff0b 2f3f d85d 67bd d373 22be 881e debd
00000360: 1164 2a3d 3510 d13c 044c a0be e010 3ebd
00000370: c78b 53be 4a0f 073f 3576 113d 7b87 d0bd
00000380: e55b 83bc 8b02 b03e 411f 9c3e 4b4b 83be
00000390: 1d73 e13c 60a9 40be b128 69bb e1ce dd3e
000003a0: a53e 7bbd c87f 4dbe d835 40be 84f4 8fbc
000003b0: d740 8ebe c1a4 66be 40a1 fbbd bcbf 68be
000003c0: c288 36be 441e 013f 3598 a2be a48b aa3d
000003d0: 6ba2 733e b451 1dbe ec59 35be d0c1 683e
000003e0: d331 bdbd bf5c ce3d 3348 e8bc 87bb 3a3b
000003f0: 0ac1 bc3e 531f f63c a4bc 1abd 99fb 023e
0.8306194 0.9671024 -0.3557529 -0.011653502 0.1940363 -0.47284982 0.10241288 0.011966143
-0.7140739 -0.5399933 0.5185257 0.672567 -0.020482736 0.019068725 0.022592528 0.23470482
1.397655 0.82951885 -0.082360245 -0.03618556 -0.062458385 -0.10720387 0.035827495 0.1073363
-0.00014602399 -0.24319059 0.07156857 0.061578736 0.053413887 -0.2646278 -0.040272146 -0.09733503
-0.15906402 0.16433662 0.30165517 0.04102793 -0.20897403 0.091346554 0.09445106 -0.066099904
-1.1726984 0.64880747 1.3652146 0.19977711 -0.22849967 -0.030186385 -0.2576962 0.031539537
0.2450799 0.027804589 0.7594198 -0.011403225 1.0308539 0.109780625 -0.04103455 0.22495528
0.048171777 0.2423653 0.012751567 0.57976496 -0.11903631 -0.18423392 -0.015108874 0.03393191
-0.13073309 -0.07465492 0.036685396 0.06272674 -0.17769988 0.7111863 -0.04712201 0.38041574
-0.0057187006 -0.044000912 -0.7352171 0.03927085 1.1423517 -0.048834242 -0.13545246 0.096248224
-0.04414047 0.37228602 -0.12758105 -0.08965008 -0.16292973 -0.04082194 -0.10875565 -0.2128817
0.067609884 0.053109568 0.92114955 -0.29433495 0.13990037 0.3706217 0.052076187 0.054075025
0.02082159 0.32048458 -0.17326327 0.88713723 0.045365978 -0.15922652 -0.1405049 -0.16909917
-0.11493948 -0.13444601 0.03417022 0.15637383 -0.019535689 0.8817774 -0.17877634 -0.104006924
0.08361057 0.7062164 0.21495394 0.10931364 0.25055793 -0.14021425 -0.061845154 0.19056554
-0.0264548 0.6712547 -0.077536054 -0.04003135 0.43644717 0.22027522 -0.023760201 -0.16508338
-0.23903014 -0.66817206 -0.04470499 0.01183716 -0.11772854 -0.43456107 -0.1765439 -0.24109453
-0.032126613 0.6610241 -0.36580965 0.43368384 -0.031889826 -0.1340672 -0.0021188767 -0.2743071
-0.06756985 0.26613384 -0.0071345456 -0.1017619 -0.08294677 0.06951762 0.27751178 -0.13592362
-0.026471768 0.5117297 -0.017469231 0.13852228 -0.030718021 0.2306992 -0.06787656 0.0044214292
-0.053200684 0.09422601 -0.021223884 -0.14474419 -0.12438569 -0.026631981 -0.1262144 -0.48336095
0.08940736 -0.18972684 -0.11317525 -0.20756361 -0.6090968 -0.19011156 -0.06751526 -0.34055886
0.5773549 0.2803973 -0.2508833 0.012294594 -0.15684474 0.41582707 0.02853428 0.008782716
0.048523318 -0.37078312 -0.08519918 0.021431684 0.19603202 -0.05164264 -0.027912922 -0.272876
-0.12210608 -0.10310989 0.03812749 -0.052212097 -0.14254503 -0.14225262 -0.076579876 -0.23065616
0.073199175 -0.30916524 0.22836761 -0.16511537 0.13891351 -0.22591776 0.06462687 0.3836564
-0.20718487 -0.31415302 -0.25118876 -0.019812902 0.6837768 -0.05648598 -0.15864496 -0.10845667
0.041599337 0.025520423 -0.31307995 -0.046402812 -0.2065879 0.52757704 0.03551312 -0.10182091
-0.01603503 0.3437694 0.30492595 -0.2564338 0.02752071 -0.18814611 -0.0035577232 0.433219
-0.06133904 -0.20068276 -0.1877054 -0.017572649 -0.27783844 -0.22523786 -0.12286615 -0.22729391
-0.17825606 0.50436807 -0.3175675 0.083274156 0.23792426 -0.15363199 -0.17710084 0.22730184
-0.09238019 0.10076284 -0.02835474 0.0028493123 0.36866027 0.030044233 -0.037777558 0.1279129

net.6.bias f4 [18]
00000000: ece3 18bc 522d 9ebd eeec 193d b815 26bd
00000010: 19c5 2c3e 3753 0141 dca4 a83d 6445 e73d
00000020: 0b55 70bb 8270 60be f3fb 6f3d 7ee1 83c0
00000030: 809b ef3c b796 e93c ddcb 553d 5e9d 9f3d
00000040: 4068 923d c94a 093c
-0.009331685 -0.07723488 0.03757947 -0.040548056 0.16872062 8.082816 0.082345694 0.11292532
-0.0036671783 -0.21917918 0.058589887 -4.121276 0.029248953 0.02851425 0.052196372 0.07793687
0.0714879 0.008379647
