space_robot_planning/weights/cvae_debug.pth (torch, 887797 bytes, 16 tensors)

encoder.0.weight f4 [256, 32]
0	0xbd576320	-0.052584767
1	0xbe239d34	-0.15977937
2	0xbe20b040	-0.15692234
3	0x3e22e4c5	0.15907581
4	0x3d935108	0.0719319
5	0x3cfe4bd8	0.031042024
6	0x3e0f4203	0.13990025
7	0xbcb14ff8	-0.021644577
8	0x3ce1adb0	0.027548641
9	0x3aa36c00	0.00124681
10	0x3d6ab168	0.057298094
11	0xbd18e4d4	-0.037327603
12	0x3db092b6	0.08621733
13	0x3d48c09c	0.04901181
14	0x3de4a1b2	0.111636534
15	0xbb35f100	-0.0027762055
16	0x3d8b2c24	0.067955285
17	0xbd6e738e	-0.05821567
18	0x3d4a1240	0.04933381
19	0xbdcb9044	-0.09939626
20	0xbdb9a908	-0.09065443
21	0x3e340309	0.17579283
22	0x3e21ad59	0.15788783
23	0x3d82c0d2	0.06384434
24	0x3daa7552	0.08323158
25	0xbe23aa9d	-0.15983053
26	0x3dfd986e	0.12382589
27	0xbe23cf54	-0.15997058
28	0x3dd01b76	0.10161488
29	0x3d29b8d0	0.041436017
30	0x3e081ad5	0.13291486
31	0x3df35f06	0.11883359
32	0xbe29b7a9	-0.16573967
33	0x3e0a84d9	0.1352724
34	0x3dcfcd62	0.101465955
35	0x3cb2daf0	0.021832913
36	0xbd2aec18	-0.041729063
37	0xbdcda26b	-0.100407444
38	0x3d948730	0.072523475
39	0x3c923ad8	0.017850325
40	0x3de486da	0.111585334
41	0x3e02b97d	0.1276607
42	0xbdcf02b1	-0.10107935
43	0xbdef7713	-0.116926335
44	0xbcd6b7a8	-0.026210621
45	0x3e024bad	0.1272418
46	0xbd482f48	-0.048873216
47	0xbd44a83c	-0.048012003
48	0xbe2a3413	-0.16621427
49	0x3e140e6d	0.14458628
50	0xbe053d28	-0.1301161
51	0xbc767f70	-0.015045032
52	0x3c61db90	0.013785258
53	0x3e06b113	0.13153486
54	0xbc8288f0	-0.015934438
55	0x3dcfdad6	0.101491615
56	0xbdcd285b	-0.10017463
57	0x3d8945d4	0.06702772
58	0xbe037d7f	-0.12840842
59	0x3e112445	0.14173992
60	0xbe0f6284	-0.14002424
61	0x3c0de690	0.008660927
62	0x3d85eb94	0.065390736
63	0xbd6aca22	-0.057321675
64	0x3e27a6ab	0.16372173
65	0xbd2527c4	-0.040321127
66	0xbe1bd189	-0.1521665
67	0xbdfe9926	-0.124315545
68	0x3dbfc9a6	0.09364633
69	0x3da60012	0.08105482
70	0xbd70af52	-0.05876095
71	0xbd2f6568	-0.042821318
72	0x3b8ab1c0	0.004232615
73	0x3d8eca7e	0.06972216
74	0xbc0889b0	-0.0083336085
75	0x3d8d57ea	0.06901534
76	0xbb7b4140	-0.0038338453
77	0x3cbaf0b8	0.022819862
78	0xbdab6295	-0.083684124
79	0x3e25a173	0.16174869
80	0xbe16faea	-0.14744154
81	0x3e097b07	0.13425837
82	0x3e32b087	0.17450152
83	0x3e26e997	0.16300045
84	0x3db6689e	0.08906673
85	0xbd04df04	-0.032439247
86	0xbe061543	-0.13094048
87	0x3d1bb050	0.03800994
88	0x3d7f217c	0.062287793
89	0x3d5d6f30	0.054061115
90	0xbda9f4ad	-0.08298621
91	0xbda01b47	-0.07817703
92	0x3d43c84c	0.04779844
93	0xbc1ad850	-0.009450987
94	0xbd4121ec	-0.04715149
95	0x3c8c47c0	0.017124057
96	0xbccd4068	-0.025055125
97	0x3c4d9160	0.012546867
98	0x3e062605	0.13100441
99	0x3b5acf40	0.003338769
100	0x3e1fe3a1	0.15614177
101	0x3d9e2406	0.07721715
102	0x3e2f2f5d	0.17107911
103	0xbe0c14e3	-0.13679843
104	0xbb6544c0	-0.0034983605
105	0x3df9537e	0.12174128
106	0xbdbc1253	-0.091831826
107	0x3e2f47b9	0.17117204
108	0x3e2482ef	0.16065572
109	0x3dae344e	0.0850607
110	0x3dfff696	0.124982044
111	0xbe203e6e	-0.15648815
112	0xbd8e8f54	-0.069609314
113	0xbe2a6808	-0.16641247
114	0xbde62981	-0.11238385
115	0xbe1850c7	-0.14874564
116	0x3dad7e0e	0.08471309
117	0xbc949148	-0.018135682
118	0x3d8cd7dc	0.068771094
119	0xbda7f0f4	-0.08200255
120	0xbe198dbf	-0.14995478
121	0xbc5e8210	-0.013580814
122	0x3d9e99fa	0.077442124
123	0x3e151887	0.14560138
124	0x3a94c400	0.0011349916
125	0x3d348b98	0.04407844
126	0xbde8c35e	-0.11365388
127	0xbd8961c7	-0.06708103
128	0x3d09da2c	0.03365533
129	0x3c80cb10	0.015721828
130	0x3d8b6458	0.068062484
131	0xbe238d40	-0.15971851
132	0x3d608d58	0.054822296
133	0x3ddf01f6	0.10889046
134	0xbe009020	-0.1255498
135	0xbdb89be1	-0.090141065
136	0x3cda5d88	0.026655927
137	0x3dabcbb2	0.08388461
138	0x3d6bbf04	0.057555214
139	0x3e0b48cb	0.13601987
140	0x3e008473	0.12550525
141	0xbc340840	-0.010988295
142	0x3da4602a	0.08026154
143	0xbdad1895	-0.08451954
144	0x3e159c3b	0.14610378
145	0xbd0ecb9c	-0.034862146
146	0xbdbee517	-0.09321039
147	0xbd94c17a	-0.07263465
148	0xbe21ae6b	-0.15789191
149	0xbde4ee6a	-0.111782864
150	0xbb99c3a0	-0.00469251
151	0x3d9bcde6	0.076076314
152	0x3dccdabe	0.10002659
153	0xbb85c800	-0.0040826797
154	0xbba542e0	-0.0050433725
155	0x3e13bb47	0.1442691
156	0xbe153bb7	-0.1457356
157	0xbe104541	-0.14088918
158	0x3deff78a	0.11717136
159	0x3d85f01e	0.06539939
160	0xbd97a83d	-0.07405136
161	0xbe205bdb	-0.1566004
162	0x3e135e23	0.14391379
163	0x3e2f5c7d	0.17125125
164	0x3dd6bb06	0.10484891
165	0x3e24136f	0.16023038
166	0x3e18da5d	0.14927049
167	0x3df39206	0.11893086
168	0xbbd59280	-0.0065177083
169	0x3e1076e1	0.14107849
170	0xbdf60f48	-0.120146334
171	0x3d87f150	0.066378236
172	0xbd4b94d0	-0.049702466
173	0x3d478418	0.04870996
174	0x3e135f67	0.14391862
175	0xbd378388	-0.044803172
176	0xbd6424ec	-0.055699274
177	0xbddf3d2d	-0.1090034
178	0xbe2cbeb9	-0.1686963
179	0xbda2f646	-0.07957129
180	0x3d159c80	0.036526203
181	0xbd81401c	-0.06311056
182	0xbdfb75bb	-0.12278315
183	0xbc919a48	-0.017773762
184	0xbda942aa	-0.08264668
185	0x3e249b91	0.16074969
186	0x3c0115c0	0.007878721
187	0x3d98f832	0.074692145
188	0xbe023fa0	-0.12719584
189	0x3d7c1fc0	0.061553717
190	0xbe2b5e15	-0.16735108
191	0xbe32aef7	-0.17449556
192	0x3e1c6057	0.15271126
193	0x3db2e05a	0.08734198
194	0x3d2eb964	0.04265727
195	0xbdf1dd3e	-0.11809777
196	0x3dda2a6e	0.10652624
197	0x3e3099f3	0.17246227
198	0xbcb50440	-0.022096753
199	0x3d923646	0.07139258
200	0xbd85d873	-0.06535425
201	0x3de575ba	0.11204095
202	0xbdebb073	-0.115082644
203	0x3dc2ae26	0.095058724
204	0xbde91e55	-0.113827385
205	0x3d8ce5fe	0.06879805
206	0x3d1e2564	0.038609877
207	0xbdcfe42c	-0.10150942
208	0xbde98a7f	-0.11403369
209	0x3e1cc3ed	0.15309115
210	0xbe2c7ff5	-0.16845687
211	0x3e1593e9	0.14607204
212	0x3de1571a	0.110029414
213	0x3ced2398	0.028947636
214	0xbe1edb5d	-0.15513368
215	0x3e0404e1	0.12892486
216	0xbd65eca0	-0.056133866
217	0xbcae3da0	-0.02126962
218	0x3a392b00	0.00070635974
219	0xbcf32d40	-0.029684663
220	0x3d3b0a98	0.0456644
221	0xbd87a5ac	-0.06623396
222	0xbc9798b8	-0.01850544
223	0x3e00f781	0.12594415
224	0xbdbac21e	-0.09119056
225	0xbdbe4b34	-0.092916876
226	0x3dc87722	0.09788348
227	0x3dc0394e	0.0938593
228	0x3c7d6a90	0.015467301
229	0xbe220b33	-0.15824585
230	0xbd187674	-0.03722234
231	0xbdbe570f	-0.09293949
232	0xbdc9ef8a	-0.098601416
233	0x3e205a3b	0.1565942
234	0xbddee795	-0.108840145
235	0x3d81be76	0.06335156
236	0x3e276515	0.16347153
237	0xbdb0a983	-0.08626082
238	0xbdc46529	-0.09589607
239	0x3d14e1b8	0.036348075
240	0xbe261029	-0.16217102
241	0x3d7c1788	0.06154588
242	0xbdd7838b	-0.10523137
243	0xbdda52a8	-0.10660297
244	0x3db728d2	0.08943333
245	0xbdb5163b	-0.08842131
246	0xbdff8a2e	-0.124775276
247	0xbc94f0c0	-0.018181205
248	0x3d0228d0	0.031777203
249	0x3d629788	0.055320293
250	0x3daaed02	0.08345987
251	0x3dd4fcae	0.10399757
252	0xbdf93786	-0.121687934
253	0xbe33ccd8	-0.1755861
254	0x3ddedd66	0.10882072
255	0x3b1d07c0	0.0023960918

encoder.0.bias f4 [256]
0	0x3d0a07ac	0.033698723
1	0x3ce89700	0.028392315
2	0x3e2bbdb7	0.16771589
3	0xbd309140	-0.04310727
4	0x3db36de2	0.08761193
5	0xbc1cf490	-0.009579793
6	0xbe180f46	-0.14849576
7	0x3c41dfd0	0.011833146
8	0xbdb539dc	-0.088489264
9	0x3de8b106	0.113618895
10	0xbc8a5f70	-0.016891211
11	0xbd808fa5	-0.06277398
12	0x3cb033d8	0.021509096
13	0x3dc79c9a	0.09746666
14	0xbe2f893d	-0.17142196
15	0x3d5e56a4	0.054281846
16	0xbb81a100	-0.0039559603
17	0xbd8d8624	-0.06910351
18	0xbe2d7ea0	-0.16942835
19	0x3d8820c4	0.066468745
20	0xbd412448	-0.04715374
21	0x3dc59ff6	0.09649651
22	0xbd835652	-0.06412949
23	0x3d42e5f8	0.047582597
24	0x3e072433	0.13197403
25	0x3d8b96fe	0.06815909
26	0xbd511ab4	-0.051050857
27	0xbd8fe03e	-0.07025193
28	0x3af96080	0.0019025952
29	0xbe1f826a	-0.15577093
30	0xbdf6f8a0	-0.1205914
31	0xbd4c4248	-0.0498679
32	0x3d9804fe	0.07422827
33	0xbc663a70	-0.0140520185
34	0x3dcccd06	0.100000426
35	0xbc754660	-0.014970392
36	0xbbce6740	-0.0062989295
37	0xbe225d1b	-0.1585583
38	0xbe0f78ae	-0.1401088
39	0x3e0edeb3	0.1395214
40	0xbd139cd8	-0.03603825
41	0xbd8865c8	-0.06660038
42	0xbd1b9160	-0.037980437
43	0xbe0c08f0	-0.13675284
44	0x3e0a72b5	0.1352032
45	0xbe032d5e	-0.12810275
46	0x3c9187b8	0.017764911
47	0xbe006968	-0.1254021
48	0xbdee83e6	-0.116462514
49	0x3dca101e	0.09866355
50	0x3dca9c2a	0.09893067
51	0xbc9d9090	-0.019233972
52	0x3d8fcef6	0.070218965
53	0xbcfad8b0	-0.030620903
54	0x3d88e3fa	0.06684108
55	0xbd528d90	-0.051404536
56	0xbdf7330d	-0.12070284
57	0x3d331670	0.04372257
58	0x3d51772c	0.05113904
59	0x3d5ae4b4	0.053440765
60	0x3b820e00	0.003968954
61	0xbbd9c2c0	-0.0066455305
62	0xbdc937f7	-0.098251276
63	0xbd728d5e	-0.05921685
64	0xbdb3c496	-0.0877773
65	0xbd13eb28	-0.036112934
66	0x3d6e5920	0.058190465
67	0x3df6c1b6	0.12048666
68	0x3db409ca	0.087909296
69	0xbd0a3dc0	-0.033750296
70	0xbe094840	-0.13406467
71	0x3d32cf70	0.04365486
72	0xbdc54f3c	-0.096342534
73	0x3c27bd10	0.010237947
74	0xbc8b4f98	-0.017005727
75	0xbda4e759	-0.080519386
76	0x3d5f77dc	0.054557666
77	0x3d56ccf8	0.052441567
78	0xbc36f2c0	-0.011166275
79	0x3e2163e1	0.15760757
80	0x3d842be8	0.06453687
81	0x3d9781ee	0.07397829
82	0xbd21780c	-0.039421126
83	0xbd8295b6	-0.06376211
84	0xbda4961e	-0.08036445
85	0xbdc9c396	-0.09851758
86	0xbbc70d40	-0.0060745776
87	0xbc2d3c10	-0.010573402
88	0x3cef8d48	0.029242173
89	0x3e1568fd	0.14590831
90	0xbdc4d6bd	-0.096112706
91	0xbcf67788	-0.030086294
92	0xbda33f1d	-0.07971022
93	0x3de9c282	0.114140525
94	0x3e0be5f3	0.13661937
95	0x3dc932f6	0.09824173
96	0x3e21953b	0.15779583
97	0x3d9870a2	0.07443358
98	0xbd90df41	-0.07073832
99	0xbc653340	-0.01398927
100	0x3cb1bc10	0.02169612
101	0x3db7c722	0.089735284
102	0x3baf3180	0.005346477
103	0x3dc21f0e	0.094785795
104	0xbdb5770c	-0.08860597
105	0x3d803c70	0.062615275
106	0x3de3732a	0.1110595
107	0xbe2cb6c6	-0.16866598
108	0x3e17d5a9	0.14827599
109	0xbc441c60	-0.011969656
110	0xbe0914e1	-0.13386871
111	0x3c9e4478	0.019319758
112	0x3c8b2f58	0.016990349
113	0x3c204100	0.009781122
114	0xbdde5903	-0.108568214
115	0xbccb70c0	-0.024834037
116	0x3dfedd3e	0.12444542
117	0x3cf7e300	0.03025961
118	0xbd977aee	-0.07396494
119	0xbdaab60f	-0.08335506
120	0xbdea2e53	-0.11434617
121	0x3de40d9a	0.11135407
122	0xbdd87f07	-0.105711035
123	0xbddd8edb	-0.10818263
124	0x3c7bf8c0	0.015379131
125	0x3df89962	0.121386304
126	0xbc35fd90	-0.011107817
127	0xbdc0ca2f	-0.094135635
128	0xbd38e75c	-0.045142516
129	0xbd81f935	-0.063463606
130	0x3dfcb34e	0.12338887
131	0x3db441ce	0.08801614
132	0x3dc57ce6	0.09642963
133	0x3e013af3	0.12620144
134	0x3d716a58	0.058939308
135	0x3e088d1f	0.13335083
136	0x3e17349b	0.14766161
137	0x3cdd5518	0.027018115
138	0xbe33c560	-0.17555761
139	0x3dc176ce	0.09446488
140	0x3de90446	0.11377768
141	0x3cca7900	0.0247159
142	0x3e239b33	0.15977173
143	0x3d98acca	0.07454832
144	0xbcc4d0d0	-0.02402535
145	0x3cc9b4b0	0.024622291
146	0xbdfa3122	-0.122164026
147	0x3cdb07f0	0.026737183
148	0x3e10d06b	0.14142005
149	0xbd1d3c24	-0.038387433
150	0xbda10607	-0.07862478
151	0x3e2522e3	0.1612659
152	0xbe1c7e9a	-0.1528267
153	0xbaeba380	-0.0017977804
154	0xbdc38526	-0.095468804
155	0xbd3ff130	-0.046860874
156	0xbdba8327	-0.091070466
157	0xbdd7f853	-0.10545411
158	0x3d828038	0.06372112
159	0x3d5e8d58	0.054334015
160	0xbdc790a4	-0.09744385
161	0x3e1fc81b	0.15603678
162	0x3e008cd7	0.12553726
163	0x3d589a24	0.052881375
164	0x3e212ac7	0.15738975
165	0x3cadffc8	0.02124013
166	0xbe1fd0c4	-0.15606982
167	0x3e268bb5	0.16264232
168	0x3db9ca7e	0.090718254
169	0x3e04c0f1	0.12964226
170	0x3da16142	0.078798786
171	0xbe19981c	-0.14999431
172	0xbde34155	-0.110964455
173	0xbd8ed0cd	-0.06973419
174	0xbe10d5c0	-0.14144039
175	0xbb25d280	-0.002530247
176	0x3dce79e6	0.10081844
177	0x3df589c2	0.11989166
178	0xbe0200f1	-0.12695672
179	0xbb8b3e60	-0.004249379
180	0xbe0c9ca1	-0.13731624
181	0x3e142a07	0.14469157
182	0x3ded519a	0.1158783
183	0x3dcb608a	0.09930523
184	0x3e054c13	0.13017301
185	0x3d95d364	0.0731571
186	0x3e0da519	0.13832511
187	0xbcdd5a88	-0.027020708
188	0x3df0a4d6	0.1175019
189	0xbcda40f0	-0.026642293
190	0x3cafb998	0.021450803
191	0x3d395f0c	0.04525666
192	0xbdfe047d	-0.124032
193	0x3cb52f68	0.022117332
194	0x3e1a5791	0.15072466
195	0x3caef040	0.021354795
196	0xbe25bd2e	-0.16185448
197	0xbe312b19	-0.17301597
198	0xbda5410f	-0.080690496
199	0xbc5a4e60	-0.01332435
200	0x3de6ccb6	0.11269514
201	0x3e277a2d	0.163552
202	0x3dba683e	0.09101914
203	0x3e1add63	0.15123515
204	0x39390400	0.00017644465
205	0x3cf294b0	0.029611915
206	0xbd948d60	-0.07253528
207	0x3e15759b	0.14595644
208	0x3db21bee	0.086967334
209	0xbe2a267c	-0.16616243
210	0x3d545690	0.051840365
211	0xbd0473bc	-0.032336935
212	0x3dfeef6e	0.12448011
213	0x3dc44da2	0.0958512
214	0x3e21d75b	0.15804808
215	0xbdc8ed2e	-0.098108634
216	0xbd0feddc	-0.03513895
217	0xbe28bb97	-0.1647781
218	0xbd90d856	-0.07072513
219	0x3df9e126	0.12201147
220	0xbe0ca4c7	-0.13734733
221	0x3dcf449a	0.101205066
222	0x3e2fcd6d	0.17168207
223	0x3d62be48	0.055357248
224	0x3e182d07	0.14860927
225	0xbd0ed0b0	-0.03486699
226	0x3d942b22	0.072347894
227	0xbdf4103e	-0.119171605
228	0xbddb7a46	-0.10716681
229	0xbd0261e0	-0.031831622
230	0x3d6c0fdc	0.057632312
231	0xbddb953e	-0.10721825
232	0xbd0884ec	-0.03332989
233	0xbca9c578	-0.020724043
234	0x3dfc0092	0.12304796
235	0xbcaf3420	-0.02138716
236	0xbdb2a153	-0.087221764
237	0xbdd996f2	-0.10624494
238	0xbd274b68	-0.040843397
239	0x3e2c2223	0.16809897
240	0xbe11e8ce	-0.14248964
241	0xbbf1eea0	-0.0073831826
242	0xbdd993a1	-0.10623861
243	0xbe2f256d	-0.1710412
244	0xbd81988b	-0.063279234
245	0x3dfb61be	0.12274502
246	0xbe00daec	-0.12583512
247	0x3dc8e56a	0.09809382
248	0xbd83696f	-0.06416594
249	0xbe0880d3	-0.13330393
250	0xbdc01018	-0.0937807
251	0x3e040f91	0.12896563
252	0xbcb0fa30	-0.021603674
253	0x3e0693f1	0.13142373
254	0xbda4d8eb	-0.08049186
255	0xbe162e49	-0.14666094

encoder.2.weight f4 [256, 256]
0	0xbc9cf65c	-0.019160442
1	0x3d49a068	0.04922524
2	0xbd04f37c	-0.032458767
3	0x3ccfef2c	0.0253826
4	0xbd22de22	-0.039762624
5	0x3c94f7e4	0.01818461
6	0x3d3f48c6	0.04670026
7	0x3be71550	0.007052101
8	0xbd638200	-0.0555439
9	0xbc30bd00	-0.010787249
10	0x3d4f3be0	0.05059421
11	0x3c810fdc	0.015754633
12	0xbd60e7ee	-0.054908685
13	0xbb525460	-0.0032093748
14	0xbd3597e4	-0.044334307
15	0x3b216fa0	0.0024633184
16	0x3c7b4448	0.015336104
17	0xbd6bac94	-0.05753763
18	0xbba4ccf0	-0.0050293133
19	0xbaefdf00	-0.0018300712
20	0xbc048708	-0.008088835
21	0x3d0e898c	0.034799144
22	0xbc844600	-0.01614666
23	0x3d03e474	0.03220029
24	0xbc732f68	-0.0148428455
25	0xbcb22758	-0.021747276
26	0xbd505ed2	-0.050871678
27	0xbc0a0af0	-0.008425459
28	0xbd5dc41a	-0.054142095
29	0x3d1efbd6	0.03881439
30	0x3cda1d70	0.026625365
31	0x3c4756b8	0.012166671
32	0xbce8eb78	-0.028432593
33	0x3d58fa86	0.052973293
34	0xbd0e3756	-0.03472074
35	0x3b48efe0	0.0030660555
36	0xbcfd9a68	-0.030957416
37	0xbd4f31bc	-0.05058454
38	0xbcbef17c	-0.023308508
39	0x3c86c71c	0.016452365
40	0xbd729a1e	-0.05922901
41	0xbc275bb0	-0.010214731
42	0x3d13280a	0.035926856
43	0x3bfc6a10	0.0077030733
44	0x3cdf8e60	0.02728957
45	0xbd13bcf8	-0.036068887
46	0xbcc264a0	-0.023729622
47	0xbd27470c	-0.04083924
48	0xbd4aa9f6	-0.049478494
49	0xbbd895a0	-0.0066096336
50	0x3d4afa9a	0.0495554
51	0x3c41b5a0	0.011823088
52	0x3d31244a	0.0432475
53	0x3d5e4c0c	0.054271743
54	0xbc7a1480	-0.015263677
55	0xbd1603a6	-0.036624573
56	0xbd0222cc	-0.031771466
57	0xbcab63c0	-0.020921588
58	0x3d009ab0	0.03139752
59	0xbc7aa028	-0.015296973
60	0xbd1d0fea	-0.038345255
61	0xbc698908	-0.014253862
62	0xbc97c6a4	-0.018527336
63	0xbd28597c	-0.041100964
64	0x3c5ce658	0.013482653
65	0xbd116118	-0.035492986
66	0x3c450028	0.012023963
67	0xbd42e058	-0.047577232
68	0x3cfc1104	0.030769832
69	0xbcde0c18	-0.027105376
70	0xbc924204	-0.017853744
71	0x3b91d3d0	0.004450299
72	0x3b0219e0	0.0019851848
73	0x3c74cc58	0.0149412975
74	0xbc1cd5f8	-0.0095724985
75	0x3d2b1c76	0.04177519
76	0xbd391c14	-0.045192793
77	0xbd54dfcc	-0.05197124
78	0x3d2b611e	0.041840665
79	0x3ccdb09c	0.025108628
80	0xbc221a48	-0.009893961
81	0xbc1d7e48	-0.009612627
82	0xbd5f8da2	-0.05457843
83	0xbd5b6932	-0.05356712
84	0xbd2075a2	-0.039174683
85	0x3a310680	0.0006752983
86	0x3c9327b8	0.017963275
87	0x3d4a2b94	0.049357966
88	0x3d78af88	0.060714275
89	0x3d43f530	0.04784125
90	0xbd385e52	-0.045011826
91	0xbd764c64	-0.060131446
92	0xbcd1e3c4	-0.025621302
93	0x3c4f8fa8	0.012668528
94	0xbd28290e	-0.041054778
95	0xbc214d18	-0.009845041
96	0x3b151fc0	0.002275452
97	0x3c2cd228	0.010548152
98	0x3d2678c8	0.04064253
99	0xbd7eabb4	-0.062175468
100	0xbceca068	-0.028885081
101	0x3d7324d8	0.05936131
102	0x3bf52ad0	0.0074819103
103	0xbd39a1d0	-0.045320332
104	0xbd6052a0	-0.054766297
105	0x3b8218f0	0.003970258
106	0xbcc2d3f4	-0.023782708
107	0x3c1969f0	0.009363636
108	0x3d0809a2	0.03321231
109	0x3d44705e	0.047958724
110	0x3c43cd98	0.011950873
111	0xbbeb76c0	-0.007185787
112	0x3bb0ae70	0.0053918883
113	0x3d5b0772	0.053473897
114	0xbd165bd8	-0.036708683
115	0x3c8d81b4	0.017273761
116	0xbd64d684	-0.05586864
117	0x3bad59d0	0.0052902475
118	0xbd7177ea	-0.05895225
119	0xbabb7980	-0.0014303178
120	0x3d253058	0.040329307
121	0x3d0176ee	0.03160756
122	0x3cbe4e54	0.02323071
123	0xbd2b4040	-0.04180932
124	0x3c2ee1d8	0.0106739625
125	0xbcd4b7b4	-0.025966503
126	0xbd3ac996	-0.045602404
127	0x3d49d6b2	0.049277015
128	0x3d1472d6	0.03624233
129	0x3cc3f648	0.023921147
130	0xbce766ac	-0.0282472
131	0xbd723a88	-0.05913785
132	0x3a303e80	0.00067231804
133	0x3c87a3a8	0.01655753
134	0xbd47a9fe	-0.0487461
135	0xbcb6c580	-0.022310972
136	0x3bc9cb50	0.00615827
137	0x3d1ab7a4	0.03777279
138	0xbd779b20	-0.060450673
139	0xbd495744	-0.04915549
140	0xbd5c7eb4	-0.05383177
141	0xbd53276e	-0.051551275
142	0xbcf24838	-0.029575452
143	0xbcfc0638	-0.030764684
144	0xbbc27de0	-0.0059354156
145	0xbd3dc714	-0.046332434
146	0x3bb17b20	0.005416289
147	0x3d13af06	0.036055587
148	0xbc3ea910	-0.011636987
149	0x3d390cec	0.04517834
150	0x3c7ce8e0	0.015436381
151	0xbd299c2a	-0.041408695
152	0xbc82ac44	-0.015951283
153	0x3d3d4f32	0.046218105
154	0xb998de00	-0.00029157102
155	0x3d331dde	0.043729655
156	0xbc8b3540	-0.016993165
157	0x3c333228	0.010937251
158	0xbd1561ea	-0.03647033
159	0x3cf842b8	0.030305251
160	0xbb8ab3a0	-0.0042328387
161	0xbd31ec3a	-0.043438174
162	0x3c24aad0	0.0100504905
163	0xbd173770	-0.036918104
164	0x3d1c1cb2	0.038113303
165	0x3c829e48	0.015944615
166	0x3d3b7bfc	0.045772538
167	0x3d7aa01e	0.061187856
168	0xbce7aea0	-0.02828151
169	0xbccd9c30	-0.02509889
170	0x3af5e400	0.0018759966
171	0x3d7319e8	0.059350878
172	0x3c7499b8	0.0149292275
173	0xbc6ea560	-0.014565796
174	0x3cb2a844	0.02180875
175	0x3b51cec0	0.0032014102
176	0x3b017960	0.0019756183
177	0xbb9e9e30	-0.0048406348
178	0xbc15ea18	-0.009150051
179	0x3d4d3742	0.050101526
180	0x3c4ce260	0.012505144
181	0x3d080568	0.03320828
182	0x3d5a5982	0.053308018
183	0x3d65650c	0.05600457
184	0xbc458230	-0.012054965
185	0x3ce2fd68	0.027708724
186	0x3d0b09e0	0.033944964
187	0xbd6f4926	-0.05841937
188	0xbd1e3512	-0.03862483
189	0x3d568c3a	0.052379824
190	0xbd7f00d4	-0.06225665
191	0x3ce4a51c	0.027910762
192	0x3c9fe588	0.019518629
193	0xbcb178e4	-0.02166409
194	0x3c7cf978	0.015440337
195	0x3d244442	0.04010416
196	0xbd4798dc	-0.048729762
197	0xbc72c8f0	-0.014818415
198	0xbd1b6c66	-0.037945174
199	0xbae27a80	-0.001727894
200	0xbd2ce21c	-0.042207822
201	0xbd3ea84c	-0.04654722
202	0xbcd0f344	-0.025506623
203	0x3d2fd92c	0.04293172
204	0x3b88fd50	0.004180588
205	0xbc20b0c8	-0.009807773
206	0xbd188c9e	-0.037243478
207	0xbd58d7a6	-0.052940033
208	0x3d21c328	0.039492756
209	0xbd43621e	-0.047700994
210	0xbce6413c	-0.028107278
211	0x3ceae8d0	0.028675467
212	0xbd3b1f50	-0.04568416
213	0x3c709558	0.014684044
214	0xbd11f0ac	-0.035629913
215	0x3d34de42	0.044157274
216	0x3d5fe982	0.05466605
217	0x3ce46b78	0.027883276
218	0xbd3c7406	-0.046009086
219	0x3ba91c40	0.0051608384
220	0x3bbdb3a0	0.0057892352
221	0xbd736856	-0.059425674
222	0x3d092676	0.033483945
223	0x3cad66f8	0.021167263
224	0xbd5f514c	-0.05452089
225	0xbbb864d0	-0.005627252
226	0xbd5cf646	-0.053945802
227	0xbd09786a	-0.0335621
228	0x3bcd0280	0.0062564015
229	0x3c40f680	0.01177752
230	0xbd0bd12c	-0.03413503
231	0xbd54be10	-0.05193907
232	0xbce0dca8	-0.027448967
233	0x3d1929ec	0.037393495
234	0x3be31db0	0.0069310293
235	0x3d78f606	0.0607815
236	0xbd3ba430	-0.04581088
237	0xbc954838	-0.018222913
238	0xbd4a95f0	-0.049459398
239	0xbd30dfdc	-0.04318224
240	0x3c7377b8	0.014860086
241	0xbc913278	-0.01772426
242	0x3bbf9140	0.0058461726
243	0x3d57de14	0.052702025
244	0xbd6d1558	-0.057881683
245	0x3d1a83ca	0.03772334
246	0x3d3fa39a	0.046786882
247	0xbd15bef0	-0.036559045
248	0xbcecb6ac	-0.028895698
249	0xbd2d8284	-0.042360798
250	0xbd2d5f86	-0.042327426
251	0xbc806428	-0.015672758
252	0xbd0a05b4	-0.033696845
253	0x3c79aa80	0.015238404
254	0x3c938f84	0.01801277
255	0xbd2dc006	-0.042419456

encoder.2.bias f4 [256]
0	0x3d3e7ff2	0.046508737
1	0xbd527e98	-0.05139026
2	0x3d45a17e	0.048249714
3	0xbd4f7166	-0.050645255
4	0x3bc16c40	0.005902797
5	0x3d4ee334	0.050509647
6	0xbd3de5a0	-0.046361566
7	0xbcfabd64	-0.030607887
8	0xbc31df68	-0.010856487
9	0x3d41e6b6	0.047339164
10	0x3ce7e01c	0.028305106
11	0x3cf35a88	0.029706255
12	0x3d11147e	0.035419933
13	0xbcf53e54	-0.029936947
14	0x3d779686	0.060446285
15	0xbc816614	-0.015795745
16	0x3d497a42	0.04918886
17	0xbce520bc	-0.02796971
18	0xbc125208	-0.008930691
19	0xbd0fb3ec	-0.035083696
20	0x3c3c0f48	0.011478253
21	0xbd46bc62	-0.0485195
22	0x3d38d8d6	0.045128666
23	0x3babab90	0.0052389577
24	0xbd783796	-0.060599886
25	0xbc37fe30	-0.011230037
26	0x3cfb72cc	0.030694388
27	0xbc1652a8	-0.00917498
28	0x3d03c110	0.03216654
29	0xbd7991b0	-0.060929954
30	0xbd37bd6a	-0.044858374
31	0xbd3b2414	-0.045688704
32	0x3c1731e0	0.0092282
33	0x3b8ce840	0.0043001473
34	0xbcf99224	-0.030465193
35	0x3b823c50	0.003974475
36	0xbc804650	-0.015658528
37	0x3d24391c	0.040093526
38	0xbc480190	-0.012207404
39	0xbcc56b80	-0.024099112
40	0xbcc47ff4	-0.023986794
41	0xbcf155c8	-0.029459849
42	0x3c318b18	0.010836385
43	0xbd33be66	-0.04388275
44	0x3c9f5f34	0.019454576
45	0xbc28df00	-0.010307074
46	0x3d6ace24	0.057325497
47	0x3cd569e4	0.02605147
48	0xbc83effc	-0.016105644
49	0xbd211134	-0.039323047
50	0x3d602668	0.054724127
51	0xbd64bf46	-0.055846475
52	0xbb837d30	-0.0040127262
53	0x3d5975b4	0.053090766
54	0xbd403314	-0.046923712
55	0xbcc315ac	-0.023814045
56	0x3bf04ab0	0.007333122
57	0x3b47b820	0.0030474737
58	0xbcae742c	-0.02129563
59	0x3c96457c	0.01834368
60	0x3d29a7da	0.04141984
61	0xbc97bd80	-0.018522978
62	0xbd6ec710	-0.05829531
63	0xbb5264a0	-0.0032103434
64	0x3d1e2302	0.038607605
65	0x3d2025a0	0.039098382
66	0xbd2bb6c2	-0.04192234
67	0x3c6dca38	0.014513545
68	0xbcb55194	-0.022133626
69	0x3cfb7cd4	0.030699171
70	0xbb908dd0	-0.0044114366
71	0xbd698c4a	-0.057018556
72	0x3cf97880	0.030452967
73	0xbca983dc	-0.020692758
74	0x3cfd16b4	0.030894615
75	0xbd1571ce	-0.036485486
76	0x3c794288	0.015213616
77	0xbb4ee560	-0.0031569824
78	0x3c444f18	0.011981748
79	0xbd02782c	-0.031852886
80	0xbbf0c990	-0.007348247
81	0xbd12d308	-0.035845786
82	0xbd12f40a	-0.035877265
83	0x3d52d378	0.051471204
84	0x3c599ab0	0.013281509
85	0xbd5fa2c6	-0.054598592
86	0x3c5e5278	0.013569467
87	0xbd7f835a	-0.062381126
88	0xbbc8ff10	-0.0061339214
89	0xbd7e94d2	-0.062153645
90	0x3cfa54f4	0.030558087
91	0x3ca69cfc	0.020338528
92	0xbbd9e270	-0.006649308
93	0x3c369d08	0.011145838
94	0x3d2ba694	0.04190691
95	0xbd6d4ce6	-0.057934664
96	0x3d4c53e6	0.0498847
97	0x3d3dddea	0.046354212
98	0x3d576d14	0.05259426
99	0xbd3cb0ce	-0.04606705
100	0x3d2b0410	0.04175192
101	0x3cef5868	0.02921696
102	0x3d6f7f2a	0.058470882
103	0x3c2b9eb0	0.010474846
104	0x3d0f39ba	0.03496716
105	0xbc87c31c	-0.016572528
106	0x3cd69230	0.026192755
107	0xbce2a188	-0.027664915
108	0x3d63b16c	0.055589125
109	0x3c6136c8	0.013745971
110	0x3c7a31d0	0.015270665
111	0xbbfd5fa0	-0.0077323467
112	0x3d64ab98	0.055827707
113	0xbb79e9a0	-0.0038133636
114	0x3d2c2774	0.042029813
115	0x3cc74a98	0.024327561
116	0x3cdbea34	0.026845075
117	0x3d1704e4	0.0368699
118	0xbd3ea3f0	-0.04654306
119	0x3b671d00	0.0035265088
120	0x3c88edf0	0.01671502
121	0x3d2568c2	0.040383108
122	0xbd7470be	-0.05967783
123	0xbd5d12be	-0.053972952
124	0x3c642798	0.0139254555
125	0x3d42cf72	0.047561117
126	0xbc1b6bb8	-0.009486131
127	0x3d52eae8	0.051493555
128	0xbcd29660	-0.02570647
129	0x3af91e00	0.0019006133
130	0xbd205930	-0.039147556
131	0x3b3cba20	0.0028797463
132	0x3d23e6b2	0.04001493
133	0x3a92c880	0.001119867
134	0x3d287040	0.041122675
135	0x3b6bb920	0.0035968497
136	0x3d1a9dfe	0.03774833
137	0xbd571ec0	-0.05251956
138	0x3cf2f980	0.029659986
139	0x3d4a1ef4	0.049345925
140	0xbd489838	-0.048973292
141	0xbcefb08c	-0.029258989
142	0x3d46a16a	0.04849378
143	0x3d1b1560	0.03786218
144	0xbd12bb92	-0.035823412
145	0xbc182bb0	-0.00928776
146	0xbd58e7d2	-0.052955456
147	0xbc2ea140	-0.010658562
148	0xbbea9550	-0.0071589127
149	0xbd4de4e4	-0.050267115
150	0xbc0b65f0	-0.0085081905
151	0xbd1b8862	-0.03797186
152	0xbd6f8670	-0.05847782
153	0xbd1e49d4	-0.038644627
154	0xbbab3fa0	-0.0052260906
155	0xbd793adc	-0.06084715
156	0xbd1ef116	-0.038804136
157	0x3cf1dcc0	0.029524207
158	0xbd4727f2	-0.04862208
159	0x3d4de95c	0.050271377
160	0x3c8f306c	0.017479144
161	0x3d2260d2	0.039643116
162	0xbcd5b728	-0.026088312
163	0x3ccb9708	0.02485229
164	0x3b6dbac0	0.0036274642
165	0xbca3ca50	-0.019993931
166	0xbc0df438	-0.008664183
167	0xbd019818	-0.03163919
168	0xbc30c290	-0.010788575
169	0x3d1b229e	0.03787481
170	0x3cfd63c8	0.030931368
171	0x3c1f9810	0.009740844
172	0xbd2d0e5c	-0.042250022
173	0xbc21e4b0	-0.0098811835
174	0x3d23615a	0.039887764
175	0x3d6eaab8	0.05826828
176	0x3c69c4e8	0.0142681375
177	0xbd3deeca	-0.046370305
178	0x3c7ffc70	0.015624151
179	0xbcb6cd94	-0.022314824
180	0x3d05c4ee	0.03265851
181	0xbd7830f4	-0.06059356
182	0xbd32746a	-0.043568052
183	0x3cf71c38	0.030164823
184	0x3d729b5a	0.059230186
185	0x3ceb8848	0.028751507
186	0xbd60df14	-0.054900244
187	0x3bc66fe0	0.006055817
188	0xbc143558	-0.009045921
189	0x3cee2b68	0.029073432
190	0xbd17fe14	-0.037107542
191	0x3d1c8fe2	0.038223155
192	0xbd6ec0ca	-0.058289327
193	0x3ce91834	0.028453924
194	0x3d18b8fc	0.03728579
195	0x3cb03b4c	0.02151265
196	0x3c152050	0.009101942
197	0x3c157740	0.00912267
198	0xbd2c070e	-0.041998915
199	0x3d64d638	0.055868357
200	0x3d2ec35a	0.04266677
201	0xbd32dfe0	-0.043670535
202	0x3d609488	0.05482915
203	0x3b55b200	0.0032607317
204	0x3d766898	0.060158342
205	0xbd30fa4a	-0.043207444
206	0xbc918f8c	-0.017768644
207	0x3d74e838	0.059791774
208	0x3b57be00	0.0032919645
209	0xbd5c06c2	-0.053717382
210	0xbce1029c	-0.027467065
211	0x3cd2a334	0.025712587
212	0x3d5d6918	0.054055303
213	0xbc1c24c8	-0.009530254
214	0xbd65fc04	-0.056148544
215	0x3ca565e4	0.020190187
216	0x3ca66938	0.020313844
217	0xba5cd380	-0.000842385
218	0x3d2a2b72	0.04154534
219	0xbb7d5b40	-0.0038659126
220	0xbc24abd0	-0.010050729
221	0x3cd1f590	0.025629789
222	0xbccd591c	-0.025066905
223	0xbd652300	-0.05594158
224	0xbd626c38	-0.055278987
225	0xbc87f2a4	-0.016595192
226	0x3d3397da	0.04384599
227	0x3d00dbb0	0.03145951
228	0x3d27c7d6	0.040962063
229	0xbd579b6c	-0.052638456
230	0x3d27acc4	0.040936247
231	0x3d6c0b42	0.057627924
232	0x3c7b2698	0.015329026
233	0xbd388320	-0.045046926
234	0x3d315ace	0.04329949
235	0xbc857368	-0.016290382
236	0xbc91e988	-0.017811552
237	0x3c0dc810	0.008653656
238	0x3d2762fe	0.04086589
239	0x3d110fda	0.035415508
240	0x3cc5c990	0.024143964
241	0xbd26402a	-0.040588535
242	0xbd605466	-0.05476799
243	0x3d576132	0.052582927
244	0xbd24f422	-0.040271886
245	0xba54dd80	-0.0008120164
246	0x3cfeba3c	0.031094663
247	0x3cd22eac	0.02565702
248	0x3ceff1e8	0.029290155
249	0xbc88d830	-0.016704649
250	0xbcf1611c	-0.02946525
251	0x39bc6900	0.00035936385
252	0xbd03c202	-0.032167442
253	0xbcb98d1c	-0.022650294
254	0x3d09529a	0.03352604
255	0xb8a7e400	-8.005649e-05

fc_mu.weight f4 [8, 256]
0	0xbd051288	-0.032488376
1	0xbd0a1f50	-0.03372127
2	0xbac35880	-0.0014903694
3	0x3d341268	0.043962866
4	0xbd2e55a4	-0.042562142
5	0x3bba8830	0.0056925043
6	0xbc00d508	-0.007863291
7	0x3d756bbe	0.059917204
8	0x3c0062f0	0.007836089
9	0xbd0e8f4c	-0.034804627
10	0xbd69e854	-0.05710633
11	0xbd5cdffc	-0.053924546
12	0x3bc9dce0	0.0061603636
13	0xbd4c1a58	-0.04982981
14	0xbb7324c0	-0.0037100762
15	0xbd41c198	-0.047303766
16	0xbd2a4126	-0.041566037
17	0x3a7df980	0.00096883625
18	0x3c248390	0.010041133
19	0x3d2c6a16	0.04209336
20	0x3d437da4	0.047727242
21	0xbcbc2a3c	-0.022969358
22	0x3d58f472	0.052967496
23	0x3cd5c0b8	0.026092872
24	0x3b117040	0.002219215
25	0xba94b8c0	-0.0011346564
26	0xbd09fafe	-0.03368663
27	0x3ba35300	0.0049842596
28	0xbd18fc58	-0.03735003
29	0x3c76d630	0.015065715
30	0xbd41c4ec	-0.04730694
31	0x3c4d7d20	0.012542039
32	0xbd7f879c	-0.062385187
33	0xbd1bbbea	-0.038021006
34	0x3d6e1874	0.05812879
35	0xbd2c13cc	-0.042011067
36	0x3d7e4210	0.06207472
37	0x3d2e1196	0.04249724
38	0x3d22b650	0.039724648
39	0xbcfa8a58	-0.030583546
40	0xbcd78c44	-0.026312001
41	0x3d21ac76	0.039471112
42	0x3c273330	0.010205075
43	0xbc7d1020	-0.015445739
44	0xbd5bf71a	-0.05370245
45	0xbc0cde70	-0.008597955
46	0x3d40f960	0.047112823
47	0xbc254d58	-0.010089241
48	0x3d395ac8	0.04525259
49	0xbd5ace26	-0.053419255
50	0x3d40d4c0	0.047077894
51	0xbd101a38	-0.035181254
52	0x3c8c61f8	0.017136559
53	0xbc385028	-0.0112495795
54	0x3c9aa4bc	0.01887738
55	0xbd7a4e1a	-0.06110964
56	0x3c09fae0	0.00842163
57	0x3b8d1ee0	0.004306659
58	0x3ceb7d10	0.028746158
59	0xbd2a3582	-0.041554935
60	0xbd5b990c	-0.053612754
61	0xbd769b88	-0.06020692
62	0xbd7ef7d6	-0.062248074
63	0xbc9ff210	-0.019524604
64	0xbd50ff98	-0.051025003
65	0xbd51feb0	-0.05126828
66	0xbcacdd58	-0.021101639
67	0xbcb1b8c0	-0.021694541
68	0x3c382b10	0.011240736
69	0x3a4ca880	0.0007807091
70	0xbc0ca888	-0.008585103
71	0xbca80fbc	-0.020515315
72	0x3ccf778c	0.02532556
73	0x3c5815b8	0.013188772
74	0xbc1986f0	-0.0093705505
75	0xbd24c694	-0.04022844
76	0xbd1ee670	-0.03879398
77	0x3ce60540	0.028078675
78	0x3d7dd290	0.061968386
79	0x3ce0d860	0.027446926
80	0x3ba6f100	0.0050946474
81	0xbd625428	-0.05525604
82	0xbb605380	-0.0034229457
83	0x3d316ac0	0.043314695
84	0xbc92a210	-0.017899543
85	0x3d242b8e	0.0400806
86	0x3ca1546c	0.019693576
87	0x3d1fe664	0.039038077
88	0xbc486ef8	-0.012233488
89	0x3ce9ef00	0.028556347
90	0x3b85dbd0	0.0040850416
91	0xbd001fbe	-0.03128027
92	0xbce3add4	-0.027792849
93	0x3d17ac06	0.03702929
94	0x3c5cd418	0.013478301
95	0xbaadef40	-0.0013270155
96	0xbca84c8c	-0.020544313
97	0x3d3b11ae	0.045671158
98	0x3d2d146a	0.042255796
99	0xbcd1c2f0	-0.025605649
100	0xbc4f3688	-0.012647279
101	0xbd15a5f2	-0.03653521
102	0xbd17317a	-0.03691242
103	0x3cfea0f4	0.031082608
104	0xbd57c108	-0.052674323
105	0x3d57722a	0.05259911
106	0x3be8d080	0.0071049333
107	0x3d53a8e2	0.05167473
108	0x3b862e00	0.004094839
109	0xbd3f8410	-0.046756804
110	0x3cc99c64	0.024610706
111	0xbcc01830	-0.023449033
112	0x3ce44698	0.027865693
113	0x3c8e2d34	0.017355539
114	0xbd46297c	-0.048379406
115	0x3d41ab8c	0.04728274
116	0x3d05905e	0.032608382
117	0xbd761776	-0.060080968
118	0x3ce154f8	0.027506337
119	0xbc3a7200	-0.011379719
120	0x3b966420	0.0045895725
121	0xbba8ab20	-0.005147353
122	0xbd62298c	-0.055215403
123	0x3d0b80c4	0.034058347
124	0xbc0dfa78	-0.008665673
125	0xbd00fbba	-0.031490065
126	0x3bdf4740	0.0068139136
127	0x3c5b4640	0.013383448
128	0xbc78f0b0	-0.015194103
129	0xbaf2c6c0	-0.0018522367
130	0x3ce9d304	0.028543003
131	0x3d76c1c4	0.060243383
132	0x3cf3681c	0.02971273
133	0x3b9762d0	0.0046199337
134	0x3cdf36f4	0.027247883
135	0xbd2724e0	-0.04080665
136	0xbcabd354	-0.020974793
137	0xbc022d90	-0.007945433
138	0x3b5cd860	0.0033698305
139	0xbd2175ba	-0.039418913
140	0xbd56a224	-0.052400723
141	0xbc9c65f0	-0.019091576
142	0x3d01c448	0.03168133
143	0x3c305b80	0.010764003
144	0xbd7ad25e	-0.061235778
145	0x3d2965a6	0.041356705
146	0xbc044ee8	-0.008075453
147	0xbd3f64ca	-0.04672698
148	0x3cc56ff8	0.024101242
149	0x3d5d153c	0.05397533
150	0xbc9dc9d0	-0.01926127
151	0x3d3d73dc	0.04625307
152	0xbd5f3ca2	-0.054501183
153	0xbcd77eb8	-0.026305541
154	0x3d0575b6	0.03258296
155	0x3d615f36	0.05502244
156	0x3d2f91fe	0.04286384
157	0x3d0eae28	0.034834057
158	0xbcfeca10	-0.03110221
159	0xbc611910	-0.0137388855
160	0x3c5c9830	0.013464019
161	0x3cebf8e0	0.028805196
162	0xbd5754a2	-0.052570947
163	0x3c557398	0.013028048
164	0x3d39b9b6	0.045343123
165	0x3b32c320	0.0027276948
166	0x3d37e5d6	0.044896923
167	0x3beaa9e0	0.007161364
168	0x3d0bdbb4	0.034145072
169	0xbc6094e0	-0.01370737
170	0xbd608ea8	-0.054823548
171	0xbd241f5c	-0.04006897
172	0xbd423440	-0.04741311
173	0xbd69896e	-0.05701583
174	0x3d0d99ec	0.03457062
175	0xbd235446	-0.03987529
176	0xbc0fd718	-0.00877931
177	0x3cb0d1e0	0.021584451
178	0x3c6cfec0	0.014465034
179	0xbcff530c	-0.03116753
180	0xbc2f8428	-0.010712661
181	0x3d260a10	0.04053694
182	0xbd6b5a48	-0.057459146
183	0xbd1966ca	-0.037451543
184	0x3d410832	0.047126956
185	0xbced1a6c	-0.028943263
186	0x3cd82e14	0.02638916
187	0xbd08b1ac	-0.033372566
188	0x3d245466	0.04011955
189	0xbc2494b8	-0.010045223
190	0x3d1d0a02	0.038339622
191	0x3b208220	0.0024491623
192	0x3d04497e	0.03229665
193	0xbcbe80a0	-0.023254693
194	0xbc805abc	-0.015668266
195	0x3c8f4378	0.017488226
196	0x3c95d26c	0.018288814
197	0x3d4a0bc8	0.04932764
198	0x3c94bc48	0.018156186
199	0xbce2c18c	-0.027680181
200	0xbd001ffa	-0.031280495
201	0xbc85d154	-0.016335167
202	0xbd1b17c0	-0.037864447
203	0x3ccaeeec	0.02477213
204	0x3d602004	0.054718032
205	0xbd73a912	-0.05948741
206	0xbd5ae69e	-0.05344259
207	0xbd15b16a	-0.03654615
208	0xbcf7326c	-0.03017541
209	0xbc000a78	-0.007814996
210	0x3d3fae20	0.046796918
211	0xbd6f9f1c	-0.058501348
212	0xbd61ada8	-0.055097252
213	0x3d0cd4a4	0.034382477
214	0x3d7fde1c	0.06246768
215	0x3d58b7ec	0.052909777
216	0x3d51db6a	0.05123464
217	0xbd3c6cf0	-0.04600233
218	0xbd4d0292	-0.05005128
219	0xbcd0551c	-0.025431208
220	0x3d558a5e	0.05213391
221	0xbd43b82a	-0.047783054
222	0x3cf79bbc	0.030225627
223	0x3b9cffe0	0.004791245
224	0xbd3c858a	-0.04602579
225	0xbd4e4f12	-0.050368376
226	0xbce867cc	-0.028369807
227	0xbcb6ab08	-0.02229835
228	0xbd539610	-0.051656783
229	0xbd3bba52	-0.045831986
230	0x3cf0ddb4	0.029402591
231	0x3d51cbfa	0.051219918
232	0xbd21a000	-0.03945923
233	0xbd3080f4	-0.04309173
234	0xbcbb60e4	-0.02287335
235	0xbcf8650c	-0.03032162
236	0x3d448488	0.047977954
237	0x3d798666	0.060919188
238	0xbd2720fa	-0.040802933
239	0xbca2d194	-0.019875325
240	0xbb5e45a0	-0.0033916011
241	0xbcff096c	-0.031132422
242	0xbbd9b9c0	-0.0066444576
243	0xbc8cd734	-0.01719246
244	0xbd395824	-0.045250073
245	0xbd6c55e8	-0.057699114
246	0x3c7ad970	0.01531063
247	0xbbae00c0	-0.005310148
248	0xbbc4f470	-0.0060105845
249	0xbc4359f8	-0.011923306
250	0xbc73b828	-0.014875449
251	0x3c957d50	0.01824823
252	0xbd44a266	-0.048006438
253	0x3caf9a90	0.021436006
254	0x3cc622a4	0.02418644
255	0xbbad2f10	-0.0052851513

fc_mu.bias f4 [8]
0	0xbcfc2ef8	-0.030784115
1	0x3c750fa8	0.014957346
2	0x3d539550	0.051656067
3	0xbcbde184	-0.023178823
4	0x3ca00578	0.019533858
5	0xbd1a62d4	-0.037691906
6	0x3c310260	0.010803789
7	0x3d064f02	0.03279019

fc_logvar.weight f4 [8, 256]
0	0x3cc3da74	0.023907878
1	0x3ce37d4c	0.027769707
2	0xbd0d937a	-0.034564473
3	0xbd43bf90	-0.04779011
4	0x3d042600	0.032262802
5	0x3b98c140	0.004661709
6	0xbd747e60	-0.059690833
7	0xbd328ca4	-0.043591157
8	0x3d2cc068	0.04217568
9	0xbd787470	-0.06065792
10	0x3d530d06	0.051526092
11	0xbd6f10ea	-0.05836574
12	0x3d2e1646	0.04250171
13	0x3a159d00	0.0005707294
14	0x3cfb2df4	0.03066156
15	0x3ccaf4bc	0.024774902
16	0xbcdc89c0	-0.026921153
17	0xbce0f448	-0.027460232
18	0x3d427eda	0.047484256
19	0x3b105420	0.0022022799
20	0xbc9190b8	-0.017769203
21	0x3d5d778a	0.05406908
22	0x3ce07d70	0.027403563
23	0xbd5f65ca	-0.054540433
24	0xbd54b818	-0.051933378
25	0x3cb7274c	0.022357605
26	0xbc79ee88	-0.015254624
27	0x3c8a6c88	0.016897455
28	0xbd5ec078	-0.05438277
29	0xbd3f89fe	-0.04676246
30	0x3cc738d0	0.024319082
31	0x3bd15790	0.006388612
32	0xbd3c5a9c	-0.04598485
33	0x3b9309f0	0.0044872686
34	0x3d632156	0.055451714
35	0xbc4a72d0	-0.012356475
36	0xbcef84a8	-0.02923806
37	0xbd42766e	-0.047476225
38	0xbcf621a8	-0.030045345
39	0xbd44fa0a	-0.04809002
40	0xbcc322ec	-0.023820363
41	0xbd424322	-0.047427304
42	0x3d091f4e	0.03347712
43	0x3d11b9d8	0.035577625
44	0xbcf4dbf0	-0.02989003
45	0x3ca9479c	0.020664029
46	0x3d3a9aae	0.04555767
47	0x3d7c540c	0.06160359
48	0xbccc1a58	-0.024914905
49	0x3c9fda8c	0.019513391
50	0x3d104be0	0.03522861
51	0xbce1faf4	-0.027585484
52	0xbcc27b0c	-0.023740314
53	0xbd35ab00	-0.04435253
54	0xbd58a1dc	-0.052888736
55	0xbb2c8e60	-0.002632998
56	0xbccbe960	-0.024891555
57	0xbb285f40	-0.002569154
58	0x3d444f80	0.04792738
59	0x3d4d0500	0.050053596
60	0x3bee7d00	0.0072780848
61	0x3d0d124a	0.03444127
62	0xbd063872	-0.032768674
63	0x3d5756d0	0.052573025
64	0xbd0dd4f4	-0.034626916
65	0x3cc38894	0.023868836
66	0xbc2f0ab8	-0.010683708
67	0x3d41ed98	0.047345728
68	0x3d5f2fb2	0.054488845
69	0x3d6799f0	0.05654329
70	0xbc89d2f8	-0.01682423
71	0x3c0fc738	0.008775525
72	0x3d7deb3e	0.061991923
73	0xb9f6d200	-0.0004707724
74	0xbd448c72	-0.0479855
75	0x3c100c70	0.008792028
76	0x3cf289cc	0.029606722
77	0x3cf2514c	0.029579781
78	0x3ad41240	0.0016179755
79	0xbccc69fc	-0.024952881
80	0x3bf5e4e0	0.0075040907
81	0xbc7842b8	-0.015152626
82	0xbc79e680	-0.015252709
83	0x3c469d30	0.012122437
84	0x3ccc8ca4	0.024969406
85	0xbd759838	-0.05995962
86	0x3d77780a	0.060417213
87	0x3cf72d78	0.030173048
88	0x3cd15e50	0.025557667
89	0x3be6d580	0.007044494
90	0x3d2ae616	0.041723333
91	0x3cffe97c	0.031239264
92	0x3bc27570	0.00593441
93	0x3d382fea	0.04496757
94	0xbcd660f8	-0.026169285
95	0xbc1e1ea8	-0.009650864
96	0x3cc12190	0.023575574
97	0xbd3749f6	-0.04474827
98	0xbcdbfd98	-0.026854321
99	0x3d4f7b8e	0.05065494
100	0xbceecf80	-0.029151678
101	0x3d1c0716	0.038092695
102	0xbc7c5f80	-0.015403628
103	0xbc832a6c	-0.01601144
104	0x382bd800	4.0970743e-05
105	0x3c4917f8	0.012273781
106	0xbcb07530	-0.021540254
107	0xbc596fa8	-0.01327125
108	0xbcaf3bd0	-0.021390826
109	0xbc30a3d0	-0.010781243
110	0xbd097fe8	-0.033569247
111	0xbd3ea12c	-0.046540424
112	0x3ba61af0	0.005069129
113	0x3ce12e18	0.0274878
114	0xbd524774	-0.051337674
115	0xbcd876f0	-0.026423901
116	0x3d0eb8ec	0.034844324
117	0xbca35fb4	-0.019943096
118	0x3cd6e6b4	0.026233055
119	0xbca160c4	-0.019699462
120	0x3d5aa9ea	0.0533847
121	0x3d7297f8	0.05922696
122	0xbd044538	-0.032292575
123	0xbcdc6cb0	-0.026907295
124	0xbc734d38	-0.014849953
125	0xbccea4b0	-0.025225013
126	0x3cf22f90	0.029563695
127	0xbd05bde6	-0.032651804
128	0xbd36a68c	-0.044592425
129	0x3d5f7122	0.05455125
130	0x3ca8a93c	0.02058851
131	0xbd17738e	-0.036975436
132	0xbcda47e8	-0.026645616
133	0xbba87420	-0.0051407963
134	0xbd35883e	-0.044319384
135	0xbd0dc306	-0.034609817
136	0x3d5f81f4	0.054567292
137	0xbd1c32a8	-0.038134247
138	0x3d4cd208	0.05000499
139	0x3d641ab0	0.055689514
140	0x3cc6eae8	0.024281934
141	0xbd292284	-0.041292682
142	0xbb0e3de0	-0.002170436
143	0x3ca67024	0.020317145
144	0x3bd00c40	0.0063491166
145	0x3d3aaf7c	0.04557751
146	0xbccbe360	-0.024888694
147	0x3d2c8b80	0.042125225
148	0xbc4dfe48	-0.012572832
149	0xbc93dbf8	-0.018049225
150	0x3d26b59a	0.040700532
151	0x3d01ceb6	0.031691276
152	0xbc2d13b8	-0.010563783
153	0x3c60a718	0.013711713
154	0x3b223580	0.0024751127
155	0xbc9c89f8	-0.019108757
156	0x3c46c090	0.012130871
157	0x3d14a8c0	0.036293745
158	0xbd1e5d9a	-0.038663484
159	0x3cbc871c	0.023013644
160	0x3b039fc0	0.0020084232
161	0x3d1d3800	0.038383484
162	0x3c40b2e8	0.011761405
163	0x3bdff750	0.006834902
164	0x3d41e6fc	0.047339424
165	0xbae35c00	-0.0017346144
166	0xbc9a34a0	-0.018823922
167	0xbc435370	-0.0119217485
168	0xbba80120	-0.0051270872
169	0x3b571340	0.003281787
170	0xbd6df6f8	-0.058096856
171	0x3d444350	0.047915757
172	0xbc17cae8	-0.009264685
173	0x3d3424c8	0.04398039
174	0x3ca21d90	0.019789487
175	0xbbddc2c0	-0.006767601
176	0x3c414d00	0.011798143
177	0xbd6da534	-0.058018878
178	0xb8cdc000	-9.8109245e-05
179	0x3cfa6b44	0.030568726
180	0x3d58feaa	0.05297724
181	0x3caade00	0.020857811
182	0x3cbc9b78	0.023023352
183	0x3ced2ad8	0.028951094
184	0xbd6d1c8a	-0.057888545
185	0xbd370cb6	-0.044689856
186	0x3d6bd98e	0.057580523
187	0x3cff5328	0.031167582
188	0xbccaf63c	-0.024775617
189	0x3a7f7e00	0.00097462535
190	0x3cdea874	0.027179934
191	0x3cd7b708	0.026332393
192	0x3c90d070	0.017677516
193	0xbc712a48	-0.014719553
194	0x3ce71240	0.028206944
195	0x3d21dc1a	0.039516546
196	0x3d79f438	0.06102392
197	0x3d6cc83c	0.057808146
198	0xbcfd233c	-0.03090059
199	0xbc14d3a8	-0.009083666
200	0xbd35130c	-0.044207618
201	0x3d2d0ac8	0.04224661
202	0x3c861b94	0.016370572
203	0xbd36196a	-0.04445783
204	0x3d359d64	0.044339553
205	0xbd32800e	-0.043579154
206	0xbce91034	-0.028450109
207	0xbcb8d574	-0.02256272
208	0xbd3c0074	-0.04589887
209	0xbd10df8c	-0.03536944
210	0x3d755cda	0.059903003
211	0x3d712824	0.05887617
212	0x3cad6e10	0.021170646
213	0xbcaa3760	-0.020778358
214	0xbb226de0	-0.002478473
215	0xbcbed8dc	-0.023296766
216	0x3ce90634	0.02844534
217	0xbd41ada6	-0.047284745
218	0xbc238b78	-0.009981982
219	0xbd11b6a6	-0.035574578
220	0x3d63b4ae	0.05559223
221	0x3d7f5bdc	0.062343463
222	0xbd190978	-0.037362546
223	0x3d731f9a	0.05935631
224	0x3d2493e2	0.040180095
225	0xbb1e3c60	-0.0024144873
226	0xbc91d234	-0.017800428
227	0x3cb616ec	0.022227727
228	0x3d5f7566	0.05455532
229	0xbc4e8908	-0.012605913
230	0xbc131c48	-0.008978911
231	0x3d192e9c	0.037397966
232	0x3d474336	0.04864808
233	0xbd47cb50	-0.04877788
234	0xbd36b1dc	-0.044603214
235	0xbd255916	-0.040368162
236	0x3d64459c	0.055730447
237	0xbd609b0e	-0.05483537
238	0x3d1c2528	0.038121372
239	0x3cf57b8c	0.029966138
240	0xbd2f082e	-0.04273241
241	0x3d639996	0.055566393
242	0x3d22be62	0.039732344
243	0x3d2c3e66	0.042051695
244	0xbca19ddc	-0.019728594
245	0xbca0b590	-0.019617826
246	0xbd743cd2	-0.059628315
247	0x3cb1ccd0	0.021704108
248	0xba012c00	-0.0004927516
249	0x3d67af3c	0.0565636
250	0x3d6c20b4	0.057648376
251	0xbcc406c0	-0.023929
252	0x3c30c4c8	0.010789104
253	0x3c058f18	0.008151792
254	0xbc5bc990	-0.013414755
255	0x3d7e0390	0.062015116

fc_logvar.bias f4 [8]
0	0xbd102884	-0.03519489
1	0x3d3f89f8	0.046762437
2	0xbd623dbc	-0.055234656
3	0xbd3874bc	-0.0450332
4	0xbc83a6a0	-0.016070664
5	0xbbf09f80	-0.0073432326
6	0xbd3e1974	-0.046410993
7	0xbcfebdb8	-0.031096324

decoder.0.weight f4 [256, 16]
0	0xbce2b098	-0.027672097
1	0xbddcbd47	-0.10778289
2	0x3e2e5c40	0.17027378
3	0xbc9bc037	-0.019012554
4	0x3cee9408	0.029123321
5	0x3d8e6b46	0.069540545
6	0xbe51b5d6	-0.20479521
7	0xbda4489b	-0.08021661
8	0xbe786d5c	-0.24260467
9	0x3e4474b3	0.19185142
10	0x3d9e0216	0.077152416
11	0x3e5e2dd5	0.21697171
12	0x3b9ff011	0.004880913
13	0xbe6b3b94	-0.22971946
14	0x3d647c02	0.055782326
15	0xbe6c7219	-0.230904
16	0xbe17bef4	-0.14818937
17	0x3d2c5a0f	0.042078074
18	0x3d1b823a	0.03796599
19	0x3e717000	0.23577881
20	0x3e1ae947	0.1512805
21	0xbe0aef4b	-0.13567846
22	0xbda3b217	-0.07992952
23	0x3dc8a317	0.09796732
24	0x3dca2b37	0.09871524
25	0x3e19e2cc	0.15027922
26	0x3e63fcef	0.22264455
27	0xbe2976fa	-0.16549292
28	0x3e85afcf	0.26110694
29	0xbdc61639	-0.096722074
30	0xbdb6d329	-0.08926994
31	0x3d6522ed	0.05594151
32	0x3da164db	0.07880565
33	0x3ce01ad6	0.027356546
34	0x3d933d71	0.071894534
35	0xbe7a952d	-0.24470969
36	0xbe7281a2	-0.23682263
37	0xbe7e9cc7	-0.24864493
38	0x3e28de9b	0.16491167
39	0x3e020d4e	0.12700388
40	0xbe0d0e7b	-0.13775055
41	0xbd34cb38	-0.044139117
42	0xbc239bc8	-0.009985872
43	0xbd89f96c	-0.067370266
44	0x3d657eb5	0.05602904
45	0xbc5048d6	-0.012712678
46	0x3d25b5f0	0.040456712
47	0xbda49245	-0.08035711
48	0xbe5575a8	-0.20845664
49	0xbe85ea33	-0.26155242
50	0x3de7d85b	0.113205634
51	0x3e475975	0.19467719
52	0x3e482441	0.1954508
53	0x3e2374e6	0.15962562
54	0x3dfd4063	0.123657964
55	0x3d924443	0.07141926
56	0x3e3f8af0	0.18705344
57	0xbd9c9981	-0.07646466
58	0x3da1d3ed	0.0790175
59	0xbe48e7a9	-0.19619621
60	0xbdbbdedd	-0.09173367
61	0x3e399d0f	0.1812632
62	0x3e821946	0.25409907
63	0xbe7adcbe	-0.24498269
64	0xbdc4a5ef	-0.09601962
65	0x3e0cef20	0.13763094
66	0xbe43260f	-0.19057487
67	0x3d9cdd9d	0.07659457
68	0x3e67a11c	0.22620052
69	0xbdddb2b5	-0.10825101
70	0x3de76bce	0.11299859
71	0xbcd4fa3a	-0.025998224
72	0xbe2271d5	-0.15863736
73	0x3e73f32d	0.23823233
74	0x3d4976fe	0.049185745
75	0x3e080cd1	0.13286139
76	0xbe675c9a	-0.22593918
77	0x3e176d0d	0.14787693
78	0x3da4162c	0.080120414
79	0xbdb5c9bf	-0.08876371
80	0x3e6bdb8d	0.2303297
81	0xbe400c9c	-0.1875481
82	0xbe0874a8	-0.13325751
83	0x3b32fc19	0.0027310906
84	0xbdc51056	-0.096222565
85	0x3e6a53b7	0.22883497
86	0x3e391980	0.18076134
87	0x3d8515cd	0.06498299
88	0x3e06d84c	0.13168448
89	0x3d11aaa5	0.03556313
90	0xbe6238c1	-0.22091962
91	0xbe5365c0	-0.20644283
92	0xbcf009fe	-0.02930164
93	0xbe5bb30e	-0.21455023
94	0x3e1c51ba	0.15265551
95	0x3df22381	0.11823178
96	0x3d9ad133	0.07559433
97	0x3b451995	0.0030075063
98	0x3e324544	0.17409235
99	0xbcd5aa27	-0.026082112
100	0xbd5e973f	-0.05434346
101	0x3d6d7e8c	0.057982013
102	0xbe6867dc	-0.22695869
103	0x3e1d5778	0.15365398
104	0x3e61bab0	0.22043872
105	0x3d523913	0.05132396
106	0x3d3e6c31	0.046489898
107	0x3deaadbb	0.11458918
108	0xbdfcb7f8	-0.12339777
109	0xbe16526f	-0.14679883
110	0x3e18e442	0.14930823
111	0x3d1f71b6	0.038926803
112	0xbde72100	-0.11285591
113	0x3d6f3e19	0.05840883
114	0xbd5d169f	-0.05397665
115	0x3d1d8c60	0.03846395
116	0x3df3a0e8	0.11895925
117	0xbde457ec	-0.11149582
118	0xbd512d6e	-0.051068716
119	0xbe555857	-0.2083448
120	0x3e398a48	0.18119156
121	0xbd66ea19	-0.056375597
122	0xbdcd1c0d	-0.10015116
123	0x3dcb62a8	0.099309266
124	0xbe44e25c	-0.19226974
125	0x3dd3b176	0.10336582
126	0xbe3f577a	-0.18685713
127	0x3e33a6e8	0.17544138
128	0x3d43ff11	0.047850672
129	0xbe08aa3b	-0.13346188
130	0x3e5b1adc	0.21396965
131	0x3e74ed8f	0.23918746
132	0xbe19f1de	-0.15033671
133	0xbd8425cb	-0.06452521
134	0x3e171253	0.14753084
135	0x3e84485e	0.25836462
136	0x3cbecf7a	0.023292292
137	0xbe3fadf4	-0.18718702
138	0xbe6469f7	-0.22306047
139	0xbe41c875	-0.18924125
140	0xbc374757	-0.011186442
141	0xbe451071	-0.19244553
142	0xbd9026e1	-0.070386656
143	0x3e777a41	0.2416773
144	0xbd51f19a	-0.0512558
145	0x3c55752e	0.013028426
146	0xbdcf1b3d	-0.10112617
147	0x3e494e94	0.19658881
148	0x3d716d2c	0.058942005
149	0x3e1615a1	0.14656688
150	0x3e2e5c57	0.17027412
151	0x3e4e5e5a	0.2015318
152	0xbe52d875	-0.20590384
153	0xbc2a2aae	-0.010386152
154	0xbe359f4f	-0.17736553
155	0x3e475d49	0.19469179
156	0xbd97a0eb	-0.074037395
157	0x3e221184	0.15826994
158	0xbcafac4e	-0.021444466
159	0xbcf70968	-0.030155852
160	0xbe731696	-0.23739085
161	0xbde6a0f5	-0.11261169
162	0x3dce2573	0.100657366
163	0xbe47d54c	-0.1951496
164	0xbde41b2d	-0.11137996
165	0x3e0f0f50	0.13970685
166	0xbe0b5bb5	-0.13609202
167	0x3e22d423	0.15901236
168	0x3e43af4a	0.19109836
169	0x3e25b23c	0.16181272
170	0xbd488f73	-0.04896493
171	0xbca0285e	-0.019550499
172	0xbddf43a0	-0.1090157
173	0xbd782884	-0.060585514
174	0xbd4e2f6f	-0.050338205
175	0xbcb46e65	-0.022025296
176	0x3e686156	0.2269338
177	0xbc8b57fe	-0.017009731
178	0x3e1365d6	0.14394316
179	0x3d95120c	0.07278833
180	0xbe2be30f	-0.16785835
181	0xbe5fddb2	-0.21861914
182	0x3bd20237	0.0064089554
183	0xbe4dcfd0	-0.20098805
184	0x3c6f208f	0.014595165
185	0x3e6de6ac	0.23232526
186	0xbc990f9b	-0.0186842
187	0xbe48344f	-0.19551204
188	0x3e4d04e1	0.20021392
189	0xbd84f8b5	-0.064927496
190	0x3e733ab0	0.23752856
191	0xbe5d4472	-0.21608141
192	0xbe12addb	-0.14324133
193	0xbe28bab8	-0.16477478
194	0xbd51f075	-0.05125471
195	0x3da05f28	0.078306496
196	0x3e261394	0.16218406
197	0xbd6290b2	-0.055313773
198	0x3e09f823	0.13473563
199	0xbd49f2a4	-0.049303666
200	0x3e709e67	0.23497926
201	0x3e3cd86a	0.1844193
202	0x3e1f20d6	0.1553987
203	0x3c1b19c8	0.009466596
204	0xbda49950	-0.080370545
205	0x3e49d263	0.19709162
206	0x3e85caed	0.26131383
207	0xbe817e0b	-0.25291476
208	0x3cd3489b	0.025791457
209	0xbdbbb218	-0.09164828
210	0x3e87d3d4	0.265288
211	0xbe251447	-0.16121016
212	0x3dbc1085	0.09182838
213	0xbcd31f9a	-0.025771905
214	0x3e624798	0.22097623
215	0xbe1bbdaa	-0.1520907
216	0x3e0d0ee1	0.13775207
217	0x3db3e8da	0.08784647
218	0x3e37831d	0.1792111
219	0x3e202e2f	0.15642618
220	0xbc23dd5c	-0.010001507
221	0xbd0760bf	-0.03305125
222	0x3e631069	0.22174229
223	0xbd9f0d8c	-0.07766256
224	0x3e647b51	0.22312666
225	0xbccf611f	-0.025314866
226	0xbe599c09	-0.21250929
227	0x3dbb0c43	0.09133198
228	0xbe01e311	-0.12684275
229	0x3dc88cbd	0.09792469
230	0xbcdcba23	-0.026944226
231	0xbc2f5e7d	-0.01070368
232	0xbc69d022	-0.014270814
233	0x3d00b415	0.03142174
234	0xbde52871	-0.11189354
235	0x3d91343e	0.070900425
236	0xbda5bb71	-0.08092392
237	0x3e560faf	0.2090442
238	0xbc7f5fd6	-0.015586814
239	0x3cf35ff3	0.029708838
240	0x3d0868ec	0.033303186
241	0xbe439b6b	-0.19102256
242	0x3e3dc4ff	0.1853218
243	0xbe431e7c	-0.19054598
244	0x3d90958e	0.07059775
245	0xbe4b08a1	-0.1982751
246	0xbdd882d8	-0.105718315
247	0x3e19aa3a	0.15006343
248	0xbdbfa832	-0.093582526
249	0xbdba8bd8	-0.09108704
250	0x3df12b9e	0.117758974
251	0xbde54dbd	-0.11196468
252	0x3d699ac2	0.057032354
253	0x3e31cd3a	0.17363444
254	0x3e39f87a	0.18161193
255	0x3e5c7740	0.21529865
