space_robot_planning/weights/cvae_debug.pth (torch, 887925 bytes, 16 tensors)

encoder.0.weight f4 [256, 32]
-0.032464135 -0.104351 0.09904583 -0.15032303 0.07784348 0.08393578 -0.17021865 -0.029363498
0.013688053 -0.06437922 0.001054767 0.16103707 0.0058475803 -0.107527465 0.0557681 -0.009409431
-0.14522906 0.1746051 0.09019065 -0.09645551 0.051652227 -0.04845442 -0.0877682 0.1337376
0.05530741 -0.10270721 -0.083065264 -0.17008708 -0.10983439 0.084605604 0.062157393 0.0043072603
-0.1520936 0.13125072 0.12740245 -0.061048023 0.16489302 0.034341946 -0.0900216 -0.022280848
-0.0053286892 -0.026667027 0.1486195 0.15020652 0.13899972 0.02281919 -0.07030697 -0.14285311
-0.008911445 -0.08504652 0.021833984 -0.022154659 -0.034729615 -0.034955584 0.0030969083 -0.09097922
-0.13420622 0.13599898 -0.09238077 0.15287596 -0.08432958 -0.08517153 0.080814324 -0.012537718
0.029753946 0.028072836 0.020474728 0.021096878 -0.10205836 0.14262193 0.010516102 0.13988759
-0.1682398 -0.14141676 -0.102490194 -0.16095226 -0.15482509 -0.060455587 0.03777112 -0.086116865
-0.040836565 -0.08912457 -0.09419937 0.015910603 0.066976465 -0.12722732 -0.17098835 -0.16524658
-0.033572346 0.044175524 0.10743383 -0.031410467 -0.037204836 -0.037416644 0.090140454 -0.14600882
0.14959261 0.03125726 -0.0114101 0.060883336 0.0995878 -0.07164492 -0.07678216 -0.07928079
0.15929502 -0.15123147 0.13433847 0.1092578 -0.0025605897 0.04253049 -0.053822137 0.029609004
-0.077045806 0.066667296 0.06877219 0.08411463 -0.16870292 0.10351441 -0.057875335 0.14009711
0.08481347 0.032614518 -0.036062002 0.11421834 -0.08695164 -0.17380658 -0.04994823 0.17347528
0.1607709 0.092616625 0.1433542 -0.052099258 0.07237724 -0.060869217 -0.018085044 -0.16173282
-0.0934364 0.021203974 0.050930273 -0.028301314 0.12193237 0.16978295 0.01608115 0.069209926
-0.15603836 0.046241477 -0.04001879 0.12448268 0.045171767 0.030452594 0.1283796 -0.16681772
0.05725563 -0.14240025 -0.011146113 -0.13020395 -0.07344982 0.026269287 -0.16263561 -0.12628087
-0.068081364 -0.12643835 -0.105004676 -0.16910747 -0.03148416 -0.0467629 -0.15342122 0.06261734
0.1375609 -0.07954317 0.0018640497 -0.15730837 -0.1426033 -0.10258783 0.016775731 0.085398726
0.113984294 0.13731162 -0.16720441 -0.16640621 0.17085429 -0.14902711 0.08371538 -0.14470214
-0.10984741 0.07906491 0.17033806 -0.10657058 -0.005613918 0.06454393 -0.06717651 0.0019355308
-0.03811603 -0.10526055 0.019315416 -0.043911956 -0.041165985 0.052704927 -0.05713644 0.073632464
0.007026954 0.027087336 -0.08391304 0.16754553 -0.07901651 0.06785971 0.09142669 0.122859724
0.117304705 0.15484162 -0.05833505 -0.00072382996 0.120825045 -0.12145999 0.059414495 0.13828492
0.052568372 -0.065986134 -0.06032565 0.04296239 0.16782695 -0.056883242 0.077911735 0.083269104
-0.07060398 -0.13738798 -0.17375799 0.08546696 0.06052184 -0.17434195 -0.10440293 0.13475774
-0.15729861 -0.09109432 -0.100443356 0.103588924 -0.10361805 0.1039375 -0.04060855 0.1757769
0.13880144 0.00012660913 0.04682534 -0.005814305 -0.0061653885 0.15267171 -0.058784693 -0.049784996
0.16974038 0.16323282 -0.17224976 -0.059673846 -0.081263736 0.061611082 0.09640333 -0.14145727
00000000: 1df9 04bd fab5 d5bd 8ad8 ca3d 48ee 19be
00000010: 676c 9f3d 86e6 ab3d cc4d 2ebe b88b f0bc
00000020: db43 603c 41d9 83bd 1c40 8a3a e7e6 243e
00000030: 0f9d bf3b 5c37 dcbd 176d 643d 042a 1abc
00000040: edb6 14be aecb 323e e0b5 b83d 778a c5bd
00000050: 4991 533d 2478 46bd d0bf b3bd 82f2 083e
00000060: 068a 623d 2858 d2bd 1f1e aabd 4f2b 2ebe
00000070: daf0 e0bd b445 ad3d c098 7e3d eb23 8d3b
00000080: 6dbe 1bbe 9766 063e ca75 023e 7e0d 7abd
00000090: b7d9 283e 24aa 0c3d 3f5d b8bd 5386 b6bc
000000a0: 499c aebb cf74 dabc b62f 183e bdcf 193e
000000b0: f155 0e3e 4fef ba3c 1afd 8fbd 1648 12be
000000c0: 4f01 12bc df2c aebd 2fdd b23c b07d b5bc
000000d0: a440 0ebd 962d 0fbd 80f5 4a3b 5053 babd
000000e0: 5b6d 09be 5143 0b3e 2132 bdbd 848b 1c3e
000000f0: fdb4 acbd 696e aebd fb81 a53d 006b 4dbc
00000100: 8cbe f33c 01f9 e53c 9eba a73c 5cd3 ac3c
00000110: f903 d1bd 7c0b 123e bb4b 2c3c b13e 0f3e
00000120: 0e47 2cbe 8ecf 10be 61e6 d1bd abd0 24be
00000130: 788a 1ebe 47a0 77bd e4b5 1a3d 0a5e b0bd
00000140: 3e44 27bd f186 b6bd 99eb c0bd f456 823c
00000150: f52a 893d e147 02be 9217 2fbe 6636 29be
00000160: 2883 09bd 65f1 343d 4506 dc3d 43a8 00bd
00000170: 1964 18bd 3242 19bd 8f9b b83d 5683 15be
00000180: ce2e 193e 9d07 003d 6ef1 3abc ce60 793d
00000190: b0f4 cb3d 92ba 92bd f73f 9dbd f85d a2bd
000001a0: 3c1e 233e 6cdc 1abe 0690 093e 8ec2 df3d
000001b0: 91cf 27bb 7334 2e3d 9a74 5cbd 958e f23c
000001c0: 31ca 9dbd dd88 883d 6fd8 8c3d 4b44 ac3d
000001d0: 75c0 2cbe 5dff d33d b00e 6dbd 9e75 0f3e
000001e0: afb2 ad3d cd96 053d c0b5 13bd 4eeb e93d
000001f0: b413 b2bd 5afa 31be 8496 4cbd 81a3 313e
00000200: 20a1 243e c9ad bd3d 72cb 123e 0866 55bd
00000210: 853a 943d 0052 79bd 1627 94bc 4a9d 25be
00000220: 955b bfbd f5b3 ad3c 439c 503d 28d8 e7bc
00000230: aeb7 f93d 95db 2d3e 9ebc 833c efbd 8d3d
00000240: 85c8 1fbe b467 3d3d beea 23bd c6f0 fe3d
00000250: 0806 393d b877 f93c f175 033e 44d2 2abe
00000260: e184 6a3d 5fd1 11be 309e 36bc 2f54 05be
00000270: dc6c 96bd b032 d73c f389 26be c64f 01be
00000280: 3e6e 8bbd 0e79 01be b10c d7bd 822a 2dbe
00000290: 89f5 00bd 748a 3fbd 741a 1dbe 853d 803d
000002a0: c4dc 0c3e 88e7 a2bd 2153 f43a 7215 21be
000002b0: 9906 12be 9119 d2bd 426d 893c 87e5 ae3d
000002c0: 9970 e93d 6b9b 0c3e a237 2bbe 6466 2abe
000002d0: 6df4 2e3e 909a 18be f872 ab3d cc2c 14be
000002e0: aef7 e0bd c9ec a13d 1a6d 2e3e ad41 dabd
000002f0: f5f4 b7bb 9c2f 843d d793 89bd a3b1 fd3a
00000300: 8e1f 1cbd d892 d7bd 5d3b 9e3c 06dd 33bd
00000310: aa9d 28bd 1fe1 573d e607 6abd 9ecc 963d
00000320: 5d42 e63b 43e6 dd3c 9ada abbd 0e91 2b3e
00000330: 68d3 a1bd 08fa 8a3d eb3d bb3d e19d fb3d
00000340: 733d f03d cd8e 1e3e bcf0 6ebd 68bf 3dba
00000350: 1f73 f73d 04c0 f8bd 9d5c 733d 909a 0d3e
00000360: ef51 573d bd23 87bd 0718 77bd 55f9 2f3d
00000370: d4da 2b3e 67fe 68bd 3090 9f3d fe88 aa3d
00000380: d298 90bd 6faf 0cbe 9ded 31be 4d09 af3d
00000390: c0e5 773d b286 32be 34d1 d5bd effd 093e
000003a0: e312 21be a98f babd 3fb5 cdbd 6e26 d43d
000003b0: b335 d4bd 2fdd d43d 2755 26bd dcfe 333e
000003c0: f721 0e3e 61c2 0439 edcb 3f3d ed85 bebb
000003d0: 0707 cabb f955 1c3e 38c8 70bd 5aeb 4bbd
000003e0: 6cd0 2d3e 8126 273e 3e62 30be 906c 74bd
000003f0: 9a6d a6bd e75b 7c3d 1c6f c53d 2dda 10be

encoder.0.bias f4 [256]
0.07992768 0.15972894 0.045840364 -0.052168548 0.07657842 -0.16931537 0.094154544 -0.13567376
0.10003272 0.021362804 0.094440274 -0.08183464 0.07519008 0.073846 -0.105694324 -0.14756402
0.14493614 -0.12289543 -0.021057261 0.031886682 0.052677155 -0.084228516 0.085143164 0.1760002
0.03820873 -0.058550864 -0.10950948 -0.16997737 -0.11445322 0.023203315 0.03848066 -0.08119139
0.088677414 0.14992025 0.030725641 0.14161876 0.05667337 0.15869342 -0.0583615 0.010626253
0.16236567 0.17434525 -0.06449924 -0.1365592 -0.06466892 -0.11391734 -0.05343228 -0.11184461
0.039381128 -0.07547875 0.13814104 0.1674822 -0.13985021 0.16242759 0.07623444 -0.009331185
0.17134139 -0.101507545 0.12109687 -0.0032246765 0.013420294 -0.040378936 -0.16523524 -0.14313373
-0.11654908 0.046235006 -0.10016129 0.15152355 -0.027537655 0.105654515 -0.08828277 0.023400014
-0.13066751 -0.12049069 0.020979058 0.06897014 0.12664622 -0.002073077 -0.100905225 -0.15342589
0.0011845372 0.077123545 -0.15443105 0.00014934735 -0.059813604 0.06113061 -0.07563616 -0.08215449
-0.17606467 0.018593777 0.10994431 0.13610728 -0.09530873 -0.15364802 -0.069466375 0.049381018
0.14411105 0.15816124 0.15811431 0.03846142 0.15070339 0.028248018 -0.13780336 -0.0259782
-0.015830187 0.012127713 0.16918084 -0.0722331 0.10341087 -0.03289985 0.08519901 -0.058242835
-0.08596075 -0.13658041 -0.09624184 -0.1406601 0.03592258 0.13946176 0.03017354 -0.062293187
0.014151078 0.15878022 0.029714687 -0.15438057 -0.1707073 0.050622895 0.056407064 -0.10882495
-0.10514481 -0.10486463 0.012977351 0.08872618 0.05187611 -0.08841987 0.13206969 -0.041282628
0.09207297 0.11860976 -0.13638319 -0.13698417 -0.032952785 -0.101787314 0.057238054 0.033190157
-0.15696633 0.16622947 -0.09073015 -0.095854685 -0.046205927 -0.11178056 -0.028385459 -0.10983572
-0.1422167 0.044505827 -0.13063891 -0.12164699 -0.06709561 -0.0993378 0.036426593 -0.010985091
-0.16360296 -0.010499307 0.09769016 -0.17034234 -0.019192768 -0.019007007 -0.11184612 -0.06523314
-0.17558666 -0.101757474 -0.037513666 -0.15948325 0.14824456 -0.015607462 -0.16713756 0.14273281
-0.014064909 0.11015355 0.10112683 0.008680628 -0.040483523 0.02352812 -0.08840628 -0.10727167
0.07848533 -0.144695 0.05109848 0.1408728 0.011581765 0.11619955 0.059052203 0.092540674
0.07897527 -0.14150347 0.16256855 0.04852744 0.12991464 -0.10914957 -0.14958188 0.14196418
-0.061136175 0.025200317 0.091821626 0.13247924 -0.00033435095 -0.06893195 0.15090346 -0.13805668
0.07406095 -0.009128712 -0.07003468 -0.025163058 -0.16969086 -0.07471001 -0.020170007 -0.15419991
-0.110330775 0.10881372 0.011351558 -0.034990545 0.1163536 0.04023317 0.06813704 0.07578831
0.11776493 -0.05428556 -0.00010549356 0.07374816 0.061967436 -0.0029400587 0.05812651 0.03940471
-0.073480584 -0.06298674 -0.08915822 -0.10753273 0.013932104 -0.14924386 0.12163723 -0.17622058
0.11296782 0.13324037 0.023680774 0.07554205 0.013085332 0.0562334 0.17521918 0.11127811
-0.07621836 0.11020613 -0.11704038 -0.13911769 0.10920773 -0.13326633 -0.11987739 -0.03687004
00000000: 20b1 a33d fc8f 233e 1bc3 3b3d b0ae 55bd
00000010: 26d5 9c3d 0261 2dbe 19d4 c03d 10ee 0abe
00000020: f4dd cc3d 0c01 af3c e769 c13d eb98 a7bd
00000030: 42fd 993d 923c 973d 4476 d8bd 061b 17be
00000040: 246a 143e 99b0 fbbd 4780 acbc 9c9b 023d
00000050: 00c4 573d 0080 acbd 8a5f ae3d 6539 343e
00000060: c280 1c3d 08d3 6fbd 8246 e0bd 8c0e 2ebe
00000070: 7366 eabd e114 be3c e69d 1d3d ac47 a6bd
00000080: 819c b53d b284 193e 57b4 fb3c 8204 113e
00000090: 5622 683d 8780 223e 780c 6fbd bc19 2e3c
000000a0: 3043 263e 9087 323e 2d18 84bd 2dd6 0bbe
000000b0: 2471 84bd 7f4d e9bd cedb 5abd c90e e5bd
000000c0: 1b4e 213d 9a94 9abd d874 0d3e 7480 2b3e
000000d0: e534 0fbe 6b53 263e cd20 9c3d d4e1 18bc
000000e0: 1e74 2f3e 30e3 cfbd a301 f83d 1855 53bb
000000f0: cbe0 5b3c 6264 25bd 6d33 29be a691 12be
00000100: 49b1 eebd eb60 3d3d 5d21 cdbd fd28 1b3e
00000110: a696 e1bc 6561 d83d 99cd b4bd 63b1 bf3c
00000120: b4cd 05be d3c3 f6bd 46dc ab3c 3740 8d3d
00000130: 8caf 013e 76dc 07bb 66a7 cebd ad1b 1dbe
00000140: 7942 9b3a f3f2 9d3d 2c23 1ebe 209a 1c39
00000150: 1cff 74bd 1764 7a3d 22e7 9abd 9d40 a8bd
00000160: 4c4a 34be fa51 983c 7b2a e13d b55f 0b3e
00000170: 3931 c3bd e855 1dbe 6344 8ebd c043 4a3d
00000180: d991 133e 05f5 213e b8e8 213e b989 1d3d
00000190: fd51 1a3e 6368 e73c 531c 0dbe 3cd0 d4bc
000001a0: 4fae 81bc 51b3 463c be3d 2d3e f3ee 93bd
000001b0: 14c9 d33d fec1 06bd d27c ae3d 0a90 6ebd
000001c0: 310c b0bd bcdb 0bbe 711a c5bd 3409 10be
000001d0: 8e23 133d 10cf 0e3e 802e f73c 2427 7fbd
000001e0: ecd9 673c 4897 223e 376c f33c f115 1ebe
000001f0: e5cd 2ebe f459 4f3d 180b 673d 9edf debd
00000200: 2a56 d7bd 44c3 d6bd f59e 543c 12b6 b53d
00000210: 0b7c 543d 7a15 b5bd 473d 073e f917 29bd
00000220: c190 bc3d ade9 f23d 09a8 0bbe 9445 0cbe
00000230: 80f9 06bd de75 d0bd 7372 6a3d 67f2 073d
00000240: c8bb 20be 0f38 2a3e bbd0 b9bd 764f c4bd
00000250: 6d42 3dbd 35ed e4bd 9f88 e8bc 8df1 e0bd
00000260: 41a1 11be be4b 363d 35c6 05be 0f22 f9bd
00000270: 6c69 89bd 9e71 cbbd 0d34 153d d0fa 33bc
00000280: 8987 27be 4905 2cbc c711 c83d 396e 2ebe
00000290: 273a 9dbc 95b4 9bbc 940f e5bd f498 85bd
000002a0: fdcc 33be 3966 d0bd eea7 19bd 944f 23be
000002b0: 6ccd 173e 71b6 7fbc 1c26 2bbe 8d28 123e
000002c0: 8170 66bc 2f98 e13d 951b cf3d 3139 0e3c
000002d0: 0dd2 25bd 0bbe c03c 5a0e b5bd 40b1 dbbd
000002e0: ebbc a03d ed2a 14be a44c 513d f640 103e
000002f0: 71c1 3d3c 08fa ed3d b9e0 713d f785 bd3d
00000300: c9bd a13d 49e6 10be 5f78 263e b5c4 463d
00000310: 5808 053e cf89 dfbd fe2b 19be 0f5f 113e
00000320: ed69 7abd e570 ce3c fa0c bc3d a3a8 073e
00000330: d34b afb9 322c 8dbd 7086 1a3e bb5e 0dbe
00000340: 44ad 973d 9890 15bc 586e 8fbd c222 cebc
00000350: 71c3 2dbe 9001 99bd 923b a5bc 95e6 1dbe
00000360: 1af5 e1bd bad9 de3d e3fb 393c 3f52 0fbd
00000370: cc4a ee3d 89cb 243d 6f8b 8b3d e736 9b3d
00000380: bd2e f13d 895a 5ebd 6c3c ddb8 4609 973d
00000390: 91d1 7d3d 00ae 40bb 1016 6e3d d566 213d
000003a0: fd7c 96bd 31ff 80bd 9698 b6bd 1f3a dcbd
000003b0: 7b43 643c 62d3 18be f11c f93d 2b73 34be
000003c0: ac5b e73d 2a70 083e 2ffe c13c cab5 9a3d
000003d0: dc63 563c fe54 663d a86c 333e c7e5 e33d
000003e0: 5f18 9cbd c0b3 e13d deb2 efbd de74 0ebe
000003f0: 4da8 df3d f876 08be 4782 f5bd 0a05 17bd

encoder.2.weight f4 [256, 256]
-0.022484556 0.05876773 0.046113923 -0.032781363 0.052805267 -0.041928455 -0.051005617 -0.037575252
-0.000439398 -0.006370008 -0.01752089 -0.013823435 0.05559057 -0.03197635 -0.003378667 -0.027916119
-0.061297588 -0.02812475 -0.0093391165 -0.037098736 0.010665663 0.04282195 0.025370553 -0.029587239
0.057953954 0.027177304 -0.034235545 0.027071662 0.047077842 0.034367748 -0.028721139 -0.029879592
0.024062462 0.062260054 -0.028509066 0.044792257 -0.049893327 -0.028168194 0.014049202 -0.010193519
0.03598973 -0.056542926 0.038287148 0.038210846 -0.04901544 -0.0460968 -0.012894563 0.014187731
0.042646408 -0.032323234 0.051847897 -0.011964403 0.014414273 0.056234397 -0.032365732 -0.05273772
0.044998445 0.050075077 0.06087541 -0.03153027 -0.002508834 -0.0034529716 -0.031232283 -0.05145833
-0.06182532 0.035027497 -0.022312894 0.034077197 0.047830656 -0.011382647 0.03620304 -0.062320285
-0.04357616 -0.026367188 0.028560057 -0.03426613 0.058208674 0.057699844 -0.048624583 -0.008425392
-0.034258313 0.043593258 0.045513466 0.057950377 -0.013278969 0.0476268 0.02137985 -0.04893417
0.040746167 -0.052212395 0.03476686 -0.02983611 0.023309104 -0.054212466 -0.052165695 -0.058461115
-0.060563534 -0.018179 0.0003661886 0.06027492 0.02335082 -0.005318202 0.047055043 0.05201929
0.008299224 0.027827442 -0.010968208 0.021489583 0.049033552 -0.024309859 0.019256458 -0.057770558
-0.031019635 0.06147229 0.033239715 -0.012780242 0.013362408 -0.058365367 0.05963251 -0.039659105
-0.038751572 -0.027990311 0.032066517 -0.026996143 -0.056772277 -0.031702936 -0.052611843 0.043022186
0.049512267 0.04747338 0.047735833 -0.016847715 0.052484617 0.018626325 -0.057925053 -0.0140835345
-0.0568861 -0.0324535 -0.030173302 0.0074087083 -0.035598397 -0.019496009 0.020857736 -0.027572565
-0.03024853 0.0052224845 0.062450737 0.057935692 -0.04977484 0.052356288 0.0055194125 0.020015359
-0.04593704 0.022954322 -0.015178174 0.046985514 -0.034257025 -0.0060996115 -0.011620998 -0.01636082
0.045212045 -0.051516794 -0.037111834 -0.018647224 0.011225797 -0.05396282 -0.035543963 -0.05710467
0.006675549 -0.038307928 0.030034468 0.04775071 0.0022676736 0.0032334104 -0.048412785 0.041021854
-0.004276097 0.053542078 -0.06005898 0.062019512 -0.058946624 0.05992315 0.03753808 0.060538985
0.041620716 -0.043724865 -0.017239183 0.060373574 -0.046018302 0.021253869 0.015997924 -0.020965993
0.058909982 -0.057953052 -0.02096323 0.031077653 -0.03764245 -0.02254524 -0.015162386 0.023266874
0.036216274 -0.030339122 -0.020384438 -0.010689497 0.053712673 -0.046139628 -0.012915246 0.04459568
0.014453866 0.0009942129 -0.028618164 0.02180443 0.05136253 -0.035928585 -0.049027212 0.04252568
0.018620074 0.005112976 -0.019512929 0.028627716 -0.009361386 -0.05651705 -0.058967754 0.045875788
-0.033027418 -0.039229214 -0.06035866 -0.032562517 0.015117928 0.055273138 0.0062859133 -0.022322133
0.04724335 0.002435252 -0.016125455 -0.010472357 0.055255942 -0.020299405 0.051644117 -0.028526977
-0.06163068 0.051682122 0.0022703782 0.005018115 0.0009685233 -0.048549376 -0.059268244 -0.009541638
0.011164278 0.032331944 -0.0076802224 0.044313617 0.038541026 -1.2740493e-05 -0.06153684 0.036378123
00000000: 8831 b8bc 6eb6 703d f4e1 3c3d c045 06bd
00000010: 564a 583d 2cbd 2bbd 44eb 50bd 82e8 19bd
00000020: 005f e6b9 80bb d0bb f887 8fbc b07b 62bc
00000030: f0b2 633d a2f9 02bd a06c 5dbb 58b0 e4bc
00000040: 2e13 7bbd e065 e6bc 1803 19bc d8f4 17bd
00000050: 08bf 2e3c 1266 2f3d e8d5 cf3c f060 f2bc
00000060: 2061 6d3d f0a2 de3c 923a 0cbd 64c5 dd3c
00000070: b2d4 403d 32c5 0c3d 9848 ebbc 0cc6 f4bc
00000080: a41e c53c 6604 7f3d d88b e9bc 1678 373d
00000090: f25c 4cbd fcc0 e6bc a02e 663c b802 27bc
000000a0: f869 133d 8e99 67bd fcd2 1c3d fa82 1c3d
000000b0: 6ac4 48bd 00d0 3cbd b843 53bc a873 683c
000000c0: 00ae 2e3d 5e65 04bd 765e 543d 5806 44bc
000000d0: d829 6c3c 0a56 663d ee91 04bd 8203 58bd
000000e0: 4a50 383d 861b 4d3d 7e58 793d e225 01bd
000000f0: 406b 24bb 404b 62bb d8da ffbc f8c5 52bd
00000100: 8c3c 7dbd fe78 0f3d 88c9 b6bc 8894 0b3d
00000110: 14ea 433d 487e 3abc a449 143d 8e43 7fbd
00000120: ea7c 32bd 0000 d8bc c8f6 e93c a45a 0cbd
00000130: 386c 6e3d ac56 6c3d 922a 47bd a80a 0abc
00000140: 7252 0cbd d88e 323d 546c 3a3d 605d 6d3d
00000150: 0890 59bc 5214 433d cc24 af3c 326f 48bd
00000160: 74e5 263d aadc 55bd b267 0e3d dc6a f4bc
00000170: bcf2 be3c e40d 5ebd b2ab 55bd ec74 6fbd
00000180: 7811 78bd 20ec 94bc 00fd bf39 d6e2 763d
00000190: 384a bf3c 5044 aebb cabc 403d 2e12 553d
000001a0: 78f9 073c 60f6 e33c 00b4 33bc ec0a b03c
000001b0: 68d7 483d 7825 c7bc b8bf 9d3c d2a0 6cbd
000001c0: e41c febc 5eca 7b3d 5e26 083d 3864 51bc
000001d0: 00ee 5a3c 8610 6fbd 3841 743d 9671 22bd
000001e0: f8b9 1ebd f04b e5bc 2e58 033d 0427 ddbc
000001f0: 0c8a 68bd f0da 01bd 847f 57bd 0838 303d
00000200: 60cd 4a3d 7273 423d a686 433d 3804 8abc
00000210: 1cfa 563d 3c96 983c d242 6dbd a0be 66bc
00000220: 6601 69bd f6ed 04bd 002e f7bc c0c4 f23b
00000230: a0cf 11bd 18b6 9fbc d8dd aa3c dcdf e1bc
00000240: c4cb f7bc 6021 ab3b 58cc 7f3d fa4d 6d3d
00000250: b4e0 4bbd 8c73 563d 30dc b43b 40f7 a33c
00000260: 7a28 3cbd b40a bc3c e0ad 78bc e273 403d
00000270: 1851 0cbd 40df c7bb 0066 3ebc 2007 86bc
00000280: 4430 393d 4603 53bd 9402 18bd 10c2 98bc
00000290: 68ec 373c 1e08 5dbd 8c96 11bd 96e6 69bd
000002a0: 90be da3b c6e8 1cbd d80a f63c 4096 433d
000002b0: 409d 143b a0e7 533b 7c4c 46bd 8806 283d
000002c0: 801e 8cbb f04e 5b3d 6800 76bd 2c08 7e3d
000002d0: 0472 71bd fa71 753d 88c1 193d baf7 773d
000002e0: 7c7a 2a3d d818 33bd 3039 8dbc 484a 773d
000002f0: b07d 3cbd 981c ae3c 140e 833c e0c0 abbc
00000300: 984b 713d 2e60 6dbd 14bb abbc 9096 fe3c
00000310: f82e 1abd ccb0 b8bc a86b 78bc 2c9a be3c
00000320: 8457 143d c089 f8bc 44fd a6bc 0023 2fbc
00000330: d201 5c3d e8fc 3cbd 789a 53bc f6a9 363d
00000340: e8cf 6c3c 4050 823a a470 eabc 349f b23c
00000350: 8461 523d da29 13bd c2d0 48bd 682f 2e3d
00000360: 2089 983c c08a a73b 94d9 9fbc ac84 ea3c
00000370: 8060 19bc 6c7e 67bd 2c88 71bd 40e8 3b3d
00000380: c247 07bd d0ae 20bd a43a 77bd 4660 05bd
00000390: 30b1 773c 1666 623d 10fa cd3b e8dc b6bc
000003a0: 3e82 413d c098 1f3b 8819 84bc 4094 2bbc
000003b0: 0e54 623d f04a a6bc c888 533d 68b1 e9bc
000003c0: 7470 7cbd a2b0 533d a0ca 143b 006f a43b
000003d0: 80e4 7d3a b6db 46bd 42c3 72bd 8854 1cbc
000003e0: 60ea 363c 806e 043d 60aa fbbb 3282 353d
000003f0: 32dd 1d3d 00c0 55b7 0e0e 7cbd 3a01 153d

encoder.2.bias f4 [256]
-0.048511505 -0.005940281 -0.04928428 -0.050583422 0.03281548 -0.049898505 0.056811728 -0.04287798
0.05205115 -0.008717999 -0.0038119778 0.020320736 -0.0012551472 0.01838141 0.060867324 0.016756393
-0.000673458 0.053640157 0.040313363 0.0015693307 -0.026057474 -0.05784572 0.032243654 0.001466766
0.044738308 0.036383875 0.05915024 -0.020590842 -0.018963754 -0.052985102 0.05895584 -0.057877682
0.016487353 0.04860352 0.024339542 -0.04570146 0.035211764 -0.00030954182 0.05142904 -0.014154471
-0.032166153 0.02815634 0.052302107 -0.010536067 -0.058492616 -0.022091165 -0.056254268 0.045483813
-0.007079959 -0.052547894 -0.047408074 0.060218304 -0.046040446 -0.023543462 -0.033704415 0.059226736
0.012389004 0.025406256 -0.0445628 -0.04988557 -0.04971841 -0.036921613 -0.062103093 -0.017449968
-0.062176995 0.021112725 -0.0072328 -0.035804935 0.018805526 -0.002488032 0.030012183 -0.008141935
-0.034285247 0.031117633 -0.013838276 0.015567355 0.012555607 -0.037487924 -0.003996156 -0.038611248
-0.0025899261 -0.025202818 0.0037305653 -0.050254084 0.059597418 0.054505162 0.006204024 -0.030802712
0.044165164 0.048311077 0.055340827 -0.00046550483 -0.018456444 0.053054117 0.019397952 -0.043072253
-0.044337213 0.028688893 -0.053296596 0.038707994 0.043200314 0.047193088 -0.021522082 0.012913816
-0.023602247 -0.045357578 0.05683341 -0.05264254 -0.039015755 -0.018604092 -0.046570934 -0.056073748
0.040806584 0.040167466 -0.039996766 0.01746858 -0.011396274 0.029565804 -0.043463558 -0.04441143
0.05395689 0.013955116 -0.018560171 -0.033012584 -0.0009298697 -0.04434385 -0.0011970475 -0.03287293
-0.007047452 0.0025531277 0.0070653185 0.032548524 -0.021632366 -0.05864121 0.05549179 0.009526528
0.046805635 0.027889326 -0.05819165 -0.051396474 0.015382484 -0.0028746426 0.046543263 0.015582524
-0.045015596 0.020733185 -0.057748303 0.020973891 -0.040159434 0.018685795 0.045170613 -0.031117871
0.00911732 -0.0034206137 -0.030178726 -0.03372319 -0.00243935 0.040134445 -0.005166501 0.013090521
-0.034334384 -0.024506457 -0.03467492 0.04007171 0.059606 0.06177949 -0.013435632 0.009596214
-0.032283597 -0.052505 -0.048753895 0.042972088 -0.02493082 0.055302642 0.050180383 0.013441332
0.011792198 -0.058569558 0.031968936 0.006196484 0.05033768 0.013194941 0.0065457523 0.022921883
0.032535538 -0.043910265 -0.044503994 0.0003227517 0.04964968 0.04578121 -0.042635813 -0.015993237
-0.008294649 -0.06062614 -0.058424912 -0.0016719475 0.04387957 0.01965823 -0.05182626 -0.0049793497
-0.03877695 0.035981275 0.05695089 -0.02221328 0.04763796 0.05861207 0.032353804 -0.02202937
-0.012568243 0.0092271045 0.02385699 0.05212803 -0.057329796 -0.034463085 0.026393026 0.0551337
-0.002313219 0.026834965 0.015321605 0.022552788 -0.017784804 -0.029071815 -0.04966659 0.039105937
-0.020006657 -0.014291294 -0.060258523 -0.00027354807 -0.031930782 0.039647236 0.04598298 -0.056775346
-0.04340622 0.055840693 0.029107645 0.048653007 0.027390078 -0.0078013316 0.0344204 0.025783934
0.062368356 0.05397986 0.03649263 -0.021071166 0.01784084 0.054189302 0.036249533 0.029962555
0.02775719 -0.023898914 -0.022377014 1.4476478e-05 0.050780438 0.055798166 -0.016767524 -0.032959945
00000000: 00b4 46bd b0a6 c2bb 50de 49bd 9030 4fbd
00000010: 8669 063d 6062 4cbd 6ab3 683d d2a0 2fbd
00000020: 9633 553d f0d5 0ebc 60d2 79bb ac77 a63c
00000030: c083 a4ba 9c94 963c 0450 793d b444 893c
00000040: 008b 30ba c8b5 5b3d a01f 253d 00b2 cd3a
00000050: 7c76 d5bc a2ef 6cbd ec11 043d 8040 c03a
00000060: 843f 373d 4207 153d 8647 723d 20ae a8bc
00000070: e059 9bbc e806 59bd ae7b 713d 2611 6dbd
00000080: 7c10 873c 7c14 473d b863 c73c 7431 3bbd
00000090: 363a 103d 004a a2b9 42a7 523d 28e8 67bc
000000a0: a8c0 03bd 20a8 e63c bc3a 563d 789f 2cbc
000000b0: f495 6fbd 88f8 b4bc e06a 66bd 3c4d 3a3d
000000c0: 00ff e7bb 763c 57bd f82e 42bd 78a7 763d
000000d0: e894 3cbd 38de c0bc a40d 0abd bc97 723d
000000e0: 40fb 4a3c c820 d03c 7c87 36bd d054 4cbd
000000f0: 88a5 4bbd 1e3b 17bd d05f 7ebd 3cf3 8ebc
00000100: 4ead 7ebd 98f4 ac3c 2001 edbb 32a8 12bd
00000110: 0c0e 9a3c 400e 23bb 1cdc f53c c065 05bc
00000120: b06e 0cbd 68ea fe3c f0b9 62bc 380e 7f3c
00000130: 08b6 4d3c f08c 19bd 30f2 82bb d426 1ebd
00000140: c0bb 29bb 2476 cebc 807c 743b 3ad7 4dbd
00000150: 6c1c 743d ce40 5f3d 204b cb3b f855 fcbc
00000160: 88e6 343d d6e1 453d 10ad 623d 000f f4b9
00000170: f831 97bc 464f 593d 74e8 9e3c 886c 30bd
00000180: f09a 35bd f804 eb3c 884d 5abd 468c 1e3d
00000190: d0f2 303d 8a4d 413d 144f b0bc 7894 533c
000001a0: 8059 c1bc dec8 39bd 26ca 683d b49f 57bd
000001b0: fcce 1fbd 9c67 98bc 2ac1 3ebd 96ad 65bd
000001c0: ce24 273d a486 243d a6d3 23bd 441a 8f3c
000001d0: 70b7 3abc fc33 f23c d806 32bd c2e8 35bd
000001e0: e601 5d3d 00a4 643c 800b 98bc 3438 07bd
000001f0: 80c2 73ba e6a1 35bd 40e6 9cba c4a5 06bd
00000200: 50ee e6bb 6052 273b 3084 e73b 9a51 053d
00000210: 5c36 b1bc c431 70bd 5c4b 633d 2815 1c3c
00000220: 44b7 3f3d 2878 e43c 5e5a 6ebd 1c85 52bd
00000230: d006 7c3c 8064 3cbb 26a4 3e3d d84d 7f3c
00000240: 4662 38bd a4d8 a93c 7c89 6cbd 70d1 ab3c
00000250: 387e 24bd f412 993c d204 393d e8ea febc
00000260: d060 153c 602c 60bb 6039 f7bc 5421 0abd
00000270: 80dd 1fbb 0464 243d c04b a9bb a079 563c
00000280: 36a2 0cbd c4c1 c8bc 4a07 0ebd 3c22 243d
00000290: 6c25 743d 7e0c 7d3d 2021 5cbc 7039 1d3c
000002a0: ce3b 04bd 7c0f 57bd 2ab2 47bd 8003 303d
000002b0: b83b ccbc 0685 623d f289 4d3d 0839 5c3c
000002c0: 1034 413c a2e6 6fbd dcf1 023d e00b cb3b
000002d0: e22e 4e3d 982f 583c c07d d63b acc6 bb3c
000002e0: fc43 053d 40db 33bd d249 36bd 0037 a939
000002f0: 765d 4b3d 1485 3b3d e4a2 2ebd 4004 83bc
00000300: 48e6 07bc 1e53 78bd f64e 6fbd 4025 dbba
00000310: 10bb 333d 4c0a a13c c647 54bd d029 a3bb
00000320: 94d4 1ebd 1a61 133d 5645 693d a0f8 b5bc
00000330: 0620 433d 3613 703d 6c85 043d f076 b4bc
00000340: 08eb 4dbc 482d 173c bc6f c33c 3484 553d
00000350: a6d2 6abd 2a29 0dbd 3036 d83c e0d3 613d
00000360: 6099 17bb 00d5 db3c 7807 7b3c a0c0 b83c
00000370: 70b1 91bc 0428 eebc 326f 4bbd 8c2d 203d
00000380: 00e5 a3bc 0826 6abc a4d1 76bd 006b 8fb9
00000390: dac9 02bd 2465 223d a658 3c3d 448d 68bd
000003a0: b8ca 31bd 36b9 643d 2873 ee3c 6048 473d
000003b0: 2861 e03c 50a2 ffbb 68fc 0c3d d438 d33c
000003c0: f675 7f3d fc19 5d3d 4c79 153d 709d acbc
000003d0: f426 923c 9af5 5d3d 647a 143d 0874 f53c
000003e0: 0c63 e33c a8c7 c3bc 0050 b7bc 00e0 7237
000003f0: 26ff 4f3d 9e8c 643d 0c5c 89bc 0201 07bd

fc_mu.weight f4 [8, 256]
0.023022965 0.03239014 -0.00627885 0.0071544647 -0.046593472 -0.03371291 -0.033507153 -0.055878066
0.061601795 -0.049208075 0.050687954 0.040221848 -0.05996313 -0.024147399 -0.007997207 0.051878765
-0.054339588 0.057481572 0.046579435 -0.054269366 0.022465914 0.05655738 0.036237136 -0.009534322
0.01795742 0.022450797 -0.05801811 -0.032850243 -0.0032605454 -0.017756104 0.039689846 0.04431366
-0.04646481 -0.043569274 0.033969328 -0.030865327 -0.005639732 0.0111931935 0.05762454 -0.0026934743
0.013885543 -0.02962277 0.047333248 -0.010860093 -0.03223198 0.009680919 -0.05482436 0.05622133
0.015770294 -0.007125877 -0.022675134 0.052768916 0.04736209 0.055200197 -0.01108636 -0.0073353723
0.027929917 -0.057103135 0.05342488 -0.053422786 -0.0041331574 0.06140455 -0.004196286 -0.049754955
-0.045661584 -0.026373409 0.025376067 -0.018693611 0.047727376 -0.013362668 0.048075944 0.018747807
0.059343673 0.05530192 -0.025239818 -0.03682907 0.0040733516 -0.023077704 -0.003254585 0.014077015
-0.019175693 -0.007516779 0.030575939 -0.015066452 -0.021883301 -0.0418334 0.060779102 -0.058970988
-0.035772696 -0.004866585 0.022599101 -0.05717615 -0.012604132 -0.047284745 0.012046143 -0.05878541
0.026439562 0.033971183 -0.05883737 -0.028736569 0.004453905 0.053553768 0.022213556 -0.0073918775
-0.035117514 0.030176729 0.05271429 0.011537671 0.05217544 0.031069756 -0.03206473 0.020282619
0.0012082234 -0.056862988 0.02654916 -0.0094366 0.0420067 0.046738133 -0.03952632 -0.042042233
0.058177106 -0.029468805 0.04639241 0.056040965 -0.02118688 0.048293255 0.051059447 0.049711652
-0.0005227402 -0.020917661 -0.026433662 0.014211379 -0.055598304 -0.039955094 -0.010841973 -0.04607124
0.0044322982 -0.05405754 -0.050637662 -0.0035123378 0.0405901 0.0038083792 -0.050745495 0.055944502
0.034616917 0.014908306 -0.062055424 -0.015917629 -0.029012762 -0.008231722 -0.048977442 0.025005274
0.029963143 0.059729695 0.03228636 0.03912139 0.03762593 0.061431177 0.029569432 -0.05304829
-0.05465377 0.008685358 -0.027343266 -0.032802194 0.05915606 0.01957573 0.03204064 0.025474511
0.041890964 0.06061437 -0.004444182 0.05497159 0.06198854 0.016716167 0.015935063 -0.05925691
0.02595511 -0.0038558021 0.04287783 -0.0064026266 0.004861608 0.010964289 -0.05140885 0.02510532
-0.00882069 -0.05484143 -0.00012367219 0.05670292 0.02501107 0.033848815 -0.035272703 -0.055580877
0.015932575 0.029887915 0.0005293712 0.011110596 -0.061110333 -0.048941806 -0.0009530261 0.017132588
-0.03795235 -5.182624e-05 0.005426511 0.008106105 0.05854495 0.062223956 0.049758017 0.046504714
-0.05857452 0.040492885 0.030137964 0.00078994036 0.047468953 0.06181264 -0.0042209476 -0.052421294
0.042556524 -0.036042355 -0.059210353 -0.03487753 0.056060605 -0.051403373 -0.0057007223 0.026307218
-0.019656323 -0.05420821 0.010188676 -0.057668187 0.035326235 0.0086988285 -0.03842678 0.0330251
0.003470786 -0.045253538 0.0600653 0.01315438 -0.05694694 -0.0350124 -0.041905403 0.050539136
-0.040442318 0.03785777 0.010077208 0.055111095 0.031175226 0.012169421 -0.028886773 0.013157807
-0.025418043 -0.006854713 0.015789479 0.0030992106 -0.027035333 -0.026868105 -0.028718114 0.041765116
00000000: a89a bc3c 86ab 043d d0be cdbb 0070 ea3b
00000010: ccd8 3ebd 8c16 0abd cc3e 09bd 66e0 64bd
00000020: 2a52 7c3d 688e 49bd 2c9e 4f3d aabf 243d
00000030: e69b 75bd c4d0 c5bc b806 03bc d47e 543d
00000040: 3093 5ebd cc71 6b3d 14ca 3e3d 8e49 5ebd
00000050: 700a b83c b6a8 673d 646d 143d d835 1cbc
00000060: 701b 933c bcea b73c 66a4 6dbd fa8d 06bd
00000070: e0ae 55bb 4075 91bc d291 223d 3e82 353d
00000080: e251 3ebd b275 32bd 6c23 0b3d 48d9 fcbc
00000090: 80cd b8bb a863 373c b607 6c3d 0085 30bb
000000a0: 3080 633c 74ab f2bc 82e0 413d 88ee 31bc
000000b0: ae05 04bd b89c 1e3c 828f 60bd 5648 663d
000000c0: b430 813c 3080 e9bb 34c1 b9bc 3824 583d
000000d0: c0fe 413d 9a19 623d 90a3 35bc 905d f0bb
000000e0: 48cd e43c fae4 69bd 0cd4 5a3d dad1 5abd
000000f0: 706f 87bb 5683 7b3d 0081 89bb dacb 4bbd
00000100: a407 3bbd 0c0d d8bc 78e1 cf3c 5823 99bc
00000110: c87d 433d 18ef 5abc 48eb 443d 0095 993c
00000120: 5a12 733d 4484 623d bcc3 cebc 14da 16bd
00000130: c079 853b 740d bdbc e04a 55bb 48a3 663c
00000140: 5816 9dbc 504f f6bb 647a fa3c 48d9 76bc
00000150: 9c44 b3bc 8059 2bbd 82f3 783d 908b 71bd
00000160: 6486 12bd e077 9fbb c021 b93c 8a31 6abd
00000170: 9081 4ebc a6ad 41bd 305d 453c f8c8 70bd
00000180: c897 d83c 5e25 0b3d 74ff 70bd f468 ebbc
00000190: 10f2 913b 325b 5b3d 34f9 b53c 9037 f2bb
000001a0: 62d7 0fbd 3035 f73c f0ea 573d 8008 3d3c
000001b0: eab5 553d 0086 fe3c 4e56 03bd bc27 a63c
000001c0: 405d 9e3a 2ae9 68bd a07d d93c f89b 1abc
000001d0: 380f 2c3d 7c70 3f3d 5ae6 21bd 7a34 2cbd
000001e0: 1e4b 6e3d 9068 f1bc f805 3e3d 368b 653d
000001f0: 1c90 adbc 26cf 453d b623 513d 729e 4b3d
00000200: 8008 09ba 845b abbc 688b d8bc d8d6 683c
00000210: 0cbb 63bd f4a7 23bd 88a2 31bc 32b5 3cbd
00000220: d03c 913b 706b 5dbd 7069 4fbd 402f 66bb
00000230: ce41 263d 0096 793b 82da 4fbd 1026 653d
00000240: 78ca 0d3d f841 743c d42d 7ebd b065 82bc
00000250: 2cac edbc 58de 06bc 929c 48bd dcd7 cc3c
00000260: 4475 f53c 20a7 743d b43e 043d c03d 203d
00000270: a61d 1a3d 429f 7b3d 983b f23c 2a49 59bd
00000280: a2dc 5fbd 084d 0e3c fcfe dfbc 985b 06bd
00000290: a04d 723d 485d a03c 0c3d 033d ecaf d03c
000002a0: dc95 2b3d c646 783d 80a0 91bb e429 613d
000002b0: b2e7 7d3d 58f0 883c 408a 823c 60b7 72bd
000002c0: d09f d43c a0b1 7cbb aaa0 2f3d 20cd d1bb
000002d0: 204e 9f3b 90a3 333c 1692 52bd aca9 cd3c
000002e0: a884 10bc 68a1 60bd 00ae 01b9 5241 683d
000002f0: 04e4 cc3c 0ea5 0a3d 1c7a 10bd c6a8 63bd
00000300: 0885 823c 80d7 f43c 80c5 0a3a 3809 363c
00000310: d44e 7abd 3477 48bd 80d4 79ba a459 8c3c
00000320: ec73 1bbd 0060 59b8 e0d0 b13b 78cf 043c
00000330: d4cc 6f3d 8cde 7e3d 10cf 4b3d ba7b 3e3d
00000340: d6eb 6fbd dedb 253d e4e3 f63c 0014 4f3a
00000350: ce6e 423d 402f 7d3d e04f 8abb b6b7 56bd
00000360: c04f 2e3d 26a1 13bd 8e86 72bd bedb 0ebd
00000370: ce9f 653d 588c 52bd 20cd babb 3c82 d73c
00000380: 4c06 a1bc 6e09 5ebd 68ee 263c 7a35 6cbd
00000390: 3eb2 103d 8885 0e3c 6665 1dbd 5445 073d
000003a0: 2076 633b c65b 39bd 0807 763d 7885 573c
000003b0: 3241 69bd 2a69 0fbd 00a5 2bbd 2002 4f3d
000003c0: d8a6 25bd c010 1b3d e01a 253c 2cbc 613d
000003d0: 3063 ff3c 4062 473c f4a3 ecbc d893 573c
000003e0: 8039 d0bc 809d e0bb f058 813c 201c 4b3b
000003f0: 3479 ddbc 801a dcbc 4042 ebbc e611 2b3d

fc_mu.bias f4 [8]
-0.03596121 0.018784262 0.05610688 0.056973442 -0.024553739 -0.01821784 0.028410167 -0.0074501857
00000000: 104c 13bd 74e1 993c 54d0 653d fc5c 693d
00000010: ec24 c9bc 943d 95bc 70bc e83c b020 f4bb

fc_logvar.weight f4 [8, 256]
0.02211281 -0.052955545 -0.02755662 0.030295454 -0.031728186 -0.0009749457 -0.042562142 -0.0120184645
0.003615573 -0.013463862 -0.058765337 -0.043328695 0.04262752 -0.04515834 0.012899928 -0.010577761
0.0056117624 0.053252973 -0.05488962 0.03362222 -0.03578186 0.058832064 0.021073818 -0.04606033
-0.024848878 -0.056866564 0.00047528744 0.060435228 0.01579237 0.020213537 0.017574817 0.041311093
0.009033896 -0.042302266 -0.01202555 0.053625666 0.055457696 -0.049212836 -0.05173587 0.02062358
-0.04679641 -0.033594094 0.052494355 -0.0429387 0.036733806 0.00958699 0.041933887 0.02492182
0.007957436 0.03861285 -0.02842313 -0.0024086162 0.034482516 -0.040211834 0.012798987 0.034139283
-0.009863794 -0.031265363 -0.021501757 0.0062533617 -0.002189681 0.047647648 0.0257902 0.019951507
0.038470544 0.025552034 -0.057279706 0.060149454 0.03810411 0.062157564 -0.00047735125 0.0252776
-0.028849788 -0.021195896 -0.051303707 -0.029548109 0.044307075 0.05687663 -0.01910226 0.016829237
-0.025714688 0.05242768 -0.019861333 0.02883432 -0.043049 -0.0055238456 0.011884563 -0.05284653
0.050282724 0.055587046 0.012034453 0.010777265 0.019365057 0.050408073 0.030336134 0.024814539
-0.0162329 -0.0036106035 -0.00831724 0.0038316697 0.030687384 0.03889241 -0.016016692 -0.04982198
0.029652834 0.015764013 0.03442069 0.043303512 0.0310705 -0.053146854 0.0002982393 -0.055581056
0.059721902 -0.01750654 0.025139496 -0.009015977 -0.0511251 -0.017598651 -0.028630123 -0.021509483
0.03315209 0.0559424 -0.045730397 -0.02289071 0.043473043 0.036107533 -0.059773162 0.041387998
-0.032261163 -0.03145036 -0.010925956 -0.008926347 -0.0053200424 -0.053667344 0.038030677 0.0030059293
-0.011512287 0.049769126 0.030311875 -0.00019711256 -0.02138333 -0.004269451 0.013150796 0.054466464
0.0055134 0.0027385876 0.03330364 -0.026552036 0.060283244 -0.03817317 -0.040292114 0.019121796
-0.035943173 -0.0010025129 -0.018721893 -0.018928677 -0.045862176 -0.016544543 0.0018581897 -0.052117974
0.022260666 0.034519017 0.04161109 -0.0072560087 -0.022528812 0.009532377 -0.061790787 -0.019387588
-0.058875658 -0.05425544 0.04599431 -0.0356007 0.024334751 -0.02183649 0.041458324 0.0018289611
0.021646574 -0.059476458 0.0594605 -0.017211147 0.009970412 0.028717369 -0.0032929927 -0.01847817
-0.022098273 -0.061611734 0.00062517077 0.024893977 -0.059699044 -0.03945054 -0.0145100355 -0.0037529692
0.04958073 -0.025831051 0.043994263 0.018830441 0.04627069 -0.051186435 -0.012311965 0.010600686
0.05093337 -0.009945318 -0.058389142 -0.03709773 0.041360058 -0.0009000376 -0.040703475 -0.0588705
-0.05420792 0.05819861 -0.0042615756 -0.008275479 0.042067938 -0.04807823 -0.006631121 0.011359595
0.045001596 -0.007920995 -0.025911339 8.571893e-05 -0.013537429 -0.057691306 -0.013987437 -0.025077708
-0.026909329 0.015001819 -0.015218601 -0.02488567 -0.014528334 -0.06180334 -0.03273592 0.0032898113
-0.050496988 0.05450269 0.027259685 0.01952096 0.059730202 0.047162883 0.046593085 0.045915455
0.008356348 -0.0133941695 0.013409011 0.050164267 0.016783796 0.0572695 0.025467798 -0.056369476
0.052307174 -0.045235276 -0.042296097 -0.00571543 -0.050512075 0.022474848 -0.05416102 -0.016814247
00000000: ec25 b53c eae7 58bd 6cbe e1bc 2c2e f83c
00000010: 6af5 01bd 8093 7fba a455 2ebd 18e9 44bc
00000020: 40f3 6c3b 8897 5cbc ecb3 70bd 6e79 31bd
00000030: 329a 2e3d f4f7 38bd 385a 533c 584e 2dbc
00000040: e0e2 b73b ca1f 5a3d f0d3 60bd 74b7 093d
00000050: 0090 12bd e4f9 703d 00a3 ac3c c2a9 3cbd
00000060: e08f cbbc eaec 68bd 0030 f939 ee8a 773d
00000070: 005f 813c dc96 a53c 10f9 8f3c d235 293d
00000080: e802 143c 2445 2dbd d006 45bc 96a6 5b3d
00000090: 9c27 633d 6693 49bd fee8 53bd c8f2 a83c
000000a0: 98ad 3fbd f699 09bd 5204 573d 7ee0 2fbd
000000b0: 3076 163d c012 1d3c dec2 2b3d d828 cc3c
000000c0: e85f 023c 8228 1e3d a0d7 e8bc e0d9 1dbb
000000d0: 8a3d 0d3d 2ab5 24bd d8b2 513c a2d5 0b3d
000000e0: c09b 21bc 1c10 00bd 7424 b0bc 00e9 cc3b
000000f0: c080 0fbb 2e2a 433d f845 d33c 5871 a33c
00000100: 4a93 1d3d 8052 d13c 209e 6abd 465f 763d
00000110: 0e13 1c3d ee98 7e3d 0045 fab9 f812 cf3c
00000120: 6456 ecbc 04a3 adbc d623 52bd e00e f2bc
00000130: 567b 353d 78f7 683d 587c 9cbc 78dd 893c
00000140: 9ca7 d2bc 68be 563d 3cb4 a2bc f435 ec3c
00000150: 2654 30bd 6001 b5bb 78b7 423c 9a75 58bd
00000160: 42f5 4d3d 3eaf 633d 282c 453c 2093 303c
00000170: 78a3 9e3c b278 4e3d 7c83 f83c dc47 cb3c
00000180: dcfa 84bc e09f 6cbb 0845 08bc c01c 7b3b
00000190: 1c64 fb3c a64d 1f3d 7035 83bc 2212 4cbd
000001a0: 80ea f23c 8823 813c b6fc 0c3d 065f 313d
000001b0: 9087 fe3c 84b0 59bd 005d 9c39 f6a8 63bd
000001c0: f49e 743d e069 8fbc 58f1 cd3c c0b7 13bc
000001d0: 8e68 51bd 0c2b 90bc b889 eabc a834 b0bc
000001e0: 7cca 073d dc23 653d cc4f 3bbd 4c85 bbbc
000001f0: ca10 323d 7ee5 133d b4d4 74bd 7686 293d
00000200: 4824 04bd 18d2 00bd c802 33bc d03f 12bc
00000210: c053 aebb 4ad2 5bbd 0ec6 1b3d 20ff 443b
00000220: 089e 3cbc b6da 4b3d 9c50 f83c 00b0 4eb9
00000230: 182c afbc c0e6 8bbb 7076 573c 3a18 5f3d
00000240: c0a9 b43b e079 333b 6669 083d a883 d9bc
00000250: 90eb 763d 785b 1cbd 5809 25bd 50a5 9c3c
00000260: 2639 13bd c066 83ba a85e 99bc 5010 9bbc
00000270: fad9 3bbd 6c88 87bc 808e f33a a879 55bd
00000280: 005c b63c d063 0d3d 6470 2a3d d0c3 edbb
00000290: 588e b8bc b02d 1c3c 5618 7dbd b8d2 9ebc
000002a0: 9a27 71bd f43a 5ebd 8864 3c3d 0ad2 11bd
000002b0: ac59 c73c 70e2 b2bc 34d0 293d c0b9 ef3a
000002c0: 2854 b13c 969d 73bd da8c 733d 64fe 8cbc
000002d0: f05a 233c b040 eb3c 40cf 57bb 885f 97bc
000002e0: 7007 b5bc 965c 7cbd 80e2 233a 74ee cb3c
000002f0: fc86 74bd e496 21bd 80bb 6dbc 60f4 75bb
00000300: 2a15 4b3d a49b d3bc 5433 343d 4c42 9a3c
00000310: 5686 3d3d dea8 51bd 20b8 49bc 80ae 2d3c
00000320: 829f 503d b0f1 22bc 7429 6fbd caf3 17bd
00000330: 2a69 293d 80f0 6bba b0b8 26bd 3222 71bd
00000340: 2009 5ebd aa61 6e3d b0a4 8bbb e095 07bc
00000350: 6e4f 2c3d aeed 44bd e049 d9bb 981d 3a3c
00000360: 9853 383d 10c7 01bc 0444 d4bc 00c4 b338
00000370: 18cc 5dbc b84d 6cbd 902b 65bc c46f cdbc
00000380: f470 dcbc 30ca 753c 7057 79bc 08dd cbbc
00000390: 4008 6ebc 8025 7dbd 1a16 06bd e099 573b
000003a0: eed5 4ebd 363e 5f3d b44f df3c 6cea 9f3c
000003b0: a8a7 743d de2d 413d 64d8 3e3d d811 3c3d
000003c0: 10e9 083c 3873 5bbc 78b1 5b3c 0c79 4d3d
000003d0: 2c7e 893c 6c93 6a3d d8a1 d03c aee3 66bd
000003e0: 0c40 563d a048 39bd ac3e 2dbd 8048 bbbb
000003f0: c0e5 4ebd 2c1d b83c f2d7 5dbd 08be 89bc

fc_logvar.bias f4 [8]
0.0021858066 -0.058443226 0.0006925091 0.049600534 -0.051410586 -0.0015407577 0.047212884 0.051372804
00000000: c03f 0f3b 2a62 6fbd 8089 353a ee29 4b3d
00000010: e893 52bd 40f3 c9ba 4c62 413d 4a6c 523d

decoder.0.weight f4 [256, 16]
0.14593187 -0.038931012 -0.00047907233 0.037662484 0.044939935 0.16660759 0.09957226 0.12578528
0.049246248 0.068138406 -0.029332368 -0.14517856 0.016526692 -0.0309071 -0.19707386 0.2149108
0.13462049 -0.22535536 -0.07154006 -0.14101139 -0.00520584 0.032821298 -0.23335703 -0.07315645
-0.22493798 0.2117487 -0.051180735 0.053801082 0.18826748 0.24735107 -0.09309165 -0.017920129
-0.1016078 -0.16425028 -0.19246158 0.054603007 0.22425574 -0.06986487 -0.23686069 -0.13356003
0.07335624 0.07587729 -0.13324654 -0.1700504 0.004193728 -0.20137477 0.10911701 -0.11883483
0.14785051 0.013587207 -0.05821094 0.050838385 0.12266818 -0.03308943 -0.11776453 0.04840813
0.17553402 -0.14831498 0.101257585 0.034396987 -0.10027828 -0.07758346 0.025078656 0.13070178
-0.0462209 0.14873093 0.18947312 0.09679613 -0.2451024 -0.15381595 0.042589303 -0.18395649
0.04816489 0.15639271 0.22015183 -0.1914968 0.22975256 -0.13804683 -0.118644826 0.13823469
-0.19342816 -0.005579114 0.0021423101 -0.18130623 -0.004380822 0.06464797 -0.10887128 -0.14958988
0.10578464 0.21575084 0.24829037 -0.006608177 -0.033748902 0.15333842 -0.15003723 0.08849908
-0.06618476 0.00583148 0.09169856 -0.24598213 -0.1778208 -0.01252237 -0.19463876 0.10883949
0.18492936 -0.2149592 0.12920536 -0.07031395 0.11650573 0.1556224 0.18500382 0.094620205
-0.14090163 0.14995432 -0.060503453 0.17330374 0.2414419 -0.10689247 -0.2288518 -0.11414533
0.007236316 -0.13531253 0.18505621 0.06824037 -0.060814478 0.14662477 -0.011692758 0.20519029
-0.23816645 -0.108189374 0.21322224 0.022879962 0.11033103 -0.106586844 0.20261848 0.23699829
-0.14032099 0.23301697 -0.18229847 0.19400088 0.20396559 -0.16314748 -0.10158888 0.10375677
0.20876509 -0.1216633 -0.06441656 0.011052603 -0.061309934 -0.13390124 -0.26226017 -0.19505583
-0.02268715 -0.19814138 0.19756596 0.025610028 -0.115271546 0.16075782 0.2152004 -0.22300269
0.14935595 -0.0932278 0.19440508 -0.0058753 0.015153259 0.21196729 0.011502393 0.17463279
-0.1332893 0.005606523 0.07252392 0.12387894 0.15260684 0.16517867 -0.18833315 -0.20717216
-0.113351405 -0.06304467 0.08410725 -0.19614755 0.21672231 -0.10173017 -0.15740201 -0.055676557
-0.109912395 -0.2001557 0.0024853137 -0.13235356 0.0090054395 -0.227081 -0.102692224 -0.20617084
-0.22490814 -0.13796282 -0.079089135 0.19976191 -0.23544061 0.05412513 -0.07180633 0.07301207
0.07384822 -0.18393101 -0.23091897 0.1399387 -0.1604871 -0.14719428 -0.17178062 0.07332319
-0.22798684 0.16546842 -0.05160615 -0.17962854 -0.1732159 0.13936836 -0.19688982 0.013736967
0.20607223 -0.15677911 0.01514763 -0.12744752 -0.094050735 0.24012998 -0.08000612 0.12650223
-0.18492052 0.046854705 0.17980331 -0.14863685 -0.20109528 0.17174333 0.23543943 -0.0875842
0.23456779 -0.067608304 0.063082255 -0.05984959 0.12010219 0.12017751 -0.0068345303 -0.019255724
-0.01982081 0.045801133 -0.01546666 0.21165791 0.05148974 0.013965249 0.062478743 0.044694126
0.20444901 -0.14888988 0.19911438 -0.22015199 -0.038675755 0.22388646 0.008796193 -0.028000265
00000000: 2a6f 153e 2076 1fbd 002c fbb9 fa43 1a3d
00000010: f012 383d 2e9b 2a3e 8bec cb3d dbcd 003e
00000020: 6fb6 493d 268c 8b3d 6f4a f0bc b0a9 14be
00000030: fc62 873c e330 fdbc bbcd 49be 9411 5c3e
00000040: f4d9 093e 8ec3 66be 9883 92bd 4a65 10be
00000050: c095 aabb a06f 063d 25f5 6ebe 0dd3 95bd
00000060: 2456 66be a7d4 583e e4a2 51bd 865e 5c3d
00000070: 31c9 403e 9949 7d3e d6a6 bebd 3ccd 92bc
00000080: c017 d0bd 3a31 28be a614 45be 67a7 5f3d
00000090: 4ca3 653e 5015 8fbd 9c8b 72be f6c3 08be
000000a0: cc3b 963d 8d65 9b3d c871 08be b121 2ebe
000000b0: 8a6b 893b 3035 4ebe bd78 df3d ad5f f3bd
000000c0: 2066 173e e09c 5e3c 986e 6ebd e93b 503d
000000d0: 7439 fb3d c888 07bd 882e f1bd 9a47 463d
000000e0: 31bf 333e e2df 17be 2360 cf3d dbe3 0c3d
000000f0: b35e cdbd 14e4 9ebd c171 cd3c b0d6 053e
00000100: 2052 3dbd ec4c 183e 3e05 423e 0d3d c63d
00000110: 20fc 7abe ee81 1dbe 1f72 2e3d 175f 3cbe
00000120: 8c48 453d 6925 203e 7b6f 613e bd17 44be
00000130: 4144 6b3e 265c 0dbe 0ffc f2bd 658d 0d3e
00000140: 0812 46be 00d1 b6bb 0066 0c3b 57a8 39be
00000150: 008d 8fbb 2866 843d e8f7 debd 172e 19be
00000160: 9ea5 d83d caed 5c3e d53f 7e3e 6889 d8bb
00000170: 4a3c 0abd bf04 1d3e 5ca3 19be 013f b53d
00000180: e08b 87bd 0016 bf3b 74cc bb3d bde2 7bbe
00000190: a816 36be a02a 4dbc 624f 47be 3de7 de3d
000001a0: 1f5e 3d3e 441e 5cbe 694e 043e c300 90bd
000001b0: 8e9a ee3d 7a5b 1f3e a471 3d3e 3dc8 c13d
000001c0: 8448 10be a08d 193e 78d2 77bd 8976 313e
000001d0: 8c3c 773e 70ea dabd 2058 6abe 07c5 e9bd
000001e0: 9e1e ed3b 5e8f 0abe 607f 3d3e 9bc1 8b3d
000001f0: 9a18 79bd ce24 163e fb92 3fbc 671d 523e
00000200: e8e1 73be 6492 ddbd ee56 5a3e c26e bb3c
00000210: 3cf5 e13d 344a dabd 387b 4f3e aeaf 723e
00000220: 4eb0 0fbe 009c 6e3e 73ac 3abe 2ba8 463e
00000230: 5bdc 503e 2210 27be d50d d0bd 6e7e d43d
00000240: 84c6 553e 9c2a f9bd d4ec 83bd fa15 353c
00000250: 2020 7bbd 681d 09be f746 86be b7bc 47be
00000260: 67da b9bc 93e5 4abe bb4e 4a3e 1fcc d13c
00000270: 7d13 ecbd b39d 243e 7e5d 5c3e d15a 64be
00000280: c4f0 183e 38ee bebd 2012 473e 9785 c0bb
00000290: 6045 783c f40d 593e 8874 3c3c f0d2 323e
000002a0: fe7c 08be ecb6 b73b 6c87 943d 3eb4 fd3d
000002b0: f844 1c3e 9924 293e 68da 40be f024 54be
000002c0: c824 e8bd 901d 81bd 6c40 ac3d e7da 48be
000002d0: 74ec 5d3e e857 d0bd fe2d 21be 1a0d 64bd
000002e0: c019 e1bd 9ef5 4cbe a5e0 223b b187 07be
000002f0: 8d8b 133c ec87 68be 4d50 d2bd 731e 53be
00000300: 524e 66be 2046 0dbe 7cf9 a1bd 638e 4c3e
00000310: 5817 71be 50b2 5d3d 320f 93bd 5a87 953d
00000320: bc3d 973d 6958 3cbe 0676 6cbe 174c 0f3e
00000330: bb56 24be 19ba 16be 42e7 2fbe 782a 963d
00000340: 6275 69be 8e70 293e f860 53bd 8bf0 37be
00000350: 825f 31be 94b6 0e3e 7c9d 49be 0411 613c
00000360: 9904 533e b48a 20be c42d 783c 9a81 02be
00000370: ac9d c0bd a2e4 753e 40da a3bd cd89 013e
00000380: ce5b 3dbe b8ea 3f3d 5c1e 383e 4234 18be
00000390: eceb 4dbe 7cdd 2f3e 0917 713e 585f b3bd
000003a0: 8a32 703e 3976 8abd 4531 813d d824 75bd
000003b0: 23f8 f53d a01f f63d 32f4 dfbb 2ebe 9dbc
000003c0: 405f a2bc f899 3b3d e067 7dbc dabc 583e
000003d0: e8e6 523d 80ce 643c b6e9 7f3d 3011 373d
000003e0: 155b 513e 9776 18be a4e4 4b3e 866f 61be
000003f0: 786a 1ebd 7e42 653e e81d 103c d060 e5bc
