space_robot_planning/weights/mlp_debug.pth (torch, 152809 bytes, 8 tensors)

net.0.weight f4 [128, 8]
0.1816906 -0.23255134 -0.2651138 -0.31087613 0.4383229 0.24895476 0.18315682 0.20670556
0.30685648 -0.22240715 0.11742112 0.37244025 -0.21366313 0.21930462 -0.32779834 -0.49805567
-0.0056990846 -0.03459862 0.3727496 0.3510576 -0.23247533 -0.1966328 -0.36178988 0.087822564
0.35996312 -0.20924881 0.3045289 -0.5185487 0.35251194 -0.0001472984 0.223491 0.5999167
0.14951488 -0.49802247 0.31067747 -0.026021283 0.021157391 -0.30167106 0.028178371 0.46567404
0.38704735 0.3647399 -0.07756061 -0.38200665 0.33734363 -0.3897511 -0.2656237 -0.14844553
0.0006033986 -0.44948587 0.43515474 0.20125154 -0.23613358 0.49577272 -0.14670546 0.35838687
0.0335378 -0.30459985 -0.46560967 0.054928318 -0.20502979 -0.12712993 0.4157031 -0.32136315
0.25072223 0.16168118 0.09392489 -0.5100659 -0.2402123 -0.44271922 0.114910945 0.17880978
0.16939394 -0.4910915 0.1424387 -0.20213862 -0.21779372 0.011000401 0.5401205 -0.10530749
0.3322447 0.15371518 0.10611983 -0.3511479 -0.1257945 0.35462362 0.17762046 -0.29078317
-0.43954313 -0.024555895 -0.24656858 0.18689425 -0.32330972 0.36549777 -0.07369878 -0.21434398
0.32111126 -0.12579902 -0.44011986 -0.18326116 -0.0044892104 -0.5640014 0.23805404 0.08042221
0.06160765 0.26316053 -0.24094681 0.2185732 -0.35519812 -0.28499678 -0.04098976 0.009386406
0.19468427 -0.2936715 -0.05206079 0.35975525 0.022412023 0.37694672 0.19032405 -0.19529787
-0.28339967 0.2255032 0.37472746 0.38532963 -0.46315846 -0.22296172 -0.238875 -0.26130235
-0.31390113 -0.15839878 -0.2761273 -0.5000061 0.21508516 -0.27612874 0.5464058 -0.11665727
-0.5876124 -0.2579627 0.07656241 -0.2763903 0.4348451 0.0036564886 0.35688406 -0.32443935
-0.29120287 -0.20130908 0.09940396 -0.49536002 -0.03955021 -0.0011958452 0.4917344 0.32456368
-0.22950491 0.18441069 0.21107268 -0.30099595 0.40378264 0.21669945 0.20932293 -0.064804785
0.2869843 0.2908768 -0.37034786 -0.17806944 0.06417008 -0.47132394 0.24494962 0.08490357
0.2601458 -0.41306505 -0.076199755 -0.35157192 -0.20970662 0.1187786 0.4506339 0.30303532
0.36485633 -0.3062725 0.18723844 0.32313588 -0.41618538 0.14857242 0.03181204 0.3967484
-0.18301328 -0.38291293 -0.15492958 -0.23079935 0.033437952 0.19943058 -0.09385556 0.3743981
-0.20035504 0.186162 -0.20520294 -0.023750395 -0.113651514 -0.13734074 -0.05122789 -0.32400078
0.39202294 -0.27801052 0.11314035 0.21451712 0.1526929 -0.074610785 -0.4560819 0.24285752
-0.35865313 0.115594305 -0.06908392 -0.2883655 0.19764116 0.111898266 -0.1969186 -0.3403148
0.3052836 0.12163304 0.084174134 0.31375346 0.3436914 -0.16224317 0.021880226 -0.18027745
-0.552916 0.27909854 0.10251431 0.2856318 0.341212 0.286545 -0.12815468 -0.5059346
0.46812084 -0.20851006 -0.020261968 -0.2751838 -0.30457032 0.35699102 -0.11473272 0.3577519
-0.37305856 0.34733358 -0.17484143 -0.1372869 0.2085481 -0.3186819 0.21612157 0.41831255
-0.23162031 0.25198963 -0.40849683 0.5603644 -0.3186059 0.13544619 -0.17397593 -0.6981227
00000000: 1a0d 3a3e f021 6ebe ffbc 87be 282b 9fbe
00000010: dc6b e03e ffed 7e3e 768d 3b3e 9faa 533e
00000020: 4b1c 9d3e b3be 63be 7c7a f03d 7db0 be3e
00000030: 82ca 5abe 6491 603e 2fd5 a7be 2701 ffbe
00000040: 63bf babb 48b7 0dbd 09d9 be3e d2bd b33e
00000050: 030e 6ebe 1c5a 49be 863c b9be 51dc b33d
00000060: 164d b83e 5245 56be 36eb 9b3e 9cbf 04bf
00000070: 727c b43e 1d74 1ab9 d3da 643e 2494 193f
00000080: 6e1a 193e cdfc febe 1e11 9f3e 962a d5bc
00000090: 4452 ad3c a174 9abe 54d6 e63c d46c ee3e
000000a0: 122b c63e 30bf ba3e 19d8 9ebd 6096 c3be
000000b0: 4eb8 ac3e 758d c7be d4ff 87be 1b02 18be
000000c0: 652d 1e3a 0323 e6be 9acc de3e e214 4e3e
000000d0: 00cd 71be ecd5 fd3e f539 16be 7c7e b73e
000000e0: ef5e 093d 83f4 9bbe 6464 eebe 84fc 603d
000000f0: 54f3 51be 592e 02be 09d7 d43e b689 a4be
00000100: aa5e 803e c08f 253e b15b c03d ae93 02bf
00000110: 37fa 75be 18ac e2be 6e56 eb3d e919 373e
00000120: 9b75 2d3e 5870 fbbe 73db 113e 6dfd 4ebe
00000130: 5105 5fbe 073b 343c 5645 0a3f 74ab d7bd
00000140: fa1b aa3e 8367 1d3e 5a55 d93d a8c9 b3be
00000150: 46d0 00be 3a91 b53e 23e2 353e 88e1 94be
00000160: cc0b e1be 7229 c9bc 797c 7cbe 3561 3f3e
00000170: da88 a5be 8622 bb3e 63ef 96bd fd7c 5bbe
00000180: b268 a43e 75d1 00be 6457 e1be d0a8 3bbe
00000190: 3a1a 93bb 6562 10bf 70c4 733e 66b4 a43d
000001a0: 4e58 7c3d fabc 863e c3ba 76be a7d1 5f3e
000001b0: 87dc b5be 19eb 91be e1e4 27bd 71c9 193c
000001c0: 505b 473e 1c5c 96be b23d 55bd d731 b83e
000001d0: 6b99 b73c 29ff c03e 4fe4 423e 2afc 47be
000001e0: c319 91be 50ea 663e 47dc bf3e ed49 c53e
000001f0: 1b23 edbe 1450 64be a69b 74be 6cc9 85be
00000200: a6b7 a0be 4a33 22be 8f60 8dbe 6600 00bf
00000210: 493f 5c3e bf60 8dbe 40e1 0b3f 02ea eebd
00000220: c46d 16bf b013 84be c1cc 9c3d 0883 8dbe
00000230: 04a4 de3e b3a1 6f3b 82b9 b63e ea1c a6be
00000240: 8b18 95be f823 4ebe 4e94 cb3d d49f fdbe
00000250: 67ff 21bd e8bd 9cba 9cc4 fb3e 362d a63e
00000260: 5603 6bbe 28d6 3c3e 7023 583e 241c 9abe
00000270: 99bc ce3e 76e6 5d3e c058 563e 5fb8 84bd
00000280: 9bef 923e ceed 943e 3c9e bdbe d657 36be
00000290: 9a6b 833d 5f51 f1be 13d4 7a3e ece1 ad3d
000002a0: d531 853e 437d d3be 9e0e 9cbd 3c01 b4be
000002b0: 55bd 56be 3242 f33d 7db9 e63e 7227 9b3e
000002c0: 73ce ba3e c0cf 9cbe 6fbb 3f3e 1172 a53e
000002d0: 4016 d5be 5e23 183e 574d 023d 9b22 cb3e
000002e0: d567 3bbe 2a0d c4be dca5 1ebe aa56 6cbe
000002f0: 3cf6 083d 8837 4c3e 5837 c0bd 1cb1 bf3e
00000300: df29 4dbe 40a1 3e3e b820 52be 3090 c2bc
00000310: 20c2 e8bd 0da3 0cbe 56d4 51bd 6ee3 a5be
00000320: 3bb7 c83e 6557 8ebe 21b6 e73d 60aa 5b3e
00000330: 875b 1c3e 8acd 98bd 9183 e9be a4af 783e
00000340: 62a1 b7be b5bc ec3d df7b 8dbd a5a4 93be
00000350: 7262 4a3e eb2a e53d 08a5 49be be3d aebe
00000360: 224e 9c3e be1a f93d 7d63 ac3d 4ba4 a03e
00000370: 52f8 af3e 1323 26be 293e b33c a79a 38be
00000380: e78b 0dbf 01e6 8e3e 06f3 d13d 553e 923e
00000390: 57b3 ae3e 07b6 923e fb3a 03be ee84 01bf
000003a0: 89ad ef3e a983 55be 6dfc a5bc e4e4 8cbe
000003b0: a4f0 9bbe 87c7 b63e fdf8 eabd 422b b73e
000003c0: 8801 bfbe b5d5 b13e a209 33be f094 0cbe
000003d0: a28d 553e 462a a3be f94e 5d3e 102d d63e
000003e0: e02d 6dbe c904 813e 7f26 d1be 0b74 0f3f
000003f0: 5020 a3be 68b2 0a3e bf26 32be 2bb8 32bf

net.0.bias f4 [128]
0.192562 0.29463354 0.3227551 0.0039669974 0.21710083 -0.03379494 -0.010396358 0.010371012
-0.034182224 -0.088566445 -0.054252964 -0.0694776 0.032706536 0.002490765 0.13511597 0.26863524
0.004436168 0.05032692 0.23479496 0.40337947 0.10406021 -0.037330016 -0.0068870615 0.34865397
0.27368927 0.12781785 0.15034021 0.45177135 0.01533671 0.27819553 0.3381727 0.008753038
0.038332187 0.31606954 -0.03731561 -0.043728705 -0.053217854 -0.010833286 0.0262066 0.015094839
0.30654237 0.331232 0.2956376 -0.018130597 0.04667393 -0.1977101 0.0056432416 -0.088698536
0.3071022 -0.06770534 -0.022166846 0.025246525 -0.009768393 0.07529944 0.04490895 -0.006264167
0.07829152 0.17836729 -0.03526496 0.10137834 0.03185991 0.28989226 0.057427045 0.12777396
-0.20721088 -0.18559399 -0.13480823 -0.02099797 0.012426568 -0.04599849 0.0065012644 -0.0016025064
0.0066630244 -0.019630505 -0.0188136 0.00023321049 -0.011939489 0.29969704 -0.023342676 0.045433942
0.4550409 0.11292636 0.22451846 -0.0036357094 0.20569368 0.02467412 0.06836193 -0.13321598
-0.03377274 0.17001998 0.14839438 0.31997094 -0.03529065 -0.06216129 -0.10255907 0.28477407
0.27689534 0.18406998 0.0038860214 0.027336529 0.22515729 0.07803362 0.103461646 -0.039359514
-0.15383425 0.03691612 0.029724883 0.021385277 0.0014528633 0.0013463 0.25883663 0.036736704
-0.0055329152 -0.056211747 -0.010795267 0.014891052 0.06503605 -0.05968732 0.055247776 -0.013023854
-0.07465373 0.022182487 0.013764411 0.20866638 -0.119090065 0.014454447 0.20326641 0.07733201
00000000: f92e 453e 35da 963e 2840 a53e 96fd 813b
00000010: ae4f 5e3e 906c 0abd 7c55 2abc 2deb 293c
00000020: a902 0cbd 5362 b5bd 5b38 5ebd 464a 8ebd
00000030: 4af7 053d 1a3c 233b d75b 0a3e 8f8a 893e
00000040: 465d 913b 9a23 4e3d 176e 703e c187 ce3e
00000050: 851d d53d 5ce7 18bd dcac e1bb c682 b23e
00000060: 0021 8c3e afe2 023e c9f2 193e 934e e73e
00000070: d346 7b3c a56f 8e3e f924 ad3e e768 0f3c
00000080: 3602 1d3d ded3 a13e 41d8 18bd df1c 33bd
00000090: f7fa 59bd 187e 31bc 39af d63c 5850 773c
000000a0: 1ff3 9c3e 3e97 a93e d05d 973e 9e86 94bc
000000b0: 2a2d 3f3d 8474 4abe f1ea b83b 94a7 b5bd
000000c0: 803c 9d3e 19a9 8abd 3f97 b5bc cdd1 ce3c
000000d0: 9c0b 20bc 9836 9a3d 72f2 373d a443 cdbb
000000e0: 4e57 a03d eaa5 363e fe71 10bd 729f cf3d
000000f0: 897f 023d c26c 943e 9f38 6b3d 2dd7 023e
00000100: 172f 54be 5a0c 3ebe 2b0b 0abe ef03 acbc
00000110: ce98 4b3c ea68 3cbd 8f08 d53b 310b d2ba
00000120: 8055 da3b 27d0 a0bc fb1e 9abc f789 7439
00000130: d99d 43bc e471 993e 2439 bfbc f118 3a3d
00000140: 1ffb e83e ef45 e73d 2be8 653e 1545 6ebb
00000150: 5da1 523e 6121 ca3c 5701 8c3d c569 08be
00000160: 4955 0abd b819 2e3e b2f4 173e 3bd3 a33e
00000170: ee8c 10bd d69c 7ebd 7d0a d2bd e8cd 913e
00000180: 3ac5 8d3e d77c 3c3e 9fac 7e3b dbf0 df3c
00000190: a28f 663e 17d0 9f3d b3e3 d33d 7137 21bd
000001a0: ba86 1dbe 5c35 173d 9981 f33c 2d30 af3c
000001b0: 016e be3a 5576 b03a 3c86 843e 3a79 163d
000001c0: 754d b5bb 4a3e 66bd a2de 30bc 99f9 733c
000001d0: 9f31 853d b17a 74bd 7e4b 623d 0162 55bc
000001e0: 0ee4 98bd 0cb8 b53c 2084 613c a4ac 553e
000001f0: 7ee5 f3bd 58d2 6c3c 1225 503e 3f60 9e3d

net.2.weight f4 [128, 128]
-0.13286209 -0.018977243 -0.14561066 -0.022985425 -0.11409162 0.13078602 -0.02142284 -0.17183648
0.029370926 0.04411045 0.016438399 0.11794447 -0.06700575 0.15367033 -0.009525649 -0.052494965
0.16777605 0.013632279 -0.07912313 -0.0343654 -0.06964276 -0.12189641 -0.07588903 -0.08808745
0.104951724 0.025903696 0.06374618 -0.054566152 -0.01832024 -0.013140851 -0.09804892 0.07128174
-0.09761911 -0.035167586 0.110075004 0.024925798 -0.034154557 -0.07012883 0.018063016 -0.056722548
0.021532267 -0.08683086 0.0067053945 0.08716652 0.10748246 0.034753025 -0.048091665 -0.07743808
-0.018642256 -0.06819353 -0.016611949 -0.013781162 0.14271827 0.04860518 0.15932766 0.12777598
-0.02989438 -0.013562832 0.05801253 0.0061131534 0.03189009 0.016782386 0.05864677 0.08593387
-0.063111685 0.05685293 0.014151382 -0.046101246 0.0019496902 0.09212287 0.027742222 -0.2113622
0.14988366 0.04387973 0.09121288 0.08844636 0.019286385 0.086192854 -0.07358189 0.118522786
0.07229084 -0.08604268 0.06666463 -0.010074624 0.06265979 0.019119374 0.036815703 0.27193153
0.039014857 -0.119731635 -0.12280097 0.08978921 -0.01601139 -0.0005530361 0.10042444 -0.03172427
-0.057541728 0.034289747 -0.008294549 0.15611365 -0.020719474 0.09815577 0.14753419 0.10113853
-0.12510306 -0.1211973 0.030419562 0.045325913 -0.007077567 0.047756 0.012367187 0.02300432
-0.042603668 -0.073811814 0.06944075 -0.08007569 0.07961919 -0.01439657 0.12487577 -0.086171806
0.12142554 -0.012655342 -0.011616713 0.034464527 0.10860729 0.12314835 0.11045683 -0.051532235
0.00212165 -0.041566826 -0.07753721 0.047250383 0.13250226 0.1794668 0.109555684 0.11618671
0.0047317925 -0.04857752 0.046991304 0.08572591 0.048133 -0.07218175 -0.08241755 0.03639382
0.16117929 0.093419045 0.021214906 -0.0106494315 -0.06516284 -0.04922297 0.011584214 -0.083670765
-0.018657548 -0.00010455885 -0.04518294 -0.0254331 -0.006622971 -0.048333824 -0.016322229 0.078227915
0.041955102 -0.06133315 0.11170956 0.09178818 0.02635273 0.04385508 0.05594602 0.02384837
0.08025111 -0.0069790045 0.018778484 0.16766964 -0.020634634 -0.16233788 -0.040160075 0.061694298
-0.02281154 -0.00030172462 -0.06507759 -0.15608445 0.11927804 0.13539276 -0.0015352906 0.04732038
-0.06023165 0.0460781 -0.04024556 0.06867795 0.004955226 0.031399064 0.11216261 0.0985005
-0.09649306 0.12816584 -0.04304799 -0.068369895 0.004599259 0.044811517 0.10681168 -0.03268798
0.07663741 0.060748953 0.09186338 0.17245957 0.109892756 -0.02225056 0.06977457 0.040111374
-0.0033168043 0.012849441 0.050097518 0.042962868 -0.034815088 0.07394422 0.03270736 0.14113049
0.01552975 -0.026117625 -0.054898895 0.050973997 -0.095347896 0.11330425 0.10632664 0.06871548
0.12749644 -0.0161351 0.03355694 0.106757134 0.046205927 0.1055591 0.09108847 0.041521743
0.006727976 0.052368853 -0.09062699 -0.0016498354 0.030426119 -0.004233349 -0.062355816 -0.010202334
0.019404689 -0.03589276 0.15453228 0.10187953 0.07175561 -0.036495857 0.16791117 0.0635058
0.09486513 0.07927638 0.041742448 0.1105369 0.05596575 0.058512155 -0.017742788 -0.08244873
00000000: 000d 08be 2a76 9bbc f61a 15be ee4b bcbc
00000010: dea8 e9bd c5ec 053e f47e afbc e7f5 2fbe
00000020: 4c9b f03c 29ad 343d d2a9 863c df8c f13d
00000030: 503a 89bd c15b 1d3e 7811 1cbc f604 57bd
00000040: 7ccd 2b3e ec59 5f3c 4f0b a2bd bcc2 0cbd
00000050: dda0 8ebd d3a4 f9bd b56b 9bbd 3167 b4bd
00000060: eef0 d63d fd33 d43c 5b8d 823d c280 5fbd
00000070: 5414 96bc b94c 57bc dfcd c8bd 29fc 913d
00000080: 87ec c7bd e30b 10bd 016f e13d 3031 cc3c
00000090: a6e5 0bbd b49f 8fbd e4f8 933c e755 68bd
000000a0: 7064 b03c 61d4 b1bd edb8 db3b 5c84 b23d
000000b0: c41f dc3d 3059 0e3d c4fb 44bd db97 9ebd
000000c0: a5b7 98bc 0da9 8bbd c815 88bc 62ca 61bc
000000d0: bd24 123e 3a16 473d ca26 233e b5d7 023e
000000e0: 0fe5 f4bc a436 5ebc 8c9e 6d3d d950 c83b
000000f0: 2f9f 023d 377b 893c 9837 703d 19fe af3d
00000100: b340 81bd 9ede 683d 33db 673c a9d4 3cbd
00000110: bf8c ff3a eaaa bc3d a843 e33c 556f 58be
00000120: 1a7b 193e 3bbb 333d d2cd ba3d 5d23 b53d
00000130: 7bfe 9d3c e185 b03d 1ab2 96bd 13bc f23d
00000140: 380d 943d 2537 b0bd 7787 883d 0910 25bc
00000150: c753 803d 3ca0 9c3c 10cc 163d 9c3a 8b3e
00000160: 0bce 1f3d dc35 f5bd 137f fbbd 68e3 b73d
00000170: 522a 83bc a0f9 10ba 54ab cd3d 4ff1 01bd
00000180: e0b0 6bbd 6873 0c3d dce5 07bc 42dc 1f3e
00000190: e3bb a9bc e405 c93d 3413 173e b821 cf3d
000001a0: 041b 00be 4a36 f8bd 7232 f93c aaa7 393d
000001b0: efea e7bb cc9b 433d be9f 4a3c 8e73 bc3c
000001c0: 2f81 2ebd a62a 97bd f436 8e3d b9fe a3bd
000001d0: 630f a33d 97df 6bbc debe ff3d d87a b0bd
000001e0: f4ad f83d 5a58 4fbc 0754 3ebc ad2a 0d3d
000001f0: 806d de3d 3435 fc3d 3137 e23d 7713 53bd
00000200: 610b 0b3b fa41 2abd d4cb 9ebd 9e89 413d
00000210: acae 073e 25c6 373e bb5e e03d 4cf3 ed3d
00000220: 270d 9b3b 39f9 46bd f479 403d 1191 af3d
00000230: 1c27 453d 06d4 93bd 88ca a8bd b011 153d
00000240: 2f0c 253e 7c52 bf3d e2ca ad3c f47a 2ebc
00000250: 1874 85bd 069e 49bd b7cb 3d3c 945b abbd
00000260: b7d7 98bc 9b46 dbb8 bf11 39bd 1459 d0bc
00000270: 8205 d9bb b0f9 45bd 32b6 85bc f535 a03d
00000280: 1dd9 2b3d 7838 7bbd fbc7 e43d 71fb bb3d
00000290: aee1 d73c 62a1 333d a727 653d a85d c33c
000002a0: b25a a43d 22b0 e4bb 56d5 993c 97b1 2b3e
000002b0: f709 a9bc e73b 26be e47e 24bd 29b3 7c3d
000002c0: 44df babc cb30 9eb9 6647 85bd 9ad4 1fbe
000002d0: 0c48 f43d 66a4 0a3e ce3b c9ba 04d3 413d
000002e0: 76b5 76bd 64bc 3c3d 87d8 24bd 06a7 8c3d
000002f0: 735f a23b 4e9c 003d 83b5 e53d a1ba c93d
00000300: 279e c5bd e83d 033e 1753 30bd 8405 8cbd
00000310: 61b5 963b 488c 373d 15c0 da3d d5e3 05bd
00000320: 13f4 9c3d e5d3 783d de22 bc3d 3e99 303e
00000330: 740f e13d ce46 b6bc f8e5 8e3d d34b 243d
00000340: be5e 59bb 7686 523c 0e33 4d3d d5f9 2f3d
00000350: 449a 0ebd 1170 973d 27f8 053d 8384 103e
00000360: 7e70 7e3c a1f4 d5bc aadd 60bd 1cca 503d
00000370: c245 c3bd 0f0c e83d c8c1 d93d b4ba 8c3d
00000380: 6d8e 023e c22d 84bc 0073 093d 7ca3 da3d
00000390: 6d42 3d3d 5f2f d83d 978c ba3d b412 2a3d
000003a0: 5a76 dc3b b980 563d a59a b9bd 4a3f d8ba
000003b0: 3240 f93c e8b7 8abb d068 7fbd b127 27bc
000003c0: 95f6 9e3c 4904 13bd b63d 1e3e 37a6 d03d
000003d0: 9bf4 923d ae7c 15bd e8f0 2b3e 540f 823d
000003e0: a648 c23d a85b a23d 21fa 2a3d 2c61 e23d
000003f0: 583c 653d 71aa 6f3d 5359 91bc e1da a8bd

net.2.bias f4 [128]
0.027615912 -0.06878925 0.10236318 -0.015869686 0.10830269 -0.09710383 0.06304913 0.11351029
-0.06305898 -0.070019856 0.0875692 -0.022088034 -0.067124866 -0.105557464 0.0044071744 -0.034752604
-0.048483353 0.071011744 0.01551641 0.046227258 0.12034768 0.007499535 0.047794435 0.020829652
-0.060378727 -0.045442067 0.07513722 0.057293877 0.030998584 -0.054310303 0.014001027 -0.07133537
0.10432652 0.24937771 -0.0646379 -0.00664278 -0.03687552 -0.048031405 0.059687506 -0.10270237
-0.016159484 -0.01776158 -0.03415613 0.0016173262 -0.06535584 -0.024621611 0.029579077 -0.0025947702
0.021885406 -0.0031404346 0.059069294 -0.034082025 -0.07777456 0.06553867 0.08513731 0.03132522
-0.053666357 -0.026658777 0.052352596 0.17485808 0.19665742 0.017061858 0.050229546 -0.07840944
0.075870514 -0.008974401 -0.03637174 -0.07370069 -0.07948554 -0.088583775 -0.048242517 -0.048810646
0.056191985 0.14283666 0.05894545 -0.028622786 -0.04674651 0.011851985 0.051849026 0.04710417
0.11824035 -0.042989634 0.15449785 0.07926018 -0.043371707 0.236743 0.08040651 0.0927528
-0.04745711 -0.043168757 -0.0053576296 0.086676 0.10784374 0.059806913 -0.024490066 0.026601538
-0.12300057 0.06827222 -0.027551832 0.14635132 0.073653795 -0.012436314 0.052411895 0.026052019
-0.009202473 0.010608922 0.051637806 0.16203249 -0.005070834 0.14773941 -0.022060666 0.11361902
0.111159556 0.030565087 -0.007151186 -0.043343276 -0.073008135 0.053594373 0.05869045 0.05981023
-0.009572424 0.017299952 -0.003118572 -0.064112365 -0.033953078 0.040484194 0.055073164 -0.09368527
00000000: c43a e23c 61e1 8cbd c9a3 d13d 2501 82bc
00000010: cdcd dd3d 5fde c6bd e71f 813d 1578 e83d
00000020: 1125 81bd 9266 8fbd 7b57 b33d f7f1 b4bc
00000030: c378 89bd 832e d8bd 0f6a 903b bf58 0ebd
00000040: 7b96 46bd 9b6e 913d 8a38 7e3c cb58 3d3d
00000050: d878 f63d a9be f53b 19c4 433d f2a2 aa3c
00000060: af4f 77bd 7621 3abd 8be1 993d fcac 6a3d
00000070: bef0 fd3c 7b74 5ebd 9064 653c 4718 92bd
00000080: 24a9 d53d df5c 7f3e e060 84bd adab d9bb
00000090: c90a 17bd 94bc 44bd e37a 743d 9f55 d2bd
000000a0: e560 84bc bc80 91bc 4ce7 0bbd 76fc d33a
000000b0: 48d9 85bd 43b3 c9bc d24f f23c 050d 2abb
000000c0: 0649 b33c c0cf 4dbb a5f2 713d 9899 0bbd
000000d0: 4548 9fbd 2339 863d 785c ae3d e04e 003d
000000e0: 41d1 5bbd 8263 dabc ad6f 563d ff0d 333e
000000f0: 9060 493e 4fc5 8b3c 7fbd 4d3d 2195 a0bd
00000100: 0062 9b3d 5e09 13bc 89fa 14bd 63f0 96bd
00000110: 51c9 a2bd 696b b5bd f299 45bd aced 47bd
00000120: 9129 663d c643 123e c970 713d 557a eabc
00000130: 4579 3fbd d42e 423c a55f 543d 4df0 403d
00000140: ff27 f23d e615 30bd af34 1e3e 2953 a23d
00000150: 88a6 31bd c26c 723e 2bac a43d 2ef5 bd3d
00000160: 6362 42bd b9d1 30bd 0e8f afbb 3083 b13d
00000170: 2edd dc3d 18f8 743d 649f c8bc 78eb d93c
00000180: b9e7 fbbd 4ed2 8b3d 61b4 e1bc 1fdd 153e
00000190: cdd7 963d aec1 4bbc dbad 563d 0b6b d53c
000001a0: f8c5 16bc 0bd1 2d3c 2a82 533d d8eb 253e
000001b0: 3d29 a6bb 0049 173e 92b8 b4bc 17b1 e83d
000001c0: 9fa7 e33d a263 fa3c 7f54 eabb b888 31bd
000001d0: 4a85 95bd c685 5b3d 6665 703d 92fb 743d
000001e0: a8d5 1cbc a1b8 8d3c f560 4cbb 584d 83bd
000001f0: 6212 0bbd c1d2 253d 6694 613d 10de bfbd

net.4.weight f4 [128, 128]
-0.09960628 -0.078240365 0.20660852 -0.053749405 0.20219307 -0.013393838 0.14517774 -0.025422292
0.21748488 -0.14819527 -0.080179885 -0.19524954 0.047815606 -0.15995649 0.06582724 0.2609812
-0.034680966 -0.15837018 0.16687813 0.026318785 0.13704938 0.08221714 -0.035610635 0.15634629
0.15924358 -0.021668226 0.23777026 0.25670856 -0.13890894 0.24446 0.07771406 0.017863514
0.31819218 0.08864797 0.031113015 -0.08924463 0.08156049 0.050444655 0.06828091 0.12734543
0.027571343 -0.017505884 -0.04471002 0.005191307 0.06450862 -0.03713001 0.041239314 -0.018554438
0.11107558 -0.08422247 0.046404816 0.011123008 0.15112683 0.22358625 -0.017136237 0.087414764
-0.029518783 0.0085685495 0.17291243 0.14185679 0.11457429 0.14430296 0.07133628 0.060616676
-0.039565776 0.012663872 -0.09529758 -5.9511116e-05 -0.20434804 -0.16810417 -0.24785832 -0.029824095
0.122593135 0.04642339 0.048827797 0.032473862 0.21983203 0.15083414 -0.20699568 0.025015227
-0.14797626 0.2275465 0.15290977 0.054050446 0.24602133 0.070549734 0.054765403 0.20684871
0.18624215 -0.09313426 0.16578765 0.112799555 0.03081671 -0.13275662 0.10759214 0.24571985
0.003816879 0.11231612 -0.16124845 0.15989976 0.17023648 -0.20049207 0.103096314 -0.02943913
0.086179785 0.19853482 0.23486656 0.09760397 0.14513236 -0.0006477821 0.0029498634 -0.014677212
0.16170806 0.18402769 -0.025972897 0.084601454 -0.19554844 0.1903886 -0.043999467 0.3258268
0.06898395 -0.07783073 -0.19380727 -0.150099 0.11963197 0.060345817 0.12902442 -0.14424244
0.11445288 0.09788908 -0.212532 0.093691275 -0.13592519 -0.2162509 -0.058456283 0.039248616
-0.187015 -0.1393044 0.22872129 0.08027837 0.016180312 -0.09209791 -0.022429045 -0.060927264
-0.11046466 0.03305753 -0.008525862 0.10855807 -0.066752404 -0.05731629 0.0148135265 0.05416488
0.086075276 -0.069816835 -1.2290498 -0.085425 0.027922558 -0.016081974 0.053199697 -0.18278405
-0.021510832 0.0811182 0.1353002 0.073371604 0.12783317 0.05809073 0.065197326 -0.15604004
0.12018739 -0.19813079 -0.0827836 -0.81331056 0.13701637 -0.009732127 0.118319936 -0.05579203
-0.10560237 0.12875207 0.0670974 0.05476812 -0.20212534 -0.09071681 0.012529056 0.02953036
0.029889546 -0.069976434 -0.1423405 0.1486411 0.13850701 0.0856338 0.069557235 0.115406156
-0.020589357 -0.12002712 -1.1799927 -0.061363112 0.077660844 -0.017612098 -0.4688837 0.10325411
-0.042803537 0.11315376 0.075721286 0.039104257 -0.2798515 -0.11919597 -1.2002807 0.06392657
0.05301721 -0.11581048 -0.046342902 -0.096968554 -0.12537569 0.087048665 -0.015925473 -0.036936615
-0.5301689 -0.021841992 -0.17156 -0.03514712 0.15017873 -0.3366435 -0.010603727 -0.05072898
0.0846324 0.045684446 0.20002584 -0.01578795 -0.24415714 0.26267952 -0.1953782 0.100253545
-0.1175551 -0.2339774 -0.11368305 -0.09743858 -0.17932673 0.12265687 -1.0144262 0.104691826
0.0980973 -0.07449541 -0.019098273 -0.17035727 -0.08217354 -0.03177927 -0.4075256 -0.079455495
-0.08350703 0.034653924 0.121619225 0.060508683 0.059569485 0.114370346 -0.011853361 -0.18297471
00000000: 61fe cbbd 7c3c a0bd 2f91 533e 5628 5cbd
00000010: b30b 4f3e d471 5bbc 79a9 143e 6942 d0bc
00000020: 5bb4 5e3e 80c0 17be 5a35 a4bd 7fef 47be
00000030: 4cda 433d a2cb 23be 6fd0 863d 549f 853e
00000040: a10d 0ebd cb2b 22be 1ae2 2a3e 7e9a d73c
00000050: ac56 0c3e 7661 a83d 75dc 11bd 3e19 203e
00000060: c010 233e 9081 b1bc 0c7a 733e 4e6f 833e
00000070: 253e 0ebe b953 7a3e 8d28 9f3d 8156 923c
00000080: 16ea a23e 118d b53d b9e0 fe3c e3c5 b6bd
00000090: 3009 a73d 0e9f 4e3d ddd6 8b3d d766 023e
000000a0: 4cdd e13c 8068 8fbc db21 37bd d71b aa3b
000000b0: 181d 843d a315 18bd 8eea 283d 7aff 97bc
000000c0: 987b e33d d57c acbd fa12 3e3d 473d 363c
000000d0: fec0 1a3e cbf3 643e 4b61 8cbc 8306 b33d
000000e0: 60d1 f1bc 1a63 0c3c f50f 313e e842 113e
000000f0: eda5 ea3d 28c4 133e c118 923d 3149 783d
00000100: b90f 22bd 217c 4f3c 612b c3bd 939b 79b8
00000110: 9d40 51be 8023 2cbe 92ce 7dbe a951 f4bc
00000120: 1c12 fb3d 7426 3e3d a8ff 473d 5003 053d
00000130: a61b 613e 4474 1a3e adf6 53be bcec cc3c
00000140: 1787 17be f301 693e 6194 1c3e 0064 5d3d
00000150: 04ed 7b3e 617c 903d b051 603d 26d0 533e
00000160: 43b6 3e3e 2dbd bebd 3dc4 293e 7403 e73d
00000170: 5373 fc3c 5af1 07be 4559 dc3d fc9d 7b3e
00000180: 9a24 7a3b fe05 e63d 501e 25be c3bc 233e
00000190: 7952 2e3e cb4d 4dbe 2924 d33d 552a f1bc
000001a0: 077f b03d b64c 4b3e dc80 703e 97e4 c73d
000001b0: 949d 143e eccf 29ba 7f52 413b b078 70bc
000001c0: cc96 253e c171 3c3e 1dc5 d4bc 8743 ad3d
000001d0: da3d 48be 3bf5 423e c938 34bd c5d2 a63e
000001e0: 7547 8d3d b865 9fbd 6a75 46be 8db3 19be
000001f0: 9b01 f53d 2d2d 773d fa1e 043e 4ab4 13be
00000200: 4666 ea3d 127a c83d fda1 59be 36e1 bf3d
00000210: f92f 0bbe e070 5dbe db6f 6fbd 28c3 203d
00000220: dc80 3fbe d0a5 0ebe ea35 6a3e fc68 a43d
00000230: 938c 843c d49d bcbd 1ebd b7bc de8e 79bd
00000240: 4c3b e2bd 5567 073d 0fb0 0bbc b253 de3d
00000250: 7cb5 88bd 7cc4 6abd 6fb4 723c fedb 5d3d
00000260: 3c48 b03d 21fc 8ebd 8151 9dbf 4df3 aebd
00000270: d9bd e43c 58be 83bc ede7 593d be2b 3bbe
00000280: 7c37 b0bc 4d21 a63d 238c 0a3e da43 963d
00000290: b3e6 023e 8cf0 6d3d 2d86 853d f6c8 1fbe
000002a0: ce24 f63d cce2 4abe 738a a9bd 1f35 50bf
000002b0: 054e 0c3e 8073 1fbc b951 f23d 2f86 64bd
000002c0: 0e46 d8bd 95d7 033e 5d6a 893d 8954 603d
000002d0: f2f9 4ebe bcc9 b9bd ab46 4d3c a7e9 f13c
000002e0: ecda f43c ce4f 8fbd b5c1 11be 5f35 183e
000002f0: c8d4 0d3e c660 af3d 0674 8e3d 105a ec3d
00000300: 03ab a8bc c7d0 f5bd 000a 97bf e357 7bbd
00000310: a60c 9f3d 3f47 90bc 8611 f0be e476 d33d
00000320: c352 2fbd 29bd e73d c313 9b3d c92b 203d
00000330: b248 8fbe 041d f4bd cca2 99bf efeb 823d
00000340: 9328 593d 0c2e edbd 0ed2 3dbd 7397 c6bd
00000350: 7c62 00be 9246 b23d 2376 82bc d94a 17bd
00000360: 26b9 07bf faed b2bc 6dad 2fbe 6df6 0fbd
00000370: 74c8 193e 895c acbe 41bb 2dbc 31c9 4fbd
00000380: c053 ad3d 9d1f 3b3d 93d3 4c3e bb55 81bc
00000390: 5404 7abe ee7d 863e 3911 48be bb51 cd3d
000003a0: bac0 f0bd c697 6fbe a9d2 e8bd e18d c7bd
000003b0: 6da1 37be 8633 fb3d b8d8 81bf ab68 d63d
000003c0: 3de7 c83d 0d91 98bd fb73 9cbc 2372 2ebe
000003d0: 9a4a a8bd fb2a 02bd 32a7 d0be 90b9 a2bd
000003e0: bc05 abbd 46f1 0d3d 8013 f93d f4d7 773d
000003f0: 22ff 733d 003b ea3d 9934 42bc b95d 3bbe

net.4.bias f4 [128]
0.19566853 -0.011074243 0.0676382 0.046890717 0.16401356 -0.002585999 0.056076586 0.02005429
-0.04830388 0.16886283 0.09329911 0.018622067 0.115585506 0.012182941 -0.021582982 0.11340186
0.028525645 0.09622009 0.09676637 0.11315999 0.038349554 0.08963387 0.10345487 0.097096965
-0.06663008 0.15257777 0.08348592 0.0419787 -0.072922125 0.22695898 0.08305176 0.069346905
-0.004210835 -0.10783075 0.10454771 -0.03567584 0.010104059 0.15029025 -0.05524074 0.059132196
0.12989034 0.07293029 0.10131006 0.007775024 -0.02413426 -0.028022805 -0.032628525 -0.07330843
0.13884187 0.06406141 0.12552162 0.079427965 0.12702587 -0.03639644 0.10519456 -0.059728716
0.041881505 0.06431111 -0.057014607 -0.10246364 -0.0066551315 0.09059834 -0.025356973 0.20155191
-0.0049580997 0.053082637 0.13319379 0.08854271 0.07339419 0.03078879 0.03870294 -0.03834898
-0.021443194 -0.06465031 0.1061261 -0.05734695 -0.005710609 -0.025540544 -0.03673896 0.07096341
-0.0056424085 0.07953896 0.0953356 -0.043610297 0.062144455 0.027619608 0.026279781 0.0893627
0.034239974 -0.020129057 -0.0002831447 -0.05031111 0.10335713 -0.02999367 -0.025585363 0.13888738
0.06333673 -0.01996491 0.13622333 0.17036514 0.15421541 0.013513506 0.1295769 0.124514215
0.0843823 0.00935415 0.035821445 -0.07213951 -0.06998923 0.0020104356 -0.046377577 0.11721492
0.046010137 0.009985072 0.0023954255 0.07307111 -0.014487232 0.05016905 0.09905031 -0.01841084
0.03838263 -0.021951035 -0.047739383 -0.059698682 -0.041370854 0.07175798 -0.03370052 -0.0764134
00000000: 555d 483e be70 35bc e685 8a3d 7b10 403d
00000010: 2cf3 273e dd79 29bb 90b0 653d e548 a43c
00000020: 4ada 45bd 61ea 2c3e 9b13 bf3d 4e8d 983c
00000030: 18b8 ec3d f59a 473c cbce b0bc 3c3f e83d
00000040: 9dae e93c 0a0f c53d 722d c63d 6dc0 e73d
00000050: 6c14 1d3d f691 b73d 26e0 d33d c6da c63d
00000060: 5a75 88bd 593d 1c3e abfa aa3d dbf1 2b3d
00000070: 3258 95bd ef67 683e 0b17 aa3d c005 8e3d
00000080: 0bfb 89bb 5ed6 dcbd 1c1d d63d d420 12bd
00000090: 7f8b 253c b0e5 193e 1d44 62bd 9a34 723d
000000a0: f901 053e 7a5c 953d a67b cf3d a1c5 fe3b
000000b0: 36b5 c5bc 1590 e5bc 7da5 05bd bb22 96bd
000000c0: 902c 0e3e a132 833d bd88 003e 21ab a23d
000000d0: 1213 023e 6f14 15bd 3f70 d73d 19a6 74bd
000000e0: f18b 2b3d 8bb5 833d 2688 69bd 75d8 d1bd
000000f0: 4a13 dabb 9f8b b93d 6db9 cfbc a063 4e3e
00000100: 8e77 a2bb 2e6d 593d f463 083e e155 b53d
00000110: b14f 963d c638 fc3c f986 1e3d d213 1dbd
00000120: a3a9 afbc 6267 84bd a458 d93d a3e4 6abd
00000130: 0f20 bbbb 673a d1bc 977b 16bd 4455 913d
00000140: f4e3 b8bb 52e5 a23d 503f c33d b6a0 32bd
00000150: 2f8b 7e3d 8442 e23c b248 d73c cb03 b73d
00000160: 373f 0c3d b1e5 a4bc 0a73 94b9 0613 4ebd
00000170: e7ac d33d 49b5 f5bc 6598 d1bc 7e38 0e3e
00000180: b0b6 813d 738d a3bc 217e 0b3e 3374 2e3e
00000190: a5ea 1d3e c167 5d3c cfaf 043e 4f01 ff3d
000001a0: a1d0 ac3d 2642 193c 82b9 123d e1bd 93bd
000001b0: 8356 8fbd 83c1 033b 6af6 3dbd 600e f03d
000001c0: 2075 3c3d 6d98 233c 92fc 1c3b 4ea6 953d
000001d0: db5b 6dbc 107e 4d3d e4da ca3d 54d2 96bc
000001e0: 1b37 1d3d a8d2 b3bc 5f8a 43bd 9b86 74bd
000001f0: 7c74 29bd d9f5 923d 8e09 0abd a17e 9cbd

net.6.weight f4 [24, 128]
-0.018755844 -0.30653417 -0.8094444 -0.12598935 0.07074355 0.21533509 0.11171808 0.08640583
0.21963365 0.23728473 -0.08845473 0.39132825 0.18002684 0.31921145 -0.3406446 0.12938085
0.3135493 0.013994972 0.17902672 0.74878895 -0.035240255 0.1654614 0.13126667 0.057879686
-0.18432489 -0.13118193 0.17235059 0.08266874 -0.0840634 0.13105926 0.08692863 -0.106928706
-0.21968397 -0.111260906 -0.27212983 -0.1337945 1.0701916 -0.016083352 -0.22355892 0.08763196
0.12619981 -0.030056322 0.056480516 0.3641446 0.047625422 0.038790125 -0.5377539 0.026123269
0.025856033 -0.048297323 0.03339708 0.20574728 -0.045862548 0.30519363 -1.2898369 -0.15819871
-0.20045045 -0.31977007 -0.18570143 -0.0768866 0.11589814 0.1775802 -0.052839026 0.05634045
-0.05071123 0.0766708 0.0819188 0.13859396 -0.039791625 -0.56576383 -0.16210186 -0.08227188
-0.10851841 0.20648725 -0.6038903 0.11966857 -0.198661 0.16343392 -0.016982216 -0.18417975
-0.16047928 -0.049512357 0.18144642 -0.20209341 0.033295114 -0.07689961 -0.16614021 0.013725362
-0.33096248 0.021951694 0.28785387 0.31368703 -0.037285667 -0.024295079 0.06272305 -0.0031299894
0.53798753 0.13658592 -0.29088187 0.011900694 0.117370024 0.07785078 0.14796071 0.1051889
-0.19514209 0.03865072 -0.14611569 0.050242845 -0.05590515 -0.031767428 0.074496426 0.0021748184
0.14032218 -0.16906324 0.40976492 0.4295269 0.10817362 0.07078253 -0.059536394 -0.15904516
0.0117205065 -0.16470186 -0.17211293 -0.13013558 0.07048401 -0.109699234 0.22869557 0.07524306
-0.05689781 0.46562585 0.3654299 -0.047893696 -0.030472158 -0.20270552 -0.19342871 0.007445606
0.11685983 -0.7809761 0.36007866 0.15606087 -0.038842056 0.32205912 0.25138223 -0.059728727
-1.0076029 -0.05580092 -0.14630954 -0.4199074 -0.20109461 -0.23058203 0.08925541 -0.31744817
0.28044602 -0.32385263 -0.053771783 -0.08793952 0.030017577 -0.114997245 -0.2215372 0.1876249
0.3528412 0.37124705 -0.14176698 -0.19030678 0.7409628 -0.11156154 0.2304144 -0.23051435
0.45451012 0.315329 -0.059381805 0.3322941 -0.027002636 -0.07775419 -0.60777426 0.08307655
-0.07445443 -0.24116872 0.012100433 0.02727282 -0.029438183 0.17906938 0.20003839 0.24135406
-0.06864405 -0.42932677 -0.0027102912 -0.06933878 -0.30692533 -0.07076298 0.43137637 -0.1869963
-0.31628513 -0.14722334 -0.21340856 0.093809895 -0.074966386 -0.9032346 0.20171046 0.008852123
-0.15820366 0.25070965 0.43188167 -0.021678044 0.39427778 0.36261168 -0.20451055 -0.09883402
-0.23178348 -0.10461095 -0.19485293 -0.26231438 0.056974795 -0.06214577 -0.06650976 0.024396399
0.49200514 0.18694992 -0.25108746 0.17338006 -0.10328732 0.106599756 0.07641408 -0.093917705
0.2643401 0.10090157 0.08400365 -0.06132932 -0.09831853 0.46834046 -0.1909654 -0.9289577
1.1082761 0.013159168 -0.4988861 0.17461306 -0.0011085612 0.3757698 0.07603794 -0.020175058
0.3579196 -0.3404595 0.01104106 0.31977502 -0.17719701 -0.024699477 0.015499349 -0.35854766
-0.18200852 0.42278323 0.12930878 0.2391922 -0.08920246 0.16290703 -0.15564556 0.1761218
00000000: dba5 99bc 0cf2 9cbe c037 4fbf 5a03 01be
00000010: ffe1 903d cd80 5c3e 73cc e43d 8af5 b03d
00000020: a5e7 603e c5fa 723e c127 b5bd 2d5c c83e
00000030: f558 383e af6f a33e f868 aebe 6a7c 043e
00000040: 8989 a03e 2b4b 653c c852 373e a2b0 3f3f
00000050: 1658 10bd b76e 293e c56a 063e 4013 6d3d
00000060: aabf 3cbe 8e54 06be ac7c 303e 3a4e a93d
00000070: 6f29 acbd 6634 063e a307 b23d 70fd dabd
00000080: d6f4 60be c2dc e3bd 9a54 8bbe 6d01 09be
00000090: 0afc 883f 3cc1 83bc a1ec 64be 6378 b33d
000000a0: 863a 013e ad38 f6bc 1d58 673d 2971 ba3e
000000b0: e012 433d 65e2 1e3d 3daa 09bf 7700 d63c
000000c0: 08d0 d33c 6ad3 45bd 60cb 083d 6aaf 523e
000000d0: 5eda 3bbd 5742 9c3e 6019 a5bf d8fe 21be
000000e0: e242 4dbe e7b8 a3be 8428 3ebe b976 9dbd
000000f0: 015c ed3d 95d7 353e bc6d 58bd 3ec5 663d
00000100: 94b6 4fbd 9505 9d3d 0bc5 a73d 93eb 0d3e
00000110: 8bfc 22bd e6d5 10bf 08fe 25be 297e a8bd
00000120: e63e debd 6571 533e 8e98 1abf cc14 f53d
00000130: ca6d 4bbe 395b 273e 4a1e 8bbc 9e99 3cbe
00000140: ae54 24be 78cd 4abd 17cd 393e 93f1 4ebe
00000150: 7560 083d 8b7d 9dbd a920 2abe 57e0 603c
00000160: ea73 a9be 0ad4 b33c 9561 933e 969b a03e
00000170: dbb8 18bd 7906 c7bc f174 803d 8220 4dbb
00000180: 8db9 093f 2edd 0b3e 78ee 94be 21fb 423c
00000190: b25f f03d 3b70 9f3d 0383 173e 476d d73d
000001a0: 54d3 47be 3850 1e3d 5a9f 15be 71cb 4d3d
000001b0: ccfc 64bd 901e 02bd 9591 983d 6687 0e3b
000001c0: 9eb0 0f3e ea1e 2dbe b5cc d13e f3ea db3e
000001d0: 228a dd3d 6ef6 903d 6fdc 73bd bcdc 22be
000001e0: 5e07 403c 9ba7 28be 5f3e 30be 4342 05be
000001f0: ec59 903d fea9 e0bd 2c2f 6a3e 0919 9a3d
00000200: ae0d 69bd 8366 ee3e a119 bb3e 2e2c 44bd
00000210: bfa0 f9bc 0992 4fbe 2d12 46be 45fa f33b
00000220: 3554 ef3d 0dee 47bf 3b5c b83e 6cce 1f3e
00000230: d918 1fbd efe4 a43e 2cb5 803e 1ca6 74bd
00000240: 22f9 80bf 818f 64bd 2bd2 15be 1afe d6be
00000250: bfeb 4dbe b21d 6cbe 8acb b63d 9188 a2be
00000260: 9f96 8f3e 03d0 a5be cd3f 5cbd a319 b4bd
00000270: 6ce7 f53c ad83 ebbd a6da 62be be20 403e
00000280: 9aa7 b43e 1814 be3e 5d2b 11be c8df 42be
00000290: bdaf 3d3f 607a e4bd c1f1 6b3e f40b 6cbe
000002a0: 8db5 e83e cd72 a13e 563a 73bd 7422 aa3e
000002b0: a234 ddbc 973d 9fbd 1897 1bbf 0a24 aa3d
000002c0: 907b 98bd eff4 76be e540 463c 406b df3c
000002d0: 5828 f1bc f75d 373e ddd6 4c3e 8525 773e
000002e0: 4095 8cbd b8d0 dbbe 249f 31bb 7e01 8ebd
000002f0: 5125 9dbe 2eec 90bd 5ddd dc3e f57b 3fbe
00000300: 20f0 a1be b7c1 16be c687 5abe 671f c03d
00000310: fa87 99bd 623a 67bf 308d 4e3e 7f08 113c
00000320: 2400 22be 045d 803e 981f dd3e 2796 b1bc
00000330: c7de c93e 3da8 b93e 376b 51be 7e69 cabd
00000340: a658 6dbe 443e d6bd 8787 47be 124e 86be
00000350: 675e 693d 908c 7ebd 4536 88bd f5da c73c
00000360: 19e8 fb3e cd6f 3f3e 898e 80be 8b8a 313e
00000370: 4d88 d3bd f950 da3d fc7e 9c3d ed57 c0bd
00000380: 9657 873e 7ba5 ce3d 1b0a ac3d 7434 7bbd
00000390: 3a5b c9bd 52ca ef3e 6f8c 43be 2cd0 6dbf
000003a0: fedb 8d3f 8d99 573c 006e ffbe c4cd 323e
000003b0: 244d 91ba e664 c03e c8b9 9b3d 2a46 a5bc
000003c0: 3d41 b73e b550 aebe 90e5 343c 8db9 a33e
000003d0: 2273 35be 8f56 cabc fbf0 7d3c 8f93 b7be
000003e0: 7160 3abe 0b77 d83e 8569 043e cdee 743e
000003f0: c8af b6bd 1ad1 263e 8d61 1fbe 4659 343e

net.6.bias f4 [24]
-0.10017485 -0.126621 0.07774282 -0.22075276 0.030882109 1.420402 -0.14395475 -0.023955345
0.10104158 0.14361311 0.11843471 -1.1038257 0.15988453 -0.03578759 -0.048956264 -0.035415623
0.17844597 0.17963074 0.032185283 0.112184435 -0.022521056 0.13191679 0.06509518 1.1125612
00000000: 7928 cdbd efa8 01be a137 9f3d 030d 62be
00000010: 7afc fc3c bccf b53f e068 13be 003e c4bc
00000020: e3ee ce3d 510f 133e e68d f23d 294a 8dbf
00000030: c5b8 233e 0296 12bd 5d86 48bd f90f 11bd
00000040: 8aba 363e 1ff1 373e b7d4 033d f4c0 e53d
00000050: 147e b8bc 3215 073e 9f50 853d 6868 8e3f
