space_robot_planning_Rmat/weights/mlp_rmat_debug/v2.pth (torch, 148999 bytes, 8 tensors)

net.0.weight f4 [128, 8]
000000 e2 3f a0 be d1 0d 25 3e d1 da 89 3c 2e 0e 72 be
       -0.3129874 0.16118552 0.016827973 -0.23638222
000010 af 23 a4 be 79 48 5e be 0f e0 2a be 4a c5 7a be
       -0.32058474 -0.21707334 -0.16687034 -0.24489322
000020 20 e4 94 bd d2 ee a9 be c1 8b c8 3c e4 e2 3d 3e
       -0.07270074 -0.33190018 0.024480702 0.18543583
000030 b1 db b2 3d 60 5c 44 bf aa 21 59 bb 0a ba 7a 3d
       0.08733309 -0.76703453 -0.0033131638 0.061212577
000040 6e 14 e1 bd ad 75 dd bd e9 e4 e2 3d 68 11 a7 be
       -0.10990225 -0.108134605 0.110788174 -0.32630467
000050 08 85 e6 bd ad 49 1e 3f f4 2d 90 3e 09 8a 21 3c
       -0.112558424 0.6183117 0.2816006 0.00985957
000060 2b c3 51 3e 5b 18 8b 3e 7c ef 51 be 45 d8 43 3e
       0.20484607 0.2716702 -0.20501512 0.19125469
000070 4c 7c 7d be 3c 06 6b bf 92 ad 8e 3d 8b c3 82 be
       -0.24754447 -0.9180639 0.069667 -0.25539812
000080 98 ca ac 3e 60 7a 22 be 96 d2 39 3e e0 36 8c 3c
       0.33748317 -0.15866995 0.18146738 0.01711601
000090 ef 04 d4 3e a4 07 9d 3e c3 f6 d3 3d f4 cc e8 be
       0.41410014 0.30669892 0.103498004 -0.45468867
0000a0 fb e9 49 3e 0b 44 bc 3d f4 28 40 3e 34 2b 9c 3e
       0.19718163 0.09192666 0.18765622 0.3050171
0000b0 9c fa dd be 00 84 53 be 70 5e b8 3d c2 aa c1 be
       -0.43355262 -0.20655823 0.090023875 -0.3782559
0000c0 80 6c 9f be 03 c6 9c bd 9c 74 a7 be 46 f7 44 be
       -0.31137466 -0.07654955 -0.32706153 -0.19234952
0000d0 25 be a9 3e 45 67 a1 bd 10 e5 c0 3e 32 75 05 3f
       0.3315288 -0.07881025 0.3767476 0.5213195
0000e0 90 e0 a6 be ee b9 5e 3e 73 17 89 3e 48 a7 a6 be
       -0.32593203 0.21750614 0.26775703 -0.325495
0000f0 fc 3b ed bc 61 df 87 3c 50 74 84 3e d4 89 89 be
       -0.028959267 0.016586008 0.2586999 -0.26862967
000100 5e aa 87 bd 62 74 79 be 19 fc 98 be 21 50 36 be
       -0.06624292 -0.24360803 -0.29879835 -0.17804004
000110 d8 2f b0 bd e8 2f 63 be 4f 87 7b 3e fb 0f f3 3d
       -0.086028755 -0.22186244 0.24563335 0.118682824
000120 08 21 92 3e de 77 1b be c0 d7 08 be c0 df cf bd
       0.28540826 -0.15182444 -0.13363552 -0.10150099
000130 84 1e 99 be 8d 3c 13 3e 01 63 75 be 49 0b 18 3f
       -0.29906094 0.14378567 -0.23963548 0.5939222
000140 5d cc 5d 3d 2e 78 25 be 56 41 81 3e d8 e3 b8 be
       0.054149974 -0.16159126 0.2524516 -0.3611133
000150 d1 74 85 3e 97 fe 1a bc 98 46 81 3e a2 42 f0 be
       0.26065686 -0.009460113 0.2524917 -0.46925837
000160 15 df a6 3e 95 5d 94 be d2 ca d0 bd d5 77 d1 bd
       0.32592073 -0.28977647 -0.10194935 -0.10227934
000170 a5 ea 06 3f 19 4a 5a 3e c9 3d dc 3d f7 13 2c 3f
       0.5270179 0.21317329 0.10753972 0.67217964
000180 7c 78 8f 3e 6b 6a db 3d 4f ea 4e 3e bd ca b1 be
       0.2802161 0.10713657 0.20206569 -0.3472499
000190 40 44 3a 3d 5a 60 05 be f0 bb eb 3e f7 9f 9c be
       0.045475245 -0.13025036 0.46041822 -0.30590793
0001a0 67 d8 b0 3e 72 6c fe bd e9 70 a8 be 9b ef 38 be
       0.34540102 -0.12423028 -0.32898644 -0.18060152
0001b0 7a 52 ce 3e e2 1d c7 be cc b1 01 3d 68 a7 2a be
       0.402973 -0.38889986 0.0316637 -0.16665423
0001c0 ae cc 4b 3e 88 b2 68 be 7e 94 ec 3d a1 3e 93 3d
       0.19902298 -0.22724354 0.1155176 0.0718968
0001d0 bc 98 0f be 4d 1c 04 3f 77 a3 cd bc f0 f1 b8 3c
       -0.14023107 0.51605684 -0.02510236 0.022576302
0001e0 8a cd 47 3e db 59 a0 3e 39 78 19 be 5c 3d ba be
       0.19512 0.31318554 -0.14987268 -0.36374938
0001f0 04 98 a1 be d6 99 64 3d dd 92 6f 3e 17 f6 84 3e
       -0.3156129 0.055810772 0.23395868 0.25969002
000200 bb 22 43 3e b0 e9 4c bd e0 be 90 be 1f bc 19 be
       0.19056217 -0.05002755 -0.28270626 -0.15013169
000210 4a d8 02 bd 4e bc 39 3f a2 64 16 be fb 74 06 bf
       -0.03194455 0.72552955 -0.14686826 -0.5252225
000220 d2 ef 69 be 0d c3 07 be 9c 16 9b be 14 05 8c bd
       -0.2284539 -0.13258 -0.30290687 -0.06836906
000230 14 48 db 3d 0d 86 2d be 5b d4 7a 3e e5 9f 63 be
       0.10707107 -0.16945668 0.2449507 -0.22228964
000240 8a c5 9c be 57 04 20 3e 5d 75 8e 3e 8e 27 91 3e
       -0.3061946 0.15626656 0.27823916 0.2835049
000250 0c 06 21 3e b1 6d c5 be 41 63 69 3e 55 f0 57 be
       0.15724963 -0.3856025 0.22791769 -0.21087773
000260 d5 1e c0 3d 00 05 0c be d1 f5 09 bd 6d a9 e7 bd
       0.09380881 -0.13673782 -0.033681694 -0.11311612
000270 20 f3 1a bf 94 ea e4 bc 11 e8 dd 3e a0 9d 26 be
       -0.6052723 -0.027943887 0.43341115 -0.16271067
000280 9b e9 dc bc 02 50 a5 be 68 38 8c be 0f dc 32 be
       -0.02696686 -0.32287604 -0.27386785 -0.17466758
000290 b1 95 0c 3e d3 99 27 bb 78 4a e3 bd 5d 21 fd 3d
       0.13728978 -0.0025573864 -0.11098188 0.12359879
0002a0 6d 6e 27 bd 77 17 98 3d 19 2a 92 be 95 12 95 bd
       -0.040876795 0.074263506 -0.28547743 -0.07278935
0002b0 42 21 77 3e be 77 77 be 97 d4 38 3d 2b 47 f7 3e
       0.2413378 -0.24166772 0.045124616 0.48296484
0002c0 f5 eb 91 be 43 f5 3c be 3f e3 6c 3e 74 02 1f 3f
       -0.28500333 -0.18452935 0.23133563 0.6211312
0002d0 29 e3 ad be 74 dc 53 3b ff 56 07 be 4e 55 19 bf
       -0.33962372 0.0032327445 -0.1321678 -0.5989579
0002e0 74 c5 1d 3d d9 22 63 bd 41 a6 98 3e dd 7e 37 3d
       0.038518384 -0.055453155 0.29814342 0.04479872
0002f0 7b 38 a3 be 95 eb 03 bd ff db af bd 91 7b d1 be
       -0.3187903 -0.03220709 -0.08586883 -0.40914586
000300 70 ac 9c be 2a c7 96 be 88 58 44 be fe f5 2d be
       -0.3060031 -0.29448825 -0.19174397 -0.1698837
000310 87 f4 c1 3d 53 dd 33 be 4e 0b 76 be e1 05 65 3e
       0.09470468 -0.17564897 -0.2402775 0.22365524
000320 ea ab 5d be c6 06 fa 3d e0 66 15 3d 14 48 32 3d
       -0.21647611 0.12208323 0.036475062 0.04352577
000330 22 b7 15 3c 67 3b 8d 3d cb 1b 05 3f 75 04 b0 be
       0.009137901 0.06896096 0.51995534 -0.343784
000340 72 a6 c8 3d 5c b4 45 bd 22 04 ac 3c d2 72 7f 3d
       0.09797372 -0.048267707 0.020998064 0.06236536
000350 eb 36 08 3b 61 f0 42 3f 06 fc 44 bd fd 77 5d 3c
       0.0020784687 0.7614804 -0.04809191 0.013517377
000360 a2 43 6d bd 37 92 37 3e 3c de 6f 3e c8 70 48 be
       -0.057925828 0.1792687 0.2342462 -0.19574273
000370 8d eb e8 3e 1e 23 81 be b1 3c 1b be ca 74 07 3f
       0.4549221 -0.25222105 -0.1515987 0.5291258
000380 bf 9b 8e 3d 32 2c ce bd 4c c1 63 3e 7e 26 34 3d
       0.069633 -0.10067023 0.22241706 0.04398202
000390 fa 96 bd bd 04 cf 92 3d b6 23 18 bf 7c 36 c4 3e
       -0.09257312 0.07168391 -0.5942949 0.38322818
0003a0 24 25 a9 be b4 8d dc 3d 43 be ef 3d 8e be cd 3d
       -0.3303615 0.10769215 0.117062114 0.10046111
0003b0 41 59 88 3d 75 88 88 3e 3d 92 ad 3d 97 85 db 3e
       0.06657649 0.26666608 0.08475158 0.42875358
0003c0 a1 60 8f be 09 85 9b 3e b2 e3 95 be ed 13 4a be
       -0.2800341 0.30374935 -0.2927528 -0.19734164
0003d0 33 f2 b1 3d 62 9c 1d be a1 b8 c1 3e e1 e3 01 3f
       0.08688774 -0.15391687 0.37836173 0.5073834
0003e0 8b 29 97 3d 91 c0 85 3e 58 48 2f be 7f f6 fc 3d
       0.073809706 0.2612348 -0.1711744 0.12351703
0003f0 96 9c 5a 3e 8f c5 21 be 7d 62 15 bf b4 9c 37 bd
       0.21348795 -0.15798019 -0.58353406 -0.044827178

net.0.bias f4 [128]
000000 f6 96 85 be 6f f0 39 bd 44 8c 85 3e 07 55 27 3e
       -0.26091737 -0.04539531 0.26083577 0.16341029
000010 31 7c 4b 3e 85 77 f3 3e 45 ce 13 bd 13 3c f1 bd
       0.19871594 0.47552124 -0.036085386 -0.117790364
000020 e0 67 81 be ff be 87 be 6e db 71 3d 18 9e 9f bd
       -0.25274563 -0.26512906 0.059047155 -0.07793826
000030 56 35 30 3e 7d 71 44 3e 98 f2 f6 bd 11 11 e5 bd
       0.17207846 0.19183917 -0.1205799 -0.11184896
000040 ce 06 03 3d 55 d8 ae be 13 ae 8f 3e ec b9 0f 3e
       0.03198891 -0.34149423 0.28062496 0.14035767
000050 3f 2d 91 bd a5 dc 02 3d 28 7c b8 3d 72 70 08 3f
       -0.07088708 0.031948704 0.09008056 0.5329658
000060 40 24 9d be 4c 83 c3 be ef 9f 80 be 2d c7 9b bd
       -0.3069172 -0.3818611 -0.2512202 -0.07606349
000070 ad ab cf be dc 51 b0 be 12 66 46 be 83 da 98 3d
       -0.40560666 -0.34437454 -0.19374874 0.07463553
000080 86 05 9b be 2e 6b 05 3f d2 65 43 bc 13 0b 8d be
       -0.30277652 0.5211667 -0.011926131 -0.2754751
000090 18 38 87 bd f2 d6 64 be 0c 99 c5 3e 1b 82 3e bd
       -0.06602496 -0.2234762 0.38593328 -0.046510797
0000a0 bf 99 a1 be 13 bb d6 3d a7 01 1d 3d fd 52 35 be
       -0.3156261 0.104849 0.038331654 -0.17707439
0000b0 d3 5b 81 3e 27 0e 24 3e 7f 38 80 be cc 61 94 be
       0.2526537 0.16021024 -0.25043103 -0.28980863
0000c0 e2 03 70 3e 06 77 88 3e 43 59 8b 3d 74 b1 c6 3e
       0.23438981 0.26653308 0.06804135 0.3880726
0000d0 b4 f0 f8 3d 06 e4 89 3e 81 fe 5f bd 5f a3 97 3e
       0.121552855 0.2693178 -0.054686073 0.2961683
0000e0 1c 16 94 be 4b 46 9d be e3 29 f5 3c 52 79 40 bc
       -0.28923118 -0.30717692 0.0299272 -0.011747675
0000f0 42 47 e0 3d 59 ce 85 3d f1 92 b9 3d 71 eb 94 3e
       0.10951091 0.06533498 0.0906123 0.29085878
000100 5f b7 65 be e9 d2 39 3d a2 cf a6 be 9b 69 96 be
       -0.22433232 0.045367155 -0.32580286 -0.29377446
000110 97 8c 41 be 9b f7 d5 bd 40 64 8b be 3d 17 dd 3d
       -0.18901287 -0.104476176 -0.27224922 0.10795448
000120 9b 14 ee be 6c 76 d0 be ee 0c ee 3b 5e 42 0c be
       -0.46500096 -0.4071535 0.007264725 -0.13697192
000130 49 32 c0 3d ee 7e 3a bd f6 2d 13 3e c4 b5 c4 bd
       0.09384591 -0.045531206 0.14373001 -0.096049815
000140 13 ac fb 3d c7 b9 b6 bd 04 48 a4 be 9c ec 4e bd
       0.1228868 -0.08922153 -0.32086194 -0.050518617
000150 20 86 89 be 78 aa 9c bd 12 6e 8a 3e d3 31 19 bb
       -0.26860142 -0.07649702 0.27037102 -0.0023375645
000160 54 a6 23 be 98 ce 75 be 04 a6 8a bd 65 e8 09 be
       -0.15981418 -0.2400459 -0.06769946 -0.13467558
000170 08 c9 dc bc ae a2 1c 3d ec da e0 3d e5 3d 2d be
       -0.026951328 0.03824108 0.10979256 -0.16918142
000180 9f c1 29 3e de 52 f1 3d 9c 54 32 3e 03 b5 70 3e
       0.16577767 0.11783384 0.17415088 0.2350655
000190 6f 75 40 3e 9c 8f c3 3e 1a ef b1 be 99 bc 63 be
       0.18794797 0.38195503 -0.34752733 -0.22239913
0001a0 3d 85 64 3d 3e e2 06 be a0 70 64 be 8c 01 33 3e
       0.05579113 -0.13172242 -0.22308588 0.17481059
0001b0 fd 1f 72 3d 16 cf 9c be 92 f8 0d be a2 f8 12 bd
       0.059112538 -0.30626744 -0.13864353 -0.035881646
0001c0 2d f4 83 3d b9 89 c4 3e d4 59 ab bd 70 a6 58 be
       0.06443057 0.38386324 -0.08366743 -0.21157241
0001d0 1d 58 0b 3f 03 19 43 be 80 d9 58 3e e9 00 23 3e
       0.54431325 -0.1905251 0.2117672 0.15918316
0001e0 26 eb c5 bc e1 14 b4 bc 1c e2 eb bb a4 8c f4 3e
       -0.02415998 -0.021982612 -0.007198585 0.4776355
0001f0 b9 63 82 be 79 92 02 3f 8f cd 5f be 9a 84 02 3e
       -0.25466707 0.5100475 -0.21855758 0.12745896

net.2.weight f4 [128, 128]
000000 fe bc 1a 3d 02 6d a6 3d 73 75 a3 bd 30 24 a1 be
       0.037777893 0.0812626 -0.07981386 -0.3147292
000010 37 67 99 3d 7a 99 17 bd 1b 6e 16 3e 40 4a de bc
       0.0749039 -0.0370116 0.1469044 -0.027135015
000020 c5 d8 42 bc 0d 8f 24 3d 26 57 df 3d 0f 39 4f 3d
       -0.011892502 0.040175486 0.10905294 0.050591525
000030 0b 68 19 3e dc de 53 bd 39 1e 2f be 95 12 0f 3e
       0.14981095 -0.051726207 -0.17101373 0.13971932
000040 05 c6 95 bc 79 d7 6b bc e4 3c a9 ba 5c 3f 29 be
       -0.0182829 -0.014394634 -0.0012911824 -0.16528076
000050 a0 64 a2 bd 40 9b 72 3c 8d af d9 be 59 a6 60 be
       -0.07929349 0.014807522 -0.42516747 -0.21938457
000060 82 fa 75 bc dd f5 f8 bd 79 8d 84 be fe da 40 3e
       -0.015013339 -0.1215627 -0.25889185 0.18833539
000070 61 f6 42 3e 83 02 0a bd 04 81 98 3d 20 93 8f be
       0.19039299 -0.0336938 0.07446483 -0.28041935
000080 c7 67 22 3d 19 30 57 be 83 f8 00 3e 2b c8 19 3c
       0.03964975 -0.21014442 0.125948 0.009386103
000090 25 0b e7 bd 7f db 00 3e 69 c2 84 be 51 f7 bb bd
       -0.112814225 0.12583731 -0.25929573 -0.09178031
0000a0 76 c3 5a be a2 0d d0 be 26 4c ce bc 78 d4 97 bd
       -0.21363625 -0.406354 -0.025182795 -0.07413572
0000b0 72 ff 6d be 3f 6d 90 3d 24 ee f4 bb d1 4b 41 be
       -0.23241976 0.07052087 -0.0074746776 -0.18876578
0000c0 35 e8 02 be 02 d2 cf be 7f ad 6a bd a3 e9 ee bd
       -0.12783892 -0.4058991 -0.057294365 -0.116656564
0000d0 f0 36 d5 bd 48 c5 98 be e8 df 1a be d5 d3 52 be
       -0.10410869 -0.29838014 -0.15124476 -0.2058862
0000e0 16 f8 91 3d 49 34 c1 3c 4b 43 4a bd c3 45 9a 3d
       0.07127397 0.023584502 -0.04938058 0.07532837
0000f0 d3 36 ba be 01 44 79 bd 39 fb 1c be e2 ac 9d be
       -0.36369953 -0.06085587 -0.15330209 -0.30795962
000100 76 9b 78 bd 61 68 12 3d f8 5e 93 bd 40 49 b6 bd
       -0.060695134 0.035744075 -0.07195848 -0.0890069
000110 82 78 25 3e 2c 78 0b bd ae 63 bc 3c bb 43 8f be
       0.16159251 -0.03405015 0.02299675 -0.27981362
000120 d2 59 01 3e bb 15 f9 bd e4 97 7e be 83 15 9b bd
       0.1263192 -0.12162348 -0.24862629 -0.075724624
000130 94 28 dd 3d 43 d2 fa bd 37 d6 34 3d 4a 78 d6 3c
       0.10798755 -0.122471355 0.044149604 0.026180405
000140 22 b3 b7 3d 57 db 1e 3e 78 e3 23 be b9 43 d6 bc
       0.08969714 0.15513359 -0.16004741 -0.02615534
000150 00 3d ea 3d 5c e0 54 3e 93 10 e2 bc 2a a4 18 bd
       0.11437416 0.20788711 -0.027595794 -0.037265934
000160 be 9b 19 be 74 91 5e 3d a3 a8 07 3e 6e d2 93 be
       -0.15000817 0.054337934 0.13247924 -0.28871483
000170 b0 b6 e2 be 84 c4 3d be f0 5b af bd 7d ed 23 be
       -0.44280005 -0.18531996 -0.085624576 -0.16008563
000180 5c f2 b3 be 74 82 ac 3d cf 1a b7 3d 63 f6 1d bf
       -0.35145843 0.084233195 0.0894066 -0.6170408
000190 b6 93 06 be eb 7e 2b be 07 9e 01 3e 32 98 9d 3c
       -0.13142285 -0.16747634 0.12657939 0.019237611
0001a0 a5 c6 d8 3d ff bb a5 3e ed da 85 bc 0c 67 5f be
       0.105847634 0.32369992 -0.016339744 -0.21816653
0001b0 66 b9 f5 bd c9 fc b2 3b ed 04 a0 3c 02 0d 82 3d
       -0.119982526 0.0054622632 0.019533599 0.06350137
0001c0 f9 39 0a be 1b 88 ee bd b5 50 74 3d b8 e4 95 3d
       -0.13498677 -0.11647054 0.05964728 0.07319015
0001d0 6c 30 51 be 0a 68 59 3d 13 97 b2 bd 38 fe d1 3c
       -0.20428628 0.053077735 -0.08720221 0.025633916
0001e0 b9 10 ec be e4 1d 6c 3d bd d5 31 3d 0c f7 5b be
       -0.46106508 0.057645693 0.043416727 -0.2148096
0001f0 c7 9f c0 3d de 90 06 bf 7b 29 8a 3b 8a e6 4e bd
       0.09405475 -0.525648 0.0042163706 -0.050512828
000200 60 6b b2 bd 33 ea 91 be 28 9e ed bc 56 4e 66 be
       -0.087118864 -0.28498992 -0.029006079 -0.2249082
000210 f5 60 a2 3d a1 48 03 bd 56 9e bb bc b5 f6 f1 bc
       0.07928649 -0.032051686 -0.022902649 -0.029536584
000220 c7 9f 9d bc 35 a3 81 3e 29 b4 ab bd 9a dd fb 3d
       -0.019241227 0.2531983 -0.08383972 0.122981265
000230 b7 11 8f 3e fb 69 3c be 1e a8 a8 bc 50 bd b6 bd
       0.27943203 -0.18399803 -0.020587977 -0.08922827
000240 cb dc 49 bc aa 20 84 bd 96 0c cc 3d 4a a4 79 bd
       -0.012320708 -0.06451543 0.09963338 -0.060947694
000250 55 d9 64 3d 51 00 2c bc 34 90 ea bc a9 ba 60 3c
       0.055871326 -0.010498122 -0.028633215 0.013716378
000260 ca 5d 7f 3d 55 b0 0d 3e d7 55 a1 3d e0 6c 43 be
       0.062345304 0.13836797 0.07877701 -0.19084501
000270 a5 53 d9 3e 31 75 bf 3d 88 a3 e1 3d 32 20 5a 3e
       0.42446628 0.09348524 0.11017519 0.21301344
000280 81 a3 1c 3d 8c f4 b7 3c 61 bc 9e 3c be 23 02 3e
       0.038241867 0.022455476 0.019376935 0.12708947
000290 5d 2f fb b9 f4 e4 24 bd 4c 20 5d bd d4 6d ac bb
       -0.0004790974 -0.04025741 -0.05398588 -0.005262116
0002a0 c5 5d 93 bd 04 de ce bd 13 40 96 3d ee aa 7f 3e
       -0.071956195 -0.1010094 0.0733644 0.24967548
0002b0 72 f2 82 3e a6 3d 76 3d cd fa 98 bb da cd 2f 3d
       0.25575596 0.060117386 -0.0046685697 0.042920925
0002c0 b7 8a 9a bf b9 6a d0 bd b1 22 05 be 24 a3 5a 3c
       -1.2073582 -0.10176606 -0.13001515 0.01334456
0002d0 c9 af 22 be a4 b8 f9 3c 2a ec 09 3e 74 50 bb bd
       -0.15887369 0.030483551 0.13468996 -0.091462046
0002e0 73 33 4e 3d ee 11 8a 3d 84 c6 b4 bd fa 5e 7b bd
       0.050342035 0.06741701 -0.08826926 -0.061369874
0002f0 1b e1 fc bc e3 18 81 3e 94 ea 45 be ab 86 d1 3d
       -0.030869057 0.252143 -0.19327766 0.10230764
000300 71 cf 0d 3e 49 4d d3 bc fe 72 5b 3e df d5 f9 3c
       0.13848664 -0.025793688 0.21430585 0.03049749
000310 14 fd 7e 3c 06 ac 8f 3d 71 34 94 3e 07 24 05 3b
       0.015563268 0.07015233 0.2894626 0.0020315663
000320 98 47 3a 3d 7b 0a a2 3c dc 8d ac 3d b9 3d af bd
       0.045478433 0.019780388 0.08425495 -0.085566945
000330 9e 98 d2 bd ef d6 89 3d 31 4f f9 bd 1d 6f 27 bd
       -0.10283016 0.067304485 -0.12173308 -0.04087745
000340 af d5 c0 be c2 54 a1 3d 61 37 3e be d9 19 b3 3d
       -0.37663028 0.078774944 -0.18575813 0.087451644
000350 4e 9f d5 3d d5 8e 98 3d f1 db 6e 3d 8b a3 a3 bc
       0.104307756 0.07449118 0.05831522 -0.019975444
000360 e6 b5 18 be 9c 36 cf 3d 54 bc 3f bd b4 d6 ea bd
       -0.14913139 0.10117838 -0.046810463 -0.114667326
000370 28 21 ae 3b 14 9c ad ba 41 4f 75 3e 3e f0 03 3e
       0.005314011 -0.0013245367 0.23956014 0.12884614
000380 0e a4 ed 3b 59 f7 aa 3c 0f 95 0e 3e 76 dc 11 be
       0.007252223 0.020869898 0.13924049 -0.14244255
000390 6a d5 06 3e bc be 76 3d 81 cf 97 be 19 e1 ab 3c
       0.13167349 0.060240492 -0.296505 0.020981358
0003a0 16 c9 15 3e 15 08 4b be ff 3d 1d 3b 6f a9 7c 3d
       0.1462749 -0.19827302 0.0023993251 0.061685022
0003b0 3d 84 95 bd 2d 92 ab bd e9 8c 29 3c 5d c2 64 be
       -0.07300613 -0.0837749 0.010348537 -0.22339769
0003c0 db 74 7b 3d 9e 2b 00 be 12 8f f9 bd ab 02 e4 3c
       0.06139074 -0.12516639 -0.121854916 0.027833303
0003d0 96 5d 84 3c 64 1d ab 3e 4e 29 9f bd 86 d1 77 3d
       0.016157907 0.3342086 -0.0777155 0.06050255
0003e0 9d 39 16 3e 08 9b 4e 3e 36 d9 79 bc d0 fe 9f bd
       0.14670415 0.20176327 -0.015249541 -0.078122735
0003f0 17 4d c5 bd 7c 0b 0d bd 29 9b 95 bd 7e 4b ee 3d
       -0.09633844 -0.03443478 -0.07304985 0.11635493

net.2.bias f4 [128]
000000 44 21 9b 3c f5 94 f5 3d 62 bb d9 3d d9 ba 41 3c
       0.01893676 0.11991302 0.106314436 0.011824333
000010 9f 4b b9 3d 72 2c d1 bd 7f dc d0 bd 4a 70 6a bd
       0.09047627 -0.102135554 -0.10198306 -0.057235993
000020 9e 13 a3 bc b6 c1 ab bc 77 1f bb bd d5 b5 c7 3d
       -0.019906815 -0.020966392 -0.09136861 0.097514786
000030 d9 a7 15 3e c0 ed f7 bc de f4 38 bd 4d 7d ee bc
       0.1461481 -0.030264735 -0.0451554 -0.029112482
000040 50 fa f1 3d b5 bb ec 3c ab 71 76 3d 8e 27 17 3b
       0.118153214 0.0288981 0.060166996 0.0023064348
000050 48 6d ba bc 20 5f 6f 3d 12 48 89 bd 58 87 3c bd
       -0.022757187 0.058440328 -0.067031994 -0.04602751
000060 d9 c8 68 3d 27 17 10 3e 70 d6 7e bc ee 22 2c 3d
       0.05683217 0.14071332 -0.015554056 0.0420255
000070 c8 a6 2f 3d 46 14 a8 bc fb d4 c8 3d 0e 78 82 bd
       0.042883664 -0.02051748 0.09806248 -0.06370555
000080 d6 6d 99 3d c5 e3 88 bc 02 dc 14 3e ff ad 09 bd
       0.07491653 -0.016710171 0.14537051 -0.0336132
000090 d2 4f ca bd 8f f7 0f 3c a4 69 d8 bb f4 bf 21 3e
       -0.09878506 0.00878705 -0.00660439 0.1579588
0000a0 d8 11 b2 bc 8f 13 5c bd 7d eb f4 bd 63 d1 2f 3e
       -0.021737024 -0.05372959 -0.11958978 0.17169718
0000b0 bd eb 13 3e 40 28 d9 3d 6c 46 ac 3d b9 0c 29 bd
       0.14445396 0.1060338 0.084118694 -0.0412719
0000c0 4e c2 2b bd 15 d9 f4 bc ef cb bf bd 4d 22 2c 3e
       -0.04193335 -0.029888669 -0.09365069 0.1680996
0000d0 c7 ab a5 bd 2d 56 f0 bb a7 56 02 3e a3 60 3c 3e
       -0.080894046 -0.0073344917 0.12728368 0.18396239
0000e0 f3 a9 b5 3d e9 7b 05 3e ba ec b5 bd da b8 fa bd
       0.08870306 0.13035549 -0.08883043 -0.12242289
0000f0 5f 41 a1 bd 21 eb fd 3b 2a 7e e2 bd 77 02 c3 bc
       -0.07873797 0.007748977 -0.1105922 -0.023804886
000100 a0 29 a3 3d 7d 1c e3 3d 26 69 29 3e 6c 64 c9 bd
       0.07966924 0.11089418 0.16544017 -0.09833607
000110 db dc cb 3d 00 d1 92 3d 6b e3 5f bd 27 46 c5 3c
       0.09954234 0.0716877 -0.054660242 0.024081303
000120 90 42 94 bd 48 5b a4 3d 66 8c 97 3d f8 d8 8d 3d
       -0.07239258 0.08025223 0.07399826 0.06926149
000130 28 be f1 3a 5d 21 96 3d d0 04 66 bd b0 99 00 3e
       0.0018443512 0.07330582 -0.056156933 0.12558627
000140 a0 34 ee bb 38 b0 61 bb 1f 37 cc bd ff 73 5d 3e
       -0.007269457 -0.003443731 -0.09971451 0.2162628
000150 11 7f 22 3e d6 86 8c bd 73 65 29 bd b0 d9 08 bc
       0.15868784 -0.068616554 -0.041356515 -0.008352682
000160 90 9c 96 3d 4c 56 6b bd 1b b2 19 be a5 7d 9b 3d
       0.07354081 -0.057455346 -0.15009348 0.07592324
000170 ff 0c 1a bd 66 46 2d bc 52 59 90 3d 9c 85 08 3d
       -0.03761005 -0.010575866 0.070482865 0.033330545
000180 64 31 44 3d e4 70 31 bd 49 45 55 3d 7d 90 93 3d
       0.047898665 -0.04332055 0.05206803 0.07205293
000190 e9 5a 0c 3d 5c 58 f6 bd 4d 0d e0 bd 3b 8c c1 3d
       0.034266386 -0.12028572 -0.10940037 0.09450575
0001a0 95 bc 89 3d 8a 5a 18 be b2 95 14 bd 3f 17 c0 3d
       0.06725422 -0.14878288 -0.036275573 0.09379434
0001b0 c6 90 39 bd 3c c5 60 3e 83 f6 93 3d f9 45 c0 3d
       -0.045304082 0.21950239 0.07224753 0.09388346
0001c0 f3 f2 1f be 17 5b 87 3d e7 6a cb 3d d5 13 82 bc
       -0.15620022 0.06609171 0.099324994 -0.015878597
0001d0 30 74 cb 3c 1b 52 23 3e 89 5d 9c 3d ce a8 d0 3d
       0.024835676 0.1594929 0.07635028 0.10188447
0001e0 df 03 c1 3d a5 a3 92 bc c1 37 86 bd ad a3 bd bd
       0.094245665 -0.017900297 -0.06553603 -0.09259734
0001f0 30 59 81 bb 4d 95 a1 bd 76 30 6d 3e 8b 9b 88 bd
       -0.0039473996 -0.07889805 0.23163018 -0.066702925

net.4.weight f4 [128, 128]
000000 19 a8 c9 3a 17 d3 27 bd 30 d1 d9 ba 55 e3 6c 3d
       0.001538518 -0.040972795 -0.0016618129 0.05783399
000010 6c 79 5e bd c5 eb c3 3c 5c ae 43 3d ad 0e 5a bd
       -0.054315016 0.023916135 0.047773704 -0.053236652
000020 72 a6 91 bd c6 25 1e 3d d1 28 69 3d 35 9b 72 3b
       -0.07111825 0.038610242 0.05692369 0.003701878
000030 00 10 91 bb 4f 07 9d bc 00 37 db 3b ef df f4 3b
       -0.004426956 -0.019168524 0.006689906 0.007472984
000040 e7 ad 0b 3c b1 02 98 bd 63 c4 87 bd 6f 8f 95 3c
       0.008525348 -0.07422388 -0.06629255 0.018256871
000050 66 04 6e bc b0 02 9b 3d d9 70 1c 3d 09 ca 0b 3d
       -0.014527416 0.07568872 0.038193557 0.034128223
000060 01 ff 8d 3d e2 47 24 3d 2f 73 2e 3d d2 c1 78 bd
       0.06933404 0.040107615 0.042590316 -0.060731716
000070 df 3b 1a bd 27 01 15 bd 17 6a 4c bc 02 9f 95 bd
       -0.037654754 -0.036378052 -0.012476466 -0.07305719
000080 7a bf a2 3d 59 6b 93 bc d3 88 11 3d f1 a9 d9 bc
       0.079466775 -0.017995523 0.035530876 -0.026570292
000090 27 53 80 bd 3d f7 8a bc af 2b a0 bc 96 98 72 bd
       -0.0626586 -0.016963596 -0.01955208 -0.05922755
0000a0 1e 8a 59 3d e8 11 ff bc 49 b5 53 3b e8 89 ac 3c
       0.053110234 -0.031136468 0.00323041 0.021061853
0000b0 e9 1e 05 bb ad fd 76 bb 90 d7 71 bd a1 4e a7 3d
       -0.0020312613 -0.0037687824 -0.059043467 0.08169294
0000c0 b1 1e 65 3d 3c 38 a2 bd 68 f5 51 3d 1f 9d dd 3c
       0.055937473 -0.07920882 0.05125943 0.02705246
0000d0 7d ad ac bb 57 4c a1 bd e0 9b 1f 3d 43 55 ae bd
       -0.005269705 -0.07875889 0.038967013 -0.08512356
0000e0 ef a6 bc 3c 3c 4a 80 bd 35 22 26 bd 10 40 d1 bc
       0.023028819 -0.06264159 -0.040559966 -0.025543243
0000f0 80 67 98 3c a1 78 12 bd 78 2a a6 3c 82 3b d2 bc
       0.01860404 -0.035759572 0.020283923 -0.025663141
000100 af 93 a0 bd 5a a8 c5 bd 69 95 38 bc 71 e2 2a bd
       -0.078406684 -0.09651251 -0.011266091 -0.041719858
000110 8d 5a 7b 3d 9c a9 69 bd a9 97 06 3d b3 27 04 bd
       0.061365653 -0.057046518 0.03285948 -0.032264423
000120 c4 3e b3 3d e5 73 26 3c a3 a6 c7 bc f3 1e 89 bb
       0.08752206 0.010159467 -0.02437145 -0.0041845976
000130 27 dd a1 3d 48 16 a4 bc 7e 39 71 3d de 25 7a bd
       0.079035096 -0.020030156 0.05889272 -0.06107127
000140 d5 3d 94 bb 27 4d 22 bc 37 44 13 3d f7 2b 00 3d
       -0.0045239725 -0.00990609 0.035953727 0.03129193
000150 5c e8 e0 3b 3e 2e 3f 3c f8 c0 7b bd 8c 19 eb 3c
       0.006863637 0.01166874 -0.061463326 0.028698705
000160 89 64 e2 3c c6 a3 a4 3d 91 6a c7 3c 6a 81 24 bd
       0.02763583 0.0803905 0.024342807 -0.04016248
000170 bb f8 bf bd 6f 0e 0a 3b e5 b1 29 bd 4d 35 66 3d
       -0.093736134 0.0021065732 -0.04142942 0.056203175
000180 eb 5f 20 bc c1 28 d5 bc 58 83 af 3b f7 24 3e 3d
       -0.009788494 -0.02602041 0.0053562336 0.04642197
000190 34 74 1f bc 48 d2 3a bd ce 0a 5f 3d ca 69 7b 3d
       -0.009732295 -0.045610696 0.054453664 0.061380185
0001a0 91 c8 35 3c 25 03 16 3c 40 e5 9a bd 14 08 5a bd
       0.011095182 0.009156023 -0.07563257 -0.05323036
0001b0 24 4a 9e 3a ea c7 c1 bd 5b c0 9f bd fe 82 32 bd
       0.0012076539 -0.09461959 -0.07800361 -0.043581955
0001c0 0d d8 94 bd c5 aa 71 bd 9a 2b a9 bd e7 88 8d 3d
       -0.07267771 -0.05900075 -0.082602695 0.06910878
0001d0 3c 3e 81 3b c2 ab 91 bc 52 1d 6a bd 24 74 c6 bd
       0.0039441865 -0.017782096 -0.05715687 -0.09690121
0001e0 b8 84 86 3b 67 80 f7 bc ba 49 bb ba 3e 24 1d bd
       0.004105177 -0.030212594 -0.001428894 -0.03836464
0001f0 b0 91 43 bd 99 98 10 bc 50 16 9c 3c 73 61 24 3d
       -0.04774636 -0.008825445 0.019053608 0.040131997
000200 3f 51 cd 3c b0 4c b5 bd 13 d2 b9 bd f8 65 06 be
       0.025063155 -0.088525176 -0.090732716 -0.13124835
000210 f3 f4 d1 bd aa 76 88 bd 0f 88 59 bd 4a db d8 bd
       -0.102517985 -0.066632584 -0.05310827 -0.10588701
000220 81 4a 08 bd 3b d1 b4 bd 42 b9 99 bd 57 3a 23 bd
       -0.033274177 -0.0882897 -0.07506038 -0.03985056
000230 d1 70 a9 bd 0f 99 69 bd bb 67 01 3c fa 5e 7a 3d
       -0.08273471 -0.057030734 0.007898266 0.061125733
000240 10 95 f3 bc 72 7c 88 3b 0e aa a6 3d 40 98 dc bd
       -0.029734164 0.0041652257 0.08137904 -0.10771227
000250 34 9f 7a 3b f1 57 0d bd 85 3a 2d 3d 06 13 a6 bd
       0.0038241865 -0.034507696 0.042292137 -0.08109097
000260 18 c0 50 bc e1 8f aa bd 0d 97 50 bd e5 6c d6 bd
       -0.012741111 -0.08328224 -0.050925303 -0.10469989
000270 1b a0 aa 3c bc f4 98 bd 25 dd 65 bd 02 de 48 bd
       0.020828297 -0.074685544 -0.056119103 -0.04903985
000280 fc d8 91 bd f9 ad 02 bc a7 a6 9a bd 2a 54 41 3d
       -0.071214646 -0.007976049 -0.07551318 0.047199406
000290 80 05 e8 bd fc 44 08 3d bb a3 80 3a 32 b8 d3 bd
       -0.11329174 0.033268914 0.000981442 -0.10337867
0002a0 45 a2 70 3d a0 01 92 bd 62 b4 18 bd 54 df c4 bc
       0.058748502 -0.07129216 -0.0372814 -0.024032272
0002b0 11 7b e2 3c b8 02 93 3d 66 f7 a2 bd e6 f8 7d 3d
       0.027646573 0.07178253 -0.07957344 0.062004946
0002c0 f9 6e 8b bd a5 52 88 3d 21 da e6 3c c8 85 a4 3c
       -0.06808276 0.06656388 0.028180184 0.020083323
0002d0 f9 89 b2 3d 03 f8 98 bd 19 1d 1c 3d a1 18 d9 bd
       0.087177224 -0.074691795 0.038113687 -0.10600401
0002e0 18 cf 8d bd e2 b4 be bd a1 7c 43 3d 75 0c 3f bc
       -0.069242656 -0.093118444 0.047726277 -0.011660685
0002f0 f4 92 ab bb b0 d8 32 bd 33 75 53 bd 08 4f 19 3c
       -0.005236024 -0.04366368 -0.05162544 0.009357221
000300 06 31 39 3d b3 d0 f8 bd 57 db 3a bd 1b fd 06 3d
       0.045212768 -0.12149181 -0.045619335 0.032956224
000310 ca f4 cb bd 3f 7a ab bd f0 5f e6 bd d5 67 ac bd
       -0.09958799 -0.08372926 -0.112487674 -0.08418242
000320 b1 db 90 bd 0f 31 d0 bd bb 3c 3b bd f6 cb 3e bc
       -0.07073153 -0.10165607 -0.045712214 -0.011645308
000330 71 54 af bd 30 7d 49 3d 3c 2f a4 3d 45 3c 5b bd
       -0.08561028 0.049191654 0.08016822 -0.053524274
000340 ac 9b 09 bd 5a 1d ab 3b b3 e4 c7 3b 58 8b 45 3d
       -0.033595726 0.005222005 0.006100261 0.04822859
000350 7c 01 24 3d 66 9a 42 bd 3a 8f fe bc 51 0a 64 bd
       0.040040478 -0.047510527 -0.031074155 -0.0556739
000360 fb 9a 2d 3d 32 34 a8 3c 30 78 39 36 62 ab 15 be
       0.04238413 0.020532701 2.7637107e-06 -0.14616159
000370 99 18 36 3d 65 4c b0 bc 3b f1 81 3b 31 31 99 bd
       0.044457052 -0.021520803 0.0039655245 -0.07480086
000380 44 0b aa bd 01 8a 27 bd 1c e8 f7 bd 40 7b 3d bd
       -0.0830293 -0.040903095 -0.12104818 -0.04626012
000390 f5 65 31 3d 5c 02 c0 bb fc ad ce bd 25 f3 ae bd
       0.043310124 -0.0058596563 -0.10091779 -0.0854247
0003a0 f3 a9 db bc a5 75 09 bd e1 e7 ac bd 6d 46 b7 bd
       -0.026814437 -0.03355946 -0.08442665 -0.089489795
0003b0 a8 7e d7 3c d1 75 94 bb 61 25 ab 3d e3 fb ab bb
       0.026305512 -0.0045306464 0.08356739 -0.005248533
0003c0 63 85 bd bc e4 03 23 bd 14 25 10 be 9d 0e bb bd
       -0.023134893 -0.039798632 -0.14076644 -0.09133647
0003d0 21 03 c6 bd 38 2c b7 bd 60 b9 0e bd e0 b4 5f b8
       -0.096685655 -0.08943981 -0.034844756 -5.3335796e-05
0003e0 cb 8a 90 bc 04 0b 27 3c 20 28 6a 3d 64 cd c6 3c
       -0.017644307 0.010195497 0.057167172 0.02426786
0003f0 3a b5 79 3d 5e 40 f0 bc e9 88 6d 3d 22 5f 73 3d
       0.060963847 -0.029327568 0.057991896 0.059416898

net.4.bias f4 [128]
000000 0d c4 1f 3c 0d 5f e8 bd 7f 4a 07 3d af d4 b3 3d
       0.009751332 -0.113462545 0.03303003 0.087808006
000010 7e 32 ca bd a0 d2 da bd 55 af 85 3b 5a 9b 12 3e
       -0.09872912 -0.10684705 0.004079739 0.14317074
000020 a5 ef 74 3e 9c 02 67 3d 5c 05 f5 bc 18 ea 2c bc
       0.23919542 0.056398973 -0.029909782 -0.010553859
000030 d6 ba 3b 3e fe 47 ba bd 32 fe 53 bd 9e 30 ae 3d
       0.18332991 -0.09095763 -0.05175609 0.08505367
000040 7d d5 9c 3d a8 c2 0f be ae be 69 3e c4 f6 c5 bd
       0.07657907 -0.14039099 0.22826645 -0.096662074
000050 cd 61 44 3d ef 9c 37 3e 1f 3d 6e 3d 80 15 af 3d
       0.047944833 0.17930959 0.05816376 0.08549023
000060 d6 7b 7a 3d dc df a8 bd 3b 1a 97 3d 4f 2d 41 3d
       0.061153255 -0.08245823 0.0737805 0.04716235
000070 87 bd 9e bc 8c 4d 49 3e 96 df 26 3e 82 45 aa bc
       -0.019377483 0.19658488 0.16296229 -0.020785097
000080 b6 bd d8 bb f9 d3 8a 3d cb 7e 8a 3e 36 1b f7 bb
       -0.006614412 0.06778712 0.2704986 -0.0075410856
000090 3a 5f c2 3c db ac 87 bd a8 ca 0e 3e d1 5b 35 bd
       0.023727048 -0.066247664 0.13944495 -0.044277016
0000a0 10 2e f5 3d 75 e9 ac bc 53 75 94 3d e8 85 e5 3d
       0.11971676 -0.021107415 0.0724894 0.11207181
0000b0 e1 36 3e bd 64 b7 be 3c 25 f0 87 3d f5 19 73 3d
       -0.046439055 0.023280807 0.06637601 0.059350926
0000c0 08 d6 e0 3c 72 b1 2d 3e bc c1 06 3e 07 63 38 3c
       0.027445808 0.16962221 0.13159841 0.011254079
0000d0 6a 96 2a 3d dd 54 82 3d fc 92 5c 3d 85 81 59 3c
       0.041647352 0.06363843 0.053851113 0.013275509
0000e0 8f 70 53 bd 6c 07 4d 3d 1f b0 d6 3d ac 35 0d 3e
       -0.051621016 0.050055906 0.10482811 0.13790005
0000f0 88 06 12 3e d4 0e 0a 3e 6a 13 90 bd 36 93 1d 3e
       0.14260304 0.13482219 -0.07034953 0.15388188
000100 80 60 b8 bd a4 89 61 bd f4 53 02 3e 8b bb ea 3d
       -0.09002781 -0.055062905 0.12727338 0.11461552
000110 e2 72 95 bd a7 c7 bd 3d e9 f0 5d 3d 35 5e 72 3d
       -0.07297303 0.09266596 0.054184828 0.059171874
000120 4c 35 ea 3c 61 df 27 3e 8c 1e 1c 3e 39 89 a7 bd
       0.028589867 0.16393806 0.15246028 -0.0818047
000130 3a 6f a2 bd da 25 cd 3c 09 80 f8 3d d9 3e a5 bc
       -0.07931371 0.025042463 0.12133796 -0.02017157
000140 b3 1d 2a 3e e4 2b c5 3d 7d d5 ce 3d e6 74 9d bd
       0.16612892 0.09627512 0.100993134 -0.07688312
000150 5c bd 1d 3e 5c 7c cc 3d 89 00 00 3e 5a 80 d7 3d
       0.15404266 0.09984657 0.12500204 0.10522528
000160 20 4c fa 3d 8c cf f7 bd 18 77 21 3e 0c 4c c7 3d
       0.12221551 -0.12100133 0.15768087 0.09731302
000170 98 16 00 3e a4 89 ad 3d a9 2b 2a 3d f6 36 bc bd
       0.12508619 0.084735185 0.041545544 -0.091901705
000180 1f ad 14 3e f2 3f 35 3e 15 14 45 bd 1f 88 4b bd
       0.14519165 0.17700174 -0.048114855 -0.049690362
000190 da 9c 08 3e f4 11 67 3d ce d6 5d bd 89 f2 18 3e
       0.13341084 0.056413606 -0.05415993 0.1493627
0001a0 21 56 a3 3d 05 04 1c 3d e2 4c 0c 3e cf c3 10 3e
       0.07975412 0.03808977 0.13701203 0.14137195
0001b0 1a 0c e9 3a 50 48 60 bd 56 e3 ba 3d 80 18 97 bd
       0.0017780096 -0.054756463 0.09125392 -0.0737772
0001c0 f4 c1 c0 3a 23 d8 e0 bc 53 d1 d2 3d c6 b6 b5 bd
       0.001470624 -0.027446812 0.10293832 -0.08872752
0001d0 fe 3c 90 3d 83 c3 1d bd 15 96 c4 bc 33 8f c8 3d
       0.07042883 -0.038516533 -0.023997346 0.09792938
0001e0 24 dd 25 bb 8a 4d 2d bc e0 c9 b2 bc fb d0 94 3d
       -0.0025308812 -0.010577569 -0.021824777 0.07266422
0001f0 ff 46 0c 3d 10 66 0f bc b1 21 10 3d d6 8d 00 3e
       0.034247395 -0.008752361 0.03518838 0.12554106

net.6.weight f4 [18, 128]
000000 3c d0 3f 3d 20 b5 3a 3a 57 5b 87 3e 3d 22 bc 3c
       0.046829447 0.00071223266 0.26436874 0.022965545
000010 37 d7 0b 3d 05 5d 02 bc 92 93 58 bd ef 7b ee 3d
       0.03414079 -0.007956748 -0.05287511 0.11644732
000020 91 a6 79 bd 5a 52 97 3d d0 3e 08 3f e8 3d c7 bc
       -0.060949866 0.07388754 0.53220844 -0.024321511
000030 19 c9 db bd e0 be 5f 3d c2 96 9f 3d 6e 8d 13 be
       -0.10731716 0.054625392 0.07792427 -0.1440942
000040 a3 37 65 3e 55 00 30 bd 62 39 1a 3d c9 da bd 3d
       0.22384505 -0.042969067 0.03765238 0.092702456
000050 7a ba 00 be 7b d6 94 be 89 b9 45 be 8f ea 7d 3f
       -0.12571135 -0.29069886 -0.19309057 0.99186033
000060 27 8d 25 bf 69 b9 7c bd b5 47 3e bc 69 5f f0 3c
       -0.64668506 -0.06170026 -0.011613776 0.02934237
000070 58 29 3b bd 79 d4 4e bd dd ab b3 bb 94 1a 2d 3d
       -0.045693725 -0.0504956 -0.005483134 0.042261675
000080 8d 96 d0 bc 90 fb 48 bf 40 1a d5 bd 5a 8e 61 3f
       -0.025462413 -0.78508854 -0.104053974 0.88107836
000090 f0 44 12 3f f1 8b b4 3e 21 2b a3 bf 92 4c 7b 3d
       0.5713644 0.35263017 -1.2747537 0.06135232
0000a0 56 81 b1 bd 8d 03 1c 3e 39 e7 47 3d ca 78 11 3e
       -0.08667247 0.1523573 0.048804495 0.14206234
0000b0 6f 8c 6c bc 52 77 cb 3c bd db ea bd fc ab 0b 3d
       -0.014437779 0.02483717 -0.11467693 0.034099564
0000c0 e9 38 8a be 60 7f a5 3e 48 ee 11 3d 68 c1 eb 3c
       -0.26996544 0.32323742 0.035627633 0.028778747
0000d0 a2 d2 e4 bd 21 4c 1a 3f fd eb c1 3e d4 e0 83 bd
       -0.111729875 0.60272413 0.37875357 -0.06439367
0000e0 11 fe 2b bd 71 1e 10 bd 03 57 3f bc 8e 7a 11 be
       -0.041990343 -0.03518528 -0.01167846 -0.14206907
0000f0 2c 4e 85 3e b5 ec 15 3e 47 7d f1 bd fd 29 d2 bd
       0.26036203 0.14641078 -0.11791473 -0.10261915
000100 b9 cd 2e bf 09 5b 3d 3f db 89 8c bd 1d c1 64 3e
       -0.6828266 0.73967034 -0.06862231 0.22339292
000110 82 b9 ac 3b 1f d9 6c 3e f7 64 24 3e b8 38 7d bf
       0.0052711377 0.231297 0.1605414 -0.9891467
000120 28 70 8d 3e 6a ed 87 3e 4f 7e c3 3b ce b2 2e bd
       0.2762463 0.2654832 0.005965985 -0.04265099
000130 9e 25 22 3f 27 32 35 3e 8c f4 7f bd 68 20 70 3e
       0.6333865 0.17694913 -0.062489077 0.23449862
000140 fa 4f dd bc 08 14 82 3f 2e 1f 35 3e 4e fe 9f bd
       -0.027015675 1.0162363 0.17687675 -0.07812177
000150 13 89 c9 bd cc 3c 1b 3f 91 65 c1 bf 3a f0 48 3e
       -0.09840598 0.60639644 -1.5109121 0.19622889
000160 a1 cc 96 bd b1 ad f2 bc ab 5e 89 3e 82 af bf bc
       -0.073632486 -0.029623838 0.26830038 -0.023399118
000170 a4 eb 3f bd ae b3 b0 bf 2f d2 50 3e 07 d1 fe 3b
       -0.046855584 -1.3804834 0.20392679 0.007776383
000180 b0 58 fc 3c 6c 5b 1b 3d 46 e1 17 bf 0c 79 60 3e
       0.030804008 0.037928984 -0.59328115 0.21921176
000190 20 d2 1a bd 2f 37 9c be ff b4 8a be 2f 63 1e bd
       -0.037798047 -0.30510852 -0.27091214 -0.038668808
0001a0 75 90 be bd 28 e9 64 3c aa 97 b2 3d 30 c4 f8 3b
       -0.09304897 0.013971604 0.08720334 0.0075917467
0001b0 ff 8b 71 be c9 06 14 bc 42 4f ea 3c b7 b6 18 3b
       -0.2358856 -0.009034821 0.028602246 0.0023302266
0001c0 be d0 37 3f 54 f1 22 be 74 3c b4 3d 79 80 4f bd
       0.7180289 -0.15912372 0.08800593 -0.05065963
0001d0 72 07 d7 3e 40 90 f6 3e 92 57 1b 3f 41 e1 52 bd
       0.41997868 0.4815693 0.60680497 -0.05148435
0001e0 e3 0b 62 bd 70 71 45 3b 99 c8 55 3c 08 66 ca 3c
       -0.055187117 0.0030127428 0.0130483145 0.024706855
0001f0 69 22 65 3e 98 dd cf bd 83 b5 38 bf 1d 87 0b c0
       0.22376408 -0.101496875 -0.72151965 -2.1801217
000200 8c 8f 92 3d 3c 8f 4a 3d ec e5 ae 3d 85 7a b8 3e
       0.07156286 0.049453005 0.08539948 0.36030975
000210 cf a6 74 3d d8 72 43 bd 5f 9a 2a bd bd 2a 19 bf
       0.059729394 -0.047716945 -0.041651126 -0.5983084
000220 c1 9c 80 bd 6a 32 9a be a9 41 f2 3e c4 6a 86 3c
       -0.062798984 -0.30116588 0.4731572 0.016408332
000230 35 d8 31 be 7a 58 b5 3d 06 46 92 3d 6e 32 8f 3c
       -0.17367633 0.08854766 0.07142262 0.017480101
000240 5b 38 62 3d dc 85 9c bc 7e 7a 10 be ba 84 52 bd
       0.055229526 -0.019106798 -0.14109227 -0.05139611
000250 ac 9b f9 be 98 40 0a bf cf 7c cd bd 57 d7 8f 3d
       -0.4875158 -0.5400481 -0.10033571 0.07023495
000260 db a6 28 3f ea 3c df 3c 66 02 4c be cd 7e 32 be
       0.658796 0.027250726 -0.1992279 -0.17431183
000270 be 13 22 bc 53 d5 fd bd f1 23 f6 bd b9 fa 6f 3b
       -0.009892402 -0.12394204 -0.12018574 0.0036617948
000280 b4 e8 b6 bc 03 78 d9 3c c1 1a 00 be ab 9e e9 be
       -0.022327758 0.026546484 -0.12510206 -0.45628867
000290 86 be 28 bf 15 de 88 3e 24 d3 80 bd dc 6e 61 3d
       -0.65915716 0.26731935 -0.06290272 0.055037364
0002a0 a1 7f ae 3e 24 04 0a 3e 68 b7 2a be e9 ab 55 bc
       0.34081748 0.13478142 -0.16671526 -0.013041475
0002b0 bc 59 65 bd 82 0a 1b 3c fd e9 62 be 1d 38 73 be
       -0.05599378 0.0094629545 -0.22159572 -0.23751874
0002c0 51 db ad 3e 19 92 e4 be 60 5b e9 be ae 1e 9e bc
       0.33956388 -0.44642714 -0.45577526 -0.019301739
0002d0 61 1f 8d be c2 31 f9 bd a7 1f 23 3e c9 63 a1 3e
       -0.27563003 -0.12167694 0.15930043 0.31521443
0002e0 8c 15 e9 3d 8c d3 1e bd 40 36 42 be 6a cf 3e bd
       0.11381063 -0.038775966 -0.18966007 -0.046584524
0002f0 aa 78 2e be f2 86 0b bd 90 2c 89 bb d2 be 68 bd
       -0.17038217 -0.03406424 -0.0041862205 -0.056822605
000300 0b b6 8b 3e 62 20 00 3d a9 79 7e be cd 14 b0 bd
       0.27287325 0.031280883 -0.24851097 -0.085977174
000310 f9 32 33 bd 0a 2d aa bd fa fc 35 bf cc af 02 3f
       -0.043749783 -0.08309372 -0.71089137 0.51049495
000320 ee f6 60 3e 7a 4f 9f bd 24 b7 25 be 8f f3 22 bd
       0.21969196 -0.07778831 -0.16183144 -0.039783057
000330 e0 4c 51 be 26 fa bc bd db d2 5e be 08 a2 4f be
       -0.20439482 -0.092273995 -0.21760122 -0.20276654
000340 57 31 0c be 40 91 59 be 86 44 4f bd 35 e6 96 3c
       -0.13690697 -0.21246815 -0.05060246 0.018420318
000350 42 6d 11 bd 58 8f 8f 3e a2 d9 c9 3e 5e c5 04 3e
       -0.035504587 0.2803905 0.39423853 0.12965915
000360 32 b3 fa bd 6b 50 d4 3d 50 52 7e 3b a4 28 9d bd
       -0.1224121 0.10366901 0.0038806386 -0.07673767
000370 a2 fd fd bd 89 7d bb bc 9d 5b 3a be 34 79 a6 bd
       -0.12401892 -0.022887008 -0.1819901 -0.081285864
000380 ae 2b 88 bd 24 0d 66 be 96 88 77 3e b8 47 ed ba
       -0.06648956 -0.2246595 0.24173197 -0.0018103039
000390 8f b5 28 be ff 00 02 bd 17 97 f7 be 00 2d 2d be
       -0.16475509 -0.03173923 -0.4835746 -0.16911697
0003a0 a3 59 c8 be fd 02 9e 3d 0d 8e 3a bd fc 9a b5 bb
       -0.39130887 0.07715414 -0.045545626 -0.005542157
0003b0 3a 1a 17 be 9b 4a 90 3c f7 33 9f bd f1 81 16 3c
       -0.14756098 0.0176137 -0.077735834 0.009186254
0003c0 a5 0c e7 3e 86 9e 9d 3d f8 1c 89 3d ad 2e ba 3b
       0.45126835 0.076962516 0.066949785 0.0056818337
0003d0 6b 40 89 bd 13 f0 ba be e1 49 65 bd 41 b1 35 be
       -0.0670174 -0.36511287 -0.05597866 -0.17743398
0003e0 f1 e4 8c 3e 0d 1d 36 be 75 de 98 3d 44 80 08 be
       0.27518418 -0.1778452 0.07464305 -0.1333018
0003f0 3b 9c 56 be 0b 8c 9e 3e 8f cd 39 3d 2b 4e 1e be
       -0.20958035 0.3096622 0.04536205 -0.15459506

net.6.bias f4 [18]
000000 ab 68 8c bc f8 f5 49 3c a1 1e e2 bd d4 eb 6e bd
       -0.017139753 0.01232671 -0.11040998 -0.058330372
000010 cb 28 a0 bd 62 e5 0e 41 a6 fa 09 3e 34 82 e6 3d
       -0.07820281 8.931002 0.13474521 0.11255303
000020 cd 2b 8e bd 85 69 0e be 40 a8 98 3d b2 09 da c0
       -0.06941948 -0.1390744 0.07453966 -6.8136835
000030 aa b0 53 38 5d 2b 7d 3d 14 3b 91 bc 06 84 73 bd
       5.047085e-05 0.061808933 -0.017728366 -0.05945208
000040 62 23 9b 3c 0c e2 9f 3d
       0.01893777 0.07806787
