space_robot_planning_Rmat/weights/mlp_rmat_debug/v2.pth (torch, 282405 bytes, 12 tensors)

input_proj.weight f4 [128, 8]
0.106238924 -0.30965737 -0.13684437 -0.07393416 -0.06607384 0.13572963 0.2520179 -0.49113715
-0.26302162 0.3375248 0.2990323 0.05884706 0.06165738 0.3935646 -0.19349994 -0.2805825
0.10298734 -0.041480083 0.33537886 0.10998392 -0.056859244 0.0031122768 -0.04139155 -0.96602297
0.182249 0.022598213 -0.028799025 -0.09676453 -0.035961293 -0.105804816 0.12415433 -0.0824217
-0.06675058 0.09036701 -0.14141414 0.23563209 -0.6089509 0.16281503 0.33121565 -0.036568176
-0.10994431 0.033037227 0.087835126 0.054639466 0.29773962 -0.0686809 -0.14292118 0.52011484
0.035368707 0.13077097 -0.18850169 -0.13966845 0.0092797745 -0.14579284 -0.044086788 -0.30048898
0.16267756 0.21316561 -0.0085618375 0.008080667 -0.0016166186 -0.14542767 0.027564993 0.9717932
-0.1359398 0.3461828 0.2359858 0.36267367 0.11578554 -0.08772602 0.030923275 -1.0477964
0.3079629 0.023312012 -0.2769154 -0.23946089 -0.23028646 0.0012575443 -0.16312885 0.10221231
0.10711423 -0.08489517 -0.13868403 -0.21879661 -0.41357294 0.21829265 -0.021724228 -0.5808178
-0.27536324 -0.2506992 0.061670657 -0.011972275 -0.23077746 -0.41022453 0.26437572 -0.08424414
0.25019807 0.077044904 -0.17074257 -0.19471037 -0.20031562 -0.5382948 0.25825375 -0.5317742
-0.05453187 -0.22687812 -0.18668158 0.022410493 0.048012592 -0.40592948 0.20747988 -0.739439
0.349951 -0.07317232 0.13736919 -0.0101305125 0.09351995 -0.0918133 0.30979112 0.37333778
0.33890593 0.18620823 0.21582276 0.33333963 -0.22183748 -0.108561955 -0.33394995 0.6277291
0.17057411 0.30882528 0.26430804 -0.33266544 0.010084531 -0.28495958 -0.19102694 0.12109113
-0.1813841 0.08808805 0.091767006 0.2406694 0.35697863 0.3292488 0.18649809 -0.5564185
0.094261765 0.021449922 0.19359572 -0.0055804085 -0.03183959 -0.29345852 -0.04899681 0.37877452
-0.24942487 -0.25393945 -0.1679155 -0.03933956 -0.38018566 -0.11237821 0.0649136 -0.31194293
-0.33478063 0.24905403 0.29275984 -0.26866 0.21069503 0.2849345 -0.44040972 0.48197103
0.15336438 -0.24087754 -0.036683436 0.17663951 -0.038833115 0.2424799 -0.10867764 0.91591483
0.3114345 -0.23259264 0.16949056 -0.0997545 0.07733267 0.07229994 -0.0006086623 -0.98712885
-0.24571815 0.029188588 -0.25952888 -0.21478826 0.053516623 -0.063967876 -0.031429745 0.38792416
0.2818482 -0.279674 -0.24947727 -0.077613145 0.061098583 -0.2724723 0.2194527 -1.1251223
0.22260714 -0.28437206 0.051301606 -0.18510334 0.503085 0.22048834 -0.28430417 0.19013295
-0.22264081 0.15961441 -0.3172336 0.031705674 -0.33878747 -0.34883657 -0.21022414 -0.6721621
0.11361602 -0.26622647 0.30055594 -0.23111181 0.16035566 -0.0033372047 0.20680083 0.17625111
-0.30177212 0.27993092 0.17196116 0.10466874 0.43695715 0.27820832 0.35632473 0.095281154
-0.040911946 0.250816 -0.09999369 0.011062984 0.07241132 -0.31125534 -0.14597021 -0.53256416
0.15413114 0.32387763 0.047927458 -0.088900395 -0.5894845 0.441745 -0.39568743 0.6390805
-0.14993653 0.089191034 -0.10095392 0.19075966 0.03869293 0.09153533 0.108089484 0.9469567
00000000: cb93 d93d 698b 9ebe ee20 0cbe cb6a 97bd
00000010: b951 87bd b5fc 0a3e 7d08 813e 5476 fbbe
00000020: c5aa 86be 0dd0 ac3e c31a 993e 9d09 713d
00000030: 738c 7c3d 4d81 c93e d924 46be 82a8 8fbe
00000040: 07eb d23d 05e7 29bd c7b6 ab3e 403f e13d
00000050: 3de5 68bd 57f7 4b3b 308a 29bd 484d 77bf
00000060: 7b9f 3a3e e31f b93c efeb ebbc 7b2c c6bd
00000070: 264c 13bd 32b0 d8bd a044 fe3d b5cc a8bd
00000080: 87b4 88bd 5712 b93d dece 10be 8a49 713e
00000090: 35e4 1bbf fcb8 263e 1995 a93e 83c8 15bd
000000a0: 7b2a e1bd 0b52 073d e7e2 b33d a2cd 5f3d
000000b0: 5471 983e 92a8 8cbd ee59 12be 3f26 053f
000000c0: c7de 103d d3e8 053e 9606 41be 3f05 0fbe
000000d0: 320a 183c b84a 15be 5994 34bd b1d9 99be
000000e0: f294 263e 1648 5a3e f346 0cbc c664 043c
000000f0: b8e4 d3ba feea 14be fbcf e13c 70c7 783f
00000100: ce33 0bbe df3e b13e 43a6 713e 5db0 b93e
00000110: f820 ed3d b3a9 b3bd cf52 fd3c 311e 86bf
00000120: 50ad 9d3e d5f8 be3c dbc7 8dbe 3c35 75be
00000130: 37d0 6bbe 2fd4 a43a 400b 27be b054 d13d
00000140: b55e db3d 85dd adbd 3003 0ebe 380c 60be
00000150: d5bf d3be 1c88 5f3e 02f7 b1bc 7ab0 14bf
00000160: 69fc 8cbe a55b 80be 5f9a 7c3d 5c27 44bc
00000170: ed50 6cbe f308 d2be 415c 873e 3188 acbd
00000180: f619 803e b8c9 9d3d 24d7 2ebe 2862 47be
00000190: 8a1f 4dbe b0cd 09bf d639 843e 5b22 08bf
000001a0: cf5c 5fbd bd52 68be 7529 3fbe 3696 b73c
000001b0: daa8 443d fdd5 cfbe 9b75 543e e04b 3dbf
000001c0: c72c b33e 5fdb 95bd 82aa 0c3e 73fa 25bc
000001d0: 6387 bf3d 9d08 bcbd f19c 9e3e 2126 bf3e
000001e0: 1485 ad3e 5fad 3e3e a400 5d3e 7eab aa3e
000001f0: 5d29 63be bb55 debd 7dfb aabe dbb2 203f
00000200: fbaa 2e3e 591e 9e3e 6253 873e 2053 aabe
00000210: 9739 253c 39e6 91be 919c 43be a0fe f73d
00000220: c1bc 39be 8267 b43d 57f0 bb3d 0a72 763e
00000230: e7c5 b63e 4c93 a83e 5bf9 3e3e 7171 0ebf
00000240: 500c c13d bfb7 af3c f53d 463e dcdb b6bb
00000250: 3b6a 02bd 3240 96be e1b0 48bd bcee c13e
00000260: 3c69 7fbe 5a04 82be 0af2 2bbe 8522 21bd
00000270: b2a7 c2be 8c26 e6bd 6cf1 843d fcb6 9fbe
00000280: 5e68 abbe 0508 7f3e 9ee4 953e ce8d 89be
00000290: 70c0 573e efe2 913e 627d e1be e8c4 f63e
000002a0: 8d0b 1d3e 9aa8 76be 5f41 16bd fde0 343e
000002b0: 790f 1fbd a74c 783e 6292 debd 6579 6a3f
000002c0: 5874 9f3e c42c 6ebe ef8e 2d3e 164c ccbd
000002d0: 9760 9e3d fe11 943d a38e 1fba 7ab4 7cbf
000002e0: 8a9d 7bbe e81c ef3c f8e0 84be 74f1 5bbe
000002f0: 3f34 5b3d 9701 83bd 7abc 00bd ff9d c63e
00000300: 684e 903e 6e31 8fbe f876 7fbe a4f3 9ebd
00000310: 8242 7a3d 7d81 8bbe 35b8 603e 0204 90bf
00000320: 20f3 633e 3799 91be a221 523d bb8b 3dbe
00000330: 2eca 003f b2c7 613e 5190 91be 36b2 423e
00000340: f4fb 63be f671 233e 716c a2be cfdd 013d
00000350: 8d75 adbe b59a b2be ff44 57be d112 2cbf
00000360: 84af e83d d64e 88be 78e2 993e 93a8 6cbe
00000370: 4634 243e 01b5 5abb 99c3 533e 2c7b 343e
00000380: e081 9abe 1b53 8f3e 9616 303e 905c d63d
00000390: d9b8 df3e 5271 8e3e 3270 b63e c422 c33d
000003a0: 4993 27bd f46a 803e 7ec9 ccbd 8541 353c
000003b0: 634c 943d dc5c 9fbe 3779 15be 2056 08bf
000003c0: 8ed4 1d3e 4ad3 a53e 954f 443d 6911 b6bd
000003d0: 75e8 16bf 672c e23e 8b97 cabe c89a 233f
000003e0: f688 19be caa9 b63d eec0 cebd 8056 433e
000003f0: 7a7c 1e3d e076 bb3d 055e dd3d c16b 723f

input_proj.bias f4 [128]
0.11465604 -0.27838472 0.028630888 -0.18731926 -0.2744276 0.15168567 -0.20937793 0.23973508
-0.30158788 0.073846936 0.028291311 -0.16400537 0.07892702 -0.15471384 -0.0710941 -0.11687752
-0.05290369 -0.2183065 0.045300573 0.06557249 0.15480942 0.052378822 0.18046062 0.05799363
0.28808025 0.09126712 -0.18272577 -0.087320425 -0.09673356 0.10141433 -0.019032253 0.015397861
-0.2041598 -0.08430777 -0.119185716 -0.0051473235 0.026832206 -0.16094175 -0.11949056 0.26704353
-0.052822027 -0.22891018 0.24954887 -0.018694157 -0.28002176 0.12811598 -0.08989131 0.003513032
0.15119694 -0.06974036 0.12326836 -0.17124948 -0.24448928 -0.0053797318 -0.26969507 0.15711254
-0.0023087482 0.16369592 0.24385116 0.17055441 0.10168697 0.17175594 0.24875554 -0.024816984
0.038852297 -0.008729265 -0.0386515 0.15359135 -0.12883475 -0.27290317 0.27925107 -0.22600088
-0.07949789 0.29921195 -0.15546028 0.10501991 -0.12823746 -0.12925053 0.19028246 0.07091278
0.018985286 0.059693545 -0.05335385 0.05838308 -0.15819015 -0.2196334 -0.1758849 -0.17145051
-0.13705353 0.08863254 0.30403528 0.0005334796 0.07521921 0.17654653 0.3074655 0.1309439
0.31111526 -0.04069268 -0.21445078 0.15297936 -0.23378517 -0.031241653 0.17689317 0.08748108
0.29199564 0.36616033 0.020655325 -0.1142314 -0.081541695 -0.024078306 -0.23631378 -0.385801
-0.13038099 0.10411656 0.08146381 0.1217771 -0.023603769 -0.00028165782 0.27714187 0.06091135
0.11406341 0.3113707 0.012312817 0.14792882 -0.21077785 -0.03521633 -0.29671997 0.074308015
00000000: c9d0 ea3d 7188 8ebe 538b ea3c 9fd0 3fbe
00000010: c681 8cbe 7d53 1b3e 2b67 56be 1d7d 753e
00000020: ba69 9abe 103d 973d 2ec3 e73c 06f1 27be
00000030: 7da4 a13d 4e6d 1ebe c999 91bd 7b5d efbd
00000040: 8ab1 58bd bd8b 5fbe 188d 393d df4a 863d
00000050: 5c86 1e3e 2d8b 563d abca 383e bb8a 6d3d
00000060: 417f 933e 41ea ba3d 771c 3bbe 0dd5 b2bd
00000070: 3f1c c6bd 51b2 cf3d 87e9 9bbc 4f47 7c3c
00000080: 440f 51be 8da9 acbd a417 f4bd e1aa a8bb
00000090: 37cf db3c eacd 24be 77b7 f4bd eeb9 883e
000000a0: e95b 58bd 6e67 6abe bd89 7f3e 7d24 99bc
000000b0: 035f 8fbe d630 033e ef18 b8bd e63a 663b
000000c0: 5fd3 1a3e 09d4 8ebd 1f74 fc3d 065c 2fbe
000000d0: 665b 7abe 7648 b0bb 7915 8abe 1ce2 203e
000000e0: 5e4e 17bb e79f 273e 1eb4 793e d1a5 2e3e
000000f0: 4241 d03d cae0 2f3e c6b9 7e3e fd4c cbbc
00000100: 9623 1f3d 3105 0fbc 0951 1ebd 0d47 1d3e
00000110: 42ed 03be f7b9 8bbe fff9 8e3e c66c 67be
00000120: cacf a2bd 4f32 993e fb30 1fbe ae14 d73d
00000130: ae50 03be 405a 04be 68d9 423e b83a 913d
00000140: 0887 9b3c 3881 743d 9189 5abd 1923 6f3d
00000150: 99fc 21be 94e7 60be 2c1b 34be b990 2fbe
00000160: c357 0cbe fa84 b53d 83aa 9b3e 36d9 0b3a
00000170: 870c 9a3d 9dc8 343e 1e6c 9d3e 2816 063e
00000180: 804a 9f3e 5ead 26bd fc98 5bbe 9fa6 1c3e
00000190: 6165 6fbe 7fee ffbc 7c23 353e 4829 b33d
000001a0: 7480 953e 5e79 bb3e 5b35 a93c 27f2 e9bd
000001b0: 55ff a6bd de3f c5bc 3dfc 71be b587 c5be
000001c0: 9882 05be 103b d53d 7fd6 a63d 4666 f93d
000001d0: b15c c1bc 79ab 93b9 8ae5 8d3e 2e7e 793d
000001e0: 149a e93d fb6b 9f3e b3bb 493c a77a 173e
000001f0: 26d6 57be 003f 10bd aeeb 97be cd2e 983d

residual_blocks.0.fc1.weight f4 [128, 128]
0.121697426 0.17833361 0.08403963 0.059360854 0.1365416 -0.27673113 -0.03791624 -0.28894588
0.046224695 -0.111798614 0.10270976 -0.13918512 -0.029258162 -0.61673355 -0.19403417 -0.23510507
-0.08753284 0.046359297 -0.17656371 -0.046240717 -0.18958059 -0.010231899 0.07472358 -0.028650248
0.008257058 -0.27576566 -0.1110824 -0.046314653 -0.038449652 -0.12713042 -0.16481848 -0.020742252
0.07960937 0.1353734 -0.34056848 -0.26722744 0.039003566 -0.9089996 -0.17953931 -0.022298548
-0.011297358 -0.063316755 -0.7667359 0.008526591 -0.035892285 -0.20182893 0.25685757 -0.00813122
-0.054934885 0.0014274296 -0.035756797 0.041227058 0.1431845 -0.2982484 0.08337244 -0.16448385
-0.19295663 -0.2297698 -0.3417258 0.04238005 0.1766749 -0.40107915 0.0062785856 -0.005271723
0.0712711 -0.12261562 -0.09318989 0.118301824 0.18848932 0.1015255 -0.018689133 0.02740996
-0.05830857 0.09670581 0.07540492 0.014434392 0.10108148 -0.11734605 -0.18254419 -0.11251523
-0.83844763 0.016914412 -0.045807466 -0.21831836 -0.14650266 -0.1377731 -0.06894527 -0.5623062
0.013896627 0.032392006 -0.4738412 0.09430557 -0.20280115 -0.113699004 -0.32695147 -0.30087093
-0.31265482 -0.02936762 -0.4012415 0.15216385 0.21348521 -0.2733646 -0.35676306 -0.21303068
-0.10948024 -0.05588454 -0.029221194 0.04908113 -0.1396642 -0.02353474 -0.06336498 -0.06300408
0.07881543 -0.018070761 0.13646963 0.13111706 -0.022369208 -0.010072688 0.12691388 0.04434539
0.09016432 -0.12584804 0.11421588 -0.008904509 0.06440074 -0.10178614 -0.015839739 -0.04836003
-0.13586889 0.053908803 -0.12644576 -0.033675354 -0.110849455 0.11075573 0.025829336 0.014288577
-0.31531408 -0.044545587 0.005299779 -0.17961499 -0.091689005 0.035848577 -0.098195285 0.049867634
0.030366803 0.024521181 -0.013959848 -0.08817942 0.034421697 -0.019568926 -0.17085816 -0.04719662
-0.04731979 0.1965096 -0.09187634 0.006642494 -0.24957247 -0.08984859 0.1411339 0.02507079
0.050320312 -0.015118468 -0.052282665 0.05847247 0.06480195 -0.02720723 -0.0864166 -0.11096879
-0.286377 -0.38915437 -0.017856749 -0.33125493 0.060203053 0.047494866 -0.056080297 -0.06111826
-0.12143836 -0.15048376 -0.06115453 0.031266898 -0.42458493 -0.10332835 -0.000163593 0.10171415
-0.021778632 0.13640265 0.055670686 0.045732908 0.01705813 0.0033584458 0.07587938 0.104155876
0.043846563 0.016580556 0.14822416 -0.18855914 -0.11258603 0.40229103 0.09697236 0.055873074
-0.026891343 -0.118691295 -0.105817005 -0.081246756 -0.108486734 -0.0012052305 -0.04119862 0.07197512
0.12949847 -0.010464411 -0.13605723 -0.5004038 -0.24369732 -0.09090914 0.007788495 0.23468755
-0.0143181905 -0.31184202 0.07421542 0.053758312 0.09307408 0.071499705 0.0677455 -0.020507893
-0.02566001 0.055699825 0.05881629 -0.20821664 -0.2948109 0.089325525 0.058051772 -0.08181099
-0.33036295 -0.20343888 0.005308677 -0.056808252 -0.22406517 -0.091995046 -0.13202517 -0.20762956
-0.16952576 -0.13361152 -0.121428706 -0.1298529 -0.030338606 -0.09515651 0.08068315 -0.116100095
-0.083629884 0.14731164 -0.007245177 -0.13401018 -0.13482663 0.089248106 -0.44800413 0.06449368
00000000: 803c f93d 169d 363e f81c ac3d 5e24 733d
00000010: 90d1 0b3e b4af 8dbe 0f4e 1bbd b7f0 93be
00000020: 1b56 3d3d acf6 e4bd 7f59 d23d 8b86 0ebe
00000030: d0ae efbc 40e2 1dbf e5b0 46be 62bf 70be
00000040: 6b44 b3bd 3fe3 3d3d 1ecd 34be e866 3dbd
00000050: 6a21 42be b2a3 27bc ad08 993d edb3 eabc
00000060: 9d48 073c 2831 8dbe 2b7f e3bd 6fb4 3dbd
00000070: 627d 1dbd 7a2e 02be 2dc6 28be a8eb a9bc
00000080: 3d0a a33d 539f 0a3e fe5e aebe 09d2 88be
00000090: 34c2 1f3d 33b4 68bf 27d9 37be 72ab b6bc
000000a0: 8e18 39bc 37ac 81bd ce48 44bf 1db3 0b3c
000000b0: ca03 13bd 3eac 4ebe d682 833e cf38 05bc
000000c0: 6703 61bd 9718 bb3a b875 12bd b4dd 283d
000000d0: f59e 123e 04b4 98be 2bbf aa3d 746e 28be
000000e0: 6c96 45be c648 6bbe aff6 aebe b496 2d3d
000000f0: 44ea 343e 3f5a cdbe 98bc cd3b 6bbe acbb
00000100: 95f6 913d e61d fbbd 57da bebd 3a48 f23d
00000110: 5803 413e 9aec cf3d f419 99bc da8a e03c
00000120: f8d4 6ebd b20d c63d e56d 9a3d 3a7e 6c3c
00000130: cf03 cf3d 2053 f0bd ddec 3abe 636e e6bd
00000140: 81a4 56bf 1890 8a3c 9ca0 3bbd d98e 5fbe
00000150: cb04 16be 6414 0dbe 2d33 8dbd 4df3 0fbf
00000160: aeae 633c 7bad 043d 509b f2be 4723 c13d
00000170: 1bab 4fbe 06db e8bd 2f66 a7be c10b 9abe
00000180: 4b14 a0be 5d94 f0bc 876f cdbe d7d0 1b3e
00000190: de9b 5a3e 72f6 8bbe a6a9 b6be b724 5abe
000001a0: 2d37 e0bd 30e7 64bd 4961 efbc 4c09 493d
000001b0: 2204 0fbe edcb c0bc 80c5 81bd 4808 81bd
000001c0: fc69 a13d 2209 94bc b2be 0b3e 8d43 063e
000001d0: a13f b7bc ea07 25bc b6f5 013e 83a3 353d
000001e0: 12a8 b83d 4fde 00be 04ea e93d 38e4 11bc
000001f0: 89e4 833d 4075 d0bd 57c2 81bc 2b15 46bd
00000200: 3721 0bbe 7acf 5c3d ff7a 01be 2bef 09bd
00000210: 0a05 e3bd e6d3 e23d 0b98 d33c a31a 6a3c
00000220: d970 a1be 6f75 36bd c5a9 ad3b feec 37be
00000230: 72c7 bbbd f5d5 123d 9c1a c9bd 0142 4c3d
00000240: cdc3 f83c a5e0 c83c d9b7 64bc 6997 b4bd
00000250: c4fd 0c3d 034f a0bc 71f5 2ebe 3e51 41bd
00000260: 65d2 41bd d039 493e aa29 bcbd 47a9 d93b
00000270: ed8f 7fbe 8a02 b8bd 6885 103e 4261 cd3c
00000280: ac1c 4e3d 73b3 77bc 5926 56bd d480 6f3d
00000290: e2b6 843d b2e1 debc 30fb b0bd 9b43 e3bd
000002a0: 02a0 92be 3e3f c7be 5148 92bc 3f9a a9be
000002b0: 7a97 763d fa89 423d 74b4 65bd 2457 7abd
000002c0: adb4 f8bd 6a18 1abe 2c7d 7abd b811 003d
000002d0: 3263 d9be d09d d3bd 298a 2bb9 824f d03d
000002e0: 1a69 b2bc 23ad 0b3e f206 643d 6e52 3b3d
000002f0: 7ebd 8b3c 5f19 5c3b a666 9b3d ad4f d53d
00000300: 7498 333d f2d3 873c 13c8 173e a615 41be
00000310: 8193 e6bd 17f9 cd3e 7299 c63d 2adb 643d
00000320: 3c4b dcbc 6c14 f3bd 96b6 d8bd b364 a6bd
00000330: 4b2e debd d3f8 9dba e2bf 28bd b167 933d
00000340: 3f9b 043e ec72 2bbc 9652 0bbe 771a 00bf
00000350: ca8b 79be 922e babd a236 ff3b ef51 703e
00000360: d896 6abc c2a9 9fbe 41fe 973d ad31 5c3d
00000370: a09d be3d 706e 923d 27be 8a3d 2b00 a8bc
00000380: f134 d2bc 8025 643d 5ae9 703d be36 55be
00000390: 74f1 96be 4df0 b63d b2c7 6d3d 858c a7bd
000003a0: 5525 a9be 4852 50be 69f4 ad3b c5af 68bd
000003b0: 5771 65be e667 bcbd 9b31 07be d89c 54be
000003c0: 2998 2dbe 75d1 08be 9daf f8bd 29f8 04be
000003d0: ab88 f8bc 6be1 c2bd 353d a53d e3c5 edbd
000003e0: 2546 abbd ddd8 163e f368 edbb f739 09be
000003f0: fe0f 0abe b6c7 b63d cc60 e5be 4315 843d

residual_blocks.0.fc1.bias f4 [128]
-0.029456394 0.045966517 -0.047662392 0.01579031 -0.048664562 -0.104236886 -0.07058851 -0.09271968
-0.0092740515 -0.10175484 -0.0004765211 0.001639449 -0.091335334 0.03620775 0.0007154721 0.09074325
-0.088405736 -0.054206014 0.063670404 -0.06693296 0.04604049 -0.08043334 -0.06050428 -0.09129105
0.04580468 0.051997267 -0.100779004 -0.05655013 0.038221017 -0.09538173 0.044867847 0.06570433
0.046151455 -0.066329665 -0.096051104 0.010981977 -0.056718513 -0.09970786 -0.0063243713 -0.004728473
-0.06068729 0.042304024 -0.105973735 0.07889315 -0.049178254 -0.029099826 -0.07612154 0.020166384
0.0027335673 -0.024739513 0.018046184 0.06415561 0.0027877104 -0.0033692117 0.0143161835 -0.112652645
0.09066632 0.02372771 0.019418135 -0.008501143 -0.018218422 -0.025289468 0.042045116 0.09791426
-0.012510661 -0.014120159 -0.024582762 -0.05046058 0.02790469 0.04017364 -0.042113423 0.019981079
0.0687612 -0.0036334058 -0.005313782 -0.037401546 0.08873248 -0.060314618 -0.007020394 -0.07566724
0.11646368 -0.07653346 -0.036147244 -0.059282705 0.07783575 -0.093828775 -0.07670129 -0.074121736
-0.0032392277 -0.056499716 -0.023850007 -0.07369009 -0.05167691 0.0032837887 -0.02421218 -0.01273867
0.06530072 -0.080567494 -0.016197827 -0.09979074 -0.102169104 -0.05383853 0.073915 -0.065354735
-0.06723195 -0.08603413 -0.10589577 0.048223548 0.013806178 0.034909397 -0.05645252 0.028259883
-0.08229862 0.102158375 0.004492361 0.09138695 -0.004751421 0.0959171 -0.047359854 -0.05737286
0.034158304 0.024021767 0.022197947 -0.07494617 0.015087951 -0.007232032 0.03639299 0.084970355
00000000: 894e f1bc 6347 3c3d a439 43bd ae5a 813c
00000010: 7e54 47bd 267a d5bd b590 90bd d1e3 bdbd
00000020: 31f2 17bc d764 d0bd 94d5 f9b9 c8e2 d63a
00000030: 050e bbbd 944e 143d 858e 3b3a 99d7 b93d
00000040: 110e b5bd 2007 5ebd a165 823d 2614 89bd
00000050: f494 3c3d 3cba a4bd 56d3 77bd cdf6 babd
00000060: b09d 3b3d 16fb 543d 3965 cebd 1ca1 67bd
00000070: a48d 1c3d 7f57 c3bd 59c7 373d fe8f 863d
00000080: 4f09 3d3d d9d7 87bd 71b6 c4bd c0ed 333c
00000090: ac51 68bd a233 ccbd ac3c cfbb 4ef1 9abb
000000a0: 3c93 78bd fc46 2d3d c208 d9bd bb92 a13d
000000b0: 236f 49bd c262 eebc 9ce5 9bbd f933 a53c
000000c0: a625 333b 85aa cabc 97d5 933c 0464 833d
000000d0: 05b2 363b fecd 5cbb 6d8e 6a3c 6eb6 e6bd
000000e0: 43af b93d 9d60 c23c c812 9f3c 6148 0bbc
000000f0: cd3e 95bc dc2b cfbc 8037 2c3d 4687 c83d
00000100: 84f9 4cbc 3d58 67bc ca61 c9bc c1af 4ebd
00000110: 6098 e43c 1d8d 243d 207f 2cbd 5caf a33c
00000120: acd2 8c3d 6f1e 6ebb 3c1f aebb 5d32 19bd
00000130: 60b9 b53d 760c 77bd 550b e6bb 6df7 9abd
00000140: 8384 ee3d 93bd 9cbd 220f 14bd 6cd2 72bd
00000150: 5a68 9f3d 4d29 c0bd 9115 9dbd 23cd 97bd
00000160: 3949 54bb 3f6c 67bd 1761 c3bc d4ea 96bd
00000170: 2bab 53bd d534 573b 9f58 c6bc dbb5 50bc
00000180: 62bc 853d 9200 a5bd 4eb1 84bc 165f ccbd
00000190: 093e d1bd ca85 5cbd bf60 973d b4d8 85bd
000001a0: e8b0 89bd a932 b0bd e2df d8bd 0e86 453d
000001b0: 4f33 623c 28fd 0e3d c23a 67bd 4581 e73c
000001c0: 2e8c a8bd 6938 d13d a834 933b 1529 bb3d
000001d0: cfb1 9bbb 2f70 c43d 68fc 41bd ceff 6abd
000001e0: 94e9 0b3d 4cc9 c43c 78d8 b53c 617d 99bd
000001f0: 7433 773c aefa ecbb d110 153d f004 ae3d

residual_blocks.0.fc2.weight f4 [128, 128]
-0.0377938 -0.04860659 -0.064179994 -0.5327749 0.14534453 0.16531847 0.097088836 0.10463958
0.105106376 0.07819328 0.026568012 -0.07271696 0.0071799457 0.108060904 -0.09670313 -0.086083226
-0.014148362 0.09717422 -0.018546963 0.013440704 -0.025862603 -0.035465013 0.077762336 0.014139951
0.04086586 0.027484357 0.030484399 -0.0149270175 0.028325347 0.06534313 -0.0011482397 -0.083746165
0.17208804 -0.0455233 -0.06950117 0.09623798 0.061578196 0.1072505 -0.028868265 0.117487825
-0.017175121 0.12131882 0.035942785 0.16697702 -0.021799365 0.16362616 -0.010033826 -0.048147306
-0.22955018 0.025562001 -0.10598115 -0.06244673 0.022682073 -0.06722365 -0.1898989 -0.011344424
0.13976592 -0.08965199 -0.04319279 -0.24889812 0.13820669 0.0634723 0.087419294 0.12123723
0.039751302 0.21631289 0.06057811 0.03302001 -0.074943386 -0.06859379 -0.18514818 0.025571423
-0.10134376 -0.07801698 0.06348937 0.2667744 0.0685143 0.013002515 0.0021682794 -0.004599421
-0.05987643 -0.2846009 -0.24723752 -0.0023220023 0.3032823 0.011320698 -0.04718848 -0.033817884
0.05389997 -0.044907726 -0.1388383 0.03470754 -0.15879099 0.05977728 0.058912564 0.055644505
-0.028084733 -0.066753425 0.16872172 0.07668286 -0.048478965 -0.10771998 -0.023751752 0.045457304
0.06434724 -0.0748698 0.06735221 -0.31586272 -0.050671194 0.18333288 -0.33780715 -0.05503445
0.11076002 0.036995757 -0.05834999 -0.01865912 0.035206795 0.11004201 0.012813657 0.056594614
-0.05058626 -0.09122125 -0.15974274 0.084455766 -0.017749315 -0.12140825 0.058099974 0.06670177
-0.10103166 -0.104058154 -0.07467899 0.09452013 0.13859737 -0.23436764 0.15441477 0.10309155
0.04530366 0.060965195 -0.05843778 0.08400492 -0.06704878 -0.4288514 -0.13343735 0.11914844
0.0883333 -0.07892515 0.25402445 -0.26289904 0.22882757 -0.12351519 0.109889 -0.346323
-0.41946405 0.055282257 0.010464166 -0.38913354 -0.002468527 -0.23633917 -0.013055796 -0.54470325
0.092659846 -0.058506303 -0.63194996 -0.36682853 0.060571488 -0.21907409 -0.4714734 -0.15849333
-0.13634425 0.13738938 -0.021806201 -0.003215911 -0.28369287 -0.38544932 -0.00311775 0.14721286
-0.3276927 0.1732519 0.06451529 0.15379182 -0.18017493 -0.22298276 0.06505193 -0.043406576
-0.033503957 0.08293302 0.10007678 0.0800814 0.15772717 -0.08047364 0.08481522 0.318872
0.0032544818 -0.0138468295 -0.0756148 0.11458103 0.38103536 0.28186148 0.12086443 -0.38399366
0.062258016 -0.4454675 -0.41498655 0.090455905 0.1047928 -0.4211591 -0.45762214 -0.051695406
0.15290982 0.06728903 0.1078307 -0.19657445 -0.14709045 0.05059195 -0.27632758 -0.008721026
-0.06594532 -0.09997522 -0.27658072 0.15401429 -0.03672684 -0.17213634 -0.018217057 0.15095139
-0.08033477 -0.065836504 -0.045137838 0.012909372 0.059144948 0.114328206 0.08314954 -0.604912
0.014688914 0.053124428 -0.044353645 -0.11701794 0.034729347 -0.10670602 0.13495429 0.10581535
-0.3874272 0.11845184 -0.088858865 0.039780885 -0.33337462 0.08491707 -0.04044421 0.046650846
-0.34786788 -0.033695474 -0.30672717 -0.15566476 0.17285165 -0.093602076 -0.18638577 0.19546221
00000000: accd 1abd b417 47bd cd70 83bd f063 08bf
00000010: 32d5 143e 3f49 293e 83d6 c63d 474d d63d
00000020: 0342 d73d cc23 a03d 29a5 d93c a1ec 94bd
00000030: c045 eb3b 094f dd3d 4a0c c6bd 674c b0bd
00000040: 88ce 67bc 4703 c73d cdef 97bc 6636 5c3c
00000050: cfdd d3bc c343 11bd dc41 9f3d 41ab 673c
00000060: f662 273d e026 e13c 6bba f93c 7390 74bc
00000070: 8f0a e83c 9ed2 853d 8880 96ba 1c83 abbd
00000080: d937 303e a476 3abd a156 8ebd 6b18 c53d
00000090: 6b39 7c3d 26a6 db3d 247d ecbc 759d f03d
000000a0: d7b2 8cbc 0076 f83d be38 133d 06fc 2a3e
000000b0: 9594 b2bc 9e8d 273e eb64 24bc 1c36 45bd
000000c0: 340f 6bbe 6767 d13c a50c d9bd 24c8 7fbd
000000d0: c1cf b93c 8eac 89bd db74 42be f7dd 39bc
000000e0: cc1e 0f3e 769b b7bd ecea 30bd 26df 7ebe
000000f0: 0e86 0d3e c4fd 813d e308 b33d 3a4b f83d
00000100: 43d2 223d 2081 5d3e c120 783d fd3f 073d
00000110: eb7b 99bd e77a 8cbd 7c97 3dbe 297b d13c
00000120: 518d cfbd 5ec7 9fbd b706 823d a796 883e
00000130: 3a51 8c3d 8008 553c b119 0e3b bdb6 96bb
00000140: fd40 75bd 36b7 91be d52b 7dbe bc2c 18bb
00000150: d147 9b3e 737a 393c b548 41bd 9f84 0abd
00000160: 37c6 5c3d 2af1 37bd a12b 0ebe 7e29 0e3d
00000170: 1b9a 22be 05d9 743d 4d4e 713d 7eeb 633d
00000180: f411 e6bc 05b6 88bd 63c5 2c3e e70b 9d3d
00000190: e191 46bd 4b9c dcbd 0993 c2bc 7031 3a3d
000001a0: 7cc8 833d 5655 99bd f5ef 893d c2b8 a1be
000001b0: 998c 4fbd 9dbb 3b3e 0ff5 acbe ce6b 61bd
000001c0: 26d6 e23d dd88 173d 6600 6fbd 03db 98bc
000001d0: 0035 103d b55d e13d 5ff0 513c c1cf 673d
000001e0: 8a33 4fbd 35d2 babd 9a93 23be 25f7 ac3d
000001f0: 0367 91bc e3a4 f8bd 3dfa 6d3d f09a 883d
00000200: b0e9 cebd 711c d5bd 4cf1 98bd c593 c13d
00000210: 78ec 0d3e 12fe 6fbe e81e 1e3e aa21 d33d
00000220: 5590 393d a4b6 793d 745c 6fbd c60a ac3d
00000230: df50 89bd 6992 dbbe cda3 08be 1904 f43d
00000240: 17e8 b43d 82a3 a1bd 7e0f 823e b49a 86be
00000250: c651 6a3e 88f5 fcbd 7c0d e13d 4051 b1be
00000260: fec3 d6be a66f 623d e571 2b3c 833c c7be
00000270: 03c7 21bb e502 72be fae7 55bc ac71 0bbf
00000280: 72c4 bd3d 4ea4 6fbd 79c7 21bf f3d0 bbbe
00000290: cf19 783d f554 60be f664 f1be 134c 22be
000002a0: d49d 0bbe cdaf 0c3e eba2 b2bc 09c2 52bb
000002b0: 3140 91be 9d59 c5be 2a53 4cbb f8be 163e
000002c0: 56c7 a7be f268 313e 9820 843d 9a7b 1d3e
000002d0: c77f 38be 9855 64be f239 853d 18cb 31bd
000002e0: 723b 09bd cad8 a93d 0ef5 cc3d b801 a43d
000002f0: 3b83 213e 5dcf a4bd 9ab3 ad3d 3143 a33e
00000300: 2549 553b d0dd 62bc efdb 9abd 76a9 ea3d
00000310: 1117 c33e 2650 903e c587 f73d d19a c4be
00000320: 4302 7f3d 5114 e4be 1e79 d4be f240 b93d
00000330: 9c9d d63d 2aa2 d7be 734d eabe 90be 53bd
00000340: 6494 1c3e d5ce 893d 58d6 dc3d d04a 49be
00000350: e19e 16be 8139 4f3d cf7a 8dbe a2e2 0ebc
00000360: 570e 87bd cfbf ccbd fd9b 8dbe ecb5 1d3e
00000370: e26e 16bd 8244 30be f03b 95bc 0093 1a3e
00000380: 8e86 a4bd 4ad5 86bd 74e2 38bd d581 533c
00000390: f941 723d e824 ea3d 4e4a aa3d 83db 1abf
000003a0: c5a9 703c 0099 593d 2bac 35bd 1aa7 efbd
000003b0: 5c40 0e3d b088 dabd 7531 0a3e b8b5 d83d
000003c0: dc5c c6be e196 f23d a3fb b5bd 48f1 223d
000003d0: 14b0 aabe 00e9 ad3d d4a8 25bd f514 3f3d
000003e0: bd1b b2be 4404 0abd 580b 9dbe 9566 1fbe
000003f0: 0600 313e 72b2 bfbd e9db 3ebe 3f27 483e

residual_blocks.0.fc2.bias f4 [128]
0.038903765 0.105686106 0.1973665 -0.08441683 0.1461846 0.034607437 -0.07486448 -0.09828408
0.062202703 0.05305089 0.0042627347 -0.013777881 -0.14323378 0.016519874 -0.079549514 -0.09845232
0.15297392 -0.008051643 0.13058335 -0.03184626 0.07685077 -0.080828294 0.052952066 0.024188884
-0.11923802 0.052465957 -0.09665817 0.0684628 -0.03296037 -0.053541698 -0.046105307 -0.003182074
-0.051534094 0.08066251 0.10283138 -0.0653298 -0.031390388 0.037345216 0.060664587 -0.08014602
-0.016497904 -0.08907495 -0.1261296 0.09351061 -0.0027773222 0.12909582 0.07260384 -0.1252295
0.036798615 0.12644824 0.0047602146 0.051023144 0.05751353 -0.009325043 -0.04374467 0.04387314
-0.16110858 0.06551955 -0.04965839 -0.09391878 -0.01697515 0.14242256 0.027754636 -0.11563166
0.039543904 -0.03030467 0.0227564 0.066510476 0.02314393 0.04821809 0.05922122 0.0826796
-0.042690277 -0.03942069 0.026277754 -0.00044612447 -0.0008617331 0.011156368 0.060662527 -0.0612946
-0.07048483 0.018121278 0.12593834 0.040087495 -0.034470394 -0.09993674 0.079171404 0.009987957
0.12462362 0.039277025 0.025200143 -0.024392381 0.12922038 -0.08403075 -0.07418017 -0.028949345
-0.027699688 -0.069205545 0.10552568 0.085626245 0.04442522 0.043025706 0.15192279 -0.12319819
-0.04295801 0.084360175 0.07776192 -0.10718525 0.12605669 0.12764843 0.09490306 0.06708697
-0.06158835 0.08846207 -0.001996024 -0.017100068 0.10067398 0.06382967 0.06331569 0.10008217
-0.046916734 -0.05207933 -0.0792968 0.021055942 0.0970663 -0.074124105 0.067457736 -0.09293167
00000000: 8e59 1f3d f571 d83d 721a 4a3e bbe2 acbd
00000010: 6ab1 153e 87c0 0d3d 8c52 99bd 2a49 c9bd
00000020: 43c8 7e3d e44b 593d 69ae 8b3b 9fbc 61bc
00000030: e0ab 12be b054 873c dbea a2bd 5fa1 c9bd
00000040: 32a5 1c3e 0aeb 03bc a4b7 053e 3971 02bd
00000050: f063 9d3d 4e89 a5bd 44e4 583d c427 c63c
00000060: 1033 f4bd 8be6 563d b8f4 c5bd 3936 8c3d
00000070: 7401 07bd 8a4e 5bbd ebd8 3cbd 588a 50bb
00000080: 6a15 53bd 6332 a53d 4299 d23d a1cb 85bd
00000090: 3593 00bd 4cf7 183d 6e7b 783d 9923 a4bd
000000a0: 9d26 87bc ed6c b6bd 1e28 01be 7e82 bf3d
000000b0: bc03 36bb b231 043e 52b1 943d 293c 00be
000000c0: 25ba 163d a67b 013e 93fb 9b3b a5fd 503d
000000d0: 4f93 6b3d 11c8 18bc 9c2d 33bd 52b4 333d
000000e0: a6f9 24be 1d2f 863d 9966 4bbd 7d58 c0bd
000000f0: 780f 8bbc 38d7 113e b15d e33c 4bd0 ecbd
00000100: caf8 213d 8041 f8bc a16b ba3c a536 883d
00000110: 5798 bd3c 5580 453d f391 723d ec53 a93d
00000120: 00dc 2ebd 9777 21bd 7244 d73c d0e5 e9b9
00000130: eee5 61ba 33c9 363c 4579 783d 0c10 7bbd
00000140: 5a5a 90bd 1373 943c fbf5 003e c932 243d
00000150: d430 0dbd a2ab ccbd 9e24 a23d 87a4 233c
00000160: ab3a ff3d f2e0 203d 8870 ce3c 88d2 c7bc
00000170: 5952 043e 5018 acbd c6eb 97bd 2d27 edbc
00000180: 75ea e2bc a3bb 8dbd d91d d83d d05c af3d
00000190: 38f7 353d b93b 303d a691 1b3e 554f fcbd
000001a0: bdf4 2fbd 07c5 ac3d a441 9f3d f183 dbbd
000001b0: 0115 013e 45b6 023e 895c c23d e564 893d
000001c0: 1144 7cbd 9a2b b53d bacf 02bb 7115 8cbc
000001d0: 292e ce3d 21b9 823d a8ab 813d e1f7 cc3d
000001e0: c32b 40bd 2351 55bd 5c66 a2bd 837d ac3c
000001f0: b2ca c63d 61ce 97bd 4827 8a3d f652 bebd

residual_blocks.1.fc1.weight f4 [128, 128]
0.15010586 0.12887357 -0.08885561 -0.4080815 0.077805415 -0.017479802 -0.018410651 -0.13728814
0.022575252 -0.029901393 -0.14963268 -0.21876644 -0.35578442 -0.70257145 -0.29740238 0.0036371169
-0.9358794 0.22716789 -0.16777666 0.11014413 0.12616675 0.09086402 0.037700646 -0.18127236
-0.04178845 0.1057728 0.15277159 0.049624458 0.039023492 0.043022882 0.25604343 -0.01950515
-0.06937844 0.059170205 -0.022760764 -0.03752867 0.18090282 -0.05041665 0.04545787 -0.022917038
-0.07654464 -0.19621624 -0.0025041967 0.19800438 -0.107845895 0.18507 0.0634956 0.17240137
-0.03793473 0.09547308 0.16616304 -0.13973033 -0.3379636 -0.11490739 -0.050406393 -0.012092089
0.11924976 -0.117637366 0.037326366 0.35406643 0.17680144 -0.05391292 0.061103668 -0.19688965
0.124174684 -0.08654447 0.10119444 -0.21718544 0.17896266 0.055177703 0.19808938 0.11009588
-0.18476817 0.03475446 0.05657564 -0.45207307 0.113764726 -0.052814864 -0.07140202 -0.06719139
0.03763048 0.03420277 0.12270674 0.050783247 -0.19428314 0.2516226 0.0463753 0.17237812
-0.07821532 -0.2757096 0.07813403 -0.19996148 0.020129343 0.014426008 -0.35777456 -0.18633582
-0.18798007 0.28535846 0.006289512 -0.020131543 0.117801435 -0.16414084 0.15252243 -0.07936668
-0.18731417 0.022150077 0.027618408 0.087619536 -0.17356986 -0.1457589 -0.1647166 -0.109844245
-0.08613786 0.020295588 -0.026349904 0.045187064 0.3306426 0.027368864 -0.34256765 0.10366877
-0.1541492 -0.32820678 0.18025391 -0.031110208 0.031454954 0.06417375 0.083684884 -0.022179753
-0.044265836 -0.019738575 -0.065764435 0.08314076 0.06170231 -0.07556504 -0.13580911 -0.0058442717
0.017127817 -0.08909901 -0.008195324 -0.044442054 -0.01885199 -0.04596179 0.0026822046 -0.10518003
0.049566016 0.068092816 0.009567827 -0.008155837 -1.484597e-05 -0.04570759 -0.08998173 0.02199209
-0.11035754 -0.01685167 -0.072786584 0.012299863 -0.07309975 0.033393193 -0.056399655 0.04380169
-0.013243815 0.018164065 -0.035852768 -0.070621565 -0.04790553 0.03697062 -0.089138694 -0.06420139
-0.056402214 0.045202278 -0.017441778 -0.07287353 -0.06621609 0.019130962 -0.01021431 -0.039620277
-0.07943195 0.037199974 -0.06953745 -0.08372892 -0.09161175 -0.022886714 -0.08416278 0.016224993
-0.07552046 -0.08911098 -0.12083483 0.02219198 -0.10057228 -0.061935276 -0.10179079 -0.02979914
-0.037725117 -0.08929694 -0.011569167 -0.0689161 -0.07714311 -0.04577071 -0.007858195 0.0025763358
0.031189013 -0.057513926 -0.1106149 0.02663533 -0.045821026 -0.0063557215 -0.013454011 -0.10101856
0.07217254 -0.07869167 0.013016737 0.11591723 -0.09347341 -0.07977847 0.00836409 -0.11988505
-0.08746825 -0.03427185 0.00727888 -0.0050379722 0.038518213 -0.087671675 -0.05114378 -0.12551613
-0.12285357 0.05818228 -0.048153847 -0.049438152 -0.035161737 0.052424636 0.042418465 -0.01863963
-0.031750303 -0.12192814 -0.008793026 -0.07653055 -0.115778826 -0.077956714 0.033238523 0.033648405
-0.07337293 -0.005869419 -0.048489958 0.029307943 0.019438181 -0.115737505 0.077970445 -0.04580477
-0.066619165 0.018493205 0.103458256 -0.0079171285 0.023481386 0.042856853 -0.070025474 -0.087896354
00000000: 5ab5 193e 6ff7 033e eef9 b5bd 0ff0 d0be
00000010: 7258 9f3d cd31 8fbc efd1 96bc 4395 0cbe
00000020: bcef b83c c4f3 f4bc 4f39 19be 4f04 60be
00000030: 6029 b6be b9db 33bf 2045 98be b25c 6e3b
00000040: cb95 6fbf b39e 683e a5cd 2bbe 3f93 e13d
00000050: db31 013e ea16 ba3d fe6b 1a3d 769f 39be
00000060: 5e2a 2bbd 699f d83d 2870 1c3e 0443 4b3d
00000070: 19d7 1f3d c338 303d 2018 833e 44c9 9fbc
00000080: 4916 8ebd 755c 723d c874 babc aab7 19bd
00000090: 973e 393e b081 4ebd 0832 3a3d 83bc bbbc
000000a0: 70c3 9cbd e9ec 48be 731d 24bb a9c1 4a3e
000000b0: 4fde dcbd fd82 3d3e fb09 823d fc89 303e
000000c0: 7361 1bbd 6487 c33d a526 2a3e 7815 0fbe
000000d0: 9109 adbe 9154 ebbd ef76 4ebd e61d 46bc
000000e0: 3839 f43d dceb f0bd 88e3 183d 3248 b53e
000000f0: 700b 353e cbd3 5cbd d747 7a3d 719d 49be
00000100: 4c4f fe3d 3a3e b1bd 083f cf3d dc65 5ebe
00000110: fd41 373e 0402 623d f1d7 4a3e f379 e13d
00000120: de33 3dbe b15a 0e3d dcbb 673d 1f76 e7be
00000130: 7bfd e83d 6654 58bd 393b 92bd a49b 89bd
00000140: 6b22 1a3d 3418 0c3d ac4d fb3d 1802 503d
00000150: 29f2 46be add4 803e 07f4 3d3d e483 303e
00000160: 5b2f a0bd cf29 8dbe bc04 a03d b4c2 4cbe
00000170: 4be6 a43c 105b 6c3c 3a2e b7be d1ce 3ebe
00000180: d97d 40be 811a 923e 4018 ce3b e8ea a4bc
00000190: e141 f13d 8914 28be d72e 1c3e ff8a a2bd
000001a0: 49cf 3fbe 1474 b53c 0040 e23c df71 b33d
000001b0: 4cbc 31be d241 15be 78ab 28be 05f6 e0bd
000001c0: 0c69 b0bd ef42 a63c c1db d7bc 1216 393d
000001d0: fd49 a93e ab34 e03c 0765 afbe 4b50 d43d
000001e0: 4ad9 1dbe b80a a8be 7b94 383e d6da febc
000001f0: e9d6 003d 876d 833d fb62 ab3d 50b2 b5bc
00000200: 1850 35bd cbb2 a1bc 81af 86bd b445 aa3d
00000210: 90bb 7c3d d8c1 9abd 8b11 0bbe 4e81 bfbb
00000220: a34f 8c3c 8b79 b6bd ae45 06bc df08 36bd
00000230: 7d6f 9abc 6e42 3cbd edc7 2f3b a168 d7bd
00000240: bc05 4b3d 3f74 8b3d 60c2 1c3c 0fa0 05bc
00000250: f512 79b7 e237 3bbd 5748 b8bd c128 b43c
00000260: 2203 e2bd 830c 8abc 2211 95bd 5d85 493c
00000270: 52b5 95bd 4dc7 083d 5303 67bd 6769 333d
00000280: 96fc 58bc cecc 943c 5ada 12bd 0aa2 90bd
00000290: 9738 44bd 816e 173d 598e b6bd 057c 83bd
000002a0: 0206 67bd 0626 393d 0fe2 8ebc b83e 95bd
000002b0: 4d9c 87bd 89b8 9c3c ec59 27bc df48 22bd
000002c0: 38ad a2bd 005f 183d a769 8ebd 117a abbd
000002d0: f19e bbbd eb7c bbbc 895d acbd 47ea 843c
000002e0: 79aa 9abd d17f b6bd 4078 f7bd f5cb b53c
000002f0: d7f8 cdbd d8af 7dbd b177 d0bd 531d f4bc
00000300: a785 1abd 50e1 b6bd 9a8c 3dbc e223 8dbd
00000310: 35fd 9dbd 117a 3bbd a9bf 00bc bed7 283b
00000320: 1a80 ff3c b993 6bbd 118a e2bd 5632 da3c
00000330: d4ae 3bbd a843 d0bb 366e 5cbc d2e2 cebd
00000340: 32cf 933d 1929 a1bd 2744 553c 0366 ed3d
00000350: fd6e bfbd e562 a3bd 8909 093c 4b86 f5bd
00000360: 8e22 b3bd a460 0cbd ac83 ee3b 9315 a5bb
00000370: 46c5 1d3d 358d b3bd 247c 51bd 4d87 00be
00000380: a79a fbbd 8b50 6e3d f83c 45bd a97f 4abd
00000390: c105 10bd 37bb 563d fcbe 2d3d 23b2 98bc
000003a0: 9b0c 02bd 76b5 f9bd a010 10bc 0dbc 9cbd
000003b0: 731d edbd c5a7 9fbd 1e25 083d e9d2 093d
000003c0: 8c44 96bd 4154 c0bb 689d 46bd 3617 f03c
000003d0: d23c 9f3c c907 edbd f8ae 9f3d c89d 3bbd
000003e0: a16f 88bd 107f 973c ece1 d33d d8b6 01bc
000003f0: 095c c03c ab8a 2f3d 8469 8fbd 0103 b4bd

residual_blocks.1.fc1.bias f4 [128]
0.10016504 -0.03246046 -0.023718344 0.07643286 -0.019422516 -0.11589051 0.1925662 -0.12205027
0.052602023 -0.00262113 0.20103584 0.013130639 0.180548 0.041681673 0.07978296 0.016255872
0.004189894 0.15932842 0.13417736 -0.039025106 -0.01719312 0.0036188802 0.15124305 0.27268773
0.024530329 0.015235242 -0.066951945 -0.09608064 0.09980926 0.06321568 -0.04320799 0.0329918
0.04826077 0.06778274 0.055256106 0.066413015 0.1848605 0.052691214 0.100752346 0.053676527
-0.057587836 0.042596888 -0.057013612 0.113888174 0.14175895 0.06538914 0.16750908 0.072032824
-0.07815663 0.15744606 0.20194733 -0.01879446 0.07024262 0.110083856 0.089187406 0.07630642
0.12067983 0.09017705 0.14100198 0.12242951 -0.037945565 0.07503364 0.09176383 0.09353385
0.07297888 -0.052799378 0.015230296 0.109596446 -0.061965123 0.05783891 0.07953848 0.21830305
0.03196439 0.10972676 0.087277934 0.08737364 0.040785626 -0.17896266 0.0839525 0.04419271
-0.06430579 0.012233206 -0.0755736 0.13523231 -0.0124952365 0.037499446 -0.12410027 0.11602125
0.12408014 0.013749856 0.097143434 0.14138778 0.15011835 0.14412099 0.076979235 0.08346833
0.08749923 0.17702478 0.0023725142 -0.0055587976 0.028098255 0.058538727 0.18024424 0.010959699
-0.104151554 0.1092254 0.067112625 0.047122736 0.08164884 0.08252097 0.03114383 0.022247346
-0.09091869 0.14864112 -0.10452306 -0.04594385 0.061666533 0.059320334 0.012248897 -0.05147947
0.063637204 0.0029210444 0.15380195 0.070013285 0.050978452 0.00033602095 -0.09124463 -0.04761857
00000000: 5423 cd3d 42f5 04bd f94c c2bc d588 9c3d
00000010: f81b 9fbc 0158 edbd 1330 453e 7ef5 f9bd
00000020: 3875 573d 44c7 2bbb 57dc 4d3e e421 573c
00000030: 93e1 383e 67ba 2a3d 4065 a33d 092b 853c
00000040: 614b 893b fd26 233e ca65 093e cad8 1fbd
00000050: 96d8 8cbc bc2a 6d3b 75df 1a3e ba9d 8b3e
00000060: d4f3 c83c 3d9d 793c 1a1e 89bd edc5 c4bd
00000070: cc68 cc3d 3977 813d dcfa 30bd 6922 073d
00000080: 16ad 453d add1 8a3d 3a54 623d 8c03 883d
00000090: 124c 3d3e bed2 573d 3f57 ce3d ebdb 5b3d
000000a0: 39e1 6bbd 137a 2e3d 1b87 69bd 343e e93d
000000b0: 4229 113e beea 853d 8087 2b3e f285 933d
000000c0: 9510 a0bd 8a39 213e 48cb 4e3e d7f6 99bc
000000d0: 5ddb 8f3d a573 e13d e3a7 b63d 8a46 9c3d
000000e0: fd26 f73d bfae b83d d362 103e 53bc fa3d
000000f0: cf6c 1bbd 3dab 993d adee bb3d ad8e bf3d
00000100: f375 953d 2944 58bd 7e88 793c 1a74 e03d
00000110: 24cf 7dbd 7ee8 6c3d 12e5 a23d d68a 5f3e
00000120: 18ed 023d 6cb8 e03d c6be b23d f3f0 b23d
00000130: d40e 273d fd41 37be 4aef ab3d 6a03 353d
00000140: c1b2 83bd c96d 483c 55c6 9abd 577a 0a3e
00000150: d2b8 4cbc 0599 193d 4828 febd 8d9c ed3d
00000160: ba1d fe3d 1347 613c 23f3 c63d f5c7 103e
00000170: a0b8 193e 7494 133e 4aa7 9d3d 72f1 aa3d
00000180: cc32 b33d fc45 353e 2f7c 1b3b 9326 b6bb
00000190: 502e e63c 4ec6 6f3d f291 383e 4f90 333c
000001a0: 694d d5bd 91b1 df3d 5872 893d c503 413d
000001b0: 8237 a73d c100 a93d 5821 ff3c 1140 b63c
000001c0: 9433 babd 6135 183e 3010 d6bd 9e2f 3cbd
000001d0: 0c96 7c3d e1f9 723d 99af 483c 23dc 52bd
000001e0: 3954 823d fe6e 3f3b 427e 1d3e 2063 8f3d
000001f0: c8ce 503d f82b b039 77de babd b10b 43bd

residual_blocks.1.fc2.weight f4 [128, 128]
-0.061526775 0.03119434 0.07221884 -0.034949612 0.06592138 -0.095777705 -0.06386872 -0.004436153
0.02632145 -0.043015976 0.07956552 -0.43281758 -0.025821527 -0.1641415 0.08778852 -0.03232289
0.108442634 -0.06223851 0.11153877 -0.06672401 -0.17313054 -0.009745303 -0.28394708 0.06528657
-0.048715636 0.15419793 -0.094779566 -0.054837193 0.14069831 -0.20550276 0.20549752 0.16615085
0.05240831 -0.186596 -0.056780834 0.017943246 0.08685917 0.05193083 -0.0070975823 -0.056898847
-0.07995245 -0.043079518 0.03847159 -0.11419187 0.118446864 0.20258439 0.038156245 0.061782178
0.034150805 -0.049381603 -0.026955854 -0.12948988 0.08348484 0.07769583 0.028378764 0.033990685
0.117954664 0.09530524 0.08634577 0.09766455 0.10517104 -0.08540663 0.040604863 0.07928847
-0.25497884 -0.0052001034 0.014146179 0.08647275 0.015025756 -0.041335065 0.047784667 -0.040948093
0.05644435 -0.3294751 -0.10440078 -0.1623112 -0.08095378 -0.08266279 -0.049039837 0.16664292
0.04714497 -0.062031306 0.054378357 -0.0410378 0.084967636 -0.28644848 -0.016551398 -0.045694385
0.090603836 0.035793893 0.042474646 -0.05563973 0.12458856 -0.32728612 0.034974616 -0.015596277
0.16660312 0.15986198 -0.013397371 -0.07198573 0.033656932 -0.13587567 0.21890669 0.0024479753
0.043301083 0.13981792 0.11049571 0.0008139715 -0.14950022 0.009518979 0.12440405 -0.17627127
-0.042959824 0.12220285 -0.017982915 0.13772394 0.122411765 0.0037088813 0.07076843 0.03655223
0.18807986 -0.14121757 0.13751525 -0.017749999 -0.084916696 0.09255449 -0.21238516 -0.0032608279
0.116711944 -0.046366327 0.122312844 -0.13049658 -0.043680426 0.01758783 0.25602737 0.10448793
-0.02042688 0.035309117 0.093227245 0.06299433 -0.15766571 -0.069611244 0.08344574 -0.05728252
0.04924605 -0.14827849 0.057994336 -0.014787404 -0.31137455 0.013360974 0.42852002 0.1317417
-0.041509107 0.030145472 0.016760109 -0.02173985 -0.09727613 -0.04672888 -0.04248246 -0.007673184
-0.019714596 -0.02201232 -0.13380744 0.040385082 0.037829116 0.017598482 0.13186336 0.15540862
0.072034374 0.0024130861 0.03809352 -0.054366127 -0.019466367 -0.08144625 0.13236843 0.14707085
0.060270354 0.075205475 0.14593525 0.072334334 0.03578605 -0.020229202 0.08940702 -0.11626055
-0.077183574 -0.10058934 0.19380511 -0.13985397 -0.039042197 0.12093928 0.08267027 0.09210993
-0.11305309 0.038883574 0.01590697 0.040931426 -0.08581011 0.12052357 0.07008504 0.20351818
0.2158291 -0.031206714 -0.21754898 -0.2503623 -0.00466015 -0.051649936 0.12136473 -0.059343852
0.041519575 -0.03395255 -0.014894076 0.038123943 0.16285174 0.41374955 -0.0076655843 0.026941381
0.058447205 -0.16379327 0.025136197 -0.05978591 0.06983672 -0.28565776 0.057310216 -0.03819672
0.33315971 -0.3236569 -0.004060366 -0.029096391 0.23488513 0.014978436 0.042417277 0.09926555
-0.0073725865 -0.058246586 -0.018276205 0.07720921 -0.09289983 -0.10055221 0.03294697 0.15499371
-0.052147847 -0.26606563 0.004316719 -0.3454409 0.023871247 -0.0020575193 0.04060199 -0.11926954
-0.059730772 -0.045711704 0.062465765 0.17401873 0.060400046 -0.02757823 -0.04152438 -0.024640301
00000000: 8003 7cbd 468b ff3c 79e7 933d 5327 0fbd
00000010: ca01 873d 1a27 c4bd 9acd 82bd 265d 91bb
00000020: 15a0 d73c 8531 30bd 3ff3 a23d 449a ddbe
00000030: ab87 d3bc b614 28be 78ca b33d 0265 04bd
00000040: 2c17 de3d cfed 7ebd 706e e43d 99a6 88bd
00000050: 2249 31be c3aa 1fbc 8361 91be f7b4 853d
00000060: 0c8a 47bd 10e6 1d3e ca1b c2bd f79c 60bd
00000070: 3813 103e 516f 52be f16d 523e 7323 2a3e
00000080: 19aa 563d 0613 3fbe 0593 68bd b7fd 923c
00000090: 38e3 b13d 6cb5 543d d692 e8bb c40e 69bd
000000a0: 1cbe a3bd 2674 30bd 6394 1d3d 6ddd e9bd
000000b0: 4594 f23d 4872 4f3e b949 1c3d 4f0f 7d3d
000000c0: b7e1 0b3d 5d44 4abd 86d2 dcbc ff98 04be
000000d0: 1afa aa3d fe1e 9f3d 957a e83c d139 0b3d
000000e0: 3792 f13d 652f c33d 0dd6 b03d 5a04 c83d
000000f0: ea63 d73d ace9 aebd 4951 263d fe61 a23d
00000100: 968c 82be a165 aabb 60c5 673c a018 b13d
00000110: 972e 763c f54e 29bd dbb9 433d 30b9 27bd
00000120: 3132 673d f6b0 a8be 13d0 d5bd e834 26be
00000130: 18cb a5bd 1c4b a9bd ffdd 48bd 71a4 2a3e
00000140: 161b 413d 8a14 7ebd d7bb 5e3d 4117 28bd
00000150: 8303 ae3d 60a9 92be cc96 87bc 092a 3bbd
00000160: 818e b93d 9e9c 123d e5f9 2d3d 7ce6 63bd
00000170: 4928 ff3d 0c92 a7be 8b41 0f3d 8787 7fbc
00000180: 029a 2a3e dcb2 233e a680 5bbc 416d 93bd
00000190: dadb 093d fe22 0bbe 1329 603e 366e 203b
000001a0: 7a5c 313d 6e2c 0f3e 934b e23d b460 553a
000001b0: 9616 19be 7ef5 1b3c 8dc7 fe3d 7580 34be
000001c0: a4f6 2fbd 7d45 fa3d e850 93bc 8107 0d3e
000001d0: 05b3 fa3d b410 733b 0aef 903d cbb7 153d
000001e0: 0298 403e 579b 10be ccd0 0c3e 7268 91bc
000001f0: cee8 adbd 358d bd3d 7f7b 59be 9db3 55bb
00000200: ac06 ef3d 9eea 3dbd 287f fa3d e5a0 05be
00000210: 3fea 32bd 5a14 903c 0516 833e c5fd d53d
00000220: 4656 a7bc 4ba0 103d eded be3d 2c03 813d
00000230: 1f73 21be 5790 8ebd 9ae5 aa3d 13a1 6abd
00000240: 3ab6 493d 51d6 17be 788b 6d3d de46 72bc
00000250: 7c6c 9fbe fde7 5a3c fa66 db3e 4ce7 063e
00000260: 7405 2abd a3f3 f63c 7f4c 893c c517 b2bc
00000270: b538 c7bd c866 3fbd 1702 2ebd 556f fbbb
00000280: 8180 a1bc 2e53 b4bc d104 09be d46a 253d
00000290: b4f2 1a3d b12a 903c 3007 073e 7023 1f3e
000002a0: c286 933d de24 1e3b f307 1c3d 04af 5ebd
000002b0: ee77 9fbc 4bcd a6bd 978b 073e be99 163e
000002c0: 0cde 763d 5405 9a3d 0d70 153e 0624 943d
000002d0: 6594 123d b6b7 a5bc 071b b73d 031a eebd
000002e0: 6c12 9ebd c901 cebd d974 463e e135 0fbe
000002f0: b6ea 1fbd 03af f73d 084f a93d 22a4 bc3d
00000300: 6188 e7bd 6244 1f3d 554f 823c b6a7 273d
00000310: 36bd afbd 10d5 f63d bf88 8f3d 1267 503e
00000320: 4e02 5d3e 39a5 ffbc 29c5 5ebe 7d2f 80be
00000330: 2cb4 98bb e28e 53bd 128e f83d 8a12 73bd
00000340: 6e10 2a3d d411 0bbd 4806 74bc da27 1c3d
00000350: 9bc2 263e fbd6 d33e 952f fbbb 2cb4 dc3c
00000360: 5666 6f3d 6cb9 27be 6dea cd3c 12e2 74bd
00000370: 8e06 8f3d bc41 92be 1ebe 6a3d 2a74 1cbd
00000380: e993 aa3e 5bb6 a5be d20c 85bb 8e5b eebc
00000390: ba85 703e 1d68 753c bdbd 2d3d bd4b cb3d
000003a0: bd95 f1bb f993 6ebd fbb7 95bc dd1f 9e3d
000003b0: 4442 bebd 51ee cdbd 67f3 063d acb6 1e3e
000003c0: fb98 55bd c139 88be 4373 8d3b a1dd b0be
000003d0: a28d c33c 72d7 06bb 464e 263d 9743 f4bd
000003e0: 41a8 74bd 323c 3bbd 1adc 7f3d f731 323e
000003f0: 0a66 773d bdeb e1bc 7815 2abd 75da c9bc

residual_blocks.1.fc2.bias f4 [128]
0.13099469 0.015764097 0.09999864 0.062284533 0.10452464 -0.004989161 -0.01694053 0.042062357
0.0035779781 0.050932862 -0.021529619 0.060575947 -0.071212724 -0.0027408965 -0.06441522 0.0038968127
0.14994398 0.14346668 -0.068615116 -0.0073575783 0.09629126 -0.14188765 0.0873552 -0.1154877
0.16336784 0.00075183366 0.1781971 0.08630475 0.11015422 -0.1162988 -0.09237134 -0.027997347
-0.06339316 -0.13629378 -0.08392329 0.106420524 0.064779654 -0.0047104033 0.1190655 0.21900973
0.16017576 -0.09691718 -0.021489508 -0.13450001 0.07385543 0.13387695 -0.05665215 0.065677226
-0.011318839 -0.07983002 0.054445595 -0.1329513 0.021577068 0.023538213 0.08365912 0.056776125
-0.015228889 0.030104218 -0.113624364 0.046573866 0.17967105 0.050713025 0.089937 -0.14146203
0.012452241 -0.049642168 0.03775595 0.015763722 0.03576571 -0.011336193 -0.07188133 -0.0630552
0.12453038 0.071191795 0.11542242 0.15038337 0.0073664156 0.100151844 -0.02089125 -0.12632266
-0.007915116 0.11810188 0.015946347 0.07963271 -0.05548266 0.06874004 0.11860599 -0.086230814
0.02554864 -0.007693013 -0.014189404 0.037244115 0.101355255 0.11626032 0.015052573 0.15230767
0.100159615 -0.161262 -0.061757226 -0.087311074 0.14808983 0.057446983 0.019929245 0.1206624
-0.049410097 0.09844429 -0.022991346 -0.015305656 -0.15113422 0.009793354 0.08119726 -0.13927937
0.14039248 -0.06597025 0.077245526 0.1296876 0.1822185 0.03302445 0.17170244 0.11959863
0.013884596 0.15446274 -0.025829392 0.07777431 0.0012500879 0.04637203 0.07232289 0.024805969
00000000: 7923 063e b523 813c 16cc cc3d 111e 7f3d
00000010: 0411 d63d 1e7c a3bb dec6 8abc 9449 2c3d
00000020: 837c 6a3b fa9e 503d e25e b0bc 7c1e 783d
00000030: fad7 91bd 9da0 33bb 20ec 83bd ab61 7f3b
00000040: ea8a 193e eee8 123e 1586 8cbd d717 f1bb
00000050: 5a34 c53d ff4a 11be 48e7 b23d d184 ecbd
00000060: e649 273e b416 453a 4d79 363e 8bc0 b03d
00000070: 8998 e13d 112e eebd 2f2d bdbd b15a e5bc
00000080: 46d4 81bd 9990 0bbe f9df abbd 01f3 d93d
00000090: 32ab 843d ba59 9abb 9dd8 f33d 1644 603e
000000a0: 1d05 243e 847c c6bd c40a b0bc 5fba 09be
000000b0: 8441 973d 0a17 093e 160c 68bd c881 863d
000000c0: a772 39bc ec7d a3bd 5802 5f3d 6324 08be
000000d0: 64c2 b03c 36d3 c03c 7955 ab3d 158e 683d
000000e0: 9782 79bc 1f9d f63c e4b3 e8bd 3dc4 3e3d
000000f0: b0fb 373e 76b8 4f3d e430 b83d 6cdb 10be
00000100: 7c04 4c3c 9655 4bbd fca5 1a3d ec22 813c
00000110: 117f 123d 71bb 39bc 8536 93bd 1623 81bd
00000120: c909 ff3d 01cd 913d 9762 ec3d 19fe 193e
00000130: f961 f13b 691c cd3d 2024 abbc ba5a 01be
00000140: 67ae 01bc 66df f13d eaa1 823c 7916 a33d
00000150: c941 63bd 94c7 8c3d b3e7 f23d c899 b0bd
00000160: 624b d13c ac15 fcbb ad7a 68bc 498d 183d
00000170: 5893 cf3d e419 ee3d 119f 763c 8bf6 1b3e
00000180: 7c20 cd3d de21 25be 25f5 7cbd 26d0 b2bd
00000190: dca4 173e 874d 6b3d a842 a33c d91d f73d
000001a0: 3e62 4abd 299d c93d 5958 bcbc 93c4 7abc
000001b0: eec2 1abe 4e74 203c c04a a63d 409f 0ebe
000001c0: 0cc3 0f3e 691b 87bd e732 9e3d d4cc 043e
000001d0: 7d97 3a3e a544 073d c4d2 2f3e 20f0 f43d
000001e0: 377c 633c 7b2b 1e3e 2998 d3bc 2348 9f3d
000001f0: fdd9 a33a 99f0 3d3d 061e 943d e335 cb3c
