space_robot_planning_Rmat/weights/mlp_rmat_debug/v2.pth (torch, 282405 bytes, 12 tensors)

input_proj.weight f4 [128, 8]
0	0xbd512ada	-0.051066257
1	0x3b902d35	0.0043999203
2	0xbe78f731	-0.24313046
3	0xbdee6454	-0.1164023
4	0xbd3b6fde	-0.04576098
5	0xbdaac730	-0.08338773
6	0xbe0ceb8e	-0.13761732
7	0x3e55c77d	0.2087688
8	0xbe803a52	-0.25044495
9	0x3e6147c8	0.22000039
10	0xbe99bf96	-0.3002898
11	0xbd8bf552	-0.068339005
12	0xbe8af629	-0.2714093
13	0x3dc742cb	0.097295366
14	0x3e973e71	0.29539827
15	0xbd67f9be	-0.056634657
16	0x3e867617	0.2626197
17	0x3da438ae	0.08018623
18	0xbe3fa04e	-0.18713495
19	0xbd5eca4e	-0.05439215
20	0x3dcad8e8	0.09904653
21	0xbe84c4ca	-0.25931388
22	0x3e6b965a	0.23006573
23	0xbe73c72d	-0.23806448
24	0xbde346d8	-0.11097497
25	0x3e0f02c9	0.13965906
26	0xbe1e12b7	-0.15436827
27	0xbead2230	-0.33815145
28	0x3e568899	0.20950545
29	0x3e34b498	0.17647016
30	0x3c9b491a	0.018955756
31	0xbdac57ed	-0.08415208
32	0xbe797a3a	-0.24363032
33	0x3d347184	0.04405357
34	0xbe316be9	-0.1732632
35	0x3e5aeca3	0.21379332
36	0x3e911d8e	0.2834286
37	0x3eb834a6	0.35977668
38	0x3cef4a33	0.029210186
39	0x3e62076f	0.22073148
40	0x3ea97b41	0.33101848
41	0xbe02613b	-0.12732403
42	0x3e2552df	0.16144894
43	0x3deaf0ac	0.11471686
44	0x3eb17e70	0.34666777
45	0x3ead8dd7	0.33897278
46	0x3f4e8117	0.80665725
47	0xbe526cf3	-0.20549373
48	0x3eaf7324	0.34267533
49	0x3daeb11a	0.08529873
50	0xbea6287d	-0.32452765
51	0x3e9a4755	0.30132547
52	0xbe3ca8b6	-0.18423733
53	0xbf29f491	-0.66388804
54	0x3f271335	0.6526368
55	0xbd45c72d	-0.048285652
56	0xbe88d25d	-0.26722994
57	0x3dd2bd93	0.10290065
58	0xbdc75160	-0.09732318
59	0x3e6853c4	0.22688204
60	0x3cf58ff3	0.029975867
61	0x3e9f04c4	0.31058323
62	0xbbf88a8a	-0.0075848745
63	0xbd657f6e	-0.05602973
64	0x3d77f658	0.060537666
65	0x3e6eedb0	0.23332858
66	0x3d78dcaf	0.060757335
67	0xbdf62af8	-0.120199144
68	0x3e3919c0	0.18076229
69	0xbdfd01f9	-0.12353892
70	0xbed8f06f	-0.42370936
71	0x3d15ac94	0.036541536
72	0xbe9e53bf	-0.30923268
73	0x3d5f7035	0.05455037
74	0x3eae2156	0.34009808
75	0xbea16869	-0.3152497
76	0xbe0fc230	-0.1403892
77	0x3cbe5a71	0.023236485
78	0xbdd5f3f6	-0.104469225
79	0xbe3da180	-0.18518639
80	0xbe966b8e	-0.29378933
81	0xbe32447e	-0.1740894
82	0x3eb45fd6	0.35229367
83	0x3d2e93c1	0.042621378
84	0x3e31e114	0.17371017
85	0x3e85d067	0.2613556
86	0x3eaf5eae	0.34251922
87	0xbe850568	-0.25980687
88	0x3e0e3f26	0.13891277
89	0xbe955d8a	-0.29172927
90	0xbd4fac44	-0.050701395
91	0xbc21c62f	-0.009873911
92	0x3eaf0a46	0.34187526
93	0xbe8bfebc	-0.27342784
94	0xbe135c42	-0.14390662
95	0xbe02325f	-0.12714528
96	0xbda91c48	-0.08257347
97	0xbcd1194f	-0.025524763
98	0xbe923116	-0.28553075
99	0x3de64e0d	0.11245356
100	0x3cbca6c2	0.023028735
101	0x3ef407cf	0.47662207
102	0x3e9d78c1	0.3075619
103	0x3e9a832b	0.30178198
104	0x3e9cd505	0.3063127
105	0xbc86c7b7	-0.016452653
106	0xbdb05963	-0.08610799
107	0xbeaa5d5d	-0.33274356
108	0x3d8ba478	0.06818479
109	0x3da71291	0.08157838
110	0x3d9205e8	0.07130033
111	0xbd8547de	-0.06507848
112	0xbd9512dd	-0.072789885
113	0x3e8e2b02	0.27767187
114	0xbe7d70d0	-0.24750066
115	0x3e82f918	0.25580668
116	0xbefa9de6	-0.48948592
117	0xbef32150	-0.47486353
118	0x3e1c2b29	0.1525084
119	0xbdc9a915	-0.09846703
120	0x3cc43100	0.023949146
121	0x3e2eee55	0.17083104
122	0xbe688cb3	-0.22709922
123	0xbd224549	-0.039616857
124	0x3ec441d3	0.3833147
125	0x3dd4215f	0.103579275
126	0x3e9a6a4f	0.30159232
127	0x3d885ff7	0.06658929
128	0x3e28f914	0.16501266
129	0xbd0c3f64	-0.03424014
130	0x3ead219b	0.338147
131	0x3e648ebc	0.22320074
132	0x3e0e9e4d	0.13927574
133	0x3ddd6c7d	0.10811708
134	0xbed46d6a	-0.41489726
135	0x3b660411	0.0035097639
136	0x3a8ba313	0.0010653458
137	0x3ea9e72e	0.3318419
138	0x3e9b92d5	0.3038546
139	0x3e0c9ff3	0.13732891
140	0x3e6b5e34	0.22985154
141	0xbed03571	-0.40665773
142	0xbef6f5c0	-0.48234367
143	0x3e42300a	0.18963638
144	0x3e302e35	0.17205127
145	0xbe4d37b9	-0.20040788
146	0x3e0e5e9a	0.13903275
147	0xbe931a26	-0.28730887
148	0xbe30c6f7	-0.17263399
149	0xbccddf68	-0.025130942
150	0x3afe2ecb	0.0019392608
151	0xbe97cad5	-0.29646936
152	0xbe01c0d9	-0.12671222
153	0xbc83f01b	-0.016105702
154	0x3e439f8b	0.1910383
155	0xbc3db253	-0.01157816
156	0xbe3aa841	-0.18228246
157	0x3e9b4158	0.3032329
158	0x3e07209d	0.13196035
159	0xbe4ed66b	-0.20198981
160	0xbe4489e5	-0.19193228
161	0xbd9be06c	-0.076111645
162	0x3d798fac	0.06092803
163	0xbe7ffe2d	-0.24999304
164	0x3e7c7e43	0.2465754
165	0x3f128579	0.57234913
166	0xbf3242b1	-0.69633013
167	0x3e3dbc9d	0.18528982
168	0x3ca19fbc	0.019729488
169	0x3d8d94f8	0.06913179
170	0xbd6bae81	-0.057539467
171	0xbe90937c	-0.28237522
172	0xbda1e925	-0.07905797
173	0xbe614508	-0.2199899
174	0x3eb32587	0.3498957
175	0x3db48229	0.088138886
176	0x3d2dd79f	0.04244196
177	0x3e5fa30e	0.21839544
178	0xbe934ae9	-0.2876809
179	0xbd6defaa	-0.05808989
180	0x3ec16ad3	0.37776813
181	0x3e00461e	0.12526748
182	0x3f4d0346	0.8008312
183	0x3d94119b	0.072299205
184	0x3e6f176d	0.2334878
185	0x3e1e5943	0.15463738
186	0x3e74b5a6	0.23897418
187	0xbe843ce4	-0.25827706
188	0xbec8a57c	-0.39188755
189	0x3dfedfb7	0.12445014
190	0xbda90d6b	-0.082545124
191	0x3e91198f	0.28339812
192	0xbcce0a8b	-0.025151512
193	0xbe139fc3	-0.14416413
194	0xbea84c38	-0.3287065
195	0xbc739c9b	-0.014868881
196	0x3e929174	0.28626597
197	0x3c732943	0.0148413805
198	0xbc708e0a	-0.014682302
199	0x3d993c28	0.07482177
200	0x3e9506ea	0.29106838
201	0xbe3a4449	-0.18190111
202	0x3d5ee91b	0.054421525
203	0x3e4f2167	0.20227586
204	0xbebb99b3	-0.366407
205	0x3c822487	0.015886558
206	0xbe0b34ae	-0.13594314
207	0x3e6ef82d	0.23336859
208	0xbbc41418	-0.0059838407
209	0xbd0b8f96	-0.03407248
210	0x3e859894	0.2609297
211	0x3d204ef1	0.039137784
212	0xbed0ecd8	-0.40805697
213	0xbdb9a589	-0.090647765
214	0x3ebc8bd0	0.36825418
215	0x3dd602e0	0.10449767
216	0xbe3bf977	-0.18356882
217	0xbe951c1c	-0.29123008
218	0x3e100fdc	0.1406855
219	0xbe6ae95c	-0.22940582
220	0x3ed5e8c6	0.41779155
221	0xbe6659ab	-0.22495143
222	0x3f05496c	0.5206516
223	0xbe4db7a3	-0.20089583
224	0x3c5db557	0.013532004
225	0x3da285fc	0.07935712
226	0x3e883d47	0.2660925
227	0xbe9c55d6	-0.30534238
228	0xbe2aea14	-0.16690856
229	0x3e8f32f1	0.27968553
230	0x3e9f20e0	0.3107977
231	0x3c9a7da1	0.018858733
232	0xbd2078b2	-0.039177604
233	0xbd47e9ea	-0.048807062
234	0xbd8bdf39	-0.06829686
235	0x3d36950d	0.04457574
236	0x3ef4dd31	0.47825006
237	0xbeb01917	-0.34394142
238	0xbd9e9112	-0.07742514
239	0x3d2cb69f	0.04216635
240	0x3e9dc597	0.30814812
241	0xbd01a9cd	-0.031656075
242	0xbe580eaa	-0.21099344
243	0xbc58c782	-0.01323116
244	0xbc122fa0	-0.0089224875
245	0xbe708cb7	-0.23491178
246	0x3e49b3f7	0.19697557
247	0xbde352e3	-0.11099794
248	0xbe89e181	-0.26929858
249	0x3eae26f9	0.3401411
250	0xbe2fa8be	-0.17154214
251	0xbe7c452d	-0.24635763
252	0x3e65b018	0.22430456
253	0x3eaf5bc0	0.34249687
254	0xbe7df552	-0.24800614
255	0x3d843d8e	0.06457053

input_proj.bias f4 [128]
0	0xbbbf8bef	-0.005845539
1	0xbe0ff646	-0.1405879
2	0xbeaef998	-0.341748
3	0xbe41e126	-0.18933544
4	0xbd5eceda	-0.054396488
5	0xbe7b0ba3	-0.24516158
6	0xbe22fe4c	-0.15917319
7	0x3e6f7e95	0.23388131
8	0x3e86f746	0.2636053
9	0xbe57d273	-0.21076374
10	0xbdcdfad4	-0.10057607
11	0xbdfdda35	-0.12395135
12	0xbe197b21	-0.14988376
13	0x3e8a33fb	0.26992783
14	0x3e49a78d	0.19692822
15	0x3e485b04	0.1956597
16	0xbd0df2de	-0.034655444
17	0x3e25985e	0.16171405
18	0xbdb4e9b4	-0.08833638
19	0xbe485014	-0.19561797
20	0xbda3bd77	-0.07995122
21	0x3ebf1528	0.37320828
22	0xbeb09b77	-0.3449361
23	0x3e449b93	0.19199972
24	0x3d4825b9	0.0488641
25	0xbe7e46f3	-0.24831752
26	0x3e564e08	0.20928204
27	0x3e62b809	0.22140516
28	0xbe66ebc8	-0.22550881
29	0xbdd0302a	-0.101654366
30	0xbd376ffa	-0.044784524
31	0xbd900b22	-0.070333734
32	0x3d65708b	0.056015532
33	0x3e52006c	0.20507973
34	0x3eabad3f	0.33530614
35	0x3e6b64bc	0.22987646
36	0x3e4baa3c	0.19889158
37	0x3e2fb8e2	0.17160371
38	0xbbb6d9c3	-0.0055801584
39	0x3d7d1b46	0.061793588
40	0x3e764606	0.2405015
41	0xbe5672b8	-0.20942199
42	0xbe441632	-0.19149092
43	0xbe7e7c18	-0.24852026
44	0x3e8f6865	0.28009334
45	0xbdbff219	-0.09372348
46	0xbeb48bd4	-0.3526293
47	0x3bee8505	0.0072790408
48	0xbdbe1d4a	-0.0928293
49	0xbdfa25c5	-0.12214235
50	0xbe289d6e	-0.16466305
51	0x3e5656a2	0.20931485
52	0xbe186d5f	-0.14885472
53	0xbe660698	-0.22463453
54	0x3e3a528a	0.18195549
55	0xbea7bb19	-0.32759932
56	0xbd750a2a	-0.059824146
57	0x3e238df3	0.15972118
58	0xbdb0edc3	-0.086390994
59	0x3c686c62	0.014185997
60	0x3e3745e9	0.17897762
61	0x3e8d26b9	0.27568606
62	0x3d5cdb59	0.053920124
63	0x3e3187a6	0.17336902
64	0xbd386ea0	-0.045027375
65	0x3e52f210	0.20600152
66	0x3ea1004b	0.31445536
67	0x3e981e3d	0.2971057
68	0xbe592ddf	-0.21208905
69	0x3e8cb4fb	0.27481827
70	0x3d294dc5	0.041333932
71	0x3e5569a0	0.20841074
72	0x3ea1d7b0	0.3160987
73	0x3da93c41	0.08263446
74	0xbea340cc	-0.31885374
75	0x3e0c7c23	0.1371923
76	0x3e803984	0.2504388
77	0xbe26b061	-0.1627822
78	0xbe2fcb0c	-0.171673
79	0x3dddcbe4	0.10829905
80	0xbe91c3dd	-0.28469744
81	0xbe8c21ba	-0.2736948
82	0x3d583e2c	0.052793667
83	0xbdf015c9	-0.11722905
84	0xbe8fa6f3	-0.2805706
85	0x3e449dda	0.1920084
86	0x3e81a8a3	0.25323972
87	0x3d2f6ef4	0.042830423
88	0x3c3a8d53	0.011386233
89	0xbe3d5ad8	-0.18491685
90	0x3e4f08f1	0.20218255
91	0xbe05361a	-0.1300892
92	0x3e258d10	0.16167092
93	0xbd7c1e68	-0.061552435
94	0xbe8623e5	-0.2619926
95	0xbe575a93	-0.21030645
96	0xbcf4444e	-0.029817726
97	0xbe20e22d	-0.15711279
98	0xbdd0e6bf	-0.10200261
99	0xbcb56011	-0.022140535
100	0xbdacf1cc	-0.084445566
101	0x3e9eed2f	0.31040332
102	0xbd28ba85	-0.041193504
103	0x3e3bdee4	0.18346745
104	0xbeadfdd8	-0.3398273
105	0x3e797a50	0.24363065
106	0x3e1a2962	0.15054849
107	0x3e1f6c16	0.15568575
108	0xbce0926f	-0.027413575
109	0x3d480a72	0.048838086
110	0xbea65efe	-0.32494348
111	0xbe4be07d	-0.19909854
112	0xbea8edfa	-0.32994062
113	0x3e4fbb39	0.20286264
114	0xbe42e4fb	-0.19032662
115	0xbce3ff28	-0.027831629
116	0x3e618d4e	0.2202656
117	0xbda05bea	-0.07830031
118	0x3e8b60b0	0.27222204
119	0xbcf20b77	-0.029546482
120	0xbea350d5	-0.31897607
121	0x3e47ad6c	0.19499749
122	0xbe2a48ef	-0.16629384
123	0xbdaacdd2	-0.08340038
124	0x3e9174c5	0.284094
125	0xbe390805	-0.18069465
126	0xbe8ba926	-0.27277488
127	0x3d1182e2	0.03552521

residual_blocks.0.fc1.weight f4 [128, 128]
0	0x3cbabe3b	0.022795787
1	0x3dab7018	0.083709896
2	0xbd6cef44	-0.05784537
3	0x3cf34131	0.029694172
4	0x3c73c2d6	0.0148779955
5	0xbb9d43eb	-0.004799356
6	0x3d964d6b	0.07338985
7	0x3b72c315	0.0037042547
8	0x3d43220e	0.0476399
9	0x3c577e15	0.013152619
10	0xbd901980	-0.07036114
11	0x3d752253	0.059847187
12	0x3da3ad00	0.079919815
13	0x3d94e64c	0.07270488
14	0x3d2b0021	0.04174817
15	0x3d1037bc	0.035209402
16	0xbdad8520	-0.08472657
17	0xbc398977	-0.011324278
18	0xbccdea75	-0.025136212
19	0x3d976250	0.073917985
20	0x3ce6a2b0	0.028153747
21	0xbcffb21c	-0.031212859
22	0x3da76c7a	0.08174987
23	0x3bb75e85	0.0055959844
24	0xbd9ab318	-0.07553691
25	0x3d91198d	0.070849515
26	0xbd8d74c1	-0.06907035
27	0xbd81fddd	-0.06347249
28	0xbd4fdb36	-0.050746165
29	0xbb6091ba	-0.0034266547
30	0xbd8855d6	-0.06656997
31	0x3d88045a	0.06641455
32	0x3cb8e538	0.022570238
33	0xbd48da9b	-0.049036603
34	0xbd0d42e9	-0.03448764
35	0x3c6ce360	0.014458507
36	0x3cad4e71	0.021155568
37	0xbb0bed25	-0.0021351066
38	0xbda29a55	-0.07939593
39	0x3d874354	0.06604639
40	0xbcebb9d7	-0.028775139
41	0x3d11ef9f	0.03562891
42	0x3d427eab	0.04748408
43	0x3d0ecb5d	0.03486191
44	0x3d209c4b	0.039211553
45	0x3bd83c1e	0.0065989634
46	0x3cbb6d2c	0.022879206
47	0x3cc7ba68	0.024380878
48	0x3c84d2aa	0.016213734
49	0x3d0c727d	0.034288872
50	0x3d8ddf53	0.06927361
51	0xbd50effa	-0.05101011
52	0xbd04dbdc	-0.032436237
53	0xbdb061c6	-0.08612399
54	0x3d525b79	0.051356766
55	0x3a51b4f6	0.00079996826
56	0xbaf75e5c	-0.0018872726
57	0x3ce4a52c	0.027910791
58	0xbc71bd69	-0.014754632
59	0xbceb10f9	-0.028694617
60	0xbd0bb4e6	-0.034108065
61	0x3dad422c	0.08459887
62	0xbc5756ed	-0.013143283
63	0xbd88ba02	-0.06676103
64	0xbd1b5486	-0.037922405
65	0xbd72600b	-0.059173625
66	0x3c05ae06	0.008159166
67	0xbd6e9b43	-0.058253538
68	0xbd2323a9	-0.03982893
69	0xbcbad048	-0.022804394
70	0xbd98414d	-0.0743433
71	0xbd7b3b10	-0.061335623
72	0x3c8be470	0.0170767
73	0xbc8edd5a	-0.017439533
74	0xbd175807	-0.036949184
75	0x3d59821e	0.053102605
76	0xbc8fb21a	-0.01754098
77	0xbd339204	-0.043840423
78	0x3d29f157	0.041489925
79	0x3c533d7e	0.012893079
80	0x3d0e8ae3	0.03480042
81	0x3be2d95a	0.006922883
82	0xbdaf918a	-0.08572681
83	0x3d58e8d2	0.05295641
84	0x3d3d0e22	0.046156056
85	0xbd27036c	-0.040774748
86	0x3cef6a6c	0.02922555
87	0xbda36581	-0.07978345
88	0x3da4db85	0.080496825
89	0xbd4b50b4	-0.04963751
90	0xbda49df8	-0.08037943
91	0x3d86d724	0.065840036
92	0x3d6edd44	0.058316484
93	0x3b3c0193	0.0028687462
94	0x3d4570b9	0.048203204
95	0xbc42bef6	-0.011886349
96	0x3c7b97c0	0.015356004
97	0xba92e82e	-0.0011208111
98	0xbdad944c	-0.08475551
99	0xbd16ec6a	-0.036846556
100	0x3d66d00a	0.056350745
101	0xbcf180b0	-0.029480308
102	0x3da84f60	0.082182646
103	0x3d896f23	0.06710651
104	0x3d4584ee	0.048222475
105	0xbc898d3b	-0.016790977
106	0xbdb17c49	-0.08666284
107	0x3cecc2fc	0.02890157
108	0xbca4aa97	-0.020100875
109	0xbd9887e8	-0.07447797
110	0x3db0530a	0.086095884
111	0x3d5dc3d6	0.05414184
112	0xbca14090	-0.019684106
113	0x3c14716c	0.009060245
114	0xbc4c54f9	-0.012471431
115	0x3d342507	0.043980625
116	0xbbf5f7ae	-0.0075063324
117	0x3d89a80b	0.06721505
118	0x3ccea221	0.025223793
119	0x3cdc2eaf	0.02687773
120	0x3d21a3ec	0.03946297
121	0xbd81033f	-0.06299447
122	0xb9a243b2	-0.00030949485
123	0x3d3dfd5b	0.046384197
124	0xbcdd8cd0	-0.027044684
125	0xbcf5714f	-0.029961256
126	0xbd061398	-0.03273353
127	0xbd83652a	-0.0641578
128	0xbc2f368b	-0.010694156
129	0xbcfa3c84	-0.030546434
130	0xbd36971b	-0.0445777
131	0x3d33abaf	0.043864902
132	0xbd92afdd	-0.071624495
133	0xbd1cbdf8	-0.038267106
134	0xbe545471	-0.20735337
135	0xbd56a516	-0.052403532
136	0x3d057799	0.03258476
137	0x3c2b0b80	0.0104397535
138	0x3d0c3912	0.034234114
139	0x3d182760	0.037146926
140	0xbdb5f0a8	-0.08883792
141	0x3d543120	0.05180466
142	0x3d47358f	0.04863506
143	0xbd21e200	-0.03952217
144	0x3c050a0a	0.008120069
145	0x3d9d0e79	0.07668776
146	0xbca54759	-0.020175623
147	0x3da5a5ab	0.08088239
148	0xbe609b77	-0.21934305
149	0x3bfbe816	0.007687579
150	0xbd939c6b	-0.07207569
151	0x3d137aae	0.03600567
152	0x3d60f473	0.054920625
153	0x3cc9a776	0.024615984
154	0xbd0df576	-0.034657918
155	0xbc6d837d	-0.014496681
156	0x3c2e63f0	0.010643944
157	0x3daece08	0.08535391
158	0x3d5db014	0.054123
159	0xbd1a2752	-0.037635155
160	0xbc0de340	-0.008660138
161	0xbd409850	-0.047020257
162	0x3e0741a4	0.13208634
163	0x3c33834f	0.010956599
164	0xbce0f164	-0.027458854
165	0x3dcf2fae	0.10116516
166	0xba658729	-0.0008755797
167	0x3dc76b41	0.09737254
168	0xbccafb8e	-0.024778154
169	0x3cbbc02b	0.022918781
170	0x3c5cb1c9	0.013470122
171	0xbd0b2a93	-0.03397615
172	0xbd29c2bc	-0.04144548
173	0xbe962f0a	-0.29332763
174	0xbdb2c3a0	-0.08728719
175	0x3d9e46b7	0.077283315
176	0xbda692ea	-0.081334904
177	0x3da8030c	0.08203706
178	0xbc8acccc	-0.016943358
179	0x3dc9e4a4	0.09858063
180	0x3c9e9d8d	0.019362235
181	0x3d11ff96	0.035644136
182	0xbda396e4	-0.079877645
183	0x3d93956c	0.07206234
184	0x3d481f8d	0.048858214
185	0xbd795dd7	-0.06088051
186	0xbc79338a	-0.015210042
187	0xbd07087c	-0.032967076
188	0x3e0e7afe	0.13914105
189	0xbba5ae75	-0.0050561973
190	0x3e3bec1f	0.18351792
191	0xbdad162f	-0.08451497
192	0xbd832db9	-0.06405205
193	0x3eaa0b63	0.33211812
194	0x3db7b1f1	0.089694865
195	0x3d0d6810	0.03452307
196	0x3db03a50	0.08604872
197	0x3dd64416	0.10462205
198	0x3da26a89	0.07930476
199	0x3cbb6bc6	0.022878539
200	0x3e2ad324	0.16682106
201	0xbd7456f7	-0.05965325
202	0xbe1cdde5	-0.15319021
203	0xbcd78a42	-0.026311044
204	0x3cfc335e	0.030786213
205	0xbcfde678	-0.030993685
206	0xbcc7f34e	-0.024408009
207	0x3dd66429	0.10468323
208	0x3d680131	0.05664176
209	0xbda7ac47	-0.08187156
210	0x3e7100f3	0.23535518
211	0x3d8bf5ee	0.06834017
212	0x3ca49bc8	0.020093814
213	0xbc04f8e7	-0.008115984
214	0xbb80822d	-0.003921768
215	0xbb898148	-0.0041963197
216	0xbcd39526	-0.025827955
217	0xbcda27b1	-0.026630254
218	0xbd8eb7e1	-0.06968666
219	0xbdf7f08b	-0.12106427
220	0x3da7b7a0	0.081893206
221	0xbd8e4a89	-0.0694781
222	0xbd396c0b	-0.045269053
223	0xbd38173b	-0.04494403
224	0x3d69c995	0.05707701
225	0x3d984b66	0.07436256
226	0xbcdd5aa0	-0.027020752
227	0xbda9c58e	-0.08289634
228	0x3de188a9	0.11012394
229	0xbd342dfd	-0.04398917
230	0xbe1b8759	-0.1518835
231	0x3d2f2b24	0.04276575
232	0x3c5a5393	0.01332559
233	0x3d225bbf	0.039638277
234	0x3dce1534	0.10062638
235	0xbd01776a	-0.031608023
236	0x3ca1c1d4	0.019745745
237	0x3dcce057	0.10003727
238	0xbc9502ee	-0.018189874
239	0xbd1d3f20	-0.03839028
240	0x3d42f3a9	0.047595654
241	0x3d8c6875	0.06855861
242	0xbb8dbc91	-0.0043254574
243	0xbdce7a27	-0.100818925
244	0xbd7769ee	-0.060403757
245	0x3e9faa16	0.31184453
246	0xbd241f81	-0.040069107
247	0x3d867182	0.06564619
248	0xb9979feb	-0.00028920113
249	0x3d31496a	0.043282904
250	0xbd8ecc53	-0.069725655
251	0xbd55525d	-0.0520805
252	0xbcfa1a09	-0.030529993
253	0xbded26ed	-0.1157969
254	0xbda55f4d	-0.08074818
255	0x3db8369d	0.08994792

residual_blocks.0.fc1.bias f4 [128]
0	0xbda96cfd	-0.08272741
1	0xb9f098a8	-0.00045890105
2	0xbda6b736	-0.081404135
3	0x3d5eeb83	0.05442382
4	0x3cdc7b54	0.026914276
5	0xbda03ecb	-0.07824477
6	0x3da2166a	0.079144314
7	0x3d9a1246	0.07523017
8	0x3d64659a	0.055760957
9	0x3a51336c	0.000798038
10	0x3cefe97c	0.029286139
11	0xba2328cc	-0.0006224036
12	0x3cf93115	0.030418912
13	0xbc8cf5cd	-0.01720705
14	0x3d9ad7ad	0.07560668
15	0xbcd9fb29	-0.02660902
16	0x3d67066c	0.05640261
17	0x3c36060d	0.011109841
18	0xbd0b1e8b	-0.033964675
19	0xbd05d04c	-0.03266935
20	0x3ccb2339	0.024797069
21	0x3dc3b7f8	0.09556574
22	0xbd863651	-0.06553329
23	0x3d118d2c	0.035535023
24	0x3d636e7f	0.0555253
25	0x3da04c02	0.07826997
26	0xbda235de	-0.079204306
27	0xbd4db31f	-0.05021965
28	0xbcd53439	-0.026025878
29	0x3d4647cc	0.048408315
30	0x3c7a527c	0.015278455
31	0x3d0a51da	0.033769466
32	0xbb887373	-0.0041641532
33	0x3da632ea	0.0811518
34	0x3d5461b6	0.051850997
35	0x3d302344	0.043002382
36	0x3d465753	0.048423123
37	0xbd7f4b2c	-0.06232755
38	0xbdaf4bac	-0.08559355
39	0x3cfbc1f1	0.030732127
40	0x3cd50085	0.026001224
41	0x3bc6babf	0.0060647423
42	0x3d898941	0.06715632
43	0x3d810956	0.06300609
44	0xbd8bc64a	-0.0682493
45	0xbcdb7a0a	-0.026791591
46	0xbd7552d0	-0.05989343
47	0x3dac85bb	0.084239446
48	0x3d98547d	0.0743799
49	0x3ccf2d7e	0.025290247
50	0xbd9be658	-0.07612294
51	0x3c6b85d9	0.0143751735
52	0x3cb1327e	0.021630522
53	0xbd24869b	-0.040167432
54	0x39d831f1	0.0004123594
55	0xbd324c85	-0.043530006
56	0x3d08cd0f	0.033398684
57	0xbdb70c89	-0.08937938
58	0xbc7f8ebe	-0.015597997
59	0x3d64cd36	0.055859767
60	0x3d9f7082	0.07785131
61	0x3d45b969	0.048272524
62	0xbc748dc4	-0.014926378
63	0xbcea0670	-0.028567523
64	0x3c5b44c9	0.013383099
65	0xbcf56616	-0.029955905
66	0x3c93bf13	0.018035447
67	0x3dbd5d4c	0.092463106
68	0xbd05067a	-0.03247688
69	0xbb103778	-0.0022005718
70	0xbca0dfb9	-0.01963793
71	0xbca3ae0e	-0.019980457
72	0xbc9c9c2e	-0.019117441
73	0xbc1100d7	-0.008850298
74	0xbbe305b8	-0.006928172
75	0x3cadcc60	0.021215618
76	0x3ddad0a3	0.106843255
77	0xbd342942	-0.04398466
78	0xbdb3f947	-0.0878778
79	0x3d898a39	0.06715817
80	0xb9839aa6	-0.0002510149
81	0xbc457d17	-0.0120537495
82	0xbdaffe59	-0.08593435
83	0xbbba743c	-0.0056901257
84	0x3d4d51eb	0.05012695
85	0xbd488178	-0.048951596
86	0xbc8776ab	-0.016536077
87	0xbdc288f2	-0.094987765
88	0xbd5c1c44	-0.053737894
89	0x3d324fb5	0.043533046
90	0xbce35cff	-0.027754305
91	0x3c043fda	0.008071864
92	0x3d42c8cb	0.047554772
93	0xbd44c033	-0.048034858
94	0xbd51314c	-0.051072404
95	0x3cc33250	0.023827702
96	0x3c804ab5	0.015660623
97	0x3d594bb4	0.05305071
98	0x3d9583d7	0.07300537
99	0xbd9f3845	-0.077744044
100	0x3d23f98d	0.040032912
101	0x3d6a6006	0.05722048
102	0x3d631bf8	0.055446595
103	0x3dc7807c	0.09741303
104	0xbdab00d3	-0.083497666
105	0x3da03df2	0.07824315
106	0x3cf56492	0.029955182
107	0x3d7fda5c	0.062464103
108	0x3d015ea3	0.031584393
109	0x3d2466a7	0.04013696
110	0x3da86415	0.08222214
111	0xbdbf7d48	-0.093500674
112	0xbd8b163d	-0.06791351
113	0x3d88ce7a	0.06680007
114	0xbcb0db8f	-0.021589069
115	0xbdad6761	-0.084669836
116	0xbdb85d67	-0.0900219
117	0xbd94a0b2	-0.07257213
118	0xbd43a6fa	-0.047766663
119	0xbd5b9b91	-0.053615157
120	0xbdaf4970	-0.08558929
121	0x3d9049f7	0.07045358
122	0xbd42396e	-0.04741805
123	0x3c915fbb	0.017745843
124	0xbd9d28b2	-0.07673778
125	0xbce7a296	-0.02827577
126	0x3d741c1a	0.059597112
127	0x3c9765f6	0.018481236

residual_blocks.0.fc2.weight f4 [128, 128]
0	0xbdab8c89	-0.08376414
1	0xbd5c61a2	-0.053804047
2	0xbc44bdc7	-0.012008137
3	0x3cd9ad04	0.026571758
4	0xbd74d8c6	-0.059777044
5	0x3d4ea2a3	0.05044807
6	0x3d65eeb3	0.056135844
7	0x3d180aab	0.03711955
8	0xbdc32fab	-0.09530576
9	0x3d2fba94	0.042902544
10	0xbd8862f0	-0.06659496
11	0xbcf8a5bb	-0.030352464
12	0x3d409570	0.047017515
13	0xbc962c72	-0.01833174
14	0xbc3ed865	-0.011648272
15	0x3ce38b58	0.027776405
16	0xbdb2a5b0	-0.08723009
17	0x3d79a2ab	0.060946148
18	0xbcbe381d	-0.023220116
19	0x3d7d677b	0.061866265
20	0xbd51ca7e	-0.051218502
21	0x3d92519f	0.07144474
22	0x3b7fc7f8	0.0039029103
23	0xbdb24365	-0.08704261
24	0xbd00d970	-0.031457365
25	0x3d02ee5d	0.031965602
26	0x3d7500c5	0.059815187
27	0xbd32f994	-0.043695047
28	0xbd9adc65	-0.07561568
29	0xbc2ce137	-0.010551742
30	0xbd801320	-0.06253648
31	0xbdc43f58	-0.09582394
32	0x3d85a801	0.06526185
33	0xbc379d03	-0.011206868
34	0x3cdf4e4d	0.027259016
35	0x3d941d82	0.07232191
36	0xbbd3045b	-0.006439728
37	0xbd84424b	-0.06457957
38	0x3c7d1fe2	0.015449496
39	0xbd07a54e	-0.03311663
40	0x3d8deb1e	0.06929611
41	0xbd309aa2	-0.04311622
42	0xbd8e3469	-0.0694359
43	0xbd88fc74	-0.066887766
44	0x3d05ef66	0.03269901
45	0x3c6941aa	0.014236847
46	0x3d953fe2	0.07287575
47	0xbc075581	-0.008260132
48	0xbc8b190c	-0.016979717
49	0xbdb00dc9	-0.08596379
50	0xbd1d68d5	-0.038430054
51	0x3d94aaa5	0.0725911
52	0xbc9338a6	-0.017971348
53	0xbab2f2f9	-0.0013652734
54	0xbd9b6fef	-0.07589709
55	0x3d614d9b	0.05500565
56	0xbd99fdc4	-0.07519105
57	0x3d96e7c3	0.07368424
58	0xbd9f3252	-0.0777327
59	0x3cc09afd	0.023511404
60	0xbcc64588	-0.024203077
61	0x3b95ec6e	0.0045753038
62	0x3ce017dc	0.027355127
63	0x3b35b916	0.0027728728
64	0xbd687d3e	-0.056760065
65	0x3c9a8145	0.018860469
66	0xbd90a0d3	-0.07061925
67	0xbda70a55	-0.081562676
68	0xbacec0e9	-0.0015774044
69	0x3d913533	0.07090225
70	0xbd69b5b5	-0.057058055
71	0x3ce8e9b2	0.028431747
72	0xbda7e74c	-0.08198413
73	0x3b52e099	0.0032177328
74	0xbdad1174	-0.084505945
75	0xbd982a35	-0.07429925
76	0x3d84bc45	0.06481222
77	0xbc4e8975	-0.0126060145
78	0xbd820d10	-0.06350148
79	0x3d0a32ff	0.03374004
80	0xbca0faa6	-0.019650768
81	0x3cb07a22	0.021542612
82	0xbd32f6a7	-0.043692257
83	0xbc30f3ab	-0.0108002825
84	0xbbd471b4	-0.006483281
85	0xbda11043	-0.0786443
86	0x3da0c362	0.07849766
87	0xbce27c13	-0.027647054
88	0x3da93a1e	0.08263038
89	0xbd466bcd	-0.04844265
90	0xbd224231	-0.039613906
91	0xbbb402db	-0.0054935045
92	0x3c3906f6	0.0112931635
93	0xbd79712b	-0.06089894
94	0x3d8a90d0	0.06765902
95	0xbc11728e	-0.00887741
96	0x3d6b2926	0.05741229
97	0xbdb3f267	-0.08786469
98	0x3c63e49a	0.013909483
99	0xbda947bb	-0.082656346
100	0xbd48b165	-0.0489973
101	0xbdc56360	-0.09638095
102	0x3da6675e	0.081251845
103	0xbd897b1e	-0.06712936
104	0x3d34b117	0.0441142
105	0xbd952f95	-0.07284466
106	0xbda288bf	-0.079362385
107	0xbcc05d80	-0.023482084
108	0x3cc48b82	0.023992304
109	0x3cd256aa	0.02567609
110	0x3ce1d6f5	0.02756832
111	0xbd6eb967	-0.058282282
112	0xbcec5419	-0.028848695
113	0x3d4fc46d	0.050724436
114	0x3d819334	0.06326905
115	0xbc917ed9	-0.017760681
116	0xbce183f4	-0.02752874
117	0xbcd0bcb9	-0.025480615
118	0x3d725ff5	0.059173543
119	0x3d05af26	0.032637738
120	0x3db49e9d	0.088193156
121	0x3bb16c62	0.0054145316
122	0x3d1df537	0.038563933
123	0x3c1b4d9c	0.009478953
124	0x3d720b45	0.05909278
125	0x3c61b47a	0.013775939
126	0xbdb0c582	-0.086314216
127	0x3da2cba7	0.07949
128	0x3a21c0e1	0.0006170404
129	0x3d03e3ed	0.03219979
130	0xbab184c6	-0.0013543598
131	0x3d3e9b89	0.04653505
132	0xbd937ef6	-0.0720195
133	0x3cccebb3	0.025014734
134	0x3db7b552	0.08970131
135	0xbdd29e4e	-0.102841005
136	0xbde77204	-0.11301044
137	0x3d61fa69	0.05517045
138	0x3da8899c	0.08229372
139	0x3d12017a	0.03564594
140	0xbd836ec4	-0.06417611
141	0x3c9ded35	0.019278148
142	0xbd89d3de	-0.067298636
143	0xbd2a08b5	-0.04151221
144	0x3df18186	0.11792283
145	0xbde7277d	-0.11286829
146	0xbde185c2	-0.110118404
147	0x3d006df2	0.031354852
148	0xbd1cf8c1	-0.038323168
149	0xbd76672f	-0.060156997
150	0x3d533026	0.05155959
151	0xbcfc45de	-0.030795034
152	0xbd04cf2b	-0.032424133
153	0xbd58916f	-0.05287307
154	0xbd71b972	-0.059014745
155	0x3dd255f4	0.102703005
156	0xbcc752a3	-0.024331396
157	0xbc8fd59a	-0.017557908
158	0x3df1312a	0.117769554
159	0xbe01a3fd	-0.12660213
160	0xbd1f3fc4	-0.03887917
161	0xbd742767	-0.05960789
162	0x3e1451cf	0.14484333
163	0x3daa13a6	0.08304529
164	0x3c181c88	0.009284146
165	0x3d8f1982	0.06987287
166	0x3b8331ad	0.0040037245
167	0xbb13190d	-0.0022445351
168	0xbdc5a312	-0.09650244
169	0xbc7348a6	-0.014848864
170	0xbced2611	-0.028948816
171	0x3cb10ce1	0.021612586
172	0xbce9bea0	-0.02853328
173	0x3b6da6c2	0.0036262725
174	0xbd8764f1	-0.0661105
175	0x3da14696	0.07874791
176	0xbd1c12d6	-0.0381039
177	0xbd9cfa0e	-0.07664882
178	0x3d6ba6b7	0.05753204
179	0xbcde5341	-0.027139308
180	0x3d37439c	0.04474221
181	0xbd683a11	-0.056696
182	0xbd31170d	-0.043234874
183	0x3dfc8b65	0.12331275
184	0x3e3b5581	0.18294336
185	0x3d94def4	0.072690874
186	0xbd0cdf81	-0.034392837
187	0xbd67e987	-0.056619193
188	0x3df02ebf	0.11727666
189	0x3d83ba3a	0.06432004
190	0x3d35d2c2	0.044390447
191	0x3a9ad42a	0.0011812497
192	0xbcabc12e	-0.020966139
193	0x3c32d06f	0.010913952
194	0x3d94ebec	0.07271561
195	0x3d94c7ff	0.07264709
196	0xbd2c741e	-0.042102925
197	0x3d1954bc	0.037434325
198	0x3cacdc3b	0.021101108
199	0x3dfbd684	0.12296775
200	0xbd0e1373	-0.034686517
201	0xbc09291c	-0.008371618
202	0x3d233a07	0.03985026
203	0x3d147095	0.03624018
204	0xbd91fd4d	-0.071283914
205	0x3e231857	0.15927254
206	0x3c093889	0.008375295
207	0x3cf253da	0.029581
208	0xbbaecc85	-0.005334439
209	0xbdb0a335	-0.08624879
210	0xbd29f4ab	-0.0414931
211	0xbd9905b8	-0.07471794
212	0xbc47011f	-0.012146263
213	0xbdb8d5f6	-0.09025185
214	0x3d85129c	0.0649769
215	0x3df8672b	0.12129053
216	0x3d0426a7	0.032263424
217	0x3ce9603b	0.02848827
218	0xbd0d9065	-0.034561533
219	0x3c9a938d	0.018869186
220	0x3da976f0	0.08274639
221	0xbd72f1c9	-0.059312616
222	0xbda51a53	-0.080616616
223	0xbd3b0940	-0.04566312
224	0xbbcb67bf	-0.006207436
225	0x3d9b9c05	0.07598118
226	0xbd21526e	-0.03938525
227	0x3d4c96da	0.04994855
228	0x3d72cbc0	0.059276342
229	0x3d0cc994	0.034371927
230	0xbc2183ae	-0.009858055
231	0xbd8f33cc	-0.06992301
232	0x3d833310	0.06406224
233	0x3d25d2d9	0.040484283
234	0x3d871a90	0.06596863
235	0x3d7c952b	0.061665695
236	0x3d38344f	0.04497176
237	0x3da27740	0.079329014
238	0xbcbff3fc	-0.02343177
239	0x3d5fe369	0.054660235
240	0xbd78b34c	-0.060717866
241	0xbe175ca5	-0.14781435
242	0x3d991439	0.0747456
243	0xbc958d3c	-0.018255822
244	0x3dab7a08	0.08372885
245	0xbdac325d	-0.084080435
246	0x3d9f5617	0.07780092
247	0xbdb3d592	-0.0878097
248	0xbd6b7123	-0.057480942
249	0x3d600834	0.054695323
250	0x3c76292e	0.015024466
251	0xbc598543	-0.013276401
252	0x3d88e7b5	0.066848196
253	0x3d409d9e	0.047025315
254	0x3d2854ba	0.041096427
255	0x3db6f214	0.089328915

residual_blocks.0.fc2.bias f4 [128]
0	0xbdb653ed	-0.08902726
1	0x3c2f1b87	0.010687715
2	0xbd8965bd	-0.06708858
3	0xbb26b72f	-0.0025438776
4	0x3d90a6c6	0.070630595
5	0x3cd6c5bc	0.026217334
6	0x3d6b4f32	0.057448573
7	0xbcef31a2	-0.029198471
8	0x3cd2caae	0.02573141
9	0x3da8c773	0.08241167
10	0xbda94aa4	-0.0826619
11	0x3d2d5c95	0.04232462
12	0xbdd61233	-0.1045269
13	0xbd31a55b	-0.043370586
14	0xbc1bab44	-0.009501282
15	0xbd5876aa	-0.052847542
16	0x3b8c5257	0.0042822766
17	0xbd9cec4f	-0.0766226
18	0xbdaf372e	-0.085554466
19	0x3b9776be	0.0046223095
20	0x3d2d4e6e	0.042311125
21	0xbcada074	-0.021194674
22	0xbd3e0d7c	-0.04639958
23	0xbd96f541	-0.07370997
24	0x3d7471fa	0.05967901
25	0xbbe8742b	-0.0070939264
26	0x39816ac8	0.00024684356
27	0x3d97fc3b	0.07421156
28	0x3dafed05	0.0859013
29	0xbd60f518	-0.05492124
30	0xbd5731be	-0.052537672
31	0xbd7be33f	-0.061496016
32	0xbd2cebfd	-0.042217243
33	0xbdbdd59f	-0.092692606
34	0x3b86dda3	0.0041157766
35	0xbd37ed4e	-0.044904046
36	0xbdbd6baf	-0.09249055
37	0xbb641515	-0.0034802605
38	0xbdc9dfeb	-0.09857162
39	0xbd1fd6d7	-0.039023247
40	0xbd6910df	-0.056900855
41	0x3d92ded6	0.07171409
42	0x3d13ddc9	0.036100183
43	0xbda08869	-0.07838518
44	0xbcc3168b	-0.02381446
45	0xbda326ec	-0.07966408
46	0x3dbfc3be	0.09363507
47	0xbd05d946	-0.03267791
48	0x3d7a0813	0.061042856
49	0xbcca72ad	-0.024712885
50	0xbd1ba445	-0.037998457
51	0x3af9d724	0.0019061309
52	0xbd0103af	-0.031497654
53	0xbcdd1d3b	-0.026991477
54	0x3da4febf	0.080564015
55	0x3cb56a48	0.022145405
56	0xbcba9788	-0.022777334
57	0xbc7c414c	-0.015396427
58	0xbce8ed48	-0.028433457
59	0xbd206db3	-0.039167117
60	0xbd9b7e70	-0.075924754
61	0x3d85ba4f	0.06529676
62	0x3c706eec	0.014674883
63	0x3c6d3a88	0.014479287
64	0xbd160ab3	-0.036631297
65	0x3d0049fa	0.03132055
66	0xbd4e43cb	-0.05035762
67	0x3cae334c	0.021264695
68	0xbdada5b4	-0.08478871
69	0x3ce0b763	0.027431196
70	0xbb93d89a	-0.004511905
71	0xbc474c83	-0.012164238
72	0x3d0c700e	0.03428655
73	0x3c748b58	0.0149258
74	0x3d5e2bc7	0.054240968
75	0x3d58117d	0.052751053
76	0xbd8f433a	-0.06995244
77	0xbd8565ee	-0.06513582
78	0xbd94d87a	-0.07267852
79	0x3c42844b	0.011872361
80	0xbd7e9e5e	-0.06216275
81	0x3d86581e	0.06559776
82	0xbde50616	-0.111828014
83	0x3db37f1a	0.08764477
84	0xbc252092	-0.010078566
85	0x3cc92ff7	0.024559004
86	0x3a5e08f4	0.0008469962
87	0xbdb9c82e	-0.09071384
88	0x3cdcf131	0.026970478
89	0x3d00e194	0.031465128
90	0x3caf6be1	0.021413745
91	0x3d5476d0	0.05187112
92	0x3d835615	0.06412903
93	0x3d7894b7	0.0606887
94	0x3d9f5fbc	0.07781932
95	0x3d8ece60	0.06972957
96	0x393da091	0.0001808426
97	0x3d1b2098	0.03787288
98	0x3c1f3dea	0.009719351
99	0xbc959459	-0.018259214
100	0x3d3fdae8	0.046839625
101	0x3d3020bc	0.042999968
102	0xbbbcbe39	-0.005759981
103	0xbdae81b2	-0.08520831
104	0x3d0af993	0.03392942
105	0x3ced5432	0.028970812
106	0x3dab04c3	0.083505176
107	0xbd817efb	-0.06323048
108	0xbd1a79e8	-0.037713915
109	0xbbc74d60	-0.006082222
110	0x3da2fd6f	0.07958495
111	0x3d9e87a2	0.07740714
112	0x3ddabca3	0.10680511
113	0xbd4ee28c	-0.05050902
114	0xbdc6a576	-0.09699528
115	0xbd1f63f3	-0.03891368
116	0x3de0cc15	0.109764256
117	0xbc5f7717	-0.013639233
118	0xbd14981f	-0.036277886
119	0xbd959c74	-0.07305232
120	0xbd6001aa	-0.054689087
121	0xbb9da3ff	-0.0048108096
122	0x3d7ccd47	0.061719205
123	0x3c1803f6	0.009278288
124	0x3d8dba74	0.06920329
125	0x3daaf6eb	0.08347877
126	0xbce6e339	-0.02818452
127	0x3cfe1751	0.031016978

residual_blocks.1.fc1.weight f4 [128, 128]
0	0xbd39ec22	-0.04539121
1	0x3d7f98eb	0.062401693
2	0x3d3629cd	0.044473458
3	0xbdd50882	-0.10402013
4	0x3c5ecb6b	0.013598303
5	0x3d6df5aa	0.05809561
6	0x3dcf77e2	0.10130288
7	0x3c3222d7	0.010872564
8	0x3bffdb6a	0.0078081386
9	0x3dba4872	0.09095849
10	0xbda8727a	-0.0822496
11	0x3a286f9e	0.00064253237
12	0xbdaf9520	-0.08573365
13	0xbf455d91	-0.77095896
14	0xbd11028d	-0.035402823
15	0x3d7dffac	0.062011406
16	0xbd4b62bb	-0.049654704
17	0x3d80faf3	0.06297865
18	0xbcaad06f	-0.020851342
19	0xbd4db9f6	-0.050226174
20	0xbdce3b43	-0.10069897
21	0x3da56489	0.08075816
22	0x3d9c9512	0.076456204
23	0x3d259ffa	0.04043577
24	0x3d6e2bb8	0.058147162
25	0x3d272e5c	0.040815696
26	0x3c210ca2	0.009829672
27	0xbd69587c	-0.05696915
28	0x3dda1494	0.10648456
29	0x3f385151	0.7199908
30	0x3d1ac2ab	0.037783306
31	0xbd222c25	-0.03959288
32	0x3e00fb4a	0.12595859
33	0x3d0a1cdd	0.033718932
34	0xbbb255df	-0.0054423655
35	0xbcd20b98	-0.025640294
36	0x3d99fc57	0.07518833
37	0xbe647c3c	-0.22313017
38	0xbd303c52	-0.043026276
39	0x3dd2493b	0.10267874
40	0xbd5fa17a	-0.054597355
41	0x3e38337b	0.17988388
42	0xbd94111b	-0.07229825
43	0xbbb31654	-0.005465308
44	0x3daafd3d	0.083490826
45	0xbe05ab4f	-0.1305363
46	0xbc80a7be	-0.015704986
47	0x3d1f062c	0.038824245
48	0xbccfdfbf	-0.025375245
49	0xbe19a93d	-0.15005966
50	0x3e1826a4	0.1485849
51	0xbc7ccbf8	-0.015429489
52	0x3b2f55fd	0.0026754134
53	0xbe817294	-0.2528273
54	0x3da546fa	0.08070178
55	0x3ec8df10	0.39232683
56	0x3ddf4353	0.10901513
57	0x3d7ac303	0.061221134
58	0x3db682b2	0.08911647
59	0xbd6c5a8b	-0.057703536
60	0xbd181d23	-0.037137162
61	0xbdd8ce17	-0.105861835
62	0x3e096544	0.13417536
63	0x3da3e7eb	0.08003219
64	0x3d23c5bb	0.039983492
65	0x3cbacf31	0.022803875
66	0x3e8aa704	0.27080548
67	0x3c9a920a	0.018868465
68	0x3cfc5e7c	0.030806772
69	0x3d4ad268	0.049517065
70	0xbcf01153	-0.029305136
71	0x3ceca113	0.0288854
72	0x3dd96ca7	0.10616427
73	0x3d2290cb	0.039688867
74	0x3df5a558	0.119944274
75	0xbd951e76	-0.072812006
76	0x3d8005f1	0.06251133
77	0x3f376d4f	0.71651167
78	0x3d6b29ef	0.057413038
79	0x3e5b9f65	0.21447523
80	0xbf188fd1	-0.59594446
81	0x3e497375	0.1967295
82	0x3e12b1d7	0.14325653
83	0x3d32ede1	0.04368389
84	0x3d8346e9	0.064100094
85	0xbd0adfb1	-0.033904735
86	0xbd70c486	-0.05878117
87	0xbc8822d1	-0.016618164
88	0xbecc5a5a	-0.39912683
89	0x3e8ba6ff	0.27275845
90	0xbdc95852	-0.09831299
91	0xbdd46889	-0.10371501
92	0xbdb06a84	-0.08614066
93	0xbd306f35	-0.043074805
94	0x3deac4e2	0.11463334
95	0xbdbc2fba	-0.091887906
96	0x3d7f004e	0.06225615
97	0x3d3e5b50	0.0464738
98	0xbe52bd52	-0.20580032
99	0xbd6ffd6c	-0.05859129
100	0x3dd0fff9	0.10205073
101	0x3d52b813	0.051445078
102	0x3c75144e	0.014958454
103	0xbde7d9ca	-0.11320837
104	0xbe0a3fa4	-0.1350084
105	0xbd35621d	-0.04428302
106	0x3bd0e8de	0.006375416
107	0x3c658a97	0.014010093
108	0xbd98aadf	-0.07454466
109	0xbdc46eff	-0.09591483
110	0x3e0f70d3	0.14007883
111	0x3a3883a1	0.0007038657
112	0x3c9bbd28	0.019011095
113	0x3d4a0d1d	0.049328912
114	0x3e8afba6	0.27145118
115	0x3e37296a	0.17886892
116	0xbdb7cde6	-0.08974819
117	0x3dc925f3	0.09821691
118	0x3ce63126	0.028099608
119	0x3d397b3e	0.04528355
120	0x3b8162a4	0.0039485265
121	0x3cc67286	0.02422453
122	0x3cb70f98	0.022346303
123	0x3c3f6c6d	0.011683566
124	0xbdab5665	-0.08366088
125	0xbc9ce547	-0.019152297
126	0xbd3ec08b	-0.046570342
127	0xbb52c96e	-0.0032163518
128	0x3d38e7e3	0.04514302
129	0xbce636b5	-0.028102258
130	0x3d1d3af6	0.038386308
131	0x3cdd36fb	0.027003756
132	0x3d000b8c	0.031261012
133	0xbc34d270	-0.0110365
134	0xbd0225a4	-0.03177418
135	0xbc996deb	-0.01872917
136	0x3d95d55b	0.07316085
137	0x3d997792	0.07493509
138	0x3c2c1d1b	0.010504986
139	0xbd0b6504	-0.034031883
140	0x3d5d622a	0.054048695
141	0xb9172865	-0.0001441553
142	0xbd9d693c	-0.076860875
143	0xbd4d1023	-0.050064217
144	0x3d37784f	0.04479247
145	0xbdb658c8	-0.089036524
146	0xbd951edb	-0.07281276
147	0x3d31a9ea	0.043374933
148	0xbd2773de	-0.040881984
149	0x3c167fd1	0.009185747
150	0x3d6501e2	0.05591
151	0xbced4940	-0.028965592
152	0x3d3c2664	0.04593505
153	0x3b30d7eb	0.0026984166
154	0xbd91c160	-0.071169615
155	0xbd6c5045	-0.05769374
156	0x3d9994da	0.07499094
157	0xbc8b4ce0	-0.01700443
158	0x3d9869b3	0.074420355
159	0xbd1eed93	-0.038800787
160	0x3cd48579	0.025942551
161	0xbd1595e2	-0.036519893
162	0xbdc484d3	-0.09595647
163	0x3d11c399	0.035586927
164	0x3d6e72e2	0.05821503
165	0x3d8c622b	0.068546616
166	0x3d7ab204	0.061204925
167	0x3d145fe9	0.03622428
168	0xbdc877b7	-0.09788459
169	0xbd9d7dc9	-0.07690007
170	0xbcba7a6a	-0.02276345
171	0x3d714f97	0.058913793
172	0xbdb90df5	-0.09035865
173	0xbbd09de5	-0.0063664787
174	0x3d88f591	0.06687463
175	0xbc43b4c7	-0.011944956
176	0x3d92c459	0.071663566
177	0xbcd02993	-0.02541045
178	0xbcc539b0	-0.02407536
179	0xbd7f492d	-0.062325645
180	0xbd8011f2	-0.06253423
181	0x3d9226a0	0.071362734
182	0xbc51277a	-0.01276576
183	0xbd89123c	-0.06692931
184	0xbda53aba	-0.08067842
185	0xbdb94b3e	-0.090475544
186	0xbda2be32	-0.07946433
187	0xbd7fbfc7	-0.062438753
188	0xbadd426c	-0.0016880757
189	0x3d96acb8	0.07357162
190	0xbd58076a	-0.052741446
191	0x3d3239e3	0.043512236
192	0xbdb2a046	-0.08721976
193	0xbd37b265	-0.044847865
194	0x3d806e53	0.06271043
195	0xbd842c1d	-0.064537264
196	0x3db1bc7e	0.0867853
197	0xbdb99d93	-0.09063258
198	0x3ceaa3a2	0.02864248
199	0xbbcdf551	-0.0062853475
200	0xbcdaa65e	-0.026690658
201	0x3d7a8cd9	0.06116948
202	0xbc49afae	-0.012309952
203	0x3c4c3546	0.012463873
204	0x3d838f31	0.06423796
205	0x3c8ab8d3	0.016933834
206	0xbb887d27	-0.00416531
207	0xbcf0ae12	-0.029379878
208	0xbdb79e64	-0.089657575
209	0xbdb2c783	-0.0872946
210	0x3d2537e2	0.040336497
211	0xbb58ad6c	-0.0033062352
212	0x3d901084	0.070344
213	0xbdb2894c	-0.087175936
214	0x3d615739	0.055014823
215	0x3d91b407	0.071144156
216	0x3d3b2a89	0.04569486
217	0xbd58eb00	-0.05295849
218	0xbd57b060	-0.05265844
219	0x3c9372f5	0.017999152
220	0xbd06b060	-0.032883048
221	0x3c0a695f	0.008447974
222	0xbdc6e275	-0.09711162
223	0x3b09377e	0.0020937617
224	0x3d30bd43	0.043149244
225	0xbd07947f	-0.0331006
226	0x3be6659a	0.007031155
227	0x3cfda022	0.030960146
228	0x3c8958c0	0.016765952
229	0xbd7ef887	-0.062248733
230	0x3ce9bbf6	0.02853201
231	0xbcbd4e55	-0.02310864
232	0x3d873080	0.066010475
233	0x3d390e7a	0.04517982
234	0x3c867529	0.016413288
235	0xbd28a3e1	-0.041171912
236	0x3cca38ec	0.024685346
237	0xbda1df06	-0.079038665
238	0x3c1fbbd6	0.009749373
239	0xbcfb1510	-0.030649692
240	0x3ca39bca	0.019971747
241	0xbc4e523a	-0.0125928465
242	0x3d045e86	0.032316707
243	0xbd0e6ffc	-0.034774765
244	0x3d994367	0.07483559
245	0xbd7d9ecc	-0.06191902
246	0xbd95ba7a	-0.07310958
247	0xbd8b3e9a	-0.0679905
248	0x3cbb7713	0.022883927
249	0xbd320661	-0.043463115
250	0xbc6c11fd	-0.014408586
251	0x3d17a2f5	0.037020642
252	0xbc99f48c	-0.018793367
253	0x3d7918cf	0.060814675
254	0x3ca24e8b	0.019812843
255	0xbc636c2a	-0.013880769

residual_blocks.1.fc1.bias f4 [128]
0	0xbd8a806b	-0.06762775
1	0xbd0291e1	-0.031877402
2	0xbd735caa	-0.059414543
3	0xbca0fc59	-0.019651579
4	0xbb75b7ba	-0.0037493543
5	0x3d6d1149	0.057877813
6	0x3d22d524	0.039754048
7	0xbd90387e	-0.07042025
8	0x3b3e7110	0.002905909
9	0x3c002c02	0.007822992
10	0x3de2e05c	0.110779494
11	0x3c86da73	0.016461587
12	0xbd7eecae	-0.062237434
13	0xbd6438ce	-0.055718236
14	0x3d4d3aa2	0.050104745
15	0xbd20e04d	-0.03927641
16	0x3bb991a0	0.005663112
17	0x3d272f9d	0.040816892
18	0x3dc1870c	0.09449586
19	0x3c4546e5	0.012040828
20	0x3bc448de	0.0059901318
21	0x3d6cf0ca	0.05784682
22	0xbc25b400	-0.010113716
23	0xbd1dd180	-0.038529873
24	0x3ddb38d9	0.10704202
25	0xbd35654c	-0.044286057
26	0xbd355424	-0.044269696
27	0x3ce2c6cb	0.027682682
28	0xbd4cc2a8	-0.049990326
29	0xbc767535	-0.015042593
30	0xbd586dfa	-0.052839257
31	0xbd7ed437	-0.062214103
32	0x3d5090be	0.050919287
33	0x3cca758d	0.024714256
34	0xbb586e51	-0.0033024738
35	0x3cd2cf5b	0.02573364
36	0x3d83c08b	0.06433209
37	0xbd5e6441	-0.05429483
38	0xbcc74f1a	-0.02432971
39	0xbd51dce2	-0.05123604
40	0xbd3ec021	-0.046569947
41	0x3cb655fe	0.022257801
42	0x3ca57aa9	0.02020009
43	0x3be9ab61	0.0071310257
44	0x3d8d5f91	0.069029935
45	0x3d8ce17f	0.068789475
46	0xbda54136	-0.080690786
47	0xbd2d9341	-0.04237676
48	0xbdb1521a	-0.08658238
49	0x3b9437f8	0.0045232736
50	0x3bb7495c	0.005593462
51	0x3d3a9efc	0.045561776
52	0xbd866d1c	-0.0656378
53	0xbd690088	-0.056885272
54	0xbd8c9624	-0.068645746
55	0x3ce22ff1	0.02761075
56	0x3d70ffca	0.05883769
57	0x3cd2cbe6	0.025731992
58	0xbbcb99e4	-0.0062134136
59	0xbdc1e573	-0.09467592
60	0x3d0a5f02	0.033782013
61	0x3def146f	0.11673819
62	0x3d9aaa93	0.07552066
63	0xba3b2b5a	-0.0007139944
64	0xbd780167	-0.060548212
65	0xbd02ab2c	-0.031901523
66	0x3d53895a	0.05164466
67	0xbd84d1d9	-0.06485338
68	0x3d7b4195	0.06134184
69	0x3da81d87	0.08208757
70	0xbbe8cfb2	-0.0071048373
71	0xbd7d931f	-0.061907884
72	0xbcf4ada3	-0.029867953
73	0x3c131780	0.008977771
74	0x3d91786e	0.07103048
75	0xbd7664b0	-0.060154617
76	0xbdb8e42f	-0.090278976
77	0xbb64a13c	-0.0034886142
78	0x3ccd1a91	0.025037082
79	0xbd31bfd4	-0.043395832
80	0x3db8c1b7	0.09021323
81	0xbd7d50c3	-0.0618446
82	0xbddbf0c0	-0.10739279
83	0x3b757e7f	0.003745943
84	0x3d059912	0.032616682
85	0x3de54790	0.1119529
86	0x3da616a7	0.08109789
87	0x3d059455	0.032612164
88	0x3d68e190	0.05685574
89	0x3dbd7a4d	0.09251843
90	0xbd210aa2	-0.03931678
91	0x3dab44ca	0.0836273
92	0xbc6cb9c9	-0.0144485915
93	0xbacbf5e1	-0.0015560949
94	0xbd045140	-0.03230405
95	0xbbd17867	-0.006392527
96	0xbd10a4d4	-0.035313442
97	0x3dc1d2a4	0.09464005
98	0xbd9ef310	-0.07761204
99	0x3dcb5263	0.099278234
100	0xbd0e6a34	-0.034769252
101	0xbd9ebde0	-0.077510595
102	0xbdba436d	-0.09094892
103	0x3d3f0da6	0.046643876
104	0xbd3df1eb	-0.04637329
105	0x3d7dffa4	0.062011376
106	0x3db855ae	0.09000717
107	0x3d9f53d9	0.077796645
108	0x3d5d09ac	0.053964302
109	0xbcc05e08	-0.023482338
110	0x3cf0b190	0.029381543
111	0xbcf6e901	-0.030140402
112	0xbd805bb5	-0.06267492
113	0x3d454eb7	0.04817077
114	0x3ce1f99a	0.02758484
115	0xbc7f2721	-0.015573294
116	0xbd560b7c	-0.052257046
117	0x3d180e15	0.037122805
118	0xbd94f792	-0.07273783
119	0x3cb9c306	0.022676002
120	0xbdaacfb4	-0.083403975
121	0x3db36438	0.087593496
122	0x3d8fdf37	0.07024997
123	0xbd85bd56	-0.065302536
124	0xbcbe3381	-0.023217918
125	0x3dc64176	0.096804544
126	0xbdaf1389	-0.08548648
127	0xbd392324	-0.04519953

residual_blocks.1.fc2.weight f4 [128, 128]
0	0xbd17c81a	-0.037056066
1	0xbda15a78	-0.07878584
2	0xbd2f2ef4	-0.042769387
3	0xbd0f0860	-0.034920096
4	0xbdb52e36	-0.08846705
5	0x3d098933	0.03357811
6	0x3cfe066c	0.031008922
7	0x3cf1e25b	0.02952688
8	0xbdcc3d9f	-0.09972691
9	0x3d576d20	0.052594304
10	0x3cefcd66	0.029272746
11	0xbdb068a9	-0.08613712
12	0x3d6d1fe9	0.05789176
13	0xbd6e6e4e	-0.058210663
14	0x3d50d007	0.05097964
15	0xbc806f10	-0.015677959
16	0x3d494699	0.049139593
17	0x3d0675e6	0.03282728
18	0x3d649aa9	0.055811558
19	0xbd160a4e	-0.03663092
20	0xbd2dd45a	-0.042438842
21	0xbd97e44e	-0.074165925
22	0x3d04c7ea	0.032417215
23	0x3cb2d1a6	0.021828484
24	0xbd62fac5	-0.055414934
25	0xbd084ca4	-0.033276215
26	0x3cc78dca	0.024359602
27	0xbd4ddfac	-0.05026214
28	0xbd9d3ad5	-0.07677237
29	0x3c2f3c39	0.010695511
30	0x3c933a2a	0.01797207
31	0x38d90483	0.00010348207
32	0xbd9bcb4f	-0.076071374
33	0x3da0b126	0.078462884
34	0xbd93a517	-0.07209223
35	0xbcda1eae	-0.026625957
36	0x3d839e85	0.064267196
37	0xbc71bdb9	-0.014754706
38	0xbdd802e5	-0.10547427
39	0xbd68fcfa	-0.056881882
40	0xbc0d547d	-0.008626101
41	0xbdb52275	-0.08844463
42	0xbcb52437	-0.022111995
43	0xbc8bad87	-0.017050518
44	0x3cfcd351	0.030862482
45	0xbd9e0fb1	-0.07717837
46	0x3d99ceb9	0.07510132
47	0xbc9faa51	-0.019490393
48	0x3d6ae59f	0.05734789
49	0x3d1a2527	0.037633087
50	0xbda724d7	-0.081613235
51	0xbdbc552f	-0.09195935
52	0xbd6e4fdd	-0.058181632
53	0xbd0f80d6	-0.035034977
54	0xbc5e070a	-0.013551483
55	0x3c7e297e	0.015512822
56	0x3d04c220	0.032411695
57	0xbd93966b	-0.07206424
58	0xbc52d860	-0.012868971
59	0xbd999e2e	-0.075008735
60	0xbdc004ce	-0.093759164
61	0x3bf00219	0.007324469
62	0xbd8f33c2	-0.06992294
63	0xbcd91154	-0.02649752
64	0x3daa6e36	0.08321802
65	0xbd49dad9	-0.049280975
66	0x3d3a614a	0.04550294
67	0xbda55c6c	-0.08074269
68	0xbd4f42d7	-0.050600853
69	0xbd5796c3	-0.052634012
70	0x3c91ed73	0.01781342
71	0xba897e02	-0.0010489824
72	0xbbaf74c2	-0.005354495
73	0xbcea5bb6	-0.028608184
74	0x3d290696	0.041266046
75	0xbaf46a1c	-0.0018647346
76	0x3ce4eabc	0.027943961
77	0xbcf506d0	-0.029910475
78	0x3d8b25c5	0.06794313
79	0xbd9ad5d9	-0.075603195
80	0xbd8cfbe0	-0.06883979
81	0xbd3d8843	-0.046272527
82	0xbd838a45	-0.06422857
83	0x3cfb4769	0.0306737
84	0x3bed16b0	0.0072353706
85	0xbdc1f28b	-0.094700895
86	0x3d31eec3	0.04344059
87	0x3d9acdc0	0.07558775
88	0x3c10b1f7	0.008831493
89	0xbdbffefb	-0.093748055
90	0x3d5f5214	0.054521635
91	0x3d8b5ce1	0.068048246
92	0x3cbd98b9	0.023144113
93	0x3d20321a	0.03911028
94	0x3c8c1f4e	0.017104771
95	0xbda54f9b	-0.08071824
96	0xbc9ef8c7	-0.019405736
97	0xbb8ac0b2	-0.004234397
98	0xbce860b7	-0.02836643
99	0xbc786ef1	-0.015163169
100	0xba892fb9	-0.0010466493
101	0xbc6b0501	-0.014344455
102	0xbd81078c	-0.063002676
103	0x3d591fb5	0.053008754
104	0xbdbfeea0	-0.09371686
105	0xbd8c3ab3	-0.068471335
106	0x3d046039	0.032318328
107	0xbc66805f	-0.014068692
108	0xbd67e0e8	-0.05661097
109	0xbd21028d	-0.039309073
110	0xbcead411	-0.028665574
111	0xbdb4b9d6	-0.08824508
112	0x3d616de6	0.055036448
113	0x3d893c97	0.0670101
114	0xbd9790da	-0.07400675
115	0xbd07ccc0	-0.03315425
116	0x3ae547d1	0.0017492716
117	0x3d6ae8d3	0.057350945
118	0x3c83d585	0.016093025
119	0xbd9635aa	-0.07334454
120	0xbd1ff4aa	-0.03905169
121	0x3c968f0a	0.018378753
122	0x3c323a29	0.010878124
123	0x3d3237c4	0.043510213
124	0xbd986a84	-0.07442191
125	0xbb23631f	-0.0024930907
126	0x3c2cd5a0	0.010548979
127	0xbd9b1d56	-0.07573955
128	0x3d440fa1	0.047866467
129	0x3d6828d2	0.056679554
130	0x3d260554	0.040532425
131	0x3db4e839	0.088333555
132	0xbda152fb	-0.078771554
133	0xbdabb87c	-0.08384797
134	0x3c169020	0.0091896355
135	0x3d74f9eb	0.059808653
136	0xbdbada12	-0.09123625
137	0xbd9de72b	-0.077101074
138	0xbd8fc64d	-0.07020245
139	0x3d5dac71	0.05411953
140	0x3d0346f6	0.032050095
141	0xbd6cc6d2	-0.057806797
142	0xbce49f62	-0.02790803
143	0xbb687cd3	-0.0035474792
144	0xbcbdefce	-0.023185637
145	0xbd9941a0	-0.0748322
146	0xb86de37d	-5.671707e-05
147	0xbca13414	-0.019678153
148	0xbc86f414	-0.016473807
149	0xbd699c36	-0.05703374
150	0xbd69bc59	-0.057064388
151	0x3b9b8122	0.0047456184
152	0x3d35e84e	0.044410996
153	0x3d3ac0e7	0.045594122
154	0x3d074e63	0.03303374
155	0xbd487d8b	-0.048947852
156	0xbd02f550	-0.03197223
157	0x3d99040f	0.07471477
158	0x3d8a4e9f	0.06753277
159	0x3aaf6165	0.0013380466
160	0x3d8b1a55	0.06792132
161	0x3d0e0d6a	0.03468076
162	0x3c898db6	0.016791206
163	0x3c150a4c	0.009096693
164	0xbd01da18	-0.03170213
165	0xbd8b12e8	-0.067907155
166	0xbced8a88	-0.02899672
167	0xbd2fede8	-0.042951494
168	0x3c51a398	0.012795351
169	0xbc038d31	-0.008029268
170	0x3cfa7154	0.030571617
171	0x3c767219	0.015041851
172	0x3ce4e5e3	0.02794165
173	0xbc438ce9	-0.011935451
174	0x3ca0e0a3	0.019638365
175	0x3ba2485e	0.0049524745
176	0x3d5a920b	0.053361934
177	0x3cf80417	0.030275388
178	0x3d5616d9	0.052267883
179	0x3d0d1000	0.034439087
180	0xbda8752d	-0.082254745
181	0x3d9f3c7b	0.077752076
182	0xbd73e699	-0.059546087
183	0xbd9bfd8d	-0.0761672
184	0x3d736601	0.05942345
185	0xbda88788	-0.082289755
186	0xbca6aa89	-0.02034499
187	0x3c4f58a6	0.012655413
188	0xbd8ac49a	-0.0677578
189	0x3c51d42b	0.012806932
190	0xbd9dadf7	-0.07699197
191	0xbdab7077	-0.0837106
192	0xbdb067ac	-0.08613524
193	0xbdaee2b0	-0.08539331
194	0x3da098f4	0.078416735
195	0xbdaafc6b	-0.08348926
196	0x3d112836	0.03543874
197	0xbc6bd2d5	-0.014393528
198	0xbd77ca88	-0.060495883
199	0xbd8250f6	-0.06363098
200	0xbcb940ab	-0.022613844
201	0xbd545001	-0.05183411
202	0x3d81b4e8	0.06333333
203	0xbd50f5fc	-0.05101584
204	0xbd6a88d5	-0.0572594
205	0x3d04d39f	0.03242838
206	0x3dad4af8	0.08461565
207	0xbda2d4d1	-0.07950748
208	0x3d6b8f78	0.05750987
209	0x3d528498	0.051395983
210	0xbd78d458	-0.06074938
211	0xbd271b17	-0.04079732
212	0x3d1f96cc	0.03896217
213	0x3c91779f	0.017757235
214	0xbbd415b1	-0.0064723124
215	0x3b931bb6	0.0044893874
216	0xbdb5682f	-0.08857762
217	0xbdb747db	-0.08949252
218	0xbcfea947	-0.031086577
219	0xbdade46e	-0.08490835
220	0xbce79f03	-0.028274065
221	0xbc431d9a	-0.011908913
222	0x3d2b364d	0.041799832
223	0xb9dece0f	-0.00042496665
224	0xbcd2519b	-0.025673678
225	0x3d83a1c0	0.06427336
226	0xbd896230	-0.06708181
227	0x3c639a19	0.01389172
228	0xbd6cc6cb	-0.05780677
229	0x3da02b16	0.07820718
230	0x3c48676d	0.01223169
231	0x3d6eb239	0.058275435
232	0x3b36b117	0.002787655
233	0xbd1a1454	-0.037617043
234	0x3b9ed05e	0.0048466166
235	0xbda42877	-0.080155306
236	0xbcc90955	-0.024540583
237	0xbdc6096d	-0.096697666
238	0x3d4facd1	0.05070192
239	0x3d3184a6	0.043339394
240	0xbd3a55fc	-0.045492157
241	0x3d6a7623	0.05724157
242	0xbccfb4cb	-0.025354763
243	0x3d3c812d	0.04602163
244	0xbda09b77	-0.078421526
245	0x3d589b56	0.052882515
246	0x3d583f44	0.05279471
247	0xbc8c6823	-0.0171395
248	0xbda056d7	-0.078290634
249	0x3d9dca8f	0.077046506
250	0xbd3bcaf4	-0.045847848
251	0x3c841b97	0.016126437
252	0xbdb056b0	-0.08610284
253	0xbd846736	-0.064649984
254	0x3d8b6c0b	0.06807717
255	0xbda5de66	-0.0809906
