space_robot_planning/weights/cvae_debug/1764554317.679578.pth (torch, 887951 bytes, 16 tensors)

encoder.0.weight f4 [256, 32]
0	0x3bb6c97f	0.0055782194
1	0xbe26679d	-0.16250463
2	0xbdd14499	-0.10218162
3	0xbe24cc92	-0.16093662
4	0x3e12ba2f	0.14328836
5	0xbe1ecfd0	-0.15508962
6	0x3ddf35b2	0.108989134
7	0xbe0bdfce	-0.13659593
8	0x3cd669df	0.02617353
9	0xbe0b961b	-0.1363148
10	0x3d59c92e	0.053170376
11	0xbd8a5177	-0.067538194
12	0xbd162467	-0.03665581
13	0x3e247608	0.1606065
14	0x3e14c98d	0.1453001
15	0x3de7faac	0.11327109
16	0xbc961999	-0.018322753
17	0x3e08dde9	0.13365902
18	0xbdfe130d	-0.124059774
19	0xbe2efb3e	-0.17088029
20	0x3e02e45d	0.12782426
21	0x3ad8f95c	0.0016553807
22	0x3d8a9972	0.067675486
23	0xbd8c9f18	-0.06866282
24	0x3dcdab7b	0.10042473
25	0x3e213e05	0.15746315
26	0x3e2de1dd	0.16980691
27	0x3e1b5a00	0.15171051
28	0xbd006df8	-0.031354874
29	0x3dee417c	0.11633584
30	0x3ceaa9c2	0.0286454
31	0x3e2d1b67	0.16904984
32	0x3bec0d2b	0.007203718
33	0xbd185ef8	-0.037199944
34	0xbe234435	-0.15943988
35	0x3d80fcd9	0.06298227
36	0x3e08200b	0.13293473
37	0xbdccfd2b	-0.100092255
38	0xbd805be2	-0.06267525
39	0xbc323cb7	-0.010878733
40	0x3b00acec	0.001963432
41	0xbdd8d817	-0.10588091
42	0xbd97c009	-0.07409675
43	0xbe0bb3a6	-0.13642749
44	0xbe039b6b	-0.12852256
45	0x3c23aa8d	0.009989393
46	0x3e0a2f86	0.13494691
47	0xbbbfded1	-0.005855419
48	0x3d9bb306	0.076025054
49	0x3d8761b3	0.066104315
50	0xbe24ffc8	-0.16113198
51	0x3bef002e	0.0072937226
52	0x3e1a2412	0.15052822
53	0x3da56cc2	0.080773845
54	0xbe214f3c	-0.15752882
55	0xbcebd0ee	-0.028786149
56	0x3dfc678f	0.1232444
57	0xbe2f2030	-0.17102122
58	0x3e0d5d07	0.13805018
59	0x3e2268de	0.15860316
60	0x3e2c610b	0.16833894
61	0xbd97ee1f	-0.07418465
62	0xbe33b4de	-0.17549464
63	0x3dc07aae	0.09398399
64	0xbe170c4f	-0.14750789
65	0xbe201e29	-0.15636505
66	0x3df95690	0.121747136
67	0x3dc61cb4	0.096734434
68	0xbdacccfa	-0.08437534
69	0x3d56c511	0.05243403
70	0xbc8664a2	-0.016405407
71	0x3d47a054	0.048736885
72	0x3d78f6d9	0.060782287
73	0x3da78e69	0.081814595
74	0xbe103d90	-0.14085984
75	0xbdcb5ff1	-0.09930409
76	0x3d4a8dd2	0.049451657
77	0x3df19cd7	0.11797493
78	0xbcbc0fe5	-0.022956798
79	0xbda3033e	-0.07959603
80	0xbc9b4eef	-0.018958537
81	0xbe112b24	-0.14176613
82	0x3ddd84a3	0.10816314
83	0xbe09231f	-0.13392304
84	0xbe088267	-0.13330995
85	0x3e094a95	0.13407357
86	0x3e192514	0.1495555
87	0xbcca5b0a	-0.024701614
88	0x3e17242d	0.14759894
89	0x3dc29a53	0.09502091
90	0x3e0682a0	0.13135767
91	0xbcdab582	-0.026697878
92	0xbd1b3e4c	-0.037901208
93	0x3dfcd9f8	0.12346262
94	0xbd90da0f	-0.070728414
95	0x3df59d9d	0.11992953
96	0xbd07ae7a	-0.03312538
97	0xbe0d8ba6	-0.13822803
98	0xbda0a607	-0.07844167
99	0x3e0a124a	0.13483539
100	0x3e0f34e9	0.13985027
101	0xbda20192	-0.07910456
102	0xbd80e069	-0.06292803
103	0xbe13f8c7	-0.1445037
104	0xbcc10077	-0.023559792
105	0x3e20cd4b	0.15703313
106	0xbc9acc90	-0.018896371
107	0x3e204171	0.15649964
108	0xbd715f7f	-0.058928963
109	0x3e1ca172	0.15295961
110	0x3d228596	0.03967818
111	0xbd199104	-0.037491813
112	0x3de66125	0.112489976
113	0x3daa9a3b	0.083301984
114	0x3d98f7a1	0.074691065
115	0xbe325769	-0.17416157
116	0x3d95de00	0.07317734
117	0x3d7c1471	0.061542932
118	0xbc120b1f	-0.008913784
119	0x3dc77fc8	0.09741169
120	0xbde4f2e6	-0.11179142
121	0x3e094ead	0.13408919
122	0xbd92143f	-0.07132768
123	0xbe0f0750	-0.13967633
124	0x3c8cc213	0.017182386
125	0xbcb2fb53	-0.021848356
126	0x3c1f3f5b	0.009719695
127	0x3e0d884a	0.13821521
128	0x3b1420b9	0.0022602512
129	0xbde9da6f	-0.11418616
130	0xbda3910d	-0.079866506
131	0x3e26ab3e	0.16276261
132	0x3e07411d	0.13208432
133	0xbc8b1651	-0.016978415
134	0x3e0c5a52	0.1370633
135	0x3d99e1ab	0.07513746
136	0x3e2ee67b	0.17080109
137	0x3b5e0703	0.003387869
138	0xbcac9b1a	-0.021070052
139	0xbdff8136	-0.12475817
140	0x3dc907c6	0.09815936
141	0x3e2882b7	0.16456114
142	0xbc6d99ae	-0.014501972
143	0xbdad1a62	-0.08452298
144	0xbd15cecc	-0.03657417
145	0x3d8bd30f	0.068273656
146	0x3e1fae09	0.15593733
147	0x3df4be03	0.11950304
148	0x3b8afeda	0.0042418065
149	0x3cfad989	0.030621307
150	0x3d8e3a77	0.06944745
151	0xbe344123	-0.17602973
152	0xbdbee796	-0.09321515
153	0x3e2d351a	0.16914788
154	0x3c46f63a	0.012143666
155	0xbe02590b	-0.1272928
156	0xbcdb1fc1	-0.02674854
157	0x3e04c8ab	0.12967174
158	0x3d41e148	0.047333986
159	0x3e0e1fbf	0.13879298
160	0xbd8ed36b	-0.069739185
161	0xbe19784a	-0.14987293
162	0x3d9bdac9	0.07610089
163	0x3df8f619	0.121563144
164	0x3e2ae53a	0.16689005
165	0x3b48d5bc	0.0030644974
166	0x3e038fa6	0.12847766
167	0x3d598985	0.053109664
168	0x3da17c7d	0.078850724
169	0x3dc57fab	0.09643491
170	0xbdacd7ae	-0.08439575
171	0xbe2e84a3	-0.17042784
172	0x3e176619	0.14785041
173	0x3e09f930	0.13473964
174	0x3d97414d	0.07385502
175	0x3dd540be	0.10412739
176	0xbb1b14dd	-0.0023663559
177	0x3cc6ae31	0.024252983
178	0x3def6acf	0.11690294
179	0x3e0b1d35	0.1358536
180	0xbdd45dcb	-0.10369452
181	0xbde54420	-0.111946344
182	0xbe18a540	-0.14906788
183	0xbd865ffe	-0.06561278
184	0xbaeae2f2	-0.0017920418
185	0x3e2223f9	0.15834035
186	0xbe3053b9	-0.17219438
187	0xbd59375d	-0.053031314
188	0x3e196890	0.14981294
189	0x3d998564	0.07496145
190	0x3e001705	0.12508781
191	0x3e2ec591	0.17067553
192	0x3e08518f	0.13312362
193	0xbe192305	-0.14954765
194	0x3d4f0306	0.050539993
195	0xbe317089	-0.17328085
196	0x3debe01f	0.11517357
197	0x3dc7d741	0.09757853
198	0xbe0b3b22	-0.13596776
199	0xbd1ddcf1	-0.038540784
200	0xbe25a06d	-0.16174479
201	0xbde6971b	-0.1125929
202	0x3e1e88ec	0.15481919
203	0xbdda4af5	-0.10658828
204	0x3e1a55a5	0.15071733
205	0x3ddc7a97	0.1076557
206	0xbe19eabf	-0.15030955
207	0x3e132324	0.14368874
208	0x3c677430	0.014126822
209	0xbde4e6f4	-0.11176863
210	0xbd0a694c	-0.033791825
211	0xbe24d03d	-0.16095062
212	0xbccb2cbe	-0.024801608
213	0x3d4e7fc4	0.050414816
214	0x3dd2833d	0.10278938
215	0xbcd2c8b0	-0.02573046
216	0x3cb93766	0.022609424
217	0x3dbe4ce8	0.092920125
218	0xbe02213a	-0.12707987
219	0xbd3a1185	-0.045426864
220	0xbe10735a	-0.14106503
221	0xbdcdf56d	-0.10056577
222	0x3d941d96	0.072322056
223	0xbd85708a	-0.06515606
224	0x3c0f6792	0.00875272
225	0x3e13ac5f	0.14421223
226	0x3dced7e9	0.10099775
227	0x3e30e5eb	0.17275207
228	0xbdfd1801	-0.12358094
229	0x3e14f48e	0.14546415
230	0xbdb0fcce	-0.08641969
231	0xbd463a78	-0.048395604
232	0x3a51b934	0.00080003147
233	0xbda7ec53	-0.08199372
234	0x3db0ded5	0.08636252
235	0xbdc744a3	-0.09729888
236	0xbdad4e66	-0.08462219
237	0xbd40b47a	-0.047047116
238	0xbd10cfaa	-0.035354294
239	0x3daae195	0.083438076
240	0xbe21e212	-0.15808895
241	0x3d3b53c8	0.045734197
242	0x3e16c623	0.1472402
243	0x3dae5100	0.08511543
244	0x3d3add52	0.045621224
245	0x3db15395	0.0865852
246	0xbcb24512	-0.02176145
247	0xbdd88d4e	-0.10573827
248	0xbd86b429	-0.065773316
249	0xbdcf8779	-0.10133261
250	0xbe0d831a	-0.13819543
251	0x3ac6ed1f	0.0015176869
252	0x3e1231e3	0.14276843
253	0x3c54a5ad	0.012978953
254	0x3b046ab3	0.00202052
255	0x3d01d002	0.031692512

encoder.0.bias f4 [256]
0	0xbcb9acc7	-0.022665394
1	0xbd7cbc18	-0.061702818
2	0xbd67405f	-0.056457873
3	0x3e2e817d	0.17041583
4	0xbdaf8b1c	-0.08571455
5	0x3e03442c	0.12818974
6	0x3dedb76e	0.11607252
7	0x3d067749	0.032828603
8	0xbe0a8bb0	-0.13529849
9	0xbd7db4f9	-0.061940167
10	0xbd09b7ba	-0.03362248
11	0x3bb958cf	0.0056563388
12	0x3d4a8b30	0.049449146
13	0xbe0cb7ad	-0.13741942
14	0xbdc377a9	-0.09544308
15	0xbe0fabf7	-0.14030443
16	0x3e1a4648	0.15065873
17	0xbde1a2b6	-0.11017363
18	0xbda56e81	-0.080777176
19	0x3ce34399	0.027742194
20	0x3c28409d	0.010269311
21	0x3e3454cb	0.17610471
22	0x3d303602	0.043020256
23	0x3de274f4	0.11057463
24	0x3e26dd4b	0.16295354
25	0xbe12c9be	-0.14334771
26	0x3e2f1714	0.17098647
27	0xbd278c20	-0.040905118
28	0xbd41aa16	-0.047281347
29	0x3db6e70b	0.08930787
30	0x3e139e74	0.14415914
31	0x3d40b726	0.047049664
32	0x3dbfb3f6	0.09360497
33	0xbe112ea7	-0.14177953
34	0xbd1ee857	-0.038795795
35	0xbd640470	-0.055668294
36	0xbdf20fab	-0.11819395
37	0x3c26a366	0.010170793
38	0x3de473c0	0.1115489
39	0x3e0b51a3	0.1360536
40	0xbc7c0b3a	-0.015383536
41	0x3d8a508a	0.06753643
42	0x3e12ed12	0.14348248
43	0x3dd3291c	0.10310575
44	0x3e164b3a	0.14677134
45	0xbd950746	-0.07276778
46	0x3e23569c	0.15951008
47	0xbe0f5e37	-0.14000784
48	0xbe2585b6	-0.16164288
49	0xbe182e69	-0.14861454
50	0xba789bda	-0.0009483673
51	0x3c595384	0.013264541
52	0x3e2184ad	0.15773268
53	0x3de7fd31	0.11327589
54	0xbe33d16e	-0.1756036
55	0x3e04c3a4	0.12965256
56	0xbe1cbe5b	-0.1530699
57	0xbb31f95d	-0.0027156689
58	0x3d3c70ae	0.046005897
59	0xb9ff49a3	-0.00048692254
60	0x3d15dd51	0.036588017
61	0x3e2e0609	0.1699449
62	0x3e1be4eb	0.15224044
63	0xbe1815c8	-0.14852059
64	0xbd23f07d	-0.04002427
65	0x3dae4d1f	0.085108034
66	0x3d92be24	0.07165173
67	0x3daf52e2	0.085607305
68	0xbd97bee9	-0.0740946
69	0xbe09bce7	-0.13450967
70	0x3bad4858	0.005288165
71	0x3e0b3fb0	0.13598514
72	0xbd196cb6	-0.03745719
73	0xbdf5b53f	-0.119974606
74	0xbdabe9cc	-0.083942026
75	0xbdd28096	-0.10278432
76	0xbe102244	-0.14075571
77	0xbdd4c06c	-0.10388264
78	0x3da33bd8	0.07970399
79	0x3d4e5f8c	0.05038409
80	0xbe2c1815	-0.16806062
81	0xbde31178	-0.11087316
82	0x3e12d7b2	0.14340094
83	0xbdec1733	-0.115278624
84	0xbd66b101	-0.056321148
85	0x3b2746bd	0.002552434
86	0xbda77941	-0.08177424
87	0xbda1ef1e	-0.07906936
88	0xbe00e89a	-0.1258873
89	0x3c84faa4	0.016232796
90	0xbc9b14b0	-0.018930763
91	0xbcfcda96	-0.030865949
92	0x3d120e81	0.035658363
93	0xbc5413d6	-0.012944182
94	0x3d574ca1	0.052563313
95	0x3e087efc	0.1332969
96	0x3c1579b4	0.009123255
97	0xbd84d0fa	-0.064851716
98	0x3d7303c9	0.05932978
99	0x3d2e4f0e	0.04255586
100	0xbd807ef0	-0.062742114
101	0xbe018290	-0.12647462
102	0xbdcb147a	-0.09916015
103	0x3e2ed791	0.1707442
104	0xbe1c156c	-0.15242547
105	0x3c8451bb	0.016152253
106	0x3d71d95d	0.059045184
107	0xbe089589	-0.13338293
108	0xbd9e67c4	-0.077346355
109	0xbdce2b44	-0.10066846
110	0xbdb02b6a	-0.086020306
111	0x3d75e84d	0.060035992
112	0x3d609c4a	0.05483655
113	0x3e31756f	0.17329954
114	0xbc93cf51	-0.018043192
115	0x3db945a7	0.09046488
116	0xbe019ddc	-0.12657875
117	0x3e1e2975	0.15445502
118	0x3dfc6905	0.123247184
119	0xbe2333cc	-0.15937728
120	0x3d6ff674	0.058584645
121	0xbce4adb9	-0.027914869
122	0xbd757335	-0.059924323
123	0x3d98e3cf	0.07465326
124	0x3cc69456	0.024240654
125	0x3db385cc	0.08765754
126	0xbdfeaaea	-0.12434943
127	0xbe22e5e6	-0.15908012
128	0xbe284fcb	-0.16436689
129	0xbdf30eae	-0.11868034
130	0x3cd2c62b	0.02572926
131	0x3cfcf9ec	0.03088089
132	0xbd33a2e3	-0.043856513
133	0x3e28e148	0.16492188
134	0x3c9b62bc	0.018967979
135	0xbc82df13	-0.01597551
136	0x3bec5ba8	0.0072130747
137	0xbe07ae82	-0.13250163
138	0x3dc72296	0.097233936
139	0x3d062258	0.032747597
140	0x3da5a4d1	0.08088077
141	0x3e0d48ed	0.1379735
142	0x3e21aff0	0.15789771
143	0xbda08879	-0.0783853
144	0x3d37de33	0.04488964
145	0x3daa74eb	0.083230816
146	0xbd4681b5	-0.048463542
147	0x3c2c52b6	0.010517767
148	0xbd834de6	-0.06411342
149	0xbd4e9895	-0.050438482
150	0x3d2bf33b	0.04198001
151	0xbde3bc34	-0.11119881
152	0xbe2f8a88	-0.17142689
153	0xbe1be535	-0.15224154
154	0xbd82820e	-0.06372462
155	0x3b8e254e	0.004337943
156	0xbdbee42c	-0.09320864
157	0x3e16f560	0.1474204
158	0xbd92609d	-0.07147334
159	0xbddafcc3	-0.10692742
160	0x3dcd832d	0.100347854
161	0x3da4d7d0	0.080489755
162	0xbd4666d7	-0.04843792
163	0x3ba571ed	0.0050489814
164	0xbe23985b	-0.15976088
165	0x3e2fc23b	0.17163937
166	0x3e2f01d5	0.17090543
167	0xbcdd0d2e	-0.026983824
168	0xbe34b646	-0.17647657
169	0xbdf53047	-0.11972099
170	0x3d954377	0.072882585
171	0x3d1d5dd1	0.03841955
172	0xbe1c558d	-0.1526701
173	0x3cded889	0.027202861
174	0xbd98d884	-0.07463172
175	0xbdfa565b	-0.12223502
176	0x3dd017b3	0.1016077
177	0xbe3500c9	-0.17676081
178	0xbcb87f49	-0.022521632
179	0x3dcf1467	0.10111313
180	0x3dfe7c7f	0.124260895
181	0x3d1b192c	0.037865803
182	0xbd405ec3	-0.04696537
183	0xbe07c590	-0.13258958
184	0xbddcb084	-0.10775855
185	0xbcb66d9e	-0.022269066
186	0x3de4cfcf	0.11172449
187	0x3dcd1c67	0.10015183
188	0xbd9460dc	-0.07245037
189	0x3d5d6882	0.054054745
190	0x3c18c767	0.009324885
191	0xbc9e67bc	-0.019336574
192	0xbd077aa3	-0.03307594
193	0xbdf48ee4	-0.11941317
194	0x3df74cdf	0.12075209
195	0xbd9a970b	-0.075483404
196	0xbdd936b9	-0.10606141
197	0x3d06c768	0.032905012
198	0x3d5dfe42	0.054197557
199	0xbc35d0dc	-0.011097159
200	0xbdaa63b1	-0.08319796
201	0x3e11a03e	0.14221284
202	0xbd4b32e2	-0.049609073
203	0xbde07cf1	-0.10961331
204	0xbd2046b0	-0.039129913
205	0xbe060c5b	-0.1309065
206	0x3da3bfd7	0.07995575
207	0x3c7f7fe8	0.01559446
208	0xbe02f2ed	-0.12787981
209	0x3dddfa04	0.10838702
210	0xbd11d392	-0.03560216
211	0xb99f058d	-0.0003033098
212	0x3d48e6fe	0.049048416
213	0x3d51c40d	0.05121236
214	0x3e064cf1	0.13115288
215	0x3d3b33c9	0.045703683
216	0xbdf9fdd0	-0.12206614
217	0x3df77bdf	0.120841734
218	0xbce76b70	-0.028249472
219	0xbe33f01f	-0.17572068
220	0x3e3169ab	0.17325465
221	0xbe0b70c6	-0.13617238
222	0x3dd09993	0.10185542
223	0xbbeacf25	-0.007165807
224	0x3de445fa	0.111461595
225	0x3dffd2ea	0.124914005
226	0x3e2093b5	0.15681346
227	0x3e2661ad	0.16248198
228	0xbc7c16e5	-0.015386318
229	0x3c1d8fef	0.009616836
230	0x3bb004bb	0.0053716577
231	0x3dd0012c	0.101564735
232	0x3cfab0d5	0.030601898
233	0xbc19dff2	-0.009391772
234	0xbe2f1d8d	-0.17101116
235	0xbcb19242	-0.021676186
236	0xbdfd5918	-0.12370509
237	0x3df48d47	0.11941009
238	0xbd0df92d	-0.03466146
239	0xbd3afe93	-0.045652937
240	0x3d68cb6c	0.056834623
241	0x3cf88ac0	0.030339599
242	0xbc064aea	-0.008196572
243	0x3d4de149	0.050263677
244	0x3e32cf4d	0.17461891
245	0x3d2b41ae	0.041810684
246	0xbccaa81d	-0.024738366
247	0xbd03d213	-0.032182764
248	0xbe08f358	-0.13374078
249	0xbd50af55	-0.05094846
250	0x3e219e8d	0.15783139
251	0xbb75ee50	-0.0037526079
252	0xbcac038f	-0.02099779
253	0x3d9e8a43	0.07741215
254	0x3cf02a45	0.02931703
255	0x3e11271d	0.14175077

encoder.2.weight f4 [256, 256]
0	0xbd7b5f44	-0.06137015
1	0xbd4e8816	-0.05042275
2	0xbc8e60a4	-0.017380066
3	0x3c86b1e4	0.016442247
4	0x3c2c7ba0	0.010527521
5	0xbd72d7b8	-0.059287757
6	0xbd077416	-0.033069693
7	0x3d4da3c0	0.050204992
8	0xbd553142	-0.05204893
9	0x3c5d5e38	0.013511233
10	0x3d4feff4	0.050765947
11	0x3d7033c0	0.058643103
12	0xbb5343e0	-0.0032236502
13	0x3abd1000	0.0014424324
14	0x3cda772c	0.026668154
15	0xbc700c50	-0.014651373
16	0x3bfd5100	0.007730603
17	0xbd4953ec	-0.0491523
18	0x3d030106	0.031983398
19	0x3d79efa4	0.061019555
20	0x3d0f3806	0.034965537
21	0xbd3c5276	-0.04597708
22	0x3cc6edf4	0.024283387
23	0x3ce6c6c4	0.02817095
24	0xbce697ec	-0.028148614
25	0xbcaa5934	-0.020794488
26	0x3c7f1f08	0.015571363
27	0xbd730a44	-0.059335962
28	0x3ca38d7c	0.019964926
29	0xbb857c40	-0.0040736496
30	0x3d616b48	0.055033952
31	0xbba832b0	-0.0051329955
32	0x3c3e43b0	0.011612818
33	0xbafbcd00	-0.0019210875
34	0x3c5e8ca0	0.013583332
35	0xbd01efb8	-0.031722754
36	0x3ba744f0	0.0051046535
37	0x3d796482	0.060886867
38	0x3ba29670	0.004961781
39	0xbc6afac8	-0.0143420175
40	0xbd10ec34	-0.03538151
41	0x3d18a31c	0.03726493
42	0xbb93fb00	-0.0045160055
43	0xbd5199f6	-0.05117222
44	0xbd522d50	-0.051312745
45	0xbc6a9ac0	-0.014319122
46	0xbd50d79e	-0.05098688
47	0x3d1415dc	0.03615366
48	0xbc91ff64	-0.017821975
49	0x3d6dd7aa	0.058067
50	0x3cea6524	0.02861268
51	0xbd05d41c	-0.032672986
52	0xbd43eb9a	-0.04783211
53	0xbd5da2c0	-0.05411029
54	0x3c38c938	0.011278443
55	0x3baf22a0	0.005344704
56	0x3d4c111c	0.049821004
57	0x3ce0ca44	0.027440198
58	0xbd2b7766	-0.041861914
59	0x3c182e00	0.009288311
60	0xbce70704	-0.028201587
61	0x3cd39e74	0.025832392
62	0x3d72558a	0.059163608
63	0xbbd21900	-0.0064116716
64	0xbd5768a0	-0.052590013
65	0xbd74cdce	-0.059766583
66	0x3c11ce48	0.008899279
67	0xbd293010	-0.0413056
68	0x3b6f7380	0.003653735
69	0xbc53a820	-0.012918502
70	0xbd4a22ba	-0.049349524
71	0xbcf68908	-0.030094638
72	0x3cedaf10	0.02901414
73	0xbbf48db0	-0.0074631795
74	0x3d0d9f6c	0.034575865
75	0xbd6b5d46	-0.057462
76	0xbb8b42a0	-0.0042498857
77	0x3d168c84	0.0367551
78	0x3bcd9b90	0.006274648
79	0xbc3e9698	-0.011632584
80	0x3bc50bd0	0.006013371
81	0x3d3369d0	0.043802083
82	0xbc6d3dc8	-0.014480062
83	0xbcf2bd4c	-0.02963128
84	0x3d6638d0	0.056206524
85	0xbc9f221c	-0.019425444
86	0xbd5f7b24	-0.054560795
87	0xbd26f4e6	-0.040760897
88	0xbc29e900	-0.010370493
89	0xbcf9dda4	-0.030501194
90	0x3caf1b68	0.021375373
91	0x3d5f6d4e	0.0545476
92	0x3c9feb7c	0.019521467
93	0xbd54a7ca	-0.05191783
94	0xbd292b30	-0.041300952
95	0xbd6d5358	-0.05794081
96	0xbd1774f6	-0.036976777
97	0x3bda4a10	0.006661661
98	0xbd61bef8	-0.055113763
99	0x3d0f3f28	0.03497234
100	0x3c9478b8	0.01812397
101	0xbd1b8ee8	-0.037978083
102	0x3d13022e	0.03589075
103	0xbcbe240c	-0.023210548
104	0xbcefc620	-0.029269278
105	0xbc2aa1e0	-0.010414571
106	0xbc5e7d10	-0.013579622
107	0xbc346a60	-0.01101169
108	0x3c3a3818	0.011365913
109	0xbc95ecc0	-0.018301368
110	0x3d0c569c	0.034262285
111	0x3c8a62ac	0.016892754
112	0x3cfa9b9c	0.030591778
113	0x3d752c88	0.05985692
114	0x3c8c9f2c	0.017165743
115	0x3c407f20	0.011749059
116	0x3cbe32c4	0.023217566
117	0x3d622318	0.05520925
118	0x3d5c4104	0.05377294
119	0x3d66dc3c	0.056362376
120	0xbd49a468	-0.049229056
121	0xbb160580	-0.0022891462
122	0x3cf4e780	0.029895544
123	0x3cbbd7cc	0.022930048
124	0xbaac7b80	-0.0013159364
125	0x3d5b231c	0.05350028
126	0xbd46d782	-0.048545368
127	0x3d4d6d44	0.050153032
128	0x3d7709f4	0.060312226
129	0x3cf9ca5c	0.030492
130	0xbc235d08	-0.009970911
131	0xb9e59a00	-0.00043793023
132	0xbcf88244	-0.030335553
133	0xbba669b0	-0.005078517
134	0x3d6122c0	0.05496478
135	0xbc92cbd4	-0.017919458
136	0xbd414f74	-0.047194913
137	0x3b299f40	0.0025882274
138	0x3bbfebd0	0.0058569685
139	0xbc2bfb80	-0.010496974
140	0x3d48c2f0	0.049014032
141	0x3d2286c6	0.03967931
142	0x3d7e511c	0.06208907
143	0x3ce163fc	0.027513497
144	0x3d2774f6	0.040883027
145	0x3ca62a94	0.020283975
146	0x397e2a00	0.00024238974
147	0x3c55e800	0.013055801
148	0xbd6426dc	-0.05570112
149	0xbd5b4cca	-0.05354003
150	0xbce6458c	-0.028109334
151	0x3b498840	0.0030751377
152	0xbd4c1f3e	-0.049834482
153	0x3cfa8a18	0.030583426
154	0x3d7e9a26	0.062158726
155	0x3c19e1f0	0.009392247
156	0x3bc780f0	0.0060883686
157	0x3c3a5358	0.01137241
158	0xbb2e2a00	-0.0026575327
159	0x3d61c2e8	0.055117518
160	0xbd0b4d6e	-0.03400939
161	0xbcb34ec8	-0.021888152
162	0x3cf42564	0.029802985
163	0xbd595686	-0.05306103
164	0xbd7c7566	-0.061635397
165	0xbd44992a	-0.04799763
166	0x3d7b0626	0.06128516
167	0xbcf6f7e4	-0.0301475
168	0x3d26f3ce	0.040759854
169	0x3d51b93a	0.051202036
170	0x3cdcdb80	0.026960135
171	0x3c95e3e8	0.01829715
172	0xbd1cd794	-0.03829153
173	0xbb9fd750	-0.004877962
174	0x3d349786	0.044089817
175	0x3d2a30dc	0.041550502
176	0x3c1c3b78	0.009535663
177	0x3b8b72b0	0.004255615
178	0x3cd8fc6c	0.026487552
179	0xbba47790	-0.005019136
180	0xbcfe1684	-0.031016596
181	0xbc85ec68	-0.016348079
182	0xbd073b84	-0.033015743
183	0x3d67166c	0.056417868
184	0xbd0d418a	-0.03448633
185	0xbd295a44	-0.04134585
186	0x3c126040	0.008934081
187	0xbce00654	-0.027346767
188	0x3c8e0838	0.017337903
189	0x3d3f0b26	0.04664149
190	0xbae74d40	-0.0017646924
191	0x3d476890	0.048683703
192	0x3d0de620	0.034643292
193	0x3d60ca54	0.054880455
194	0x3d390d80	0.04517889
195	0xbae4a900	-0.0017445385
196	0x3c992f14	0.018699206
197	0xbd59efc8	-0.05320719
198	0x3d3962e2	0.045260318
199	0x3cfdaa70	0.03096506
200	0xbca269a4	-0.019825764
201	0xbce1f6ac	-0.027583443
202	0x3d316c3e	0.04331612
203	0xbd167bde	-0.036739223
204	0xbc0387e0	-0.008028001
205	0x3d0bc3bc	0.034122214
206	0xb8ac1800	-8.2060695e-05
207	0xbd1b8448	-0.03796795
208	0xbd24e398	-0.040256113
209	0x3d6ea396	0.058261476
210	0x3d7e4616	0.062078558
211	0xbb7a99c0	-0.0038238615
212	0xbcf2ca78	-0.02963756
213	0x3cd6b74c	0.02621045
214	0x3bb5f060	0.0055523366
215	0xbabba300	-0.0014315546
216	0x3c0790b0	0.008274242
217	0x3bad5650	0.0052898303
218	0xbcd0e9dc	-0.025502138
219	0x3c83766c	0.016047679
220	0xbd5c3b92	-0.05376775
221	0x3cc458ec	0.023968183
222	0x3d182eee	0.03715413
223	0x3d41b2a0	0.04728949
224	0x3d13c016	0.03607186
225	0x3cb18d00	0.02167368
226	0xbd21c9bc	-0.03949903
227	0x3c43d038	0.011951499
228	0x3d005cfc	0.031338677
229	0xbc8fa514	-0.01753477
230	0x3d7a9556	0.061177574
231	0x3cc8babc	0.024503104
232	0xbd7596ba	-0.059958197
233	0xbcec39e4	-0.028836198
234	0x3c6e85f8	0.014558308
235	0x3d266484	0.040623203
236	0xbd474cee	-0.04865735
237	0x3d025a34	0.031824306
238	0xbd53099e	-0.051522844
239	0x3c467b60	0.012114376
240	0xbbfde000	-0.00774765
241	0x3d07c848	0.033149987
242	0x3cbed9bc	0.023297183
243	0xbd2a433a	-0.04156802
244	0xbd24eb38	-0.040263385
245	0xbd5c8f42	-0.05384756
246	0x3d5a2dd0	0.053266346
247	0xbc5b9d80	-0.01340425
248	0xbc937d60	-0.01800412
249	0xbd51f656	-0.051260315
250	0x3cceeda4	0.0252598
251	0x3ce3170c	0.02772095
252	0xbd7d8238	-0.061891764
253	0x3d13a414	0.03604515
254	0xbd0a3f6e	-0.033751898
255	0x3d52c9a0	0.051461816

encoder.2.bias f4 [256]
0	0xbc788b40	-0.015169919
1	0x3cbf11d8	0.023323938
2	0xbc6307f8	-0.01385688
3	0xbb6e9fa0	-0.0036411062
4	0xbd532c80	-0.05155611
5	0x3cf07d30	0.029356569
6	0x3d557ec8	0.05212286
7	0x3b92e620	0.0044829994
8	0xbcb34a1c	-0.021885924
9	0x3d02d3b0	0.031940162
10	0x3d42e84a	0.04758481
11	0xbb0d69a0	-0.002157785
12	0x3c243800	0.010023117
13	0xbd648830	-0.05579394
14	0x3d28a33a	0.04117129
15	0xbbd1da30	-0.006404184
16	0xbd154fbe	-0.036453
17	0x3bead1e0	0.0071661323
18	0xbcca3618	-0.024683997
19	0xbcfae328	-0.030625895
20	0x3d47461e	0.048650853
21	0x3ca9b424	0.02071578
22	0xbd330dcc	-0.04371433
23	0x3ba69cf0	0.0050846264
24	0xbd3c0658	-0.045904487
25	0xbceb7e60	-0.028746784
26	0xbd35a5ec	-0.04434769
27	0xbd6642d0	-0.05621606
28	0x3d42142e	0.047382526
29	0x3d58b356	0.052905403
30	0xbcb73dac	-0.022368275
31	0xbd390c36	-0.04517766
32	0x3ae33f00	0.0017337501
33	0xbd682aa8	-0.056681305
34	0x3d3626c4	0.044470564
35	0xbc8c0268	-0.017090991
36	0x3d636f4c	0.055526063
37	0xbd27bfb0	-0.04095429
38	0x3c7ab630	0.015302226
39	0xbc9c4e34	-0.019080259
40	0xbce16dc4	-0.02751816
41	0x3b5634a0	0.0032685176
42	0xbcd92e50	-0.026511341
43	0x3d4e3ff4	0.05035396
44	0xbd56b8ee	-0.052422456
45	0xbb08ed20	-0.002089329
46	0x3d144776	0.036200963
47	0xbd51540e	-0.05110555
48	0xbd31f0dc	-0.043442592
49	0xbd165538	-0.036702365
50	0x3d6142a8	0.05499521
51	0xbd615b9c	-0.055019006
52	0x3d2c00c8	0.041992933
53	0x3c085d60	0.008323044
54	0xbd6f34f8	-0.058400124
55	0xbbe83050	-0.0070858374
56	0xbb1b8fe0	-0.002373688
57	0xbcc4b2f0	-0.024011105
58	0x3ccfdd54	0.025374092
59	0x3d71ec6e	0.059063368
60	0xbbe01690	-0.006838627
61	0x3d22953c	0.039693102
62	0xbcc3e504	-0.023912914
63	0x3d435fb8	0.047698706
64	0x3c880ca4	0.01660759
65	0x3d40544e	0.0469554
66	0x3d6fd5f6	0.05855366
67	0x3c789118	0.015171312
68	0x3d73e798	0.059547037
69	0x3d3612ca	0.044451512
70	0x3cb5c2c8	0.022187606
71	0x3d46ee56	0.04856714
72	0xbd3e5a98	-0.046473116
73	0xbd7236ec	-0.05913441
74	0x3d7b0928	0.06128803
75	0xbd2f4192	-0.042787142
76	0x3ce25ae4	0.02763123
77	0xbc5d5fa0	-0.013511568
78	0xbd4d8bb8	-0.050182074
79	0x3c2c20f0	0.0105059
80	0xbc7b9190	-0.015354529
81	0x3d013fce	0.03155499
82	0x3ce7f224	0.028313704
83	0x3d37d4d6	0.04488071
84	0xbce9f1c8	-0.028557673
85	0xbb0b9280	-0.0021297038
86	0x3a84e8c0	0.0010140166
87	0xba087680	-0.0005205646
88	0x3c60d468	0.013722517
89	0x3d520be0	0.051280856
90	0xbc75a900	-0.014993906
91	0x3d189678	0.037252873
92	0xbd26d0ce	-0.040726475
93	0x3d5d0cb6	0.0539672
94	0x3cd4d6ac	0.02598127
95	0xbd4bacb2	-0.049725242
96	0x3938bc00	0.00017617643
97	0x3d32b132	0.043626018
98	0xbbad7a60	-0.0052941293
99	0x3c244eb0	0.010028526
100	0x3ae864c0	0.0017730221
101	0x3b0f6e60	0.0021885857
102	0xbd1e7376	-0.03868433
103	0x3cd3691c	0.025806956
104	0xbd75f8d2	-0.060051747
105	0x3cf2b278	0.029626116
106	0xbd7bb136	-0.0614483
107	0x3cc095d8	0.023508951
108	0x3c0437e8	0.00806997
109	0x3d7a0b32	0.061045833
110	0x3cc83aa4	0.024442025
111	0x3c30e7a8	0.010797419
112	0xbb9a9770	-0.00471776
113	0xbd00425a	-0.031313278
114	0xbd06f572	-0.03294892
115	0x3d780fbc	0.06056188
116	0x3a8ae540	0.0010596886
117	0x3a2b2d80	0.00065299124
118	0xbd004cae	-0.031323127
119	0xbd494902	-0.04914189
120	0xbc983fa4	-0.018585034
121	0x3b94de50	0.0045431033
122	0xbd5b1512	-0.05348689
123	0xbd614c92	-0.055004664
124	0xbc23cc38	-0.00999742
125	0x3ad0d5c0	0.0015932843
126	0xbd354baa	-0.044261612
127	0xbb8d53c0	-0.0043129623
128	0x3c0ad3f8	0.008473389
129	0x3d480166	0.04882946
130	0xbd24ac18	-0.040203184
131	0x3d391320	0.045184255
132	0x3d5d509e	0.05403196
133	0xbbbd8300	-0.0057834387
134	0x3d6e4f24	0.058180943
135	0xbbc822a0	-0.0061076432
136	0xbd3f85be	-0.046758406
137	0x3d073ca6	0.033016823
138	0x3d2efdb4	0.04272242
139	0x3d0e46e4	0.034735575
140	0xbaddd200	-0.0016923547
141	0xbd081d42	-0.033231027
142	0x3d165e7e	0.03671121
143	0x3c8da7cc	0.017291926
144	0x3c95e738	0.01829873
145	0xbd1d7c96	-0.038448893
146	0x3d55806c	0.052124426
147	0xbc676110	-0.014122263
148	0xbd3c2f9a	-0.045943834
149	0x3d76b1c2	0.060228117
150	0x3d6f5c0e	0.0584374
151	0x3d37b91c	0.04485427
152	0x3d1c814c	0.038209245
153	0x3c4045b0	0.011735365
154	0x3be91800	0.0071134567
155	0xbc9fdb00	-0.019513607
156	0x3d6ab3de	0.05730044
157	0xbbb605e0	-0.0055548996
158	0xbc0e0e58	-0.008670412
159	0x3ca9c628	0.020724371
160	0xbd4e51b0	-0.050370872
161	0x3d239dda	0.03994546
162	0xbc842ab4	-0.016133644
163	0x3d0db284	0.034594074
164	0xbca6b0e4	-0.02034802
165	0xbd27bdca	-0.04095248
166	0xbd0ead10	-0.034833014
167	0xbcff54e8	-0.031168416
168	0xbb4cace0	-0.0031230971
169	0x3d026eda	0.031843998
170	0xbd419ff2	-0.047271676
171	0x3d075fe2	0.033050425
172	0x3d3b88bc	0.045784697
173	0xbd09f8c2	-0.0336845
174	0x3d559c56	0.052151047
175	0x3cce1bf8	0.02515982
176	0xbc8e137c	-0.017343275
177	0x3bbbef40	0.005735308
178	0xbbe6e7c0	-0.0070466697
179	0x3d2506fc	0.040289864
180	0x3cc20a70	0.023686618
181	0xbceb05d8	-0.02868931
182	0xbcd342dc	-0.025788717
183	0xbcfeaacc	-0.031087302
184	0x3cc5113c	0.02405607
185	0x3d281192	0.04103238
186	0x3d2f2dba	0.042768218
187	0x3d71c0e8	0.05902186
188	0x3a7bb600	0.000960201
189	0x3c2eeac8	0.010676093
190	0xbcab451c	-0.020906977
191	0x3cdcf848	0.026973858
192	0x3ccfb684	0.025355585
193	0x3d1cb9a0	0.038262963
194	0x3d7e975e	0.062156074
195	0x3cc9f844	0.024654515
196	0x3d62023e	0.05517792
197	0xbd358474	-0.04431577
198	0xbc7d3fc8	-0.015457101
199	0xbc887938	-0.016659364
200	0x3cec3774	0.028835036
201	0x3c048800	0.008089066
202	0x3d1dd078	0.03852889
203	0xbce21bd0	-0.027601153
204	0x3d1c4856	0.038154922
205	0x3d59205e	0.053009383
206	0xbd09a134	-0.033601
207	0xbcfa06d8	-0.030520841
208	0xbc8c43a4	-0.017122097
209	0xbc041700	-0.008062124
210	0x3b754c00	0.0037429333
211	0x3c914204	0.017731674
212	0x3d1e72e6	0.038683794
213	0xba9c7940	-0.0011937991
214	0xbd363c96	-0.044491373
215	0xbcf694cc	-0.030100249
216	0xbcc909c4	-0.02454079
217	0xbd14edda	-0.036359645
218	0x3b621a00	0.003450036
219	0x3d3cce28	0.046095043
220	0x3cb86b8c	0.02251222
221	0xbd0f0a34	-0.03492184
222	0xbd3c7e04	-0.046018615
223	0x3d6d1e4e	0.05789023
224	0xbd4e37c6	-0.05034616
225	0x39cd0600	0.00039105117
226	0xbd7d6458	-0.061863273
227	0x3c312d48	0.010814019
228	0xbd6291d0	-0.05531484
229	0x3b2df460	0.0026543364
230	0xbc62f7a8	-0.013852991
231	0x3d4a75e4	0.049428836
232	0xbba0eb80	-0.0049108863
233	0xbaa15300	-0.0012308061
234	0xbd7d842a	-0.06189362
235	0xbd21d11e	-0.03950607
236	0xbd7a0ce8	-0.061047465
237	0x3d563056	0.05229219
238	0x3baf3a60	0.005347535
239	0xbceffe7c	-0.029296152
240	0xbd097f90	-0.03356892
241	0xbd5e226a	-0.05423204
242	0x3d1ba460	0.037998557
243	0xbd1236ce	-0.035696797
244	0x3d4a3490	0.049366534
245	0xbd3ef582	-0.046620853
246	0xbca3f6f4	-0.020015217
247	0x3d7cd8ee	0.061730318
248	0x3cccf5a0	0.025019467
249	0x3c3d7820	0.011564285
250	0xbc226be0	-0.009913415
251	0x3c3ecc68	0.011645414
252	0xbd6e22c2	-0.058138616
253	0x3d390a9a	0.045176126
254	0x3c3d88d0	0.011568263
255	0xbc6632f0	-0.01405023

fc_mu.weight f4 [8, 256]
0	0x3d0a29a0	0.033731103
1	0x3d3b9bd4	0.045802906
2	0x3a521b80	0.0008014962
3	0x3d2b7430	0.041858852
4	0xbd43abee	-0.047771387
5	0xbd7e66e4	-0.062109843
6	0xbc8392d8	-0.016061231
7	0xbd0a4ede	-0.03376662
8	0x3c73b640	0.014874995
9	0x3ac24d80	0.0014824122
10	0x3ccc0ee0	0.024909437
11	0xbd7d5de4	-0.06185712
12	0x3d1f9f7e	0.038970463
13	0xbd6240ae	-0.055237465
14	0xbc51bda8	-0.012801565
15	0x3cf915a0	0.03040582
16	0x3d6f777c	0.05846356
17	0xbd7fcc24	-0.062450543
18	0xbd032ac6	-0.032023214
19	0x3d4bc840	0.04975152
20	0x3b1a2180	0.0023518503
21	0x3d064a7e	0.032785885
22	0xbd70af64	-0.058761016
23	0xbae2af40	-0.001729466
24	0xbd442a64	-0.04789199
25	0x3d17a452	0.037021942
26	0xbadfe480	-0.0017081648
27	0xbd5b1d14	-0.053494528
28	0xb987f200	-0.0002592951
29	0x3d2da44c	0.042393014
30	0xbd2bb758	-0.041922897
31	0x3ca37484	0.01995302
32	0x3d52a894	0.0514303
33	0xbcd06490	-0.025438577
34	0xbcac586c	-0.021038257
35	0xbc73e1f0	-0.014885411
36	0xbd6d002a	-0.057861485
37	0xbc8b515c	-0.017006569
38	0xbd470564	-0.048589125
39	0x3d125f74	0.035735562
40	0x3cc4b7f4	0.024013497
41	0x3d1b5fe6	0.037933253
42	0xbd6f1a00	-0.058374405
43	0x3d471444	0.04860331
44	0xbd43e8e8	-0.04782954
45	0x3b14dd20	0.0022714809
46	0xbd10ec98	-0.035381883
47	0x3d05b518	0.032643408
48	0xbca10da0	-0.019659817
49	0x3afe5d40	0.0019406453
50	0xbd684e14	-0.056715086
51	0xbd74e808	-0.059791595
52	0x3d2b2e96	0.041792475
53	0x3cfb2038	0.030655012
54	0x3d364aaa	0.0445048
55	0xbc6c63e0	-0.014428109
56	0xbd711f8a	-0.05886797
57	0xbcbc12d0	-0.02295819
58	0x3ce5a8b8	0.028034553
59	0xbd3f6134	-0.04672356
60	0x3d76d7ec	0.060264513
61	0xbd7af0ae	-0.061264686
62	0x3c90e02c	0.017685018
63	0x3cad6144	0.021164544
64	0xbd4e3368	-0.050341994
65	0x3d2a77ee	0.04161828
66	0x3d37ffb8	0.044921607
67	0xbd39db54	-0.045375183
68	0x3d34beec	0.04412739
69	0x3c3a6840	0.011377394
70	0x3d353402	0.04423905
71	0xbc9bc974	-0.019016959
72	0xbd7b8b92	-0.0614124
73	0x3c8ad424	0.01694686
74	0xbd4ccf42	-0.050002344
75	0xbba93770	-0.0051640794
76	0xbcb77f40	-0.022399545
77	0x3cfb203c	0.030655019
78	0x3b202ea0	0.0024441853
79	0xbd35d7e0	-0.044395328
80	0x3d3694ee	0.044575624
81	0x3d204188	0.039124995
82	0x3d221812	0.039573736
83	0xbd004584	-0.031316295
84	0x3bd7eac0	0.0065892637
85	0x3d33e1b4	0.04391642
86	0x3d4e4bfc	0.050365433
87	0x3d45c86e	0.048286848
88	0xbd156544	-0.036473528
89	0x3d38dff6	0.04513546
90	0x3d0faf62	0.035079367
91	0x3cc12304	0.023576267
92	0x3d6cffae	0.057861023
93	0x3ce1657c	0.027514212
94	0x3d619b92	0.055080004
95	0xbcea3840	-0.028591275
96	0x3d50a904	0.050942436
97	0x3d662318	0.05618581
98	0x3d060666	0.032720946
99	0x3d4263fa	0.047458626
100	0x3c3b05b0	0.01141493
101	0xbd62d620	-0.055379987
102	0xb9bfb300	-0.00036563724
103	0xbc0244d8	-0.007950984
104	0x3c2b6258	0.010460459
105	0xbd115bde	-0.035488002
106	0xbc4288a8	-0.011873402
107	0xbd32497e	-0.04352712
108	0x3cec34b4	0.028833725
109	0xbd6b1f22	-0.057402737
110	0xbce1e9c8	-0.027577296
111	0xbd021066	-0.03175392
112	0xbca35d90	-0.019942075
113	0x3d784ac6	0.060618185
114	0x3c2e9b68	0.010657169
115	0x3d408e10	0.04701048
116	0x3d6e6ec0	0.05821109
117	0xbd7111fe	-0.05885505
118	0x3cb9da04	0.022686966
119	0xbcce004c	-0.025146626
120	0x3d3f855e	0.04675805
121	0x3ccf05ec	0.025271378
122	0x3cb433f8	0.021997437
123	0xbd2a77b2	-0.041618057
124	0x3bbd6930	0.0057803616
125	0xbcbbee04	-0.022940643
126	0x3cf08080	0.029358149
127	0x3d6e8c6c	0.058239385
128	0xbd3922c0	-0.045199156
129	0xbd71c66e	-0.059027128
130	0xbd62c858	-0.055366844
131	0x3d45a16a	0.04824964
132	0x3d014364	0.03155841
133	0x3ca5a9a8	0.0202225
134	0x3d290fdc	0.04127489
135	0x3c961eb8	0.018325195
136	0x3c5bbf58	0.013412319
137	0xbc5e5ca0	-0.013571888
138	0x3ce34234	0.027741529
139	0xbd0f83ec	-0.03503792
140	0xbd5b7c04	-0.053585067
141	0x3cb72b34	0.022359468
142	0x3d53f2b4	0.05174513
143	0x3bab9b90	0.0052370504
144	0x3d33ef98	0.043929666
145	0xbca33664	-0.019923396
146	0x3d7c3cd0	0.061581433
147	0xbd1ede40	-0.038786173
148	0x3d07e5ce	0.033178143
149	0xbd577a30	-0.05260676
150	0x3d1e4516	0.038640104
151	0x3c82ff64	0.01599092
152	0xbd15c374	-0.03656335
153	0x3ca83474	0.020532824
154	0x3d169450	0.036762536
155	0x3ca98a14	0.020695724
156	0x3c3124f8	0.010812037
157	0x3d0f3a04	0.034967437
158	0xbd00d576	-0.031453572
159	0xbd77274a	-0.060340203
160	0x3d7cb7aa	0.061698593
161	0x3d3f8ee0	0.046767116
162	0x3c1c4250	0.0095372945
163	0x3bb9ea90	0.005673714
164	0x3d2f36ee	0.042776994
165	0xbd6f2f3a	-0.058394648
166	0xbc38b098	-0.011272572
167	0xbbfba1b0	-0.0076791868
168	0xbb2990e0	-0.0025873706
169	0xbd062f82	-0.03276015
170	0xbcff2814	-0.03114704
171	0xbc840614	-0.01611618
172	0xbd54d18c	-0.051957652
173	0xbd5759d8	-0.052575916
174	0x3c44d868	0.012014486
175	0x3ce721b8	0.02821432
176	0xbc1e6088	-0.0096665695
177	0x3bc48e90	0.00599844
178	0xbd3f17e8	-0.04665366
179	0x3d4ccc14	0.04999931
180	0x3d4677ce	0.0484541
181	0x3c4de038	0.012565665
182	0x3d44773c	0.047965273
183	0xbd37efce	-0.04490643
184	0xbc371428	-0.011174239
185	0x3bd32ee0	0.006444797
186	0xbb6bd700	-0.0035986304
187	0x3d7a7b04	0.061152473
188	0xbc39e148	-0.011345215
189	0xbc9c5864	-0.019085117
190	0x3b9527c0	0.0045518577
191	0x3cedc7f8	0.029026017
192	0x3b8ee600	0.004360914
193	0x3d4b1c42	0.049587496
194	0xbcc9e690	-0.024646074
195	0xbc1922a8	-0.009346642
196	0x3d148c7a	0.03626678
197	0x3b2ec760	0.002666913
198	0xbd6dee00	-0.058088303
199	0xbce30858	-0.02771394
200	0x3c1fa550	0.009744003
201	0x3d1bd422	0.038044102
202	0x3d51c278	0.05121085
203	0xbcab75cc	-0.020930193
204	0x3d4fe5ca	0.050756253
205	0x3d66621e	0.056245916
206	0xbce02c30	-0.02736482
207	0x3bf56430	0.00748875
208	0xbc528458	-0.012848936
209	0x3d138728	0.036017567
210	0x3d3f97e0	0.0467757
211	0xbbe84be0	-0.007089123
212	0xbc04df08	-0.008109815
213	0x3ce4cab8	0.027928695
214	0xbd2d320e	-0.042284064
215	0x3d70f976	0.058831654
216	0x3ba727d0	0.0051011816
217	0x3cbf5a4c	0.023358487
218	0xbcdf2244	-0.027238019
219	0xbd2cab04	-0.04215528
220	0xbbe75fa0	-0.00706096
221	0xbd38beee	-0.04510396
222	0x3d13ffa6	0.036132477
223	0x3d591bfc	0.053005204
224	0x3d45f93a	0.048333384
225	0x3c8537a0	0.016261876
226	0xbc520220	-0.012817889
227	0x3d33cf1c	0.043898687
228	0x3c14d818	0.009084724
229	0xbd3369f6	-0.043802224
230	0x3d4358ce	0.047692113
231	0x3c84fee4	0.016234823
232	0x3c1adac0	0.009451568
233	0xbc44d398	-0.0120133385
234	0x3ce9b5f8	0.028529152
235	0x3cdfe2c8	0.027329817
236	0xbd2c49c6	-0.042062543
237	0xbc5f45c0	-0.01362747
238	0xbc0089b0	-0.007845327
239	0xbce2019c	-0.027588658
240	0x3d281882	0.041038997
241	0x3d7a63be	0.061130278
242	0xbcda9d80	-0.02668643
243	0xbd7dbed4	-0.061949566
244	0xbbf90470	-0.007599406
245	0xbd356f5c	-0.044295654
246	0xbd4cc506	-0.049992584
247	0x3c22cc40	0.009936392
248	0x3ce62e64	0.028098293
249	0x3c91a4fc	0.017778866
250	0xbcd25ddc	-0.025679521
251	0x3c2a7a28	0.010405101
252	0x3b560960	0.0032659397
253	0x3d2dff50	0.042479813
254	0xbd2b4f52	-0.041823693
255	0x3ccca25c	0.024979763

fc_mu.bias f4 [8]
0	0x3ce4150c	0.027842067
1	0xbd295228	-0.041338116
2	0xbd674f5c	-0.056472167
3	0xbbe511c0	-0.0069906414
4	0xbd4cac46	-0.04996898
5	0xbcb97bb4	-0.022641994
6	0xbc6626a8	-0.014047302
7	0xbd0b606a	-0.034027494

fc_logvar.weight f4 [8, 256]
0	0xbd1c3afe	-0.038142197
1	0xbb789cc0	-0.0037935227
2	0xbd7c1788	-0.06154588
3	0x3d163470	0.036671102
4	0xbd405326	-0.046954297
5	0x3d5525f4	0.052038148
6	0xbbedd160	-0.0072576255
7	0xbd5adeee	-0.05343526
8	0x3d7a7d06	0.061154388
9	0xbc928030	-0.01788339
10	0xbcbbab24	-0.022908755
11	0xbb941060	-0.0045185536
12	0xbb96bfa0	-0.00460048
13	0x3d72947a	0.05922363
14	0x3d19ab8e	0.037517123
15	0x3d7f6cc6	0.062359594
16	0xbd2f3e34	-0.04278393
17	0xbd6aea8a	-0.05735258
18	0x3cc023c4	0.023454554
19	0x3d3982f8	0.045290917
20	0xbd4ed236	-0.05049344
21	0xbd7a36a8	-0.06108728
22	0xbc6b58b0	-0.0143644065
23	0x3ccdd3fc	0.025125496
24	0x3d0f1098	0.034927934
25	0xbd53d9bc	-0.05172132
26	0x3d4e2552	0.05032856
27	0x3d227594	0.039662912
28	0x3bb404e0	0.005493745
29	0xbcc80350	-0.024415642
30	0xbcc366b0	-0.023852676
31	0x3d36a73a	0.044593073
32	0x3cf969d0	0.030445963
33	0xbd45c652	-0.048284836
34	0xbd3bd0f2	-0.045853563
35	0x3c819e98	0.015822694
36	0xbd782f98	-0.060592264
37	0xbd2cf07e	-0.04222154
38	0xbd4515f4	-0.04811664
39	0xbc9cb7a4	-0.019130535
40	0xbd653b02	-0.055964477
41	0xbca30298	-0.019898698
42	0x3a034400	0.0005007386
43	0xbc6e7488	-0.01455415
44	0x3cb68840	0.022281766
45	0xbd15e27a	-0.036592938
46	0x3bb6a1d0	0.005573489
47	0x3bce4180	0.0062944293
48	0xbd130b90	-0.0358997
49	0x3cdbf9d4	0.026852526
50	0xbd1b3d2a	-0.037900127
51	0xbd1fa29c	-0.038973436
52	0x3c9b522c	0.018960081
53	0xbd4d6c1a	-0.05015192
54	0xbd44cdb8	-0.04804775
55	0xbd091fd8	-0.033477634
56	0xbc40e240	-0.011772692
57	0x3c0ae780	0.008478045
58	0xbcb53820	-0.022121489
59	0xbd28ba62	-0.041193374
60	0x3cf996fc	0.030467503
61	0x3c2b57a8	0.010457911
62	0xbd0f930e	-0.03505235
63	0x3cc29cb0	0.023756355
64	0x3d36075e	0.04444062
65	0x3d14f700	0.03636837
66	0x3d431c10	0.047634184
67	0x3d0cc2cc	0.03436546
68	0xbd390c80	-0.045177937
69	0xbd714f3a	-0.058913447
70	0xbd7e9aea	-0.062159456
71	0x3d3dd5b4	0.04634638
72	0x3d31fad0	0.043452084
73	0x3c1d5120	0.009601861
74	0xbb63e660	-0.0034774765
75	0x3d7c0f8e	0.06153827
76	0x3d399ce8	0.045315653
77	0x3c0ff758	0.008786999
78	0xbcb36848	-0.021900311
79	0x3ad173c0	0.0015979931
80	0xbcf336a4	-0.02968914
81	0x3bb34aa0	0.0054715425
82	0xbd470632	-0.048589893
83	0xbc13ab98	-0.009013079
84	0xbd1fbcf4	-0.03899856
85	0x3c47a878	0.012186162
86	0x3aabb740	0.0013100877
87	0xbc870100	-0.016479969
88	0x3d699ce6	0.057034396
89	0xbca49db4	-0.02009473
90	0xbd5893b4	-0.052875236
91	0x3d5e594c	0.05428438
92	0xbcca8f88	-0.024726644
93	0x3cba52e4	0.022744603
94	0xbd39c552	-0.045354195
95	0x3ca40028	0.020019606
96	0x3d49919c	0.04921113
97	0x3c28d688	0.0103050545
98	0xbb8efaf0	-0.00436341
99	0x3b774160	0.0037728176
100	0xbcc53d6c	-0.02407714
101	0x3ba1e010	0.0049400404
102	0x3d31ade2	0.04337872
103	0xbca3548c	-0.019937776
104	0x3bc14190	0.0058977082
105	0x3c3741f0	0.011185154
106	0x3d0369d6	0.032083355
107	0xbb02e300	-0.0019971728
108	0x3ccb4e54	0.024817623
109	0x3d2c55a4	0.04207386
110	0x3c405d88	0.01174105
111	0xbd73da14	-0.059534147
112	0xbd6973a4	-0.05699505
113	0x3c7fdc88	0.015616544
114	0xbd6e5112	-0.058182783
115	0x3d3ec2f0	0.046572626
116	0x3bc5e020	0.0060386807
117	0xbd5e6816	-0.054298483
118	0x3d1fa8f6	0.038979493
119	0x3c8c70b8	0.017143592
120	0xbba534a0	-0.005041674
121	0xbd1ff2e0	-0.039049983
122	0xbcba2b00	-0.022725582
123	0xbcfa3d68	-0.030546859
124	0x3d2afb70	0.041743696
125	0xbd43380c	-0.047660872
126	0xbd7da126	-0.06192126
127	0xbd62c670	-0.055365026
128	0xbd7701f6	-0.060304604
129	0x3d7f8ffe	0.06239318
130	0xbc77cf58	-0.015125118
131	0xbc96b540	-0.018396974
132	0x3c938990	0.01800993
133	0xbd3eae60	-0.046553016
134	0xbcb6d6d8	-0.022319242
135	0x3d213504	0.0393572
136	0xbd01e75a	-0.031714775
137	0xbd14b168	-0.036302
138	0xbd2235da	-0.039602138
139	0x3d42a098	0.047516435
140	0x3d7789fc	0.060434327
141	0x3c97fba0	0.018552601
142	0xbb211440	-0.002457872
143	0x3d29daba	0.04146836
144	0xbd027e92	-0.031858988
145	0xbd52dd50	-0.05148059
146	0x3ca96350	0.020677239
147	0xbcd83edc	-0.026397161
148	0x3d1efc82	0.03881503
149	0xbd0b84d8	-0.034062237
150	0xbcdfce18	-0.027319953
151	0xbca88fa8	-0.020576313
152	0xbd466a0c	-0.048440978
153	0x3b947f80	0.0045318007
154	0xbcc37ae4	-0.02386231
155	0x3cafced8	0.021460935
156	0x3d39fbfa	0.04540632
157	0xbce243e0	-0.027620256
158	0xbd4f4254	-0.050600365
159	0x3b012b40	0.0019709617
160	0xbce619b4	-0.028088428
161	0xbd2c0c5e	-0.04200398
162	0x3baa5370	0.005197935
163	0xbd519098	-0.051163286
164	0xbcb50d8c	-0.022101186
165	0xbbe4e660	-0.0069854707
166	0xbd768494	-0.06018503
167	0xbb6542c0	-0.0034982413
168	0xbc852584	-0.01625324
169	0xbd44cc32	-0.0480463
170	0xbc575c80	-0.013144612
171	0xbac64000	-0.0015125275
172	0x3a1de900	0.00060237944
173	0x3d245a54	0.040125206
174	0xbcbf5d18	-0.02335982
175	0xbd2850fa	-0.04109285
176	0xbc136720	-0.008996755
177	0xbd7183b2	-0.058963485
178	0xbb8069b0	-0.003918849
179	0xbd5af2c6	-0.053454183
180	0x3bd7b900	0.006583333
181	0x3d7b6bea	0.06138221
182	0xbd53e05e	-0.051727645
183	0xbb5e7c40	-0.003394857
184	0xbd1df92e	-0.038567714
185	0xbc1d7150	-0.009609535
186	0x3bffb940	0.007804066
187	0x3ca01300	0.01954031
188	0x3c0383b0	0.008027002
189	0x3cbc8258	0.023011371
190	0x3d5b1658	0.053488106
191	0x3baafc00	0.005218029
192	0x3d6c0140	0.05761838
193	0xbb3aec80	-0.0028522313
194	0x3d4fb054	0.05070527
195	0x3b955c20	0.0045581013
196	0x3d4cafce	0.049972348
197	0x3d643b2e	0.0557205
198	0xbd41b318	-0.047289938
199	0xbd62d416	-0.055378042
200	0xbd3a690e	-0.045510344
201	0x3c9c1254	0.019051708
202	0xbc20fd20	-0.009825975
203	0xbd39ecc0	-0.045391798
204	0x3d0429fc	0.032266602
205	0xbcdf5820	-0.027263701
206	0x3ce3be24	0.027800627
207	0x3cc22f18	0.023704097
208	0x393fde00	0.00018297881
209	0xbd7fa33e	-0.06241154
210	0x3b922790	0.0044602826
211	0xbcac2db4	-0.021017887
212	0x3c80567c	0.015666239
213	0x3ca7422c	0.020417295
214	0x3d79646e	0.060886793
215	0x3d463fb0	0.04840058
216	0x3c3f6f58	0.011684261
217	0xbd054976	-0.03254076
218	0xbcbb44b8	-0.022859916
219	0x3d71efe0	0.059066653
220	0xbcd8e9dc	-0.0264787
221	0x3d26e236	0.040743075
222	0x3c37b0f0	0.011211619
223	0x3b5a46e0	0.0033306405
224	0xbd01e51e	-0.031712644
225	0xbd2f9670	-0.042868078
226	0xbd6563f0	-0.05600351
227	0xbd00e74e	-0.03147059
228	0xbd441d56	-0.04787954
229	0xbd26ad3c	-0.040692553
230	0xbd0fa230	-0.035066783
231	0xbd4891c8	-0.048967153
232	0xbd17e54c	-0.03708391
233	0x3d62ae34	0.055341914
234	0xbcf19668	-0.029490665
235	0x3d2faa8e	0.042887263
236	0x3b66bce0	0.0035207793
237	0xbc299af8	-0.010351889
238	0x3d243c74	0.040096715
239	0xbd471544	-0.048604265
240	0x3d227f7e	0.039672367
241	0xbc9d1a14	-0.019177474
242	0x3d3e8734	0.04651566
243	0x3cd40798	0.025882527
244	0x3cdecfcc	0.027198695
245	0x3d5a37ae	0.053275757
246	0xbcc095f0	-0.023508996
247	0x3d666ac0	0.05625415
248	0xbcf046b0	-0.029330581
249	0xbd506fa2	-0.05088771
250	0xbcf029b0	-0.029316753
251	0xbd614d02	-0.05500508
252	0x3b100860	0.0021977648
253	0x3cbc2178	0.022965178
254	0x3d3cb972	0.046075292
255	0xbd24302a	-0.040084995

fc_logvar.bias f4 [8]
0	0x3caf1bd0	0.021375567
1	0xb8725800	-5.7779253e-05
2	0x3d3ed6da	0.046591617
3	0xbce1a674	-0.027545191
4	0x3d6e78fe	0.058220856
5	0x3cd034b8	0.025415763
6	0x3d40d8e2	0.047081836
7	0x3bdfafb0	0.0068263635

decoder.0.weight f4 [256, 16]
0	0x3d6f72d0	0.058459103
1	0xbdb8ecc0	-0.090295315
2	0x3dae8828	0.085220635
3	0xbd2d604b	-0.04232816
4	0x3de310eb	0.11087211
5	0x3e008e2c	0.12554234
6	0x3ec7f696	0.39055318
7	0x3eae74cb	0.3407348
8	0xbe770752	-0.24123886
9	0xbe636e1b	-0.2220997
10	0x3d0bb230	0.03410548
11	0xbe7d7441	-0.24751379
12	0x3c08d485	0.00835145
13	0x3d4ac424	0.04950346
14	0xbc07389b	-0.008253242
15	0x3da63a32	0.081165686
16	0xbdaed320	-0.08536363
17	0x3e43ee50	0.19133878
18	0xbdde9540	-0.10868311
19	0x3c526301	0.012840987
20	0x3eaa6dd5	0.3328692
21	0x3c292774	0.010324348
22	0xbdc850ff	-0.09781074
23	0x3d1c648b	0.038181823
24	0xbe70d54c	-0.23518866
25	0xbc902ab9	-0.017598497
26	0xbeefa9d0	-0.46809244
27	0xbe8874aa	-0.26651508
28	0xbe8f2a24	-0.27961838
29	0x3e8b8332	0.27248532
30	0x3ea539a7	0.32270548
31	0x3e0f1a7d	0.13974948
32	0x3e09673c	0.13418287
33	0x3d8c7c0c	0.068595976
34	0x3e691056	0.22760138
35	0x3c4f7e4d	0.01266439
36	0xbd05e741	-0.032691244
37	0x3d31e16a	0.043427862
38	0xbe10ff17	-0.14159809
39	0xbf175b7a	-0.5912396
40	0xbd8ca0cf	-0.06866609
41	0xbe100671	-0.14064957
42	0x3e483dc0	0.19554806
43	0x3da6cf3b	0.08144995
44	0x3c019504	0.007909063
45	0xbd2c3be4	-0.042049304
46	0xbe272441	-0.16322424
47	0xbde148ec	-0.11000237
48	0x3e18b808	0.14913952
49	0x3e7c1260	0.24616385
50	0xbd3fab10	-0.046793997
51	0xbe26a8bf	-0.16275309
52	0x3d865532	0.065592185
53	0x3e48d0d4	0.19610912
54	0xbe366e74	-0.17815572
55	0xbf0f48e1	-0.5597058
56	0xbe3ba0f8	-0.18323123
57	0xbc183408	-0.009289749
58	0xbe8630a3	-0.26208982
59	0x3d6d28b0	0.05790013
60	0xbb6e2246	-0.0036336347
61	0x3e59f546	0.2128497
62	0xbdce4ecb	-0.10073622
63	0x3e2a3f93	0.16625814
64	0x3d666dc0	0.05625701
65	0x3dbf0964	0.09327963
66	0xbde34fd8	-0.11099213
67	0x3cbe3747	0.023219718
68	0xbe020b42	-0.12699607
69	0x3ec86883	0.39142236
70	0xbe750560	-0.23927832
71	0xbedca4a2	-0.43094355
72	0xbe8e960f	-0.2784886
73	0xbdaeb02e	-0.08529697
74	0x3c44a03b	0.012001093
75	0xbdf176a8	-0.1179021
76	0xbdddb9af	-0.10826432
77	0x3d6cf46c	0.057850286
78	0x3e3e8ab2	0.18607596
79	0x3e25236e	0.16126797
80	0x3d34f500	0.044178963
81	0x3de902ac	0.11377463
82	0xbe663f98	-0.22485197
83	0x3eb08182	0.34473807
84	0x3f6f2532	0.9341613
85	0xbd93b403	-0.07212069
86	0xbe28719c	-0.16449589
87	0x3e3a1b0a	0.18174377
88	0xbcbab495	-0.022791186
89	0xbc45ffe7	-0.012084938
90	0xbced3041	-0.028953673
91	0xbb997e35	-0.0046842345
92	0xbafb94c6	-0.0019194118
93	0x3ca96e5b	0.020682504
94	0x3d15de14	0.036588743
95	0x3d49b4c3	0.049244653
96	0xbe43e1a8	-0.1912905
97	0x3bccf580	0.006254852
98	0x3d92f508	0.07175642
99	0x3d121b7b	0.03567074
100	0xbeb75215	-0.3580481
101	0x3e874ce5	0.26425853
102	0x3ee9853a	0.45609456
103	0x3e3b5f5c	0.18298095
104	0x3e4ba4db	0.19887106
105	0xbd940339	-0.07227177
106	0xbb859fd8	-0.0040778928
107	0x3e1656c8	0.14681542
108	0xbe0a9648	-0.1353389
109	0xbd02fcc6	-0.031979345
110	0x3c8a5467	0.01688595
111	0x3e6cb18a	0.23114601
112	0xbe6a9764	-0.22909313
113	0xbdfc8854	-0.1233069
114	0xbd418970	-0.04725021
115	0x3e1117b3	0.14169197
116	0x3ebff164	0.37488854
117	0x3e71f6eb	0.23629348
118	0x3e187355	0.14887746
119	0xbeab4d6a	-0.334575
120	0x3d3d1d9d	0.04617082
121	0x3d8df059	0.06930608
122	0x3d560f50	0.052260697
123	0x3ca4eb76	0.020131808
124	0x3d35bff4	0.044372514
125	0xbcb12a1a	-0.02162652
126	0xbd4c8762	-0.0499338
127	0xbd6c8fdf	-0.057754394
128	0x3e51b7d6	0.20480284
129	0xbd84b4d8	-0.06479806
130	0xbdbcdb2c	-0.09221491
131	0xbd27619c	-0.040864572
132	0x3eb7ba41	0.35884288
133	0x3e2a6257	0.16639076
134	0x3e8f6688	0.28007913
135	0xbebd4496	-0.3696639
136	0xbe885599	-0.26627806
137	0xbe918873	-0.28424415
138	0xbe188876	-0.14895806
139	0xbea5a0d7	-0.32349274
140	0xbe04167a	-0.12899199
141	0xbd968ede	-0.073514685
142	0x3e30b109	0.17255034
143	0x3dbdb9d5	0.0926396
144	0x3e4ca590	0.19985032
145	0xbdec39b0	-0.115344405
146	0x3e577796	0.21041712
147	0xbde43459	-0.11142797
148	0x3eab5211	0.3346105
149	0x3eca436c	0.39504564
150	0x3cfd1adb	0.030896595
151	0xbf24bc34	-0.64349675
152	0xbd96fd17	-0.07372492
153	0xbdb50b69	-0.08840067
154	0xbe690bf7	-0.2275847
155	0xbcefa43b	-0.029253116
156	0xbe091833	-0.13388138
157	0x3e1b43de	0.15162608
158	0xbc26feb9	-0.010192567
159	0x3c84f3c1	0.016229512
160	0x3d2df910	0.042473853
161	0x3d3f9398	0.046771616
162	0xbdbf0cec	-0.093286365
163	0xbdbcaef5	-0.09213058
164	0x3e3954b2	0.18098715
165	0xbd5c6d76	-0.053815328
166	0xbf006301	-0.5015107
167	0x3e94c35c	0.29055297
168	0xbd0c0ca7	-0.034191754
169	0x3e059bc3	0.130477
170	0xbe24ff97	-0.16113125
171	0x3cb0c011	0.02157596
172	0x3e09aa13	0.13443784
173	0x3dc6d24e	0.09708081
174	0xbda8fb23	-0.082510255
175	0x3ec89a11	0.39180043
176	0x3e6699c6	0.22519597
177	0x3be97b00	0.0071252584
178	0xbe252d64	-0.16130596
179	0x3d1a18de	0.03762137
180	0x3eba05a0	0.36332417
181	0xbe5de093	-0.216677
182	0x3ebf7ee4	0.37401497
183	0x3ef7e932	0.484201
184	0xbe8e625e	-0.27809423
185	0x3d58771e	0.052847974
186	0xbeac790d	-0.33686104
187	0xbe04babe	-0.12961861
188	0xbe1a0f95	-0.15045007
189	0xbdca31f5	-0.0987281
190	0x3f0f5d2f	0.5600156
191	0x3e642109	0.22278227
192	0xbe14ac5e	-0.14518878
193	0x3d2c8198	0.042115778
194	0x3e731d96	0.23741755
195	0xbe2ba301	-0.167614
196	0xbe3bec46	-0.1835185
197	0x3ebc9195	0.3682982
198	0xbe67fee6	-0.2265583
199	0xbf1bfd3b	-0.60933274
200	0x3dca7116	0.09884851
201	0xbd6c6e06	-0.057722114
202	0x3de1ed03	0.110315345
203	0x3dde539b	0.1085579
204	0x3e1762ef	0.14783834
205	0xbc807ee6	-0.01568551
206	0xbe44e6d4	-0.19228679
207	0xbe6861bb	-0.22693531
208	0xbe13ed20	-0.14445925
209	0x3d904620	0.07044625
210	0xbe13d44a	-0.1443645
211	0x3e0a58ac	0.13510388
212	0xbe8bc4f3	-0.27298698
213	0xbe60c3f2	-0.21949747
214	0x3dd43135	0.10360948
215	0x3ee770d9	0.45203283
216	0x3d1de917	0.03855237
217	0x3def6eaf	0.11691033
218	0x3c748e22	0.014926465
219	0x3e58ab1d	0.21159025
220	0xbe1f0dbe	-0.15532586
221	0xbde9d17c	-0.11416909
222	0x3d9a7cad	0.07543311
223	0x3c5816a6	0.013188994
224	0xbc797ca0	-0.015227467
225	0xbe13f052	-0.14447144
226	0xbe3b5760	-0.1829505
227	0x3d41b06f	0.0472874
228	0x3e1a4051	0.15063597
229	0x3e94f9a7	0.2909672
230	0xbebfd8e5	-0.37470165
231	0x3d72b4f3	0.059254598
232	0xbd4c5162	-0.0498823
233	0xbd53e238	-0.05172941
234	0xbdb3f3e7	-0.08786755
235	0x3c30875c	0.01077446
236	0xbe009d66	-0.12560043
237	0x3d49dae6	0.049281023
238	0x3cd79e68	0.026320651
239	0x3a44364a	0.00074848963
240	0xbe222500	-0.15834427
241	0x3e110506	0.14162073
242	0x3e1a1112	0.15045574
243	0xbe39cc52	-0.18144348
244	0x3e9296fa	0.2863081
245	0xbe65a7f7	-0.22427355
246	0x3e44bde3	0.19213061
247	0xbea8564e	-0.32878345
248	0x3e6b126e	0.22956249
249	0x3e1ce5eb	0.15322082
250	0x3deb47b3	0.11488285
251	0x3d837e13	0.06420531
252	0x3d043b5f	0.032283183
253	0x3a6621e7	0.00087788556
254	0xbe752e63	-0.23943476
255	0xbdce53f7	-0.10074609
