space_robot_planning/weights/cvae_debug/1764304948.134495.pth (torch, 888079 bytes, 16 tensors)

encoder.0.weight f4 [256, 32]
0.042611096 0.17508218 0.04751092 0.061300885 0.16442397 -0.08048027 0.007347544 0.045095377
0.09515568 0.02337165 0.08384917 0.03012604 0.15657616 -0.024740832 -0.114518255 -0.015793879
0.11333007 0.03958394 -0.145544 -0.17016657 -0.030614754 -0.13396965 -0.038694896 -0.03758207
-0.05596014 0.11219299 -0.058866523 -0.14479885 -0.11966567 -0.13192584 0.10964456 -0.1694082
-0.041311137 -0.11501407 0.020705545 -0.013950058 -0.09437276 -0.14576344 0.035655938 -0.100566655
0.112556465 0.12238037 -0.042565092 -0.0674644 0.0014273872 0.101601236 -0.0369454 -0.024202658
-0.045744017 -0.07723414 0.0820419 0.15101418 0.1358017 -0.12380019 -0.1701839 -0.059904136
0.050590377 -0.027470093 0.0043090093 0.08269865 0.0748138 -0.1537464 -0.03249524 -0.08627799
-0.10862147 -0.038916502 0.12596808 0.04216278 0.028133105 -0.051801175 -0.16194402 -0.092451744
0.0120552415 0.048470855 -0.010301722 -0.12499902 -0.14087695 0.010494565 0.07095639 0.15817647
-0.11491262 0.14787978 -0.067171305 -0.017475305 0.05348332 0.12750667 0.11582638 0.08702776
-0.17135271 0.140768 0.006749523 0.009207442 0.028358359 0.022882704 0.025947012 0.020893246
-0.09177438 0.121627524 -0.029954545 -0.10481605 0.15446447 0.12535556 -0.100181244 -0.13756129
0.029777676 0.17300636 -0.07725785 0.13328357 -0.024347285 0.12637825 0.020414922 -0.17043608
-0.16190468 0.1394511 0.08066477 -0.02361667 -0.030879626 -0.14387706 0.14635369 0.07496946
-0.08261871 0.10542661 -0.12150846 -0.14403687 0.12692481 -0.08976935 0.09999 0.1324107
-0.070675395 -0.10596518 -0.0477481 -0.16518334 0.13974541 -0.12879395 -0.091962546 -0.09189753
-0.059673086 0.04602908 0.12876396 0.15340045 0.010037293 0.01591916 0.057183493 0.14724597
-0.07560643 -0.160662 -0.0007075191 -0.16389598 0.07311087 0.09074532 -0.03157528 -0.0919443
-0.00022047016 -0.056448475 -0.12385279 -0.11507474 0.08074078 -0.0557069 0.08086143 0.12162234
-0.07679461 -0.08276775 0.0775914 0.13369967 0.07323877 -0.16230717 0.105852015 0.09970703
-0.045759022 0.0005708158 0.017321195 -0.056035098 -0.037466314 0.07362886 0.035308607 -0.13576697
0.063846596 -0.11626922 -0.0041580605 -0.17110902 -0.012995433 0.05340429 0.07839661 -0.03477669
-0.097151965 0.026415622 -0.17358619 0.13418117 -0.094715975 0.03420111 0.07936677 -0.15322106
-0.023057297 -0.13264841 -0.16256545 0.12804438 -0.11999962 -0.1631404 0.11524364 0.13462558
0.10991706 0.1426292 0.03374087 -0.15665086 -0.10373206 0.02334025 0.053404693 -0.011375265
-0.042421665 0.12040836 0.10857169 -0.08867326 -0.17338805 0.068288855 -0.16634029 0.15544616
0.06359087 -0.024025178 -0.1451643 -0.16077158 -0.0068721487 0.1657335 0.058489267 0.086956955
0.17299715 0.015160601 -0.034094017 -0.14642616 0.16006792 0.14831589 -0.03387081 -0.032896414
0.043927427 -0.17365843 0.062641725 0.010483038 0.14481115 0.15707009 -0.0042888634 -0.07511276
0.16970095 -0.04048443 -0.018706858 0.11667082 -0.082296185 0.14731413 0.017278416 -0.05529108
-0.117276974 0.14985812 -0.09390478 0.105956964 0.10498093 0.08525871 0.002766245 -0.033586252
00000000: f988 2e3d be48 333e cf9a 423d a316 7b3d
00000010: c25e 283e d7d2 a4bd abc3 f03b eeb5 383d
00000020: fbe0 c23d e775 bf3c 1db9 ab3d e3ca f63c
00000030: 8055 203e 49ad cabc 8c88 eabd 2a62 81bc
00000040: 9919 e83d c522 223d 7d09 15be 2540 2ebe
00000050: cbcb fabc 572f 09be 8a7e 1ebd a8ef 19bd
00000060: 7636 65bd 70c5 e53d 061e 71bd 2646 14be
00000070: 4613 f5bd 9117 07be 548d e03d 5879 2dbe
00000080: de35 29bd 7f8c ebbd ad9e a93c c98e 64bc
00000090: 8146 c1bd 0343 15be f60b 123d e4f5 cdbd
000000a0: 0184 e63d 8fa2 fa3d bc58 2ebd c62a 8abd
000000b0: 2b17 bb3a 4f14 d03d 0f54 17bd a744 c6bc
000000c0: 145e 3bbd ef2c 9ebd 9505 a83d 76a3 1a3e
000000d0: 9a0f 0b3e f48a fdbd b044 2ebe 0a5e 75bd
000000e0: db37 4f3d f608 e1bc 9732 8d3b e95d a93d
000000f0: fa37 993d b26f 1dbe bb19 05bd 84b2 b0bd
00000100: ef74 debd e966 1fbd c7fd 003e e1b2 2c3d
00000110: 6677 e63c 782d 54bd a7d4 25be 5757 bdbd
00000120: 5983 453c 6089 463d 8ec8 28bc 7cff ffbd
00000130: 0c42 10be 65f1 2b3c 9551 913d 03f9 213e
00000140: 4f57 ebbd cc6d 173e 1c91 89bd 5f28 8fbc
00000150: 5311 5b3d 1c91 023e 6236 ed3d 9c3b b23d
00000160: 1677 2fbe 7d25 103e 1a2b dd3b d0da 163c
00000170: ca4f e83c 8274 bb3c d48e d43c 5028 ab3c
00000180: 35f4 bbbd da17 f93d 3c63 f5bc cca9 d6bd
00000190: ef2b 1e3e 355d 003e d32b cdbd dedc 0cbe
000001a0: 50f0 f33c 9428 313e 5d39 9ebd 7d7b 083e
000001b0: f573 c7bc 4d69 013e 323d a73c cc86 2ebe
000001c0: 57ca 25be 45cc 0e3e 9233 a53d bf77 c1bc
000001d0: 45f7 fcbc 8254 13be bedd 153e 9789 993d
000001e0: 0034 a9bd e8e9 d73d 6dd9 f8bd 677e 13be
000001f0: 94f8 013e fed8 b7bd 8fc7 cc3d ac96 073e
00000200: 43be 90bd 4604 d9bd 8393 43bd d225 29be
00000210: 6c19 0f3e 90e2 03be dc56 bcbd c634 bcbd
00000220: c46b 74bd fd88 3c3d b3da 033e 0215 1d3e
00000230: 7573 243c e668 823c 3d39 6a3d a6c7 163e
00000240: 8bd7 9abd 9484 24be ce78 39ba 59d4 27be
00000250: 27bb 953d afd8 b93d 1555 01bd 4b4d bcbd
00000260: 022e 67b9 8436 67bd 88a6 fdbd 4eac ebbd
00000270: 6c5b a53d eb2c 64bd ad9a a53d 2215 f93d
00000280: 7e46 9dbd 2382 a9bd 3de8 9e3d 91e8 083e
00000290: 35fe 953d da33 26be f1c8 d83d 3333 cc3d
000002a0: d06d 3bbd cda2 153a 2ee5 8d3c 0f85 65bd
000002b0: 4776 19bd baca 963d c29f 103d 7f06 0bbe
000002c0: 01c2 823d 8f1e eebd 5740 88bb 3437 2fbe
000002d0: ccea 54bc 75be 5a3d 678e a03d 0172 0ebd
000002e0: 9cf7 c6bd 9365 d83c 94c0 31be ca66 093e
000002f0: 73fa c1bd 7716 0c3d 0c8b a23d fbe5 1cbe
00000300: a8e2 bcbc fcd4 07be 8f77 26be 111e 033e
00000310: 5cc2 f5bd 470e 27be dc04 ec3d 4adb 093e
00000320: 321c e13d 640d 123e de33 0a3d 1569 20be
00000330: 7971 d4bd 0d34 bf3c e1be 5a3d 525f 3abc
00000340: 57c2 2dbd a998 f63d d65a de3d 539a b5bd
00000350: a38c 31be 07db 8b3d 1c55 2abe 472d 1f3e
00000360: ee3b 823d 73d0 c4bc f3a5 14be 4ea1 24be
00000370: c32f e1bb 0bb6 293e 7192 6f3d 7d16 b23d
00000380: 2a26 313e 2b64 783c 2ba6 0bbd bdf0 15be
00000390: d8e8 233e 1fe0 173e 1ebc 0abd 64be 06bd
000003a0: 3fed 333d 84d3 31be 4e4a 803d 0cc1 2b3c
000003b0: 6049 143e fbd6 203e 9889 8cbb b8d4 99bd
000003c0: 16c6 2d3e 00d3 25bd 203f 99bc 1cf1 ee3d
000003d0: e78a a8bd 84d9 163e 778b 8d3c e678 62bd
000003e0: e92e f0bd 6874 193e 2651 c0bd f7ff d83d
000003f0: 3e00 d73d 1e9c ae3d e449 353b bd91 09bd

encoder.0.bias f4 [256]
-0.0024888979 0.04365895 0.17391688 0.011924081 -0.007212105 0.023178637 0.17317241 -0.042720847
0.0053720796 0.101840146 0.080359206 0.04011849 -0.09694247 -0.08198742 -0.020730728 0.14641078
0.12196419 0.13915657 -0.1032041 0.05026728 0.16958275 0.14080144 0.1477528 -0.06660394
-0.12678221 -0.029074077 0.026019989 0.05860304 -0.023107115 0.12815931 0.0698011 -0.055003554
-0.04680812 -0.043651786 -0.12165393 0.026684813 -0.12015356 0.1250712 0.17498907 0.044589825
-0.036239292 0.10716723 -0.093344435 -0.104176216 0.052040864 -0.021005167 -0.03421993 -0.021166632
0.024489362 0.1749637 -0.06996031 -0.02607657 -0.10812061 -0.088399306 -0.019996446 0.025088038
0.054351985 0.15996704 -0.12003201 0.055228617 -0.1269186 0.06350105 0.11740468 -0.16249816
0.017327644 0.0062029413 0.05294348 0.10711282 0.11179371 0.1383484 -0.05682158 0.11346589
-0.13773333 0.044850633 0.013056419 -0.1345419 0.1397025 -0.16030069 -0.07402495 0.17112751
0.07436183 -0.042511504 0.016072743 -0.08091516 0.0072364453 -0.078173004 0.012230278 -0.14177597
-0.11522099 -0.1720044 0.0510899 0.14273162 -0.016901834 0.0956662 0.059149623 0.04133708
0.012467354 -0.14311354 -0.13521796 0.101474375 0.15778619 -0.124718085 -0.13782196 0.11746147
-0.15734012 0.017195513 0.112992644 0.0024309037 0.10652397 0.016925415 0.07627267 0.043601397
0.1597821 -0.15358321 -0.1259916 0.15542668 -0.10237271 0.08950511 -0.16995643 -0.031397272
-0.062294073 -0.086667806 -0.089361876 0.0138943195 0.06000807 0.05700357 -0.059267256 0.052832548
0.12444487 0.003306631 -0.090808965 0.11555089 -0.15849318 -0.06336125 0.043947045 0.13515164
-0.16845943 0.114497304 0.04252619 0.14881237 -0.16885838 0.14254686 0.15126403 0.16489607
-0.1588906 -0.11735334 -0.13878237 -0.103656694 0.04231398 -0.15031382 0.03605098 -0.06312355
-0.1208242 -0.054601517 0.16100538 -0.012001589 0.09456151 0.039932135 0.06444512 -0.13052002
0.044585254 0.16941589 -0.13378835 0.08334246 0.01968498 0.013214428 0.12883373 -0.14679699
0.09970893 -0.042926837 -0.1310046 -0.04265653 0.04130886 -0.010715583 -0.020191796 -0.05733244
0.05618078 0.16292463 0.00048896665 -0.04759753 0.10926391 0.080192216 -0.15826602 -0.0068475353
-0.022853201 -0.08486714 -0.0687221 0.15308438 -0.06218346 -0.14674748 -0.016180808 -0.075877205
-0.07320349 0.13669418 0.10833624 -0.01804492 -0.05269355 0.030018292 0.07877699 0.050661545
-0.075948134 -0.08109534 -0.012695494 0.08293141 0.01579196 0.16721606 0.07176234 0.13451946
0.018552346 0.029285653 -0.022665648 -0.014969085 -0.1389151 0.099834986 -0.018623302 0.08271599
0.06077902 0.037657112 0.15625495 -0.11901109 0.13039446 -0.06425053 -0.12948605 0.1417086
0.03141921 0.14414483 -0.11073132 -0.17370375 0.077419944 0.060117673 -0.12839924 -0.0027444342
-0.1201998 0.082032815 0.041242883 0.0152748395 0.1352162 0.1600691 -0.07550709 -0.081882074
-0.029822435 0.057515234 0.06367322 0.0028361878 0.023934184 0.12752664 0.123907074 -0.067728974
-0.12815356 -0.07710515 0.13156295 0.0648357 -0.08657982 0.051320214 -0.09267438 -0.12769262
00000000: c71c 23bb bad3 323d 4417 323e 385d 433c
00000010: 8653 ecbb 20e1 bd3c 1c54 313e 0efc 2ebd
00000020: 4508 b03b 9191 d03d 5e93 a43d 4953 243d
00000030: c689 c6bd 05e9 a7bd 7dd3 a9bc b5ec 153e
00000040: 5cc8 f93d 0f7f 0e3e ac5c d3bd 10e5 4d3d
00000050: 1aa7 2d3e 412e 103e 834c 173e a667 88bd
00000060: 32d3 01be c22c eebc df27 d53c be09 703d
00000070: 224b bdbc 323c 033e e1f3 8e3d 684b 61bd
00000080: dfb9 3fbd 37cc 32bd b225 f9bd 1c9a da3c
00000090: 1213 f6bd aa12 003e 5630 333e d2a3 363d
000000a0: a76f 14bd 7e7a db3d 5e2b bfbd 575a d5bd
000000b0: cd28 553d 0713 acbc 332a 0cbd a565 adbc
000000c0: ea9d c83c af29 333e 5a47 8fbd 889e d5bc
000000d0: 576e ddbd b20a b5bd 96cf a3bc 6e85 cd3c
000000e0: 30a0 5e3d 66ce 233e 58d3 f5bd 6737 623d
000000f0: f3f6 01be d70c 823d dd71 f03d eb65 26be
00000100: b4f2 8d3c 0b42 cb3b 43db 583d f75d db3d
00000110: 1af4 e43d 34ab 0d3e bfbd 68bd ce60 e83d
00000120: f709 0dbe 4cb5 373d 97ea 553c 5ac5 09be
00000130: 2c0e 0f3e dd25 24be 659a 97bd 0d3c 2f3e
00000140: 044b 983d 8b20 2ebd fcaa 833c d9b6 a5bd
00000150: b41f ed3b 2b19 a0bd 8161 483c b82d 11be
00000160: fbf8 ebbd ec21 30be a543 513d 3d28 123e
00000170: b775 8abc a4ec c33d e046 723d 1251 293d
00000180: df43 4c3c 5b8c 12be 9476 0abe ccd1 cf3d
00000190: b492 213e 326c ffbd 3321 0dbe a48f f03d
000001a0: c51d 21be 9bdd 8c3c b068 e73d cc4f 1f3b
000001b0: 3d29 da3d 2ba7 8a3c d834 9c3d 6197 323d
000001c0: eb9d 233e eb44 1dbe f103 01be 2c28 1f3e
000001d0: c9a8 d1bd 754e b73d 0f09 2ebe 6d9a 00bd
000001e0: 1228 7fbd e47e b1bd 5c03 b7bd 00a5 633c
000001f0: 06cb 753d 937c 693d 39c2 72bd f166 583d
00000200: f4dc fe3d 10b4 583b 0dfa b9bd f2a5 ec3d
00000210: 094c 22be 8bc3 81bd d101 343d 3165 0a3e
00000220: a180 2cbe 907d ea3d f12f 2e3d 4562 183e
00000230: 36e9 2cbe cef7 113e f5e4 1a3e 84da 283e
00000240: 38b4 22be f356 f0bd f71c 0ebe f649 d4bd
00000250: 6d51 2d3d deeb 19be 31aa 133d eb46 81bd
00000260: ae72 f7bd d7a5 5fbd 98de 243e 50a2 44bc
00000270: 77a9 c13d e18f 233d cefb 833d 0aa7 05be
00000280: 079f 363d 5c7b 2d3e d0ff 08be 74af aa3d
00000290: 6542 a13c 5481 583c fdec 033e f351 16be
000002a0: 3234 cc3d 0dd4 2fbd 1226 06be 9db8 2ebd
000002b0: 7b33 293d 6a90 2fbc 4469 a5bc 6cd5 6abd
000002c0: d11d 663d b7d5 263e ff2d 003a a1f5 42bd
000002d0: c2c5 df3d d13b a43d 7d10 22be 4a61 e0bb
000002e0: a336 bbbc d3ce adbd 2cbe 8cbd 27c2 1c3e
000002f0: 15b4 7ebd f944 16be 9d8d 84bc 8265 9bbd
00000300: b6eb 95bd 8ff9 0b3e 64df dd3d f1d2 93bc
00000310: 31d5 57bd ece8 f53c d555 a13d 7b82 4f3d
00000320: b28a 9bbd 5015 a6bd c300 50bc f1d7 a93d
00000330: 245e 813c b03a 2b3e 22f8 923d 78bf 093e
00000340: 17fb 973c 77e8 ef3c 4fad b9bc e540 75bc
00000350: c33f 0ebe 4976 cc3d e58f 98bc 0067 a93d
00000360: 6cf3 783d 583e 1a3d 4c01 203e 16bc f3bd
00000370: 2086 053e c895 83bd fe97 04be 0f1c 113e
00000380: 6eb1 003d b49a 133e 1ac7 e2bd 65df 31be
00000390: 598e 9e3d f33d 763d 177b 03be f7db 33bb
000003a0: 502b f6bd d200 a83d 4cee 283d 5243 7a3c
000003b0: 1e76 0a3e 27e9 233e 76a3 9abd cab1 a7bd
000003c0: 2e4e f4bc 1895 6b3d 1b67 823d 56df 393b
000003d0: 9f11 c43c 5896 023e fec2 fd3d 7db5 8abd
000003e0: b03a 03be 4ee9 9dbd 70b8 063e 94c8 843d
000003f0: c350 b1bd 2535 523d 11cc bdbd dbc1 02be

encoder.2.weight f4 [256, 256]
0.049986467 0.018672183 -0.049386926 -0.033184126 0.012071505 -0.012495033 -0.0058355257 0.04844591
0.049203157 -0.038316876 -0.062489897 0.026361272 -0.05904413 0.014923118 -0.042250298 0.05293888
-0.045465536 -0.016691089 0.042389743 0.00937584 -0.04451532 -0.0027083382 0.019540213 -0.053073764
-0.019056879 -0.022974655 0.039118007 0.0056430623 0.01979442 -0.061830766 -0.015749909 0.058333747
-0.020290531 0.035225064 -0.020501897 -0.05514314 0.01128687 -0.033968695 0.054020323 -0.045082636
0.029742405 0.051163204 -0.05683274 -0.06131436 -0.03495056 -0.030855231 0.047690064 -0.046353072
0.0056636482 -0.023546278 -0.050635442 0.060480364 -0.057553038 0.02740921 0.028606273 0.003210187
0.022611715 -0.053883947 0.05155485 0.059593514 -0.027342021 -0.04466193 -0.036897406 -0.046667524
0.007131979 -0.022217982 -0.056339502 -0.045976564 -0.024104476 0.008671299 -0.01956661 0.04388178
-0.057783104 -0.004194796 -0.024183728 -0.06247335 -0.024418384 0.041946143 0.011841811 0.059281126
0.018120721 -0.031299077 -0.02436176 0.052733257 0.043129034 0.030616395 0.025167175 -0.05577431
-0.038621165 0.021554753 -0.047228307 0.041418374 0.045523673 -0.038251787 0.062381558 0.056837022
0.010042936 -0.0135885775 -0.017418504 0.022010535 -0.0032825693 -0.062337726 -0.054486826 -0.002402559
0.05586184 -0.04659325 0.046111837 -0.05527349 0.013752498 -0.020560436 -0.036970705 -0.035946988
0.053937197 0.005422674 -0.0024879873 -0.03203004 -0.024235055 -0.019397937 -0.0006764829 0.04067138
0.044257678 0.015560009 0.036079064 0.029492646 0.048335217 -0.04869952 -0.037895873 0.006244831
0.025241196 -0.046444133 0.0101271495 0.02623526 -0.005448617 -0.04072298 -0.049554177 0.032219842
-0.053873852 0.04515122 0.04304664 -0.01396101 -0.04330063 0.056071624 0.01743631 -0.027953133
-0.04940656 0.04105664 -0.043092355 -0.033356294 0.0099824965 0.008077629 0.026982583 0.039015405
0.04944855 -0.0017835945 -0.040851027 -0.021277577 0.025740117 -0.047007687 -0.049943797 -0.06017544
0.037610613 -0.050244257 0.036999978 -0.04288069 0.022082798 0.04209888 -0.009539552 0.04787673
0.03231681 -0.021242425 -0.049656227 0.030830093 0.05089581 0.015385956 0.021957867 -0.043102026
-0.028376639 0.012075104 -0.048038214 0.030465461 -0.060944594 0.015419193 0.047475852 0.051713772
0.015672162 -0.04647184 -0.0015885383 -0.051848292 -0.058695547 -0.006331995 -0.03343098 -0.008324616
0.0538103 0.048246384 -0.02927623 0.018067956 0.04498397 0.040049806 0.049702063 -0.01642675
0.025128476 0.016919903 -0.017869681 -0.05123853 0.008937247 0.052742846 -0.00879471 -0.037281446
0.032463565 -0.031614043 0.05082933 0.037457936 0.041228093 -0.046261624 0.026244804 -0.020132348
-0.056459285 -0.04467427 0.024065748 0.045146227 -0.0108149275 -0.05346155 -0.027187862 -0.04170166
0.013094768 0.00063943863 0.025086872 0.01857806 -0.007934965 0.053385623 -0.048328117 -0.0029514953
-0.06176289 0.026218489 -0.015819445 0.009097286 0.026699997 -0.007210955 0.045387737 -0.016615823
-0.029166065 -0.039535694 -0.060146533 -0.05269791 0.05579496 -0.027596615 -0.048859954 -0.009671584
0.043752342 -0.014708549 0.04658533 0.011897944 0.039914303 0.022065759 0.022315823 0.050933994
00000000: 9cbe 4c3d 68f6 983c f249 4abd 14ec 07bd
00000010: 90c7 453c f8b7 4cbc f037 bfbb 386f 463d
00000020: 4089 493d 28f2 1cbd 68f5 7fbd 98f3 d73c
00000030: 42d8 71bd 1880 743c a60e 2dbd 70d6 583d
00000040: 123a 3abd c0bb 88bc dea0 2d3d 209d 193c
00000050: b255 36bd 607e 31bb cc12 a03c e063 59bd
00000060: 2c1d 9cbc 5835 bcbc 343a 203d 70e9 b83b
00000070: e827 a23c 4242 7dbd f405 81bc 5eef 6e3d
00000080: 5438 a6bc 2848 103d 98f3 a7bc c6dd 61bd
00000090: 90ec 383c c222 0bbd 6a44 5d3d 92a8 38bd
000000a0: 58a6 f33c 8290 513d 72c9 68bd c424 7bbd
000000b0: 5228 0fbd 1cc4 fcbc a856 433d b8dc 3dbd
000000c0: 2096 b93b 20e4 c0bc 1c67 4fbd 42ba 773d
000000d0: bcbc 6bbd 4889 e03c b457 ea3c 0062 523b
000000e0: 343c b93c 6ab5 5cbd 2e2b 533d 5418 743d
000000f0: 60fc dfbc 6eef 36bd bc21 17bd 7226 3fbd
00000100: 60b3 e93b 7c02 b6bc 40c4 66bd ec51 3cbd
00000110: c076 c5bc 1012 0e3c 284a a0bc 62bd 333d
00000120: faad 6cbd 8074 89bb f41c c6bc 0ee4 7fbd
00000130: 1009 c8bc b8cf 2b3d 2804 423c c4d0 723d
00000140: e871 943c 7633 00bd 5092 c7bc d4fe 573d
00000150: 12a8 303d 3ccf fa3c 642b ce3c 9a73 64bd
00000160: 3a31 1ebd 9893 b03c 7872 41bd 50a6 293d
00000170: 0877 3a3d e8ad 1cbd ce83 7f3d f0cd 683d
00000180: 208b 243c a0a2 5ebc 40b1 8ebc 704f b43c
00000190: 6020 57bb d855 7fbd 942d 5fbd 4074 1dbb
000001a0: 62cf 643d 90d8 3ebd c4df 3c3d 7466 62bd
000001b0: 2852 613c 5c6e a8bc 986e 17bd 263d 13bd
000001c0: 40ed 5c3d b0b0 b13b 800d 23bb ee31 03bd
000001d0: 9888 c6bc 6ce8 9ebc 0056 31ba 0897 263d
000001e0: 8a47 353d 68ef 7e3c a4c7 133d 909a f13c
000001f0: 26fb 453d 2679 47bd b438 1bbd 70a1 cc3b
00000200: a0c6 ce3c 343c 3ebd 58ec 253c 54eb d63c
00000210: 508a b2bb 24cd 26bd 52f9 4abd f4f8 033d
00000220: d4aa 5cbd 7cf0 383d ac51 303d b8bc 64bc
00000230: 005c 31bd 5cab 653d 98d6 8e3c f8fd e4bc
00000240: 885e 4abd 022b 283d 9c81 30bd 9ca0 08bd
00000250: a08d 233c 0858 043c 940a dd3c 9ece 1f3d
00000260: 908a 4a3d 80c7 e9ba 6853 27bd 504e aebc
00000270: f0dc d23c 228b 40bd de91 4cbd 867a 76bd
00000280: 960d 1a3d eccc 4dbd 4a8d 173d aaa3 2fbd
00000290: fce6 b43c e06f 2c3d c84b 1cbc 641a 443d
000002a0: a25e 043d 9804 aebc 5464 4bbd 648f fc3c
000002b0: 2078 503d 6015 7c3c fce0 b33c c08b 30bd
000002c0: 2076 e8bc a8d6 453c b8c3 44bd b492 f93c
000002d0: 0aa1 79bd c8a0 7c3c 0a76 423d d2d1 533d
000002e0: e862 803c 4259 3ebd 8036 d0ba e05e 54bd
000002f0: be6a 70bd a07c cfbb ecee 08bd f863 08bc
00000300: 3068 5c3d 009e 453d b4d4 efbc 4003 943c
00000310: 1c41 383d 440b 243d 6494 4b3d 6491 86bc
00000320: 3cda cd3c 9c9b 8a3c 7063 92bc 7edf 51bd
00000330: 886d 123c e208 583d b017 10bc 6eb4 18bd
00000340: 84f8 043d ba7d 01bd 6a32 503d 7e6d 193d
00000350: cade 283d d47c 3dbd 58ff d63c 98ec a4bc
00000360: da41 67bd 5efc 36bd 8825 c53c 40eb 383d
00000370: 1831 31bc 80fa 5abd 14b9 debc 5ccf 2abd
00000380: 708b 563c 00a0 273a fc82 cd3c 0431 983c
00000390: a801 02bc e2aa 5a3d b4f3 45bd e06d 41bb
000003a0: 16fb 7cbd 28c8 d63c c897 81bc c80c 153c
000003b0: f4b9 da3c e049 ecbb 7ee8 393d e81d 88bc
000003c0: aced eebc 2ef0 21bd 365c 76bd c4d9 57bd
000003d0: 4289 643d 4c12 e2bc 6021 48bd 9075 1ebc
000003e0: a835 333d 20fc 70bc 42d0 3e3d 98ef 423c
000003f0: 2e7d 233d 40c3 b43c accf b63c 2aa0 503d

encoder.2.bias f4 [256]
-0.023851268 0.057786167 -0.0043736473 -0.05375635 0.017404594 -0.059854202 -0.031665504 0.055533297
-0.021617502 -0.054140083 0.019147933 -0.044387437 0.035751127 -0.026994117 0.007839881 -0.01635021
-0.0058036894 0.012473471 0.011624567 0.024639457 -0.008187622 0.03291376 -0.047508083 0.053380713
-0.03533379 -0.043816693 -0.02250491 -0.0038153902 0.059764013 -0.008959331 -0.01735621 0.007137865
0.050533712 0.019524038 0.053381585 -0.04698956 0.045167625 0.0156246945 -0.04110749 -0.012423709
0.0077290908 0.055364206 -0.0058528185 -0.055470027 0.058367647 -0.03189843 0.01852268 -0.027514413
-0.061257936 -0.062266327 0.031486377 -0.04671614 0.022077851 0.00886412 -0.0016119555 -0.046716854
-0.031771436 0.03759952 -0.041014783 0.061453708 -0.054934673 0.0013573915 0.0585332 -0.025219746
-0.027667403 -0.028991036 -0.037913598 0.017080426 0.04351408 -0.041522443 -0.05585485 -0.015154853
0.057650372 -0.05289612 -0.038455926 0.045055628 -0.03569617 0.013805263 -0.01999005 0.023039937
-0.040434487 0.007096477 0.0036365092 0.04296346 0.010126255 -0.043266393 0.010985285 0.047334775
0.057672717 -0.00893569 -0.0046988353 -0.058886506 -0.0070617944 -0.047979757 0.0040016994 -0.059510365
-0.039530516 -0.0050773695 0.05927419 0.058318704 0.023056984 -0.00845255 -0.045765102 -0.054421633
0.024460763 0.037878424 0.05640486 -0.02036661 0.042237364 -0.04729125 0.056059286 0.024460375
-0.04084716 -0.021195643 0.048311606 0.026378952 0.060538203 -0.008541688 0.015011497 0.031348623
-0.00014137477 0.03206133 0.046478547 -0.015828393 -0.030404516 0.045343503 -0.021257967 0.005749941
0.014744669 0.002402015 -0.052456193 -0.009766236 0.027450554 0.029591173 0.05165574 -0.02104786
0.019233644 -0.030053608 0.009955034 -0.045486763 0.030978702 -0.037075885 -0.00792104 -0.04355509
-0.05391354 0.05556885 -0.055244334 0.057251252 0.034212746 0.0066145733 0.008265458 -0.05883553
-0.0118177235 0.040449344 0.031109601 0.005315125 0.049853712 0.03036698 -0.021673188 -0.005558431
0.0379313 0.04707654 0.045195423 -0.019042544 0.029479533 0.03847318 0.024545789 -0.032085747
0.05701348 -0.01412268 -0.009810694 0.031936347 0.05221338 0.0055844337 -0.007557094 0.005935423
-0.05858194 0.05095449 -0.058553785 -0.017055787 0.0054894164 -0.048898496 -0.025342114 0.014194824
-0.0039677694 -0.03072507 -0.0036024004 0.020195566 -0.027001321 -0.033344097 0.018682659 0.0063269585
-0.040457316 -0.048473187 0.0392884 -0.049916342 -0.061254464 -0.025735512 0.012610689 0.033207327
0.030759111 0.027031377 0.020789638 -0.04189671 -0.03495636 -0.005849339 -0.055482 -0.042048007
-0.056141213 0.047283806 -0.04493442 -0.018174402 -0.012714483 -0.052531168 -0.05851361 -0.028740227
-0.017548025 -0.00672888 -0.030309588 0.04734367 -0.045387045 -0.021428466 -0.0036161914 -0.03303004
0.017260209 -0.02522438 -0.006494306 -0.020797446 0.05464726 0.022985406 -0.036625057 -0.036874123
-0.028014697 0.0018466935 -0.040194422 -0.007883623 -0.055904604 0.035376087 -0.00801944 -0.04529036
0.048734277 0.0077605844 -0.016434364 -0.04206104 0.061404787 -0.027542248 -0.0075517967 0.05723425
-0.060647085 0.0453934 0.057858363 0.06173271 0.020879269 -0.008344166 -0.058065116 -0.01553046
00000000: bc63 c3bc 30b1 6c3d d050 8fbb 9e2f 5cbd
00000010: 1494 8e3c ae29 75bd b0b3 01bd e276 633d
00000020: 3017 b1bc fec1 5dbd 20dc 9c3c 9acf 35bd
00000030: c66f 123d c422 ddbc d872 003c e0f0 85bc
00000040: e02c bebb 885d 4c3c f874 3e3c b0d8 c93c
00000050: 6025 06bc 94d0 063d d697 42bd bca5 5a3d
00000060: 2aba 10bd 2279 33bd 385c b8bc a00b 7abb
00000070: 1ccb 743d 28ca 12bc 9c2e 8ebc c0e4 e93b
00000080: 70fc 4e3d e0f0 9f3c a6a6 5a3d 2078 40bd
00000090: b001 393d b8fe 7f3c 5460 28bd d08c 4bbc
000000a0: 5044 fd3b 94c5 623d 00c9 bfbb 8a34 63bd
000000b0: ea12 6f3d eea7 02bd e0bc 973c e865 e1bc
000000c0: 9ae9 7abd fa0a 7fbd dcf7 003d 6c59 3fbd
000000d0: 9cdc b43c d03a 113c 4048 d3ba 2c5a 3fbd
000000e0: c422 02bd f401 1a3d 1eff 27bd e2b6 7b3d
000000f0: 2e03 61bd 80ea b13a 82c0 6f3d a499 cebc
00000100: c0a6 e2bc 9c7e edbc 4a4b 1bbd 40ec 8b3c
00000110: d23b 323d 7013 2abd 0ec8 64bd 104c 78bc
00000120: cc22 6c3d 9aa9 58bd f683 1dbd 408c 383d
00000130: 2636 12bd 782f 623c 2cc2 a3bc 40be bc3c
00000140: a29e 25bd 9089 e83b 8052 6e3b 74fa 2f3d
00000150: 98e8 253c 1a38 31bd a0fb 333c 1ce2 413d
00000160: 3a3a 6c3d 0067 12bc b0f8 99bb fa32 71bd
00000170: a066 e7bb 6c86 44bd b020 833b 24c1 73bd
00000180: c0ea 21bd 1060 a6bb 7ec9 723d 98df 6e3d
00000190: 00e2 bc3c 907c 0abc 3074 3bbd 38e9 5ebd
000001a0: f061 c83c 6826 1b3d c808 673d e0d7 a6bc
000001b0: 1601 2d3d 78b4 41bd 6c9e 653d 2061 c83c
000001c0: 5a4f 27bd 7ca2 adbc 64e2 453d ac18 d83c
000001d0: e8f6 773d 70f2 0bbc c8f2 753c 6a67 003d
000001e0: 003e 14b9 be52 033d 4a60 3e3d 8caa 81bc
000001f0: e412 f9bc 1cba 393d 3025 aebc 006a bc3b
00000200: a093 713c 206b 1d3b 4edc 56bd 9002 20bc
00000210: fcdf e03c 3069 f23c f894 533d 906c acbc
00000220: e08f 9d3c fc32 f6bc 701a 233c 5450 3abd
00000230: 0cc7 fd3c e2dc 17bd 40c7 01bc d266 32bd
00000240: 72d4 5cbd 2a9c 633d e247 62bd 4a80 6a3d
00000250: aa22 0c3d 10bf d83b d86b 073c 86fd 70bd
00000260: 209f 41bc 36ae 253d 90d9 fe3c 802a ae3b
00000270: 6833 4c3d 2cc4 f83c f88b b1bc 8023 b6bb
00000280: da5d 1b3d 54d3 403d d61e 393d 1cff 9bbc
00000290: 107f f13c 0e96 1d3d 4014 c93c 586c 03bd
000002a0: f886 693d d062 67bc 08bd 20bc b0cf 023d
000002b0: b2dd 553d a0fd b63b 80a1 f7bb f07d c23b
000002c0: 9ef3 6fbd a8b5 503d 18d6 6fbd 94b8 8bbc
000002d0: 90e0 b33b ca49 48bd 449a cfbc 6891 683c
000002e0: 1004 82bb 24b3 fbbc 4016 6cbb 2c71 a53c
000002f0: e031 ddbc d293 08bd 600c 993c 6052 cf3b
00000300: 92b6 25bd d28b 46bd e0ec 203d 1475 4cbd
00000310: f6e5 7abd 48d3 d2bc 109d 4e3c 6804 083d
00000320: 88fa fb3c e870 dd3c 084f aa3c e29b 2bbd
00000330: 662e 0fbd d0ab bfbb 1841 63bd 883a 2cbd
00000340: 54f4 65bd aaac 413d 280d 38bd 7ce2 94bc
00000350: 6850 50bc ec2a 57bd f8ab 6fbd a070 ebbc
00000360: e0c0 8fbc f07d dcbb d04b f8bc 70eb 413d
00000370: c4e7 39bd c08a afbc a0fd 6cbb 824a 07bd
00000380: 4865 8d3c 5ca3 cebc 30ce d4bb 685f aabc
00000390: ced5 5f3d e44b bc3c 2804 16bd 5209 17bd
000003a0: 147f e5bc c00c f23a e8a2 24bd 502a 01bc
000003b0: 3afc 64bd 84e6 103d f863 03bc 6282 39bd
000003c0: 989d 473d 804c fe3b 5ca1 86bc 3248 2cbd
000003d0: 9683 7b3d 48a0 e1bc 1075 f7bb 766e 6a3d
000003e0: 1469 78bd 6eee 393d e4fc 6c3d 70db 7c3d
000003f0: 000b ab3c f8b5 08bc b0d5 6dbd 7873 7ebc

fc_mu.weight f4 [8, 256]
-0.01288259 0.021853454 -0.04329668 -0.0025058016 0.0091407 -0.05623752 0.0522891 -0.042455174
-0.04521507 0.011361666 -0.032814525 0.021930113 0.03502334 0.008284442 -0.020858295 0.06121611
0.011581376 0.048872836 -0.061133094 -0.044043176 0.02165164 -0.029039793 -0.019054122 -0.04224883
-0.050977007 0.050460763 -0.047435395 0.009466812 0.050299495 0.041459143 0.025474079 -0.022332236
-0.033823706 0.036269322 0.024405524 -0.061585262 0.0066291243 -0.009162977 -0.03641648 -0.024781108
-0.04640524 0.0058777183 0.051295444 0.004830681 0.04635255 0.044640183 -0.039281763 -0.035899006
-0.01893542 -0.028112844 0.055744193 0.015387535 0.016797706 -0.05136522 0.008664422 -0.04579991
-0.0097672045 0.023059644 0.01859732 -0.0048130974 0.018485785 0.059235945 -0.03001067 0.023353241
0.040954046 0.024552666 -0.036706313 0.036688253 0.027829908 0.043787703 0.02580686 -0.060934164
0.020530194 0.062201045 -0.022755116 -0.026212752 -0.03768888 -0.051584654 -0.03593064 0.014980517
-0.020783186 -6.198883e-06 -0.032153986 -0.008044273 -0.0081954375 -0.01229158 0.0073923096 -0.06118741
-0.051417693 0.048695616 0.060225718 0.037246153 0.049705684 -0.04454056 -0.05758491 -0.036136404
0.061655708 0.0031357333 0.021078601 -0.04690115 -0.04418292 0.035052992 0.042330123 -0.046384722
-0.035676807 -0.059639342 0.036367707 0.025117561 0.015263669 -0.057231322 0.01435224 -0.010301985
-0.0504207 0.03151072 0.0036184713 0.04362928 -0.05864907 0.015604295 -0.013430551 0.00034934282
-0.008471914 -0.03990618 0.002281174 -0.0052389205 0.019217364 -0.01293689 0.023863658 -0.034141205
0.028025053 0.011103205 0.019657418 -0.028163329 0.005950004 0.008913018 0.001903683 -0.052039117
-0.05533181 0.001256004 0.046464458 -0.055702597 0.020321332 0.036313623 0.04560457 -0.054013684
0.015610024 0.058437712 -0.03736642 0.05229497 -0.052544728 -0.038633168 0.05421701 0.0501976
0.011282131 -0.029259428 0.018272676 -0.00429029 -0.013248526 -0.027988702 0.019247532 -0.043705903
-0.05947367 -0.0022082329 -0.031043828 -0.03492923 -0.061542585 0.05875154 0.058308624 0.04607956
-0.0016358942 0.0144770965 -0.04231845 -0.044523157 -0.00589595 -0.042619362 0.018990703 0.016824499
0.035216764 0.0133308545 0.05229091 -0.022813395 -0.0064067915 0.025926486 0.046896294 -0.056972496
0.04266545 -0.013574928 -0.039371096 0.044743083 0.036004186 -0.008508936 0.0144082755 -0.0061947852
-0.008417405 -0.028148405 -0.052895166 -0.00658755 0.05712921 -0.020865649 0.051893085 -0.027974963
-0.005603276 -0.017976545 -0.0011401772 -0.05595304 0.04527799 0.011833765 -0.018329918 0.0040504783
0.004024893 -0.017317154 0.005401954 0.017141707 0.013613112 -0.050979577 0.028958082 -0.05025252
0.030859187 -0.030305222 0.0010274053 0.006360784 -0.027432114 -0.0411179 0.0026144683 -0.027372874
-0.026080333 -0.028795466 0.030970246 0.025972947 -0.015110195 0.04500138 -0.046435602 0.039168663
-0.05243936 0.03647528 -0.043026112 0.029400341 0.025526822 -0.021576382 -0.03408722 0.016914152
-0.053094283 0.026252896 0.040609702 0.0051877573 0.0030367598 0.062089942 0.032038145 0.034487344
-0.058850244 0.019612446 0.035228394 0.028695881 0.03558296 -0.048805296 -0.042597063 0.009412184
00000000: 8011 53bc 0406 b33c dc57 31bd 6038 24bb
00000010: e0c2 153c 5059 66bd 182d 563d 7ae5 2dbd
00000020: 7033 39bd 4826 3a3c 8668 06bd c8a6 b33c
00000030: a274 0f3d 78bb 073c 04df aabc bebd 7a3d
00000040: d0bf 3d3c e22e 483d b266 7abd 9e66 34bd
00000050: c85e b13c dce4 edbc 6417 9cbc 1c0d 2dbd
00000060: 44cd 50bd f2af 4e3d 9e4b 42bd b01a 1b3c
00000070: d806 4e3d 10d1 293d 04af d03c 18f2 b6bc
00000080: ba8a 0abd 248f 143d 18ee c73c d440 7cbd
00000090: 2039 d93b 5020 16bc 7229 15bd c001 cbbc
000000a0: 6c13 3ebd e099 c03b 2c1b 523d b04a 9e3b
000000b0: 2cdc 3d3d a0d8 363d eae5 20bd d60a 13bd
000000c0: 741e 9bbc e84c e6bc 0654 643d 001c 7c3c
000000d0: 589b 893c 5664 52bd 38f5 0d3c b098 3bbd
000000e0: a006 20bc 94e7 bc3c 6859 983c 30b7 9dbb
000000f0: 806f 973c 64a1 723d f0d8 f5bc 4c4f bf3c
00000100: 6ebf 273d ac22 c93c 5c59 16bd 6c46 163d
00000110: 8cfb e33c bc5a 333d e868 d33c 1a96 79bd
00000120: f02e a83c 86c6 7e3d f068 babc 20bc d6bc
00000130: a85f 1abd 6e4a 53bd 022c 13bd d870 753c
00000140: 8041 aabc 0000 d0b6 e6b3 03bd 20cc 03bc
00000150: 2846 06bc a062 49bc 303b f23b a69f 7abd
00000160: 5c9b 52bd 0e75 473d 3eaf 763d 6c8f 183d
00000170: 3098 4b3d 2a70 36bd 28de 6bbd c403 14bd
00000180: b28a 7c3d e080 4d3b 08ad ac3c 6c1b 40bd
00000190: 26f9 34bd ba93 0f3d 5a62 2d3d e8fd 3dbd
000001a0: d821 12bd 6248 74bd 4ef6 143d 58c3 cd3c
000001b0: 7814 7a3c 646b 6abd a825 6b3c a8c9 28bc
000001c0: f085 4ebd 6211 013d e023 6d3b 9eb4 323d
000001d0: 023a 70bd 28a9 7f3c d00b 5cbc 0028 b739
000001e0: c8cd 0abc aa74 23bd c07f 153b 40ab abbb
000001f0: bc6d 9d3c 40f5 53bc b87d c33c a6d7 0bbd
00000200: cc94 e53c 38ea 353c 9808 a13c c8b6 e6bc
00000210: 40f8 c23b e807 123c 0085 f93a f826 55bd
00000220: 9ca3 62bd 80a0 a43a 8451 3e3d 6828 64bd
00000230: ec78 a63c 98bd 143d dccb 3a3d 743d 5dbd
00000240: 30c1 7f3c 625c 6f3d 880d 19bd 4033 563d
00000250: 2439 57bd d03d 1ebd a812 5e3d 009c 4d3d
00000260: b0d8 383c 78b1 efbc 94b0 953c 9095 8cbb
00000270: 5810 59bc 9048 e5bc 00ad 9d3c f604 33bd
00000280: aa9a 73bd 00b8 10bb a04f febc f411 0fbd
00000290: 1414 7cbd 74a5 703d 06d5 6e3d ecbd 3c3d
000002a0: 806b d6ba 5831 6d3c 1c56 2dbd ea5d 36bd
000002b0: d032 c1bb a491 2ebd 6492 9b3c 88d3 893c
000002c0: 743f 103d a869 5a3c fe2e 563d 28e3 babc
000002d0: 10f0 d1bb c863 d43c 5416 403d fe5b 69bd
000002e0: f8c1 2e3d 6069 5ebc 9643 21bd 8644 373d
000002f0: 2079 133d 1069 0bbc b010 6c3c a0fd cabb
00000300: 28e9 09bc 7c97 e6bc 9aa8 58bd 60dc d7bb
00000310: 5200 6a3d 70ee aabc d88d 543d c02b e5bc
00000320: b09b b7bb 8c43 93bc 0072 95ba 042f 65bd
00000330: 6a75 393d 68e2 413c a028 96bc e0b9 843b
00000340: 40e3 833b b4dc 8dbc e002 b13b c46c 8c3c
00000350: 8809 5f3c f6cf 50bd 8039 ed3c 96d5 4dbd
00000360: 68cc fc3c a842 f8bc 00aa 863a 206e d03b
00000370: 50b9 e0bc 3e6b 28bd 8057 2b3b 143d e0bc
00000380: 6ca6 d5bc 78e4 ebbc 50b5 fd3c 38c5 d43c
00000390: c090 77bc 5e53 383d 4233 3ebd 526f 203d
000003a0: a8ca 56bd 1a67 153d 263c 30bd fcd8 f03c
000003b0: a01d d13c f4c0 b0bc 0a9f 0bbd 8c8f 8a3c
000003c0: 6479 59bd 5010 d73c 5c56 263d 10fe a93b
000003d0: 6004 473b 0652 7e3d 6e3a 033d 9a42 0d3d
000003e0: f40c 71bd 48aa a03c a64b 103d a013 eb3c
000003f0: 70bf 113d 10e8 47bd 427a 2ebd 9035 1a3c

fc_mu.bias f4 [8]
0.016844787 -0.0030238181 -0.019194156 0.032109283 -0.0039142296 0.009193294 -0.018996298 0.046592243
00000000: 14fe 893c 402b 46bb 103d 9dbc 0685 033d
00000010: f042 80bb 789f 163c 209e 9bbc 82d7 3e3d

fc_logvar.weight f4 [8, 256]
-0.0018764213 0.061590604 -0.055074178 -0.060289294 -0.016623057 -0.049754933 0.029345132 -0.02939605
-0.06206073 -0.034331 -0.0071113706 -0.00085721165 0.0072935075 0.03937018 0.018079922 -0.014456287
0.006500073 -0.02379173 -0.010340393 0.026726559 -0.0023720488 -0.044418477 0.03894633 0.04872662
0.046672337 -0.009446666 0.05780009 -0.009696774 0.014100611 -0.014699444 0.012835473 -0.04998474
0.038311623 0.025447197 0.035507157 -0.018469617 -0.029295258 0.04330127 -0.009987228 0.031989053
0.053362466 0.05769445 0.016174935 -0.03781949 -0.053657435 0.025583372 -0.04731393 -0.02396214
-0.014555037 -0.060916036 0.020381548 0.027011842 0.042916723 0.033059493 -0.05876279 0.04915253
-0.0051436946 -0.0005521178 0.03933136 0.03393469 0.040842712 -0.059415534 -0.051632106 0.036662713
-0.043209985 -0.044699885 0.0033230856 0.005027592 0.05936511 0.039633363 -0.057858303 0.0040221736
0.021829613 -0.0018178895 0.05955852 0.03522356 0.046986282 0.01497224 -0.013786495 0.022367314
-0.051741093 0.04833506 -0.025740989 -0.03225457 0.06088335 -0.007813595 0.046561003 0.04828632
0.0048048273 -0.03943242 -0.052499034 0.051898777 -0.053892992 0.05724307 0.047522314 0.029653989
-0.06179872 0.0113634765 -0.008790545 -0.047118284 -0.056966662 0.046359777 -0.032197237 0.0031762794
0.029150985 -0.034988567 0.03501056 -0.03365664 -0.0076336563 0.0017858893 -0.049908906 0.00509423
0.008156478 -0.04747822 0.052942775 0.031116858 0.03662657 -0.031120054 -0.052844927 0.00905598
0.061373405 0.042478263 0.026958846 0.010579862 0.02443055 -0.047890343 0.042341083 0.0115805045
-0.018361785 0.019084029 -0.014714934 0.022058234 -0.010882616 0.047521956 -0.010436468 0.055843964
-0.060317203 -0.055511482 -0.030248925 -0.033663258 -0.045945384 0.018761262 -0.013403162 -0.04177002
0.027093805 -0.058800407 -0.02722831 0.05486381 -0.044450924 0.024229765 0.05123914 0.05784584
0.0049378574 0.038038395 -0.013065621 0.036044113 -0.012901962 -0.030888043 -0.006119415 0.040759094
-0.0173534 0.011166789 0.024768762 0.0034863502 -0.05565513 0.012792572 -0.03656833 0.020129137
-0.041836925 -0.024404347 -0.018670835 0.059106745 -0.04785586 0.0178231 0.027697012 -0.025861368
0.008838549 0.038637757 -0.02987381 -0.048914082 -0.02431348 0.024289317 -0.012209803 -0.00056256354
0.035615943 -0.02028066 -0.05287298 -0.026665516 -0.058622397 -0.008952729 -0.04185283 0.057594687
-0.0024500564 0.03146962 0.028103165 -0.013299517 0.019685522 0.024825424 -0.041969493 0.024812415
-0.013701744 -0.052221924 -0.028673321 0.047733366 0.041609116 0.038290493 -0.05354134 0.06128902
-0.034611702 0.00289651 -0.003608361 0.05501756 -0.013187543 0.039676778 -0.023940928 0.022003599
-0.029921643 -0.060702316 0.059457116 0.02377177 -0.04262265 0.06168396 -0.036327437 0.024949513
-0.007317722 -0.053253375 -0.022810958 0.052791357 0.056262918 0.04347355 0.027245454 -0.0056943074
-0.023048587 0.02663333 -0.037616774 -0.054439142 0.0047711283 0.062333062 -0.0061153173 0.028948657
0.0010188594 -0.023990944 -0.019956544 0.046602473 0.055750296 -0.01737883 -0.03719169 -0.0022002682
-0.04208514 -0.05961279 -0.033170797 0.025022268 0.034104124 0.02583079 -0.005014159 0.006841913
00000000: 40f2 f5ba 6e46 7c3d 7695 61bd e8f1 76bd
00000010: 142d 88bc d4cb 4bbd 3465 f03c fccf f0bc
00000020: 6433 7ebd aa9e 0cbd 8006 e9bb 80b6 60ba
00000030: 60fe ee3b a042 213d 581c 943c 10da 6cbc
00000040: 90fe d43b e0e6 c2bc c06a 29bc a8f1 da3c
00000050: 6074 1bbb 26f0 35bd 3086 1f3d 9095 473d
00000060: 7e2b 3f3d 30c6 1abc cabf 6c3d 38df 1ebc
00000070: 4006 673c f0d5 70bc e04b 523c ccbc 4cbd
00000080: a6ec 1c3d a476 d03c f46f 113d 984d 97bc
00000090: 9cfc efbc ac5c 313d 78a1 23bc f406 033d
000000a0: 9a92 5a3d 0451 6c3d 4c81 843c 9ce8 1abd
000000b0: e6c7 5bbd 3894 d13c 40cc 41bd 404c c4bc
000000c0: 4078 6ebc 1883 79bd 34f7 a63c f047 dd3c
000000d0: 72c9 2f3d 6469 073d 40b1 70bd 2a54 493d
000000e0: 708c a8bb 00bc 10ba ec19 213d 1aff 0a3d
000000f0: b04a 273d b45d 73bd 307c 53bd a42b 163d
00000100: f4fc 30bd 3a17 37bd 20c8 593b 80be a43b
00000110: d428 733d 9856 223d d4fc 6cbd 70cc 833b
00000120: 04d4 b23c 4046 eeba a2f3 733d 9446 103d
00000130: b074 403d 204e 753c c0e0 61bc a83b b73c
00000140: 78ee 53bd fcfa 453d c4de d2bc 5e1d 04bd
00000150: d260 793d 9804 00bc c0b6 3e3d e0c7 453d
00000160: d071 9d3b e483 21bd 3a09 57bd d093 543d
00000170: e6be 5cbd b677 6a3d c2a6 423d ecec f23c
00000180: a820 7dbd e02d 3a3c 3806 10bc 1aff 40bd
00000190: e055 69bd c0e3 3d3d 40e1 03bd 2029 503b
000001a0: 0cce ee3c 2c50 0fbd 3c67 0f3d 8cdb 09bd
000001b0: c023 fabb 8014 ea3a 486d 4cbd 80ed a63b
000001c0: c0a2 053c 8678 42bd 86da 583d c8e8 fe3c
000001d0: be05 163d 7cef febc ec73 58bd 885f 143c
000001e0: ae62 7b3d b0fd 2d3d ccd8 dc3c 2857 2d3c
000001f0: 9422 c83c aa28 44bd d86d 2d3d 28bc 3d3c
00000200: 746b 96bc 1c56 9c3c e816 71bc 78b3 b43c
00000210: 004d 32bc 62a6 423d b8fd 2abc a4bc 643d
00000220: 2c0f 77bd 0260 63bd 98cc f7bc 7ce2 09bd
00000230: 3a31 3cbd 38b1 993c f098 5bbc 0a17 2bbd
00000240: d4f3 dd3c b2d8 70bd e80d dfbc e0b8 603d
00000250: 2c12 36bd 807d c63c 22e0 513d c2ef 6c3d
00000260: c0cd a13b 26ce 1b3d 3011 56bc fea2 133d
00000270: c062 53bc ec08 fdbc 6085 c8bb 02f3 263d
00000280: b828 8ebc e8f4 363c dce7 ca3c 407b 643b
00000290: a2f6 63bd f097 513c acc8 15bd dce5 a43c
000002a0: 325d 2bbd a0eb c7bc 94f3 98bc ea19 723d
000002b0: 8204 44bd c001 923c d8e4 e23c 38db d3bc
000002c0: 90cf 103c a042 1e3d ecb9 f4bc 225a 48bd
000002d0: 102d c7bc 64fa c63c a00b 48bc 0079 13ba
000002e0: 06e2 113d a023 a6bc 5691 58bd a471 dabc
000002f0: 0a1e 70bd 78ae 12bc e06d 2bbd 68e8 6b3d
00000300: 2091 20bb 4ae6 003d 9c38 e63c 38e6 59bc
00000310: 8843 a13c b05e cb3c 34e8 2bbd 6843 cb3c
00000320: 487d 60bc a8e6 55bd 50e4 eabc 1084 433d
00000330: 526e 2a3d 7ed6 1c3d 2a4e 5bbd 320a 7b3d
00000340: 00c5 0dbd 60d3 3d3b 407a 6cbb 185a 613d
00000350: 9010 58bc 1e84 223d c41f c4bc e440 b43c
00000360: 3c1e f5bc fea2 78bd 4e89 733d 04bd c23c
00000370: 1695 2ebd 52a8 7c3d 14cc 14bd ec62 cc3c
00000380: 80c9 efbb 3620 5abd 0cde babc c03b 583d
00000390: f273 663d 5211 323d dc31 df3c 5097 babb
000003a0: 64d0 bcbc 242e da3c 0c14 1abd 94fb 5ebd
000003b0: 2057 9c3b f450 7f3d 0063 c8bb bc25 ed3c
000003c0: 408b 853a a888 c4bc e87b a3bc 3ce2 3e3d
000003d0: 6c5a 643d 0c5e 8ebc 5056 18bd 6032 10bb
000003e0: 7861 2cbd 8a2c 74bd 1ade 07bd 80fb cc3c
000003f0: c4b0 0b3d 189b d33c d04d a4bb 2032 e03b

fc_logvar.bias f4 [8]
0.019902855 0.024494253 -0.058263198 -0.05887024 -0.05626262 0.049725905 -0.009115703 0.06074419
00000000: 500b a33c 2ca8 c83c 64a5 6ebd ec21 71bd
00000010: a273 66bd 64ad 4b3d 085a 15bc e6ce 783d

decoder.0.weight f4 [256, 16]
-0.15218337 -0.13894522 0.27836877 -0.094846755 -0.2553663 -0.13742933 -0.25041142 -0.10562941
-0.12103302 0.39064607 -0.029310305 -0.34683666 -0.090637855 -0.0056245094 -0.13462602 0.14708926
0.16947734 0.14062737 0.12192396 0.12483815 -0.26005635 -0.1261452 -0.10067578 -0.15329367
0.1985418 0.037004724 -0.0654943 -0.10747996 -0.12537108 0.16477248 -0.13008378 -0.040790204
-0.11882303 -0.1649866 -0.04958232 -0.16319829 -0.12921488 -0.14125536 -0.1991776 -0.1312739
0.08944771 0.24563327 0.06120262 -0.23655635 -0.32912695 0.37800923 -0.05750272 0.099825114
0.009708173 -0.13703623 -0.037278503 0.1536038 0.07107586 -0.11726954 -0.09518982 -0.018962039
0.24949835 -0.17813717 -0.08661155 0.15656707 0.022584317 -0.013001568 -0.119197555 0.099021524
-0.010236605 -0.016737666 0.11390011 0.14424784 -0.122243956 -0.016564526 -0.23734081 -0.14339519
0.17097335 -0.15052015 0.015106076 -0.049259167 0.033979837 0.20734207 -0.030881504 -0.06868883
0.10547746 0.11702635 0.019379923 0.048896577 0.104495354 -0.12798722 -0.08170321 0.018825803
0.23885596 -0.05191686 0.055606782 0.28393227 0.10458514 0.17077655 -0.13045952 -0.16874595
-0.05661116 0.18267779 0.1241901 0.1462051 -0.4226245 -0.088259645 -0.09840761 -0.10731536
-0.024575967 0.42904797 -0.27059758 -0.1061593 -0.20308377 0.2575545 0.28826353 -0.0029062638
0.058389034 0.13696255 -0.13355127 -0.027042894 -0.30748397 -0.02802102 0.08330608 0.21426494
0.23989576 0.24084882 0.035046145 0.13373002 -0.3106935 -0.10888408 -0.07450648 0.10256542
-0.17221315 -0.095469624 0.12099808 -0.14999925 -0.30001625 -0.15173283 -0.28822678 0.07296687
-0.16497119 0.41855672 -0.01597279 -0.28917885 -0.16923583 -0.029637188 0.0610234 0.10993654
-0.1879325 -0.1944349 -0.007851267 0.14757018 -0.12139112 0.052685987 -0.015697898 0.011580557
0.0929605 -0.23671177 -0.011455318 0.0045567905 0.024729885 0.20624767 -0.13497859 0.024928045
0.2537964 0.06784302 -0.16823481 -0.13864602 0.17624155 0.18752253 -0.107121915 0.29258516
-0.042975977 0.012824386 -0.04614489 -0.20510034 -0.087654136 0.09441307 0.06484212 0.13624941
-0.23762503 -0.057306215 0.2985764 -0.12131111 -0.07828132 0.08706285 0.21768725 -0.06312273
-0.16723692 0.12767306 -0.35265553 -0.12951528 -0.23737895 -0.14740148 0.21112582 0.110552944
-0.022300553 0.03298229 0.01845901 0.39028782 -0.31058234 0.15609866 0.17122848 0.048909806
-0.19342677 0.34533527 -0.282578 -0.2434596 -0.15814194 0.26932746 0.23375832 -0.0753705
-0.15603295 -0.13269718 -0.22468853 -0.0867299 -0.27648908 -0.113069154 -0.11220124 -0.19650503
0.051151108 0.5104169 -0.21563543 -0.16067335 -0.27863657 -0.03534046 -0.0075729406 0.2801835
0.16386296 0.22486657 0.028435426 -0.16129626 -0.35219887 -0.18056935 0.15994278 -0.27955905
0.11412851 0.45277214 -0.14311005 -0.28556657 -0.20380391 0.09236152 0.14719826 0.24177326
-0.031764332 0.30522734 0.3661384 0.020816157 -0.118828274 -0.20720811 0.012214199 0.23317544
0.123283036 -0.06306561 -0.36600867 -0.23397392 0.032454234 -0.13303699 -0.24933821 0.003907403
00000000: f5d5 1bbe a847 0ebe 5a86 8e3e 043f c2bd
00000010: 5fbf 82be 46ba 0cbe ed35 80be 3b54 d8bd
00000020: 29e0 f7bd c302 c83e 2a1c f0bc 9394 b1be
00000030: 57a0 b9bd ce4d b8bb 67db 09be 919e 163e
00000040: 788b 2d3e 9f00 103e 45b3 f93d 25ab ff3d
00000050: 1b26 85be 352c 01be 1a2f cebd 04f9 1cbe
00000060: 8b4e 4b3e 4492 173d e021 86bd 741e dcbd
00000070: 4761 00be 1eba 283e af34 05be a113 27bd
00000080: 7d59 f3bd 3ff2 28be d516 4bbd 741d 27be
00000090: e850 04be 3fa5 10be 36f5 4bbe aa6c 06be
000000a0: 5c30 b73d 4a87 7b3e 99af 7a3d d43b 72be
000000b0: 5483 a8be 6d8a c13e f987 6bbd 1c71 cc3d
000000c0: 070f 1f3c 3a53 0cbe 58b1 18bd 514a 1d3e
000000d0: 3890 913d 032b f0bd e1f2 c2bd 4756 9bbc
000000e0: 7f7c 7f3e 9769 36be 6561 b1bd 1e53 203e
000000f0: bf02 b93c 8704 55bc d91d f4bd cccb ca3d
00000100: 6fb7 27bc 6e1d 89bc 7644 e93d b5b5 133e
00000110: 0a5b fabd 54b2 87bc 7809 73be 30d6 12be
00000120: a313 2f3e f421 1abe 7a7f 773c fbc3 49bd
00000130: 712e 0b3d 7b51 543e 35fb fcbc bbac 8cbd
00000140: 9104 d83d 83ab ef3d a5c2 9e3c c747 483d
00000150: a901 d63d 150f 03be 0354 a7bd 9238 9a3c
00000160: a896 743e c6a6 54bd f0c3 633d 925f 913e
00000170: bc30 d63d 0ce0 2e3e 2e97 05be bdcb 2cbe
00000180: 1be1 67bd e30f 3b3e 6157 fe3d cab6 153e
00000190: 3d62 d8be 79c1 b4bd ee89 c9bd 28c8 dbbd
000001a0: 8a53 c9bc 2dac db3e c48b 8abe 0c6a d9bd
000001b0: 31f5 4fbe 2fde 833e 4797 933e 0477 3ebb
000001c0: 5729 6f3d e93f 0c3e aac1 08be 0f89 ddbc
000001d0: 8a6e 9dbe 578c e5bc 619c aa3d 4568 5b3e
000001e0: 3ca7 753e 13a1 763e 8c8c 0f3d 86f0 083e
000001f0: 3813 9fbe 9efe debd da96 98bd d20d d23d
00000200: a558 30be 9485 c3bd d7cd f73d 6799 19be
00000210: bb9b 99be da5f 1bbe 7692 93be a86f 953d
00000220: 35ee 28be 114d d63e 5ed9 82bc 400f 94be
00000230: 284c 2dbe b0c9 f2bc acf3 793d 6926 e13d
00000240: 6171 40be f119 47be 9aa2 00bc a31c 173e
00000250: e89b f8bd 43cd 573d e198 80bc 60bc 3d3c
00000260: 1362 be3d 9264 72be 16af 3bbc 2151 953b
00000270: 5496 ca3c 9732 533e d437 0abe e635 cc3c
00000280: 9af1 813e 48f1 8a3d bf45 2cbe 39f9 0dbe
00000290: aa78 343e e805 403e bc62 dbbd b9cd 953e
000002a0: 9407 30bd 601d 523c 6d02 3dbd d305 52be
000002b0: 0384 b3bd a45b c13d f2cb 843d f784 0b3e
000002c0: fa53 73be ecb9 6abd 02df 983e f671 f8bd
000002d0: f551 a0bd 024e b23d 68e9 5e3e 7d46 81bd
000002e0: 2840 2bbe babc 023e 448f b4be a79f 04be
000002f0: 7813 73be 6af0 16be 5e31 583e 9569 e23d
00000300: a6af b6bc 7018 073d 5a37 973c ced3 c73e
00000310: a604 9fbe 54d8 1f3e 8556 2f3e a655 483d
00000320: ab11 46be c9cf b03e 10ae 90be 794d 79be
00000330: f6ef 21be 4ae5 893e 575e 6f3e d95b 9abd
00000340: 1ac7 1fbe c5e1 07be c014 66be 729f b1bd
00000350: fa8f 8dbe cd90 e7bd c4c9 e5bd 9d38 49be
00000360: d383 513d afaa 023f 89cf 5cbe 8e87 24be
00000370: 74a9 8ebe 28c1 10bd 6e26 f8bb 3674 8f3e
00000380: b1cb 273e 6c43 663e 69f1 e83c d92a 25be
00000390: 6953 b4be 2ce7 38be 0ac8 233e 5d22 8fbe
000003a0: 35bc e93d c0d1 e73e 718b 12be c835 92be
000003b0: f9b1 50be 0928 bd3d 24bb 163e 6993 773e
000003c0: 511b 02bd c246 9c3e 7e76 bb3e a586 aa3c
000003d0: 3d5c f3bd 5d2e 54be 101e 483c 8bc5 6e3e
000003e0: d17b fc3d 8b28 81bd 7d65 bbbe dc96 6fbe
000003f0: bbee 043d d93a 08be 8452 7fbe ac09 803b
