space_robot_planning/weights/cvae_debug/1764310573.2687092.pth (torch, 888101 bytes, 16 tensors)

encoder.0.weight f4 [256, 32]
0	0xbdc6b411	-0.09702314
1	0xbd200d2b	-0.039075058
2	0x3dbaa101	0.0911274
3	0xbdf948af	-0.121720664
4	0xbd907dbd	-0.07055233
5	0x3df15d90	0.11785424
6	0xbd147be5	-0.036250968
7	0xbe220ee6	-0.15825996
8	0xbd0c2ed1	-0.034224335
9	0x3dd7a2e6	0.10529117
10	0x3c16d4e4	0.0092060305
11	0x3b269761	0.0025419819
12	0x3c6f2cbb	0.014598067
13	0x3ba43032	0.005010628
14	0xbdd47dca	-0.10375555
15	0x3d4b8466	0.049686812
16	0xbe1654bf	-0.14680766
17	0x3e1deab8	0.1542157
18	0x3ade6f4f	0.0016970428
19	0xbcc56c0f	-0.024099378
20	0x3e0843c2	0.13307098
21	0xbde6f54c	-0.112772554
22	0xbd5b0da2	-0.0534798
23	0xbcdd416b	-0.027008733
24	0x3d98fdb7	0.07470267
25	0xbe2cd35c	-0.16877502
26	0xbd421c59	-0.047390316
27	0x3e2bf17f	0.16791342
28	0xbe27b927	-0.16379224
29	0xbdd39620	-0.103313684
30	0xbdbab840	-0.09117174
31	0xbd4d4832	-0.05011768
32	0xbdef14fc	-0.11673924
33	0xbe0308d0	-0.1279633
34	0x3c260def	0.010135158
35	0xbd4beb10	-0.04978472
36	0xbc4d4d91	-0.0125307
37	0x3d157d6a	0.036496557
38	0x3c0326d8	0.008004867
39	0x3d594ac4	0.053049818
40	0x3e1f6326	0.15565166
41	0xbd935524	-0.07193974
42	0xbe2cc6dc	-0.16872734
43	0xbcbca934	-0.023029901
44	0xbc69db76	-0.014273515
45	0x3d84f583	0.0649214
46	0x3dcc584d	0.099777795
47	0x3daed08e	0.085358724
48	0x3d4e3b66	0.050349616
49	0xbd810e8f	-0.06301605
50	0x3e0f96bc	0.14022344
51	0xbe17aec9	-0.14812769
52	0xbe192d9b	-0.14958803
53	0x3d09caa4	0.03364052
54	0xbb6f380b	-0.003650191
55	0x3a220578	0.00061806245
56	0xbd2ca818	-0.042152494
57	0x3c0f9f14	0.0087659545
58	0x3e300ae3	0.17191653
59	0xbc081918	-0.008306764
60	0xbced92d4	-0.029000677
61	0xbb9d80a4	-0.004806595
62	0x3cb27d76	0.02178834
63	0x3cf12a28	0.029439047
64	0x3da3bebf	0.07995366
65	0xbe0c6823	-0.137116
66	0x3da5610e	0.08075152
67	0x3dc47186	0.095919654
68	0x3dde59c9	0.10856969
69	0x3de61719	0.11234874
70	0x3d0b9571	0.034078065
71	0xbde3b8f1	-0.11119259
72	0xbcb1ab0d	-0.021688009
73	0xbc102968	-0.0087989345
74	0x3dc76be8	0.09737378
75	0xbd24241b	-0.040073495
76	0x3ada9f80	0.0016679615
77	0x3e0f2140	0.13977528
78	0xbe04c2a1	-0.1296487
79	0xbdc70f0b	-0.09719666
80	0x3d966ed3	0.07345357
81	0xbdbf2c3e	-0.093346104
82	0x3dfd8c86	0.12380318
83	0xbd479422	-0.048725255
84	0x3d727e51	0.059202496
85	0xbdac71fe	-0.0842018
86	0x3deefad5	0.11668936
87	0xb9d8f2fe	-0.00041379774
88	0x3d126837	0.03574392
89	0xbe135034	-0.14386064
90	0xbe2b3487	-0.16719256
91	0x3db6e489	0.08930308
92	0xbcdcd1bd	-0.02695548
93	0x3df7adcd	0.12093697
94	0xbd177bbf	-0.036983248
95	0xbdca28f5	-0.09871093
96	0x3d1bdb84	0.038051143
97	0xbe123d2d	-0.14281149
98	0xbb344a46	-0.002751009
99	0xbe245034	-0.1604622
100	0xbcdd1912	-0.026989494
101	0xbe2d1d33	-0.1690567
102	0xbdf6b9d6	-0.12047164
103	0x3d96cb55	0.07363001
104	0xbd223ff6	-0.03961178
105	0xbdf4703e	-0.11935471
106	0x3da1c59c	0.07899019
107	0x3d342c6b	0.043987673
108	0x3e3154a1	0.1731744
109	0x3d93d4e0	0.07218337
110	0xbd4bb427	-0.049732354
111	0x3dbe59ff	0.09294509
112	0xbd8b0266	-0.06787567
113	0xbabf6bea	-0.0014604304
114	0x3e092d68	0.13396227
115	0x3d76c474	0.060245946
116	0x3d459b5e	0.048243873
117	0x3e29c227	0.1657797
118	0xbdd6f77b	-0.10496422
119	0xbd44f467	-0.048084643
120	0xbdc2a71b	-0.09504529
121	0x3e0b441c	0.136002
122	0x3e28dfcc	0.16491622
123	0x3e0fe721	0.14053012
124	0xbe2a10d0	-0.16607976
125	0xbd359577	-0.044331994
126	0xbdcc0255	-0.09961382
127	0x3d9b316f	0.07577788
128	0xbde51671	-0.11185921
129	0xbe08421b	-0.13306467
130	0xbddf139f	-0.10892414
131	0x3d045801	0.03231049
132	0x3c8ebed6	0.017424982
133	0xbda74f26	-0.08169393
134	0x3d2033aa	0.03911177
135	0xbdda68d5	-0.106645264
136	0x3dfc0c80	0.12307072
137	0x3d3085fa	0.04309652
138	0xbdf7fd24	-0.121088296
139	0xbddaf885	-0.106919326
140	0x3c5de446	0.013543194
141	0x3c96db9c	0.018415265
142	0x3d566afa	0.052348115
143	0x3e2c9562	0.1685386
144	0xbe242580	-0.1602993
145	0x3be4bf39	0.0069808033
146	0x3daebf2a	0.085325554
147	0xbc8001d9	-0.015625881
148	0x3e16a382	0.14710811
149	0xbddc4512	-0.107553616
150	0xbc05b912	-0.0081618
151	0x3e220693	0.1582282
152	0x3e217e75	0.15770896
153	0xbda59b15	-0.0808622
154	0x3d139b47	0.036036756
155	0x3cb7745a	0.022394348
156	0x3d7167a7	0.05893674
157	0x3dc41366	0.095740125
158	0x3dfc5c2e	0.123222694
159	0x3dc2277f	0.094801895
160	0xbe0a1c1b	-0.13487284
161	0x3dc0cea0	0.094144106
162	0x3df0dc65	0.11760787
163	0xbd475e70	-0.048674047
164	0x3d961b6e	0.073294505
165	0xbda66806	-0.0812531
166	0xbe1a190e	-0.1504862
167	0x3e10c192	0.14136341
168	0xbe19e639	-0.15029229
169	0xbdf0def8	-0.11761278
170	0x3da471f2	0.08029546
171	0xbe231ded	-0.15929385
172	0xbddf1580	-0.10892773
173	0xbda198ad	-0.07890449
174	0x3c9d9772	0.019237254
175	0xbd498349	-0.04919747
176	0xbc4cc272	-0.012497531
177	0xbe12f54e	-0.14351389
178	0x3df152ea	0.11783393
179	0xbcf026bc	-0.029315345
180	0x3d26b48c	0.040699527
181	0x3dbc83d9	0.092048354
182	0xbdd25bdf	-0.10271429
183	0x3d92d703	0.071699165
184	0xbb8cc147	-0.0042955014
185	0x3ddd0e87	0.107937865
186	0xbddce2f4	-0.107854754
187	0xbdda239a	-0.10651322
188	0xbd07d19c	-0.033158883
189	0xbdd2394d	-0.102648355
190	0xbe1c1774	-0.15243322
191	0x3bcd4e02	0.006265403
192	0x3d7f8590	0.062383235
193	0x3e27eeaf	0.16399644
194	0xbcaa955e	-0.020823177
195	0xbc7c2fa5	-0.015392219
196	0x3dc465e6	0.09589748
197	0x3d2ab174	0.04167314
198	0x3e006ab7	0.12540708
199	0xbd42d6b1	-0.047568027
200	0xbe0e53d6	-0.13899168
201	0x3e1dedf6	0.15422806
202	0x3d35c9e1	0.04438198
203	0x3c03c1f7	0.00804185
204	0xbd1ba2ed	-0.037997175
205	0xbbf5205e	-0.007480665
206	0x3d56c9c5	0.052438516
207	0xbbe18ede	-0.006883486
208	0x3ad21e52	0.0016030765
209	0x3e0e5e02	0.13903049
210	0x3e138a9e	0.14408347
211	0x3cd43ebf	0.025908826
212	0xbe2ba4c4	-0.16762072
213	0xbe0a6b33	-0.13517456
214	0x3d670cff	0.05640888
215	0xbdf6b5c8	-0.12046391
216	0xbc901174	-0.017586447
217	0x3d23d8a5	0.04000153
218	0x3e19b473	0.15010242
219	0x3e2fc41b	0.17164652
220	0xbda976cd	-0.082746126
221	0x3cafd681	0.021464588
222	0xbdc91078	-0.09817594
223	0xbe0caeac	-0.13738507
224	0xbcaabb76	-0.020841341
225	0xbd01b9fa	-0.0316715
226	0xbc40c0a6	-0.011764681
227	0xbcd2fa46	-0.025754105
228	0xbc060d0a	-0.00818182
229	0x3caff023	0.02147681
230	0xbd97b456	-0.07407443
231	0xbda789a1	-0.081805475
232	0xbb8f0466	-0.004364538
233	0x3dcc05d3	0.099620484
234	0xbd84c5af	-0.06483018
235	0x3dc39b42	0.095510975
236	0xbd6b2b61	-0.057414416
237	0xbdae3605	-0.08506397
238	0x3e0ce551	0.13759352
239	0xbe151a50	-0.14560819
240	0x3d4c0063	0.049805056
241	0x3d6751fb	0.056474667
242	0x3d978233	0.073978804
243	0xbdcc420c	-0.09973535
244	0xbc355809	-0.0110683525
245	0xbe0d84d8	-0.13820207
246	0x3d929458	0.071572006
247	0x3e139f40	0.14416218
248	0xbe0f806b	-0.14013831
249	0x3dccac15	0.099937595
250	0xbd2deecd	-0.042464066
251	0xbcbda528	-0.023150042
252	0xbe01d3e8	-0.12678492
253	0x3e1ed579	0.15511121
254	0x3de2121d	0.11038611
255	0xbe00e5f0	-0.12587714

encoder.0.bias f4 [256]
0	0x3dd33603	0.10313036
1	0xbe030117	-0.12793384
2	0xbe045e3b	-0.12926571
3	0x3de045d8	0.10950822
4	0x3c7dd4fe	0.015492676
5	0xbc038401	-0.008027078
6	0x3dc952e7	0.098302655
7	0x3de04fb3	0.109527014
8	0xbe2b19cd	-0.16709061
9	0x3d9d0ee3	0.07668855
10	0xbe18af7e	-0.14910695
11	0xbd84a470	-0.064766765
12	0xbcdad598	-0.026713178
13	0xbe223594	-0.15840751
14	0xbe020ec1	-0.1270094
15	0x3d351e9b	0.04421864
16	0xbc28fa0d	-0.010313523
17	0x3c83b0e8	0.016075566
18	0xbe0b149c	-0.1358208
19	0xbcedaec2	-0.029013995
20	0xbb6d3873	-0.0036196976
21	0x3d578100	0.05261326
22	0x3c8e5e89	0.017379062
23	0x3e317b87	0.17332278
24	0xbdae1f40	-0.08502054
25	0x3e22b30c	0.15888613
26	0x3e1f81ea	0.15576902
27	0xbd949dfb	-0.07256695
28	0x3e2348e7	0.15945779
29	0x3d3c740a	0.0460091
30	0xbe01f49b	-0.12690966
31	0xbe1a6691	-0.15078188
32	0xbd3eed63	-0.04661311
33	0xbda7cb99	-0.0819313
34	0xbe059d9c	-0.13048404
35	0x3dc53cba	0.09630723
36	0xbcfaf39c	-0.03063374
37	0xbe0f713a	-0.14008036
38	0x3d9a46f4	0.075330645
39	0xbd33f325	-0.043933053
40	0x3cf0e103	0.029404169
41	0xbd7cbd3e	-0.061703913
42	0xbe255dc2	-0.16149047
43	0xbc810199	-0.015747832
44	0x3c5dc639	0.0135360295
45	0xbd911920	-0.0708487
46	0x3db4b375	0.08823291
47	0x3e13bf7f	0.14428519
48	0xbd8be04c	-0.068298906
49	0xbd894b8a	-0.06703861
50	0x3d94e820	0.07270837
51	0xbd1c5bb9	-0.03817341
52	0x3cde40fe	0.0271306
53	0x3cc2fb60	0.023801506
54	0xbdd724f2	-0.10505094
55	0xbe15992a	-0.14609209
56	0xbde049e0	-0.109515905
57	0xbd3139ac	-0.04326789
58	0xbddc9967	-0.10771447
59	0x3df70b6b	0.12062725
60	0xbdb52613	-0.08845153
61	0xbaab2b68	-0.0013059201
62	0x3d87f0c7	0.066377215
63	0x3d43ec6e	0.0478329
64	0xbdc22eab	-0.094815575
65	0xbd91f125	-0.07126073
66	0xbe0ac607	-0.13552104
67	0xbdd78eec	-0.10525307
68	0x3c69f161	0.014278741
69	0x3e0ba508	0.13637173
70	0xbc8773fc	-0.016534798
71	0x3d3890fc	0.045060143
72	0xbdd600c1	-0.104493625
73	0xbdfd9354	-0.12381616
74	0x3e20a7cf	0.15689014
75	0x3dffd8c8	0.124925196
76	0x3c74115e	0.014896719
77	0xbc4ad49e	-0.012379793
78	0x3e265eed	0.16247149
79	0x3e0b05ec	0.13576478
80	0xbdd259af	-0.10271012
81	0xbda62d8e	-0.081141576
82	0x3dc9a991	0.09846795
83	0x3cbfdf21	0.023421826
84	0xbd1ac3a2	-0.037784226
85	0xbe14e919	-0.14542045
86	0x3e02446e	0.12721416
87	0x3c6f702b	0.014614145
88	0x3bfb0418	0.0076604
89	0xbcf9ff9d	-0.030517394
90	0x3bc3bf99	0.005973768
91	0x3e315d0e	0.17320654
92	0x3e0870fb	0.13324349
93	0x3d421c64	0.047390357
94	0x3d83a425	0.064277925
95	0x3e21fb34	0.15818483
96	0xbe1b64d8	-0.15175188
97	0xbe1e2c4c	-0.15446585
98	0xbe29821f	-0.16553544
99	0x3d0f9ff0	0.035064638
100	0x3dd7bd56	0.1053416
101	0x3d5c6a0f	0.053812083
102	0x3db70e9b	0.08938333
103	0xbdbf7346	-0.093481585
104	0xbb47c908	-0.0030484814
105	0x3e1a69cb	0.1507942
106	0x3ce8b32f	0.028405754
107	0x3de8b6a4	0.11362961
108	0x3da87439	0.08225293
109	0xbdc5bdb8	-0.096553266
110	0x3d255f47	0.040374067
111	0xbdc183bc	-0.094489545
112	0xbe244605	-0.16042335
113	0x3bc01b19	0.0058626053
114	0x3db5ac8e	0.08870803
115	0xbd041cc3	-0.03225399
116	0x3e103fc0	0.14086819
117	0x3dfcd661	0.12345577
118	0x3d606084	0.054779544
119	0x3e15ee7d	0.14641757
120	0xbc6e9908	-0.014562853
121	0xbda90e2c	-0.08254656
122	0xbe1a68b0	-0.15078998
123	0xbe0fc7b2	-0.14041021
124	0x3db2c6ca	0.08729322
125	0xbe177b4e	-0.14793131
126	0x3df293cc	0.11844596
127	0xbc0e9726	-0.008703029
128	0xbd318b96	-0.04334601
129	0x3d094ac4	0.033518568
130	0xbe2f7364	-0.17133862
131	0x3e177d48	0.14793885
132	0xbd7b89b2	-0.061410613
133	0xbd977888	-0.073960364
134	0xbdc7d6ec	-0.0975779
135	0x3c651567	0.0139821535
136	0xbdbffb1d	-0.09374068
137	0xbe0a44ac	-0.13502759
138	0xbe22a7d1	-0.1588433
139	0xbd00c32d	-0.031436134
140	0xbdb07df2	-0.08617772
141	0xbbe60f74	-0.007020885
142	0xbd4f83d4	-0.05066283
143	0x3e34e6e4	0.17666203
144	0xbdcc27c1	-0.0996852
145	0xbe332751	-0.17495467
146	0x3d318643	0.043340933
147	0x3d7fd550	0.06245929
148	0xbbe29c1a	-0.0069155814
149	0x3dfc7f04	0.12328914
150	0x3df310d2	0.118684426
151	0x3e250fb2	0.16119269
152	0xbd35b0fa	-0.04435823
153	0xb9696f02	-0.00022261965
154	0x3da05565	0.07828788
155	0xbe173747	-0.1476718
156	0xbd1575ca	-0.036489286
157	0xbca71560	-0.020395935
158	0xbe34b4ed	-0.17647143
159	0x3e264e26	0.16240749
160	0xbd004c29	-0.031322632
161	0xbd81432f	-0.063116424
162	0x3cb4c3cf	0.022066025
163	0x3cb1ee67	0.021720124
164	0xbd7ca846	-0.061683916
165	0x3da4ed4d	0.08053074
166	0xbd9d7981	-0.07689191
167	0xbd4de335	-0.05026551
168	0x3c51ca5a	0.012804592
169	0xbdedab39	-0.11604924
170	0x3dfda35f	0.12384676
171	0x3db6df73	0.08929338
172	0x3e12a21c	0.14319652
173	0x3d91b6e0	0.07114959
174	0xbc6524c8	-0.01398582
175	0x3d3f22ed	0.046664167
176	0x3d85f020	0.06539941
177	0x3e2e198c	0.17001933
178	0xbdb16c60	-0.08663249
179	0x3dbc9754	0.09208551
180	0x3d4f6681	0.050634865
181	0x3d97c102	0.0740986
182	0x3e263993	0.162329
183	0x3d1f99b6	0.03896495
184	0x3d8cd250	0.068760514
185	0x3e232d33	0.15935211
186	0x3d9be6f3	0.076124094
187	0xbe1697e0	-0.14706373
188	0x3e009b28	0.12559187
189	0x3da08c84	0.07839301
190	0x3e298f49	0.16558565
191	0xbe2b0a44	-0.16703135
192	0xbd490971	-0.04908127
193	0x3cb80eae	0.022467937
194	0x3e16ade7	0.14714776
195	0x3dc374f9	0.09543795
196	0x3d789982	0.06069327
197	0x3c940b77	0.018071873
198	0x3d0c6bb2	0.034282394
199	0x3e196be3	0.14982562
200	0x3dfcacae	0.123376235
201	0xbe1f4d13	-0.15556745
202	0x3be2b808	0.006918911
203	0xbd973acb	-0.07384261
204	0xbe2af8f0	-0.16696525
205	0xbd799532	-0.0609333
206	0x3e1bf92c	0.1523177
207	0x3e00ac4b	0.12565725
208	0xbdc4536d	-0.09586225
209	0xbde26cd0	-0.110559106
210	0x3d99999a	0.075
211	0x3d7b9d6d	0.06142943
212	0x3d6c564f	0.057699498
213	0x3e251f7c	0.16125292
214	0xbe262a53	-0.16227083
215	0x3d31bed4	0.04339488
216	0x3df817fd	0.121139504
217	0xbe0cdbe7	-0.13755761
218	0x3e219cb3	0.15782432
219	0x3dde8321	0.108648546
220	0xbc956143	-0.018234855
221	0x3e0640e3	0.1311069
222	0x3e0593e9	0.13044704
223	0x3e14f63c	0.14547056
224	0xbc5b4458	-0.013382994
225	0xbdc1ffee	-0.09472643
226	0x3da47c90	0.08031571
227	0x3cb50c60	0.022100627
228	0x3e046c5a	0.12931958
229	0xbdc2d969	-0.09514124
230	0xbd0008a7	-0.03125825
231	0xbe140677	-0.14455591
232	0x3c07835d	0.008271066
233	0x3dc3dd29	0.09563667
234	0xbb10d4ca	-0.0022099488
235	0xbd84b766	-0.06480293
236	0x3ca5c70c	0.020236515
237	0xbe0bff27	-0.13671552
238	0x3e347b6f	0.17625211
239	0xbe05b874	-0.13058645
240	0xbe342b17	-0.17594562
241	0x3e0e52b0	0.1389873
242	0x3e02ac09	0.12760939
243	0xbe310fa3	-0.17291121
244	0xbdbf6551	-0.093454964
245	0x3e20eac8	0.15714562
246	0xbd43efd0	-0.047836125
247	0x3d9e30bf	0.07724141
248	0x3e251685	0.16121872
249	0xbda34f7a	-0.07974143
250	0x3db7d436	0.08976023
251	0xbbec6aaf	-0.007214866
252	0xbd769109	-0.06019691
253	0xbd8c821a	-0.068607524
254	0xbd7f5323	-0.062335145
255	0x3e1192a2	0.14216092

encoder.2.weight f4 [256, 256]
0	0x3d13a7fc	0.036048874
1	0xbc7889f0	-0.015169606
2	0x3a7a2a80	0.0009543076
3	0xbd3dfa26	-0.04638114
4	0xbd2e7cd0	-0.0425995
5	0xbcd48430	-0.025941938
6	0xbd0523d2	-0.032504864
7	0xbce9a40c	-0.028520606
8	0x3d01ab88	0.031657726
9	0x3ca52f6c	0.020164214
10	0x3d6cfa50	0.057855904
11	0xbcd430a4	-0.0259021
12	0x3be57030	0.007001899
13	0x3ce4bed4	0.027923025
14	0xbd72461c	-0.059148893
15	0xbbca1310	-0.006166823
16	0xbd76c918	-0.06025037
17	0x3cca1960	0.024670303
18	0xbd0482e0	-0.032351375
19	0xbd044c44	-0.032299295
20	0xbd4e5d9c	-0.05038224
21	0x3d30ad0a	0.043133773
22	0xbb209540	-0.0024503022
23	0xbb980410	-0.004639156
24	0xbd65dba2	-0.05611766
25	0x3b665740	0.003514722
26	0xba8272c0	-0.0009952411
27	0xbd15a678	-0.03653571
28	0xbd2f6cea	-0.042828478
29	0x3cd3e9ac	0.02586826
30	0x3c8726ac	0.016497932
31	0xbc2ade68	-0.010429002
32	0x3cd057c4	0.025432475
33	0xbd3f7984	-0.046746746
34	0x3afa1e80	0.0019082576
35	0x3bde7600	0.006788969
36	0xbd20999e	-0.039209
37	0xbd7000c4	-0.05859448
38	0x3d4a2304	0.0493498
39	0xbd153a48	-0.036432534
40	0xbd4dd6b6	-0.050253592
41	0xbc895668	-0.016764835
42	0x3d067b0c	0.03283219
43	0x3aaeb840	0.0013330057
44	0x3d26bf60	0.040709853
45	0xbb7002c0	-0.0036622733
46	0x3c94a818	0.01814656
47	0x3b99ac20	0.0046897084
48	0x3d47f96a	0.048821844
49	0xbb15c3a0	-0.0022852197
50	0x3d1bc03c	0.038025126
51	0xbd4bb68a	-0.04973463
52	0xbc7e2ee0	-0.015514106
53	0x3d128134	0.03576775
54	0xbcd1919c	-0.025582127
55	0xbd715442	-0.058918245
56	0xbcb836bc	-0.022487037
57	0x3c5d3970	0.013502464
58	0x3d1f6764	0.03891696
59	0x3d37058c	0.044683024
60	0xbbcb3650	-0.006201543
61	0xbc1c1a60	-0.009527773
62	0xbd506964	-0.05088176
63	0xbd6b3c40	-0.057430506
64	0xbd3049d6	-0.043039165
65	0x3d42953a	0.047505595
66	0xbd679cd6	-0.056546055
67	0x3c54e170	0.012993202
68	0x3c948998	0.018132016
69	0x3b40ffa0	0.002944924
70	0x3d2e278a	0.042518176
71	0x3d0bd75c	0.03414093
72	0x3d07bff2	0.033142038
73	0xbcfafb40	-0.030637383
74	0xbcd31500	-0.02576685
75	0x3d420b86	0.04737427
76	0xbd473952	-0.04863865
77	0x3d062fc0	0.03276038
78	0xbcc7fa28	-0.024411276
79	0x3d57cef4	0.0526876
80	0xbbbebf20	-0.0058211237
81	0x3d5cc562	0.053899176
82	0xbc347d90	-0.011016265
83	0xbd29eece	-0.041487508
84	0xbd2995ec	-0.041402742
85	0x3b9d2a30	0.004796289
86	0x3c65ffc0	0.014038026
87	0xbd0bfdb4	-0.034177497
88	0xbd5752a4	-0.052569047
89	0xbd3aeff8	-0.04563901
90	0xbc641230	-0.013920352
91	0x3d478492	0.048710413
92	0xbd5b19b2	-0.0534913
93	0xbc35a608	-0.011086948
94	0x3d52df90	0.051482737
95	0x3d56a584	0.05240394
96	0xbd111654	-0.035421684
97	0x3d0547a6	0.032539032
98	0xbcf35d64	-0.029707618
99	0xbd58922a	-0.052873768
100	0x3c95d2b4	0.018288948
101	0x3cd5edec	0.026114427
102	0xbca018b0	-0.019543022
103	0x3d324c78	0.043529958
104	0xbc916090	-0.01774624
105	0xbd0b5da8	-0.034024864
106	0x3d3577ac	0.04430358
107	0xbbb54270	-0.0055316016
108	0xbbb840f0	-0.0056229755
109	0xbcb7caf8	-0.02243565
110	0x3d2cfda8	0.042234093
111	0x3cf1ecfc	0.029531948
112	0x3c9fc048	0.019500867
113	0x3b0422a0	0.002016224
114	0x3d3eb884	0.046562687
115	0x3d33503a	0.043777682
116	0x3d483d36	0.0488865
117	0x3c193378	0.00935065
118	0xbcee08e8	-0.029056981
119	0x3baef7f0	0.005339615
120	0xbd47e324	-0.048800603
121	0xbd516dd0	-0.051130116
122	0xbd570eb8	-0.05250427
123	0x3d6d4c96	0.057934366
124	0xbd21b00a	-0.039474525
125	0xbc8e737c	-0.017389052
126	0x3d38b314	0.045092657
127	0xbcfe2eb0	-0.031028122
128	0x3d6dcd5c	0.058057174
129	0x3d6278fc	0.05529116
130	0x3c5e0c90	0.0135528
131	0xbd791572	-0.060811467
132	0x3d42760a	0.047475852
133	0x3ce0f93c	0.027462594
134	0x3d057474	0.03258176
135	0x3d313f6e	0.043273382
136	0x3d2978d6	0.041375004
137	0x3d65562a	0.055990376
138	0x3d5bdcaa	0.05367724
139	0x3b6b32c0	0.0035888404
140	0xbcd8e668	-0.026477054
141	0xba604a80	-0.0008556023
142	0x3d7fc3ea	0.062442698
143	0x3ca109a0	0.01965791
144	0xbd740c8c	-0.059582278
145	0x3d2d4c66	0.042309187
146	0x3d70cc3a	0.058788516
147	0xbd2717c8	-0.040794164
148	0x3d4ae69a	0.049536325
149	0x3d6d0738	0.057868212
150	0xbcc5873c	-0.024112336
151	0x3bc0ce10	0.0058839396
152	0x3d4b3524	0.049611226
153	0xbbf8ab70	-0.0075887963
154	0x3d4d0bf0	0.050060213
155	0xbc27f228	-0.010250606
156	0xbd413aec	-0.047175333
157	0xbc4046a8	-0.011735596
158	0x3d54f58e	0.05199199
159	0xbd2ddef2	-0.042448945
160	0x3cb9ec98	0.022695825
161	0xbd23eb66	-0.040019415
162	0x3d0c4802	0.03424836
163	0xbd4231ee	-0.047410898
164	0x3d1519c6	0.036401533
165	0xbd7112a6	-0.058855675
166	0xbc7cd1b0	-0.015430853
167	0x3c9b866c	0.018984996
168	0x3bfced90	0.0077187493
169	0x3d055c80	0.032558918
170	0x3cc5aec4	0.024131186
171	0xbd2ddef0	-0.042448938
172	0x3bfa1cc0	0.007632822
173	0x3d649d64	0.055814162
174	0xbc9383c8	-0.018007174
175	0x3d5c64a8	0.05380693
176	0xbd4cabb6	-0.049968444
177	0x3d680d0a	0.05665306
178	0x3d7f8f18	0.062392324
179	0xbcddf670	-0.02709505
180	0xbd16e30a	-0.036837615
181	0x3c41ef78	0.011836879
182	0xbcd9efbc	-0.026603572
183	0xbd1bf882	-0.038078792
184	0xbc374600	-0.011186123
185	0x3ad724c0	0.0016414151
186	0xbae2cf40	-0.0017304197
187	0x3cc6466c	0.024203502
188	0xbd6e9eea	-0.05825702
189	0x3ca5c13c	0.020233743
190	0x3c36dcb0	0.011161014
191	0x3c23df50	0.010001972
192	0xbd67c7e8	-0.05658713
193	0xbd60495c	-0.05475746
194	0x3d11b204	0.03557016
195	0xbbbd43b0	-0.0057758912
196	0xbd65eb82	-0.0561328
197	0x3d0ea2d6	0.03482326
198	0x3c6f3038	0.014598899
199	0x3bdf4570	0.0068136975
200	0x3cca57a4	0.024699993
201	0x3d4df17a	0.050279118
202	0x3d5f7da6	0.054563187
203	0x3bb16fb0	0.0054149255
204	0x3d4cb1ca	0.04997424
205	0x3c309f48	0.010780163
206	0xbc3c1db8	-0.011481695
207	0xbad5e9c0	-0.0016320273
208	0xbcbc66f4	-0.02299831
209	0x3c5b6218	0.013390087
210	0xbd2052b2	-0.039141364
211	0x397f9600	0.00024374574
212	0x3d6f83fa	0.058475472
213	0x3d3178e8	0.043328196
214	0x3d1c4588	0.038152248
215	0x3c745f58	0.01491531
216	0x3d1b6956	0.037942253
217	0x3ce7dc88	0.0283034
218	0x3b15ecc0	0.002287671
219	0x3d5026d2	0.050818272
220	0xbbce0e50	-0.0062883273
221	0xbd609e36	-0.05483838
222	0x3cdae63c	0.026721112
223	0x3ced9524	0.02900178
224	0xbd39af28	-0.045333058
225	0x3ce3de24	0.027815886
226	0xbc2827b8	-0.010263376
227	0xbcc9cb48	-0.024633065
228	0x3d3de21e	0.04635822
229	0x3c08f1c8	0.008358426
230	0xbd003812	-0.031303473
231	0xbc6b0258	-0.0143438205
232	0xbd50783c	-0.050895914
233	0x3d61b264	0.055101767
234	0xbd6d551e	-0.057942502
235	0x3d5b7042	0.053573854
236	0x3d49db18	0.04928121
237	0xbd0d824e	-0.034548096
238	0x3c325568	0.01088462
239	0xbcf632d8	-0.030053541
240	0xbd3a5cf4	-0.045498803
241	0xbd0ea0fc	-0.034821495
242	0x3d76aa8e	0.060221247
243	0xbd472fee	-0.048629694
244	0x3d30d5bc	0.043172583
245	0xbd72eb72	-0.05930657
246	0xbc3d9380	-0.011570811
247	0xbc561118	-0.013065599
248	0xbd740034	-0.059570506
249	0x3d0ccb38	0.034373492
250	0x3cf9b7b0	0.030483097
251	0xbaf3a340	-0.0018588081
252	0xbc208e40	-0.00979954
253	0x3cbd32c0	0.023095489
254	0xbcdaf63c	-0.026728742
255	0xbc944674	-0.0181

encoder.2.bias f4 [256]
0	0x3d323c12	0.04351432
1	0xbd7686d4	-0.060187176
2	0xbbb1ba40	-0.005423814
3	0xbab63a80	-0.0013902932
4	0xbd2efa20	-0.042719007
5	0x3cfea878	0.031086192
6	0x3cc94318	0.024568126
7	0xbd497508	-0.049183875
8	0xbd5e1538	-0.054219455
9	0x3d10788e	0.03527122
10	0xbacadb40	-0.0015476719
11	0xbd4e9b2c	-0.050440952
12	0xbd19e486	-0.037571453
13	0xbcb66ea4	-0.022269554
14	0xbc7b04a0	-0.015320927
15	0x3d6cba7a	0.057795025
16	0xbce53278	-0.027978167
17	0xbc60b160	-0.0137141645
18	0x3cc64f5c	0.024207763
19	0xbd3b4b28	-0.04572597
20	0xbaf1fb40	-0.0018461719
21	0x3d7342aa	0.059389748
22	0x3d4ecace	0.05048638
23	0xbd7d9548	-0.061909944
24	0xbd121f96	-0.035674654
25	0x3d75c22a	0.059999622
26	0xba5fbc80	-0.00085348636
27	0x3d72f4a4	0.05931534
28	0x3cefff80	0.029296637
29	0x3d0bb284	0.034105793
30	0xbcb43340	-0.021997094
31	0x3d7b21a6	0.061311387
32	0xbd6c00f4	-0.057618096
33	0xb9092200	-0.00013078004
34	0x3c69c518	0.014268182
35	0xbc335618	-0.010945819
36	0x3d51e836	0.051246844
37	0xbd192914	-0.03739269
38	0x3c7673a0	0.015042216
39	0xbd0dd726	-0.03462901
40	0xbd67164c	-0.05641775
41	0x3d358214	0.044313505
42	0x3d73a8e0	0.059487224
43	0x3c984044	0.018585332
44	0x3bd7da00	0.006587267
45	0xbd5d8052	-0.054077454
46	0xbd481458	-0.048847526
47	0x3c821630	0.01587972
48	0x3c809fb0	0.015701145
49	0x3c7c8468	0.0154124275
50	0x3d65ff92	0.056151934
51	0x3d4463c8	0.04794672
52	0xbd55e912	-0.052224226
53	0xbbd8a960	-0.006611988
54	0x3d1bddea	0.03805343
55	0x3cc4b6bc	0.024012916
56	0x3c9aec7c	0.018911593
57	0x3bd6ba20	0.0065529495
58	0x3901c400	0.00012375414
59	0xbd271cc2	-0.04079891
60	0xbcce1054	-0.02515427
61	0xbc847678	-0.016169772
62	0xbbe0c7a0	-0.0068597347
63	0x3d67b098	0.056564897
64	0x3b05c7a0	0.0020413175
65	0x3d2379a0	0.039910913
66	0x3cd6a3b4	0.026201107
67	0xbd050a8e	-0.03248077
68	0xbd245c6e	-0.04012721
69	0x3d329a14	0.04360397
70	0x3cb8e6e8	0.022571042
71	0x3d4e3388	0.050342113
72	0x3bde54b0	0.006784998
73	0xbd5642b0	-0.052309692
74	0xbcd8cdb0	-0.026465267
75	0xbd29d692	-0.041464396
76	0x3be331d0	0.0069334283
77	0xbd645b66	-0.055751227
78	0x3d74a83e	0.05973076
79	0x3cdb42f8	0.026765332
80	0x3cd5d5c4	0.026102908
81	0xbbdbd6c0	-0.00670895
82	0xbd6d8f94	-0.057998255
83	0x3b394620	0.0028270558
84	0xbd75930e	-0.059954695
85	0xbd4934e2	-0.0491227
86	0xbd755256	-0.059892975
87	0xbceb00b4	-0.028686859
88	0x3d78344a	0.06059674
89	0xbcd8cf7c	-0.026466124
90	0x3bc32ad0	0.0059560314
91	0x3d6cbefa	0.057799317
92	0x3c285a58	0.010275446
93	0x3cc00fb8	0.023444995
94	0xbd68af4c	-0.0568078
95	0x3c28b520	0.01029709
96	0x3d120702	0.035651214
97	0x3c695ce0	0.0142433345
98	0xbd62b0a0	-0.055344224
99	0xbd707a68	-0.058710486
100	0xbcda72b0	-0.026666015
101	0x3cf453e0	0.029825151
102	0x3ced7a98	0.028989121
103	0x3c0408d0	0.008058742
104	0xbc7df390	-0.015499964
105	0x3d02ea34	0.031961635
106	0xbd48cffa	-0.049026467
107	0xbd14c910	-0.03632456
108	0x3d40da68	0.04708329
109	0x3b8ae410	0.004238613
110	0xbcd3d734	-0.025859453
111	0x3cb92a78	0.022603258
112	0xbd067362	-0.03282488
113	0x3cbd4e08	0.023108497
114	0xbca82f5c	-0.020530395
115	0x3c1be138	0.009514146
116	0x3d088a60	0.03333509
117	0xbc984eac	-0.018592201
118	0x3cb233ac	0.021753155
119	0x3cb259dc	0.021771364
120	0x3d2ac9f4	0.041696504
121	0xbc9b37e0	-0.018947542
122	0xbd664aa2	-0.05622352
123	0xbd425588	-0.04744485
124	0xbd5d6638	-0.05405256
125	0x3d2627d2	0.04056532
126	0x3d0a8ab2	0.033823676
127	0xbcc6d2c4	-0.024270423
128	0xbd450caa	-0.04810778
129	0x3c79a6b0	0.015237495
130	0xbd734e1a	-0.059400655
131	0x3cbbc204	0.022919662
132	0xbd67c2e8	-0.05658236
133	0xbd617c76	-0.055050336
134	0xbd425370	-0.047442853
135	0x3d76d440	0.06026101
136	0xbc806804	-0.015674599
137	0xbd3f6eee	-0.04673665
138	0x3d21d81a	0.03951273
139	0x3d06731c	0.03282462
140	0xbc8ef750	-0.017451912
141	0x3c9ec974	0.01938317
142	0x3d683c90	0.056698382
143	0xbd57fc58	-0.052730888
144	0xbcf8576c	-0.030315123
145	0x3c837dcc	0.016051196
146	0x3bb3e430	0.0054898486
147	0xbc259418	-0.010106109
148	0xbd0d05fe	-0.034429543
149	0x3d12ade0	0.03581035
150	0xbd2d410c	-0.04229836
151	0x3d518032	0.051147647
152	0xbd098a8c	-0.033579394
153	0xbd0293cc	-0.03187923
154	0x3cd59158	0.026070282
155	0x3d40d38c	0.047076747
156	0xbb2e9fa0	-0.0026645437
157	0xbcaf0c8c	-0.021368288
158	0xbc7a6c48	-0.015284605
159	0x3b8ac530	0.0042349324
160	0xbb97ab10	-0.0046285465
161	0xbcd3d770	-0.025859565
162	0x3d781ff8	0.060577363
163	0xbbf52ad0	-0.0074819103
164	0x3c267b80	0.010161281
165	0xbb3a45c0	-0.0028422922
166	0x3cc5caf8	0.024144635
167	0xbc84a71c	-0.016192965
168	0x3ca706a4	0.020388909
169	0x3d068c82	0.032848842
170	0xbd6bb08e	-0.057541423
171	0xb9831500	-0.00025001913
172	0xbbdec620	-0.0067985207
173	0x3d38873c	0.045050845
174	0xbcf7d288	-0.030251756
175	0xbd5dac08	-0.05411914
176	0x3d5c5b46	0.053797983
177	0xbcb23ba0	-0.021756947
178	0x3d7b104a	0.06129483
179	0x3d6c783e	0.05773186
180	0x3cc9f3c0	0.024652362
181	0x39d89000	0.0004130602
182	0x3cbd989c	0.023144059
183	0x3d08d41c	0.03340541
184	0xbcc68698	-0.024234101
185	0x3d6ccaba	0.057810523
186	0xbc7e79f8	-0.015532009
187	0x3c1fde28	0.009757556
188	0x3ccd21e4	0.025040574
189	0x3d773fd4	0.060363606
190	0xbbe66680	-0.007031262
191	0xbcd1e050	-0.025619656
192	0x3cfe3fc4	0.031036265
193	0xbd37a3b0	-0.04483384
194	0x3c460790	0.012086764
195	0xbb95de00	-0.0045735836
196	0xbcaada60	-0.020856082
197	0x3d2106ce	0.03931313
198	0x3d75f2d2	0.060046025
199	0x3cbe238c	0.02321031
200	0x3d2befa8	0.0419766
201	0xbc80b2bc	-0.015710227
202	0x3d0815f4	0.03322406
203	0xbd4e53de	-0.05037295
204	0x3d3ed474	0.04658933
205	0x3cd52164	0.026016898
206	0xbd1c2956	-0.03812536
207	0xbcead690	-0.028666764
208	0x3d3f9bb8	0.046779364
209	0xbc4d2ab8	-0.012522392
210	0xbd0a9698	-0.033835024
211	0xbc8fdd44	-0.017561562
212	0xbd0ccd20	-0.03437531
213	0xbd29fc50	-0.04150039
214	0x3ccde194	0.025131978
215	0xbcde3ed0	-0.02712956
216	0xbcdffabc	-0.02734124
217	0xbc8f2c58	-0.0174772
218	0x3d579ec2	0.052641638
219	0x3d657722	0.056021817
220	0xbd149688	-0.03627637
221	0xbcc9c9c4	-0.024632342
222	0xbd0b343c	-0.03398536
223	0xbd5820c6	-0.05276563
224	0x3d30ef74	0.04319711
225	0xbc39d7a0	-0.011342913
226	0x3cebbc80	0.028776407
227	0xbd4a7118	-0.04942426
228	0xbcbcc20c	-0.023041748
229	0xbd1ca35c	-0.03824173
230	0xbd569d24	-0.052395955
231	0xb9ebae00	-0.00044952333
232	0xbd77883c	-0.060432658
233	0x3c75cce0	0.015002459
234	0xbc2bc188	-0.010483153
235	0xbc78ba58	-0.015181147
236	0xbd4bab50	-0.049723923
237	0xb9df3f00	-0.00042580813
238	0x3c619eb0	0.013770744
239	0xbb9bbfb0	-0.0047530755
240	0xbd5b08d4	-0.053475216
241	0x3d2d9c74	0.042385533
242	0x3d55eb6a	0.05222646
243	0xbd3e0716	-0.046393476
244	0x3d49a260	0.04922712
245	0x3bafe430	0.0053677782
246	0x3d52a532	0.051427074
247	0xbd19fd0c	-0.03759484
248	0xbd074a50	-0.033029854
249	0x3cf32634	0.029681303
250	0x3ccdf014	0.025138892
251	0x3d061ad2	0.03274042
252	0x3c73d320	0.014881879
253	0xbc8c2c50	-0.017110974
254	0x3cd5b3fc	0.0260868
255	0x3ce6a890	0.028156549

fc_mu.weight f4 [8, 256]
0	0xbd54c116	-0.051941954
1	0x3d4acd34	0.049512103
2	0xbd256462	-0.040378936
3	0x3d6039c2	0.054742582
4	0x3d6ad1ac	0.057328865
5	0xbc8225b4	-0.015887119
6	0xbc3a08c8	-0.011354633
7	0xbd07c414	-0.03314598
8	0x3d0b5d0c	0.034024283
9	0x3c2bf800	0.0104961395
10	0xbd75b1a8	-0.05998388
11	0xbd5b5b40	-0.05355382
12	0x3c2cba90	0.010542527
13	0x3d1630fe	0.036667816
14	0x3c9cd864	0.019146152
15	0x3b44a1c0	0.0030003637
16	0xbc07d3d0	-0.008290246
17	0xbce4f3d8	-0.027948305
18	0xbd3d39c8	-0.046197683
19	0x3d58443e	0.052799456
20	0xbcfe2158	-0.031021759
21	0x3d403262	0.04692305
22	0xbd3a622c	-0.04550378
23	0xbb73cf80	-0.0037202537
24	0xbd5a8656	-0.05335077
25	0xbd05ecaa	-0.032696404
26	0x3cba0678	0.022708163
27	0xbca6fb1c	-0.02038341
28	0xbd7444f8	-0.059636086
29	0x3caa60f0	0.020798177
30	0x3cbd3a7c	0.023099177
31	0x3d71b598	0.059011072
32	0x3d1e9ccc	0.038723752
33	0xbd32830e	-0.043582015
34	0xbbd99dc0	-0.0066411197
35	0xbd39c5f2	-0.04535479
36	0xbb8a13a0	-0.0042137653
37	0x3d20c588	0.03925088
38	0xbd4b1c74	-0.049587682
39	0xbd30da72	-0.043177076
40	0xbcd8de1c	-0.026473098
41	0x3d76787c	0.060173497
42	0x3c30b4e8	0.010785319
43	0xbcfde268	-0.030991748
44	0x3cadf954	0.021237053
45	0x3b317440	0.0027077347
46	0xbb997d40	-0.0046841204
47	0xbcc24ae8	-0.023717359
48	0xbd09a246	-0.03360202
49	0x3cf00964	0.029301353
50	0x3d1bc838	0.03803274
51	0xbc283508	-0.01026655
52	0x3c641680	0.01392138
53	0xbcbe267c	-0.02321171
54	0x3c599118	0.013279222
55	0x3c8df0d0	0.017326742
56	0xbd72a5b4	-0.059240058
57	0xbd0a8e24	-0.033826962
58	0xbcf7ad50	-0.030234009
59	0x3cbffc14	0.02343563
60	0x3d051898	0.032494158
61	0x3d0d7790	0.03453785
62	0x3c29ad18	0.01035621
63	0x3c7665e0	0.015038937
64	0x3d7d881c	0.061897382
65	0xbd71f4a0	-0.059071183
66	0x3d1e8048	0.038696557
67	0x3cb5b6a0	0.022181809
68	0xbd0c8094	-0.03430231
69	0x3c807764	0.01568193
70	0x3d336626	0.04379859
71	0x3d4b8ee8	0.049696833
72	0x3cb11d18	0.021620318
73	0x3d2d3f62	0.042296775
74	0x3c85b168	0.016319945
75	0xbc1c9f00	-0.009559393
76	0xbd48562a	-0.048910297
77	0xbc7f27a8	-0.01557342
78	0xbbb9d950	-0.0056716576
79	0x3d5d924e	0.054094605
80	0xbca61fa0	-0.020278752
81	0x3d06fa80	0.03295374
82	0x3ca3cb50	0.019994408
83	0xbca1cd88	-0.019751325
84	0xbd2a9e7c	-0.04165505
85	0x3d558c84	0.05213596
86	0x3cf07b2c	0.029355608
87	0x3bc541d0	0.0060198084
88	0x3c9bfaac	0.019040428
89	0x3d1f0cbc	0.038830504
90	0xbd186d22	-0.037213452
91	0x3d5c705a	0.053818084
92	0xbd0b9f3e	-0.034087412
93	0xbd7c3642	-0.06157518
94	0xbcd9bf64	-0.02658052
95	0x3d67bf4a	0.05657891
96	0xbc9a92f4	-0.0188689
97	0x3bf56ff0	0.0074901506
98	0x3d23b8aa	0.03997103
99	0x3d055666	0.0325531
100	0x3c27baa0	0.010237366
101	0x3d6c5b22	0.0577041
102	0x3d1c0d48	0.038098603
103	0x3d78643e	0.060642473
104	0xbcb2083c	-0.021732442
105	0x3d46a594	0.04849775
106	0xbb5e13e0	-0.0033886358
107	0x3c65a9d0	0.014017537
108	0xbc8a0d2c	-0.016851984
109	0x3d5d4216	0.054018103
110	0xbcfbba08	-0.030728355
111	0x3d1ca254	0.038240746
112	0x3c875f50	0.01652494
113	0x3d490d16	0.049084745
114	0x3d79be26	0.060972355
115	0xbbd106a0	-0.0063789636
116	0x3d50a17c	0.050935254
117	0xbcb3e55c	-0.021959953
118	0xbd2d40b6	-0.04229804
119	0x3d0ec600	0.034856796
120	0xbb8a8750	-0.0042275563
121	0xbbdf4c70	-0.006814532
122	0x3d53240e	0.051548056
123	0x3d35a952	0.04435093
124	0x3d2782e2	0.040896304
125	0x3d61add6	0.055097423
126	0xbd0fe6a4	-0.035132065
127	0x3d7d00a0	0.061768174
128	0x3ce1d574	0.027567603
129	0x3d033638	0.03203413
130	0xbcbe5b60	-0.02323693
131	0x3b888650	0.004166402
132	0x3cf3a6c4	0.029742606
133	0x3d12a9aa	0.035806336
134	0xbd51a00a	-0.051178016
135	0xbc925538	-0.017862901
136	0x3d06b64a	0.03288869
137	0x3c2dd5d8	0.010610066
138	0x3cd0d224	0.025490828
139	0x3d606702	0.054785736
140	0xbd4220f0	-0.047394693
141	0x3be481a0	0.0069734603
142	0x3d787534	0.06065865
143	0x3c92872c	0.01788672
144	0xba406b00	-0.0007340163
145	0x3ca5cfcc	0.020240687
146	0xbc89f370	-0.016839713
147	0x3c902604	0.017596252
148	0xbd6bb014	-0.057540968
149	0x3d4f6942	0.05063749
150	0xbd7c7878	-0.061638325
151	0x3d5fa6ea	0.05460254
152	0x3c9a0fa0	0.018806279
153	0xbd077e50	-0.033079445
154	0xbd06da8e	-0.032923274
155	0x3cb62494	0.022234239
156	0x3c98f594	0.018671788
157	0xbc9d9f3c	-0.019240968
158	0xbd7ff572	-0.062489934
159	0xbd5c27d4	-0.05374892
160	0x3a8ab940	0.0010583773
161	0x3c3b91f8	0.011448376
162	0x3cdd739c	0.027032666
163	0xbb8b7dc0	-0.004256934
164	0xbd3ef942	-0.04662443
165	0x3d2220f8	0.039582223
166	0xbd6ff710	-0.058585227
167	0x3d6d9504	0.05800344
168	0xbc067c68	-0.008208372
169	0x3c8ede00	0.017439842
170	0xbb2fc860	-0.0026822314
171	0xbcfbb184	-0.030724294
172	0xbc30eb78	-0.010798328
173	0x3d53dae6	0.05172243
174	0xbbd2a7f0	-0.006428711
175	0x3bc0c6a0	0.005883053
176	0xbd14bf00	-0.036314964
177	0x3d2191d6	0.03944572
178	0x3d2a1d0c	0.041531608
179	0xbc1a5ff0	-0.009422287
180	0x3d1886b4	0.037237838
181	0xbd71d49a	-0.059040643
182	0x3d789f3a	0.060698725
183	0x3c9e4098	0.01931791
184	0x3d497be2	0.04919041
185	0x3d09edcc	0.033674046
186	0x3c8b229c	0.016984276
187	0xbce983c8	-0.028505221
188	0xbcdfcf84	-0.02732063
189	0xbc0c0be8	-0.008547761
190	0xbce86c7c	-0.028372042
191	0xbc7361f8	-0.014854901
192	0xbce75acc	-0.028241538
193	0x3cb81f20	0.022475779
194	0xbd2ec908	-0.042672187
195	0x3bfa6c00	0.007642269
196	0xbd14c92a	-0.036324657
197	0xbd75b278	-0.059984654
198	0xbd49f04a	-0.049301423
199	0xbd3f12ce	-0.046648793
200	0xbd00e4c2	-0.03146816
201	0xbb2bdb00	-0.0026223063
202	0x3d7ba948	0.061440736
203	0xbce09bd4	-0.027418055
204	0xbcc00a64	-0.023442455
205	0xbcf0e3d0	-0.029405504
206	0xbd0f9d62	-0.0350622
207	0x3d42bcac	0.047543213
208	0x3ce2876c	0.027652465
209	0xbca07a2c	-0.019589506
210	0xbd21e034	-0.039520457
211	0x3c936218	0.01799111
212	0xbcb2f42c	-0.021844946
213	0xbce4c160	-0.02792424
214	0x3d4bdc5c	0.049770698
215	0xbbe9be70	-0.0071332976
216	0x3c13b5e8	0.009015538
217	0x3d4d9088	0.050186664
218	0xbcd36d34	-0.025808908
219	0x3d5584fa	0.05212877
220	0xbd0f1e00	-0.03494072
221	0x3cdc7644	0.026911862
222	0x3d102256	0.035188995
223	0xbcf08f98	-0.029365346
224	0x3a499a80	0.0007690564
225	0x3cc56880	0.024097681
226	0xbc084d80	-0.008319259
227	0xbd075794	-0.033042505
228	0x3d0336d8	0.032034725
229	0xbc0664b0	-0.008202717
230	0x3ca07424	0.01958663
231	0x3cc98f5c	0.024604492
232	0x3c02a6b8	0.007974319
233	0x3c862c3c	0.016378514
234	0xbd4c9d1c	-0.04995452
235	0x3bb89e70	0.0056341216
236	0x3ce85aa0	0.028363526
237	0x3d0aca8c	0.03388457
238	0x3d7ac8de	0.061226718
239	0xbc9d86ec	-0.019229375
240	0xbb798060	-0.0038070902
241	0xbca69dd8	-0.020338938
242	0x3cdc0d3c	0.02686178
243	0x3d61ba10	0.055109084
244	0x3c941b04	0.018079288
245	0xbc38d8c0	-0.011282146
246	0xbca5851c	-0.020205073
247	0x3d16fb08	0.036860496
248	0x3ad208c0	0.0016024336
249	0x3ca13d10	0.019682437
250	0x3d28cc66	0.041210555
251	0xbc9e574c	-0.019328736
252	0x3c444d88	0.0119813755
253	0x3d2e6972	0.04258103
254	0x3d3cb88a	0.046074428
255	0x3d1fec22	0.039043553

fc_mu.bias f4 [8]
0	0xbd4f0766	-0.050544165
1	0xbc9f1c78	-0.019422755
2	0x3d32b4aa	0.043629326
3	0xbc48acc8	-0.0122482255
4	0xbd07c890	-0.033150256
5	0xbbd0f500	-0.0063768625
6	0x3d689ee4	0.056792155
7	0x3d12de52	0.035856552

fc_logvar.weight f4 [8, 256]
0	0xbd1e1990	-0.038598597
1	0xbd694c52	-0.05695755
2	0x3ce81fe4	0.02833552
3	0x3d3808f4	0.044930413
4	0xbd2c4f14	-0.042067602
5	0x3d5f13a2	0.054462083
6	0x3d637328	0.055529743
7	0xbb0b6220	-0.0021268204
8	0xbca2e684	-0.019885309
9	0x3d13e254	0.036104515
10	0xbd0ea908	-0.03482917
11	0xbb7664e0	-0.0037596747
12	0xbc0dcff8	-0.008655541
13	0x3d081c64	0.0332302
14	0xbd7be44e	-0.061497025
15	0xbcaf3d70	-0.0213916
16	0x3cb85814	0.022502936
17	0xbb74a180	-0.0037327707
18	0x3d79bb62	0.060969718
19	0xbd01e374	-0.031711057
20	0xbd730de8	-0.059339434
21	0xbd11b5d8	-0.03557381
22	0xbd7b574e	-0.061362557
23	0x3d443432	0.04790134
24	0x3d6b91b2	0.057511993
25	0xbc8593a8	-0.01630576
26	0x3b9a6db0	0.004712783
27	0xbd169e1c	-0.03677188
28	0xbce523a0	-0.027971089
29	0x3d160860	0.03662908
30	0x3cc85d3c	0.02445852
31	0xbccf1920	-0.025280535
32	0x3d773544	0.060353532
33	0xbd3757f6	-0.04476162
34	0xbd105cc0	-0.035244703
35	0xbd74a9be	-0.05973219
36	0x3d55aa32	0.052164264
37	0xbbaa1460	-0.005190417
38	0x3d7763e6	0.060398005
39	0xbd2456f2	-0.04012198
40	0x3cf1194c	0.029431008
41	0xbcb217e4	-0.021739908
42	0x3d76b1e6	0.06022825
43	0xbb2f9e00	-0.0026797056
44	0x3d3a3b48	0.04546669
45	0xbd731788	-0.059348613
46	0xbcfc6b14	-0.030812778
47	0xbd5d95cc	-0.054097936
48	0xbc2dd3a0	-0.010609537
49	0x3d6929c4	0.056924596
50	0x3d268804	0.04065706
51	0x3d506088	0.05087331
52	0xbc75f070	-0.015010938
53	0xbd3edc70	-0.046596944
54	0xbd133934	-0.035943225
55	0xbd7d31e0	-0.061815143
56	0xbd287c1c	-0.041133985
57	0x3d0ee81c	0.034889325
58	0x3ccc8094	0.024963655
59	0xbd24d130	-0.04023856
60	0xbc7cbe70	-0.015426263
61	0x3d2287ba	0.03968022
62	0xbd52f01a	-0.05149851
63	0x3c5aa350	0.013344601
64	0x3c919514	0.017771281
65	0xbd7d336c	-0.061816618
66	0x3d56955e	0.05238854
67	0x3d188fe4	0.0372466
68	0x3ce1d28c	0.027566217
69	0xbd6c15b2	-0.057637878
70	0x3c3d2bc0	0.011546075
71	0xbb137aa0	-0.002250351
72	0x3d2dc466	0.04242363
73	0x3d571a32	0.052515216
74	0xbd7ed638	-0.062216014
75	0xbd784932	-0.06061668
76	0x3cb775f0	0.022395104
77	0xbc157080	-0.00912106
78	0xbd7220ea	-0.05911342
79	0xbd39e300	-0.0453825
80	0x3d31e2f6	0.043429337
81	0x3cf320fc	0.029678814
82	0xbcaa6670	-0.0208008
83	0x3caf8ec0	0.021430373
84	0xbc363ab0	-0.011122391
85	0x3d772a70	0.060343206
86	0x3d3a1f78	0.045440167
87	0xbd2b3a02	-0.041803367
88	0xbca72300	-0.020402431
89	0xbcf372a8	-0.029717758
90	0xbc6b68e8	-0.014368273
91	0x3d126dfc	0.03574942
92	0xbbb133d0	-0.005407788
93	0x3c04ee88	0.008113511
94	0xbcd56a04	-0.026051529
95	0xbd14349e	-0.036182992
96	0x3d7448c2	0.0596397
97	0xbc95a83c	-0.018268697
98	0x3cb16b20	0.021657526
99	0x3cc079fc	0.023495667
100	0x3d1160c2	0.035492666
101	0xbd32f1b2	-0.04368753
102	0xbccb7910	-0.024838
103	0xbbf3e070	-0.0074425265
104	0x3a3be680	0.0007167831
105	0xbd3125b0	-0.043248832
106	0x3cf1f804	0.029537208
107	0xbbcb7400	-0.0062088966
108	0x3c2f6320	0.010704786
109	0xbd35ebf4	-0.044414476
110	0xbbad2f70	-0.005285196
111	0x3d46de40	0.048551798
112	0x3b8a5430	0.0042214617
113	0x3b183220	0.0023223236
114	0xbd19c05a	-0.037536956
115	0x3cdb1c9c	0.02674704
116	0xbcf959b8	-0.030438289
117	0xbca4e828	-0.020130232
118	0xbd23500a	-0.039871253
119	0x3b98be90	0.0046613887
120	0xbd347a12	-0.044061728
121	0x3c83a29c	0.01606875
122	0xbbde23d0	-0.0067791715
123	0xbc0806d8	-0.008302413
124	0x3d6aef52	0.05735714
125	0xbcff3334	-0.031152345
126	0x3d2e513e	0.042557947
127	0xbd482d1c	-0.048871145
128	0xbc4cad58	-0.0124925
129	0x3d3b4b0e	0.045725875
130	0x3cf66c90	0.030081064
131	0x3c965b30	0.018354028
132	0x3d04c6b0	0.032416046
133	0xbcb5ca00	-0.022191048
134	0x3d6e442a	0.058170475
135	0xbd531ba8	-0.051540047
136	0xbd181de2	-0.037137873
137	0xbb63ffe0	-0.0034789965
138	0x3c8c8b7c	0.017156355
139	0xbd1b03da	-0.03784547
140	0x3d0da24a	0.0345786
141	0xbd51ea1a	-0.051248647
142	0x3d7f5526	0.062337063
143	0x3c8c2400	0.01710701
144	0xbceeb7e8	-0.029140428
145	0xbce55bd4	-0.027997889
146	0x3d662754	0.05618985
147	0xbccff710	-0.025386363
148	0x3ce25ab4	0.027631141
149	0x3cad98ac	0.021190964
150	0xbd3ac6ce	-0.04559975
151	0x3d6d0888	0.057869464
152	0x3c0f3bd0	0.008742288
153	0x3989cb00	0.00026281923
154	0x3d44056c	0.047856733
155	0x3b2fe6e0	0.0026840493
156	0xbd1ef4e4	-0.038807765
157	0x3d00efee	0.031478815
158	0x3cf219d4	0.029553331
159	0x3bafb000	0.005361557
160	0xbc7b5e68	-0.015342332
161	0x3cfb0580	0.030642271
162	0x3b665620	0.003514655
163	0xbb1c1400	-0.0023815632
164	0xba542980	-0.0008093342
165	0xbd41ecb0	-0.047344863
166	0xbd3e6aca	-0.04648856
167	0xbd0ca79c	-0.034339532
168	0x3a94d580	0.0011355132
169	0xbd749bd6	-0.05971893
170	0x3d56bf44	0.0524285
171	0xbbcc3040	-0.006231338
172	0x3c4c3a08	0.012465008
173	0xbd40ddcc	-0.047086522
174	0x3d584ac8	0.052805692
175	0x3b8f2be0	0.004369244
176	0xba3b5d80	-0.00071474165
177	0xbd764948	-0.06012848
178	0x3d452840	0.04813409
179	0x3c83e184	0.016098745
180	0xbd262ea2	-0.040571816
181	0x3c4aa668	0.012368776
182	0xbd3ab530	-0.04558295
183	0xbc914f14	-0.017737903
184	0xbd27d362	-0.040973075
185	0xbc5c1e40	-0.013434947
186	0xbd558b82	-0.052135
187	0xbc69d2f8	-0.01427149
188	0x3d53c5b2	0.05170221
189	0xbd2a2e28	-0.041547924
190	0x3aae7000	0.0013308525
191	0xbd44ea14	-0.048074797
192	0xbcac9038	-0.021064863
193	0x3d5f5b5c	0.054530486
194	0x3cd6c524	0.02621705
195	0x3d12f390	0.03587681
196	0x3c948bdc	0.018133096
197	0x3c842bfc	0.016134255
198	0x3d522716	0.051306807
199	0xbca139c0	-0.019680858
200	0x3d1401be	0.036134474
201	0xbd47f3f4	-0.048816636
202	0x3ce577e8	0.028011277
203	0xbb22a000	-0.0024814606
204	0x3d023f02	0.03179837
205	0x3c3b3290	0.011425629
206	0x3bce9ac0	0.0063050687
207	0x3cc97788	0.02459313
208	0xbd5301f2	-0.051515527
209	0xbcb9f7d4	-0.022701181
210	0x3cce290c	0.025166057
211	0xbc37bdb8	-0.011214666
212	0xbd1c9af8	-0.038233727
213	0x3c415a30	0.0118012875
214	0x3d691f46	0.05691459
215	0x3d497d4a	0.04919175
216	0x3d7891ac	0.0606858
217	0x3cbe1f30	0.02320823
218	0x3d0ccbf8	0.034374207
219	0xbd5a5346	-0.053302072
220	0x3d161fbc	0.036651358
221	0x3c8c2938	0.017109498
222	0xbd32ab22	-0.043620236
223	0xbc75ca40	-0.015001833
224	0x3cf2fecc	0.029662512
225	0xbc8b5684	-0.017009027
226	0xbcba8638	-0.022769079
227	0xba8fd6c0	-0.0010974035
228	0x3cde2858	0.027118847
229	0xbd15184e	-0.036400132
230	0xbd3bdfd4	-0.045867756
231	0x3cc9bddc	0.024626665
232	0xbd064d42	-0.032788523
233	0x3d705dd0	0.058683217
234	0x3bc96880	0.0061464906
235	0xbce93efc	-0.028472416
236	0xbc8642dc	-0.016389303
237	0xbd075718	-0.033042043
238	0xb9381200	-0.00017554313
239	0xbd13d728	-0.03609386
240	0xbd0ad8ea	-0.03389827
241	0xba21c680	-0.00061712414
242	0x3d3319e8	0.043725878
243	0xbd5109b6	-0.05103465
244	0xbd2688e0	-0.040657878
245	0xbc4336a0	-0.011914879
246	0x3d41e3bc	0.047336325
247	0xbd24d60e	-0.0402432
248	0xbd5ec64e	-0.054388337
249	0xbd2c319e	-0.042039506
250	0x3d1a457a	0.037663914
251	0x3b971b40	0.0046114028
252	0x3d40dfa4	0.04708828
253	0xbcdb6d54	-0.02678553
254	0x3ce90a04	0.028447159
255	0xbcc0f1cc	-0.023552798

fc_logvar.bias f4 [8]
0	0x3d6dc97a	0.05805347
1	0xbcf11ca4	-0.029432602
2	0x3b4a8e20	0.0030907467
3	0xbd6cdae0	-0.057825923
4	0x3d11d282	0.035601147
5	0x3cb44d1c	0.022009425
6	0x3cf56980	0.029957533
7	0xbcb3b654	-0.021937527

decoder.0.weight f4 [256, 16]
0	0xbe3c2ed6	-0.18377241
1	0xbdc6be46	-0.097042605
2	0x3d7823ec	0.060581133
3	0xbe360ecb	-0.1777908
4	0xbd94ea28	-0.07271224
5	0xbd35442b	-0.044254463
6	0xbe3f3b56	-0.18674979
7	0x3e2dfe3e	0.16991517
8	0xbb31057b	-0.0027011323
9	0xbd564576	-0.052312337
10	0xbd1ec7e9	-0.038764868
11	0x3da1e108	0.079042494
12	0x3c618620	0.013764888
13	0x3dcc4a44	0.099751025
14	0x3d90e1b0	0.070742965
15	0x3e95809d	0.29199687
16	0x3ed4caa6	0.41560858
17	0xbe1823f7	-0.1485747
18	0x3e835031	0.2564712
19	0x3ea64e49	0.32481602
20	0xbe711aa8	-0.23545325
21	0x3e7e6b58	0.24845636
22	0xbcf405ed	-0.029787982
23	0xbb704f08	-0.00366682
24	0x3e133aba	0.14377871
25	0x3e1e94bc	0.15486425
26	0xbd19ee3a	-0.037580706
27	0xbe086d22	-0.13322881
28	0xbdaf7285	-0.08566765
29	0x3e8d704d	0.2762474
30	0x3dd19865	0.10234145
31	0xbe2939c7	-0.16525947
32	0x3e45df9c	0.19323581
33	0xbe00d614	-0.12581664
34	0x3e3df800	0.18551636
35	0xbe1a4992	-0.15067127
36	0x3c54f001	0.0129966745
37	0x3da1bd04	0.0789738
38	0xbe7373d7	-0.23774658
39	0xbe056f8d	-0.13030834
40	0x3cc64616	0.024203341
41	0xbe1c0d4a	-0.15239444
42	0x3de8e7c7	0.11372333
43	0x3dc2052a	0.09473641
44	0xbdd86c2f	-0.105675094
45	0xbe2e1d30	-0.17003322
46	0xbddbda47	-0.107349925
47	0xbcca53d9	-0.024698185
48	0xbe6a7c81	-0.22899057
49	0xbd9c696f	-0.07637297
50	0xbb365560	-0.0027821884
51	0x3d5aa9ff	0.053384777
52	0xbd5a7a93	-0.053339552
53	0x3d9ed5b3	0.07755604
54	0xbe569fe4	-0.20959431
55	0xbcde803d	-0.027160758
56	0x3e7050d0	0.23468328
57	0xbca77eb8	-0.020446166
58	0x3dd61ee9	0.104551144
59	0x3de2e945	0.11079649
60	0x3f0f0036	0.55859697
61	0xbe081e2a	-0.13292757
62	0xbd66b7fe	-0.056327812
63	0xbead6e03	-0.33872995
64	0x3e832386	0.2561304
65	0xbdc8df38	-0.098082006
66	0x3e5e69ea	0.2172009
67	0x3e7b05b6	0.24513897
68	0x3ee5479d	0.447812
69	0x3e930f27	0.28722498
70	0x3c8c9d0a	0.017164726
71	0xbc719092	-0.014743941
72	0x3e914cba	0.2837885
73	0x3eed5383	0.46352777
74	0xbd0a42da	-0.03375516
75	0x3dd2b90f	0.102892034
76	0xbe69d373	-0.22834568
77	0xbe4a4f48	-0.19756806
78	0xbe9478d3	-0.28998432
79	0xbe6ad6e9	-0.22933544
80	0x3ec4740b	0.38369784
81	0xbe46edb9	-0.19426621
82	0x3dbdc342	0.09265758
83	0x3ee518d2	0.447455
84	0x3d7941d0	0.06085378
85	0x3eb0614d	0.34449235
86	0x3e093c07	0.13401805
87	0x3df44e35	0.11928979
88	0xbd20df30	-0.03927535
89	0xbe62211b	-0.22082941
90	0xbe63cc9a	-0.22246018
91	0x3d695e3c	0.056974635
92	0xbe861fd7	-0.26196167
93	0x3e5b7f5a	0.214353
94	0xbe698250	-0.22803617
95	0x3d52aab0	0.05143231
96	0x3e7b17c1	0.2452078
97	0x3ba7386c	0.0051031616
98	0x3de2fd00	0.11083412
99	0xbc62f12d	-0.013851446
100	0xbe059749	-0.13045992
101	0x3e979a38	0.29609847
102	0xbc09cf10	-0.008411184
103	0xbe5d21ad	-0.21594878
104	0x3e5e9d7f	0.21739767
105	0xbe0cd6db	-0.13753836
106	0x3e7eff35	0.24902041
107	0xbbac67d4	-0.0052614007
108	0x3ebd244a	0.3694175
109	0xbe48ec2f	-0.19621347
110	0xbd9104e0	-0.07081008
111	0xbe6c5b83	-0.23081784
112	0x3c5c4c34	0.013445903
113	0x3dbb8f73	0.0915822
114	0xbe923875	-0.28558698
115	0x3dcb04e1	0.0991304
116	0x3de2b8fd	0.1107044
117	0xbc9e373e	-0.01931345
118	0x3eb1008d	0.34570733
119	0xbeb44bc2	-0.3521405
120	0x3d72f7ef	0.05931848
121	0x3efb380a	0.49066192
122	0xbd31dd6b	-0.04342405
123	0x3ea1d759	0.3160961
124	0xbd02bd94	-0.031919077
125	0xbe2047cb	-0.15652387
126	0xbd388ac6	-0.04505422
127	0xbe9fc6fa	-0.31206495
128	0x3e5e7076	0.21722588
129	0xbe59428e	-0.21216795
130	0xbe2ba16f	-0.16760801
131	0xbe168d9f	-0.14702462
132	0x3ebe9255	0.37221017
133	0x3e9d2ec3	0.3069974
134	0x3ece8d85	0.40342346
135	0xbef57edd	-0.47948352
136	0x3e75e71d	0.24013944
137	0x3cbb96ab	0.022898993
138	0xbdf08731	-0.11744536
139	0x3e4d2ede	0.2003741
140	0x3df57ff2	0.11987294
141	0x3e030ff2	0.12799051
142	0xbe7f90d0	-0.24957585
143	0xbeb2cd2a	-0.34922153
144	0xbdaea5c1	-0.08527709
145	0xbd17c85f	-0.037056323
146	0x3d20aa0d	0.039224673
147	0x3d0d215d	0.034455646
148	0x3e18adf4	0.14910108
149	0x3d1864df	0.037205573
150	0xbd450b8b	-0.04810671
151	0xbe6a7c83	-0.2289906
152	0x3e2d5742	0.16927817
153	0x3c968370	0.018373221
154	0x3daca9bf	0.08430814
155	0x3eafe601	0.34355167
156	0xbd48f52c	-0.04906194
157	0x3e12c3aa	0.14332452
158	0xbe31e0f1	-0.17370965
159	0x3d057d62	0.032590277
160	0xbe934043	-0.28759965
161	0x3d97f591	0.07419885
162	0x3ea4bd39	0.32175615
163	0xbe2d0e85	-0.1690007
164	0x3e815a4c	0.25264204
165	0x3deec24f	0.11658155
166	0x3e3e2705	0.18569572
167	0xbe40d555	-0.1883138
168	0x3d774f5c	0.060378417
169	0xbdd5641b	-0.10419484
170	0x3eabdacc	0.33565366
171	0x3eae5f55	0.34057108
172	0x3eca71d5	0.39539972
173	0xbe19428a	-0.14966789
174	0x3e18fd8e	0.14940473
175	0xbec8374d	-0.3910469
176	0xbe253b16	-0.16135821
177	0xbe4887e8	-0.19583094
178	0xbc6679aa	-0.014067093
179	0xbca2bd4f	-0.01986566
180	0x3de53c9f	0.11193203
181	0xbd6cb4f1	-0.057789747
182	0x3df66292	0.120305195
183	0x3e0e4c56	0.13896307
184	0xbd9188fb	-0.07106205
185	0xbde1a695	-0.11018101
186	0xbdb6b108	-0.08920485
187	0x3e2c3b20	0.1681943
188	0x3e99acf5	0.30014768
189	0xbd791c21	-0.06081784
190	0x3e2f29c1	0.17105772
191	0xbf1afb9d	-0.6054018
192	0xbe3dc0b7	-0.18530546
193	0xbee76293	-0.45192394
194	0x3d3d021b	0.046144586
195	0xbe0cc857	-0.13748299
196	0x3dd1cdae	0.102443084
197	0x3db91532	0.09037246
198	0x3ebc5e24	0.36790574
199	0xbe8b1ef8	-0.27172065
200	0x3d108704	0.03528501
201	0xbc0994ce	-0.008397294
202	0xbbfaa6b8	-0.007649269
203	0x3ed34715	0.4126517
204	0x3eb7c8eb	0.35895476
205	0xbd8ad316	-0.06778543
206	0xbd45199f	-0.048120137
207	0xbec39c31	-0.38205102
208	0xbe16d986	-0.14731416
209	0xbe806ec0	-0.25084496
210	0x3e77e76a	0.24209371
211	0xbe637b3d	-0.2221498
212	0x3d2ef1c0	0.04271102
213	0x3dcede2c	0.1010097
214	0xbc9d1899	-0.019176768
215	0x3cce5f7b	0.025192013
216	0x3cbf5780	0.023357153
217	0x3de284a2	0.11060454
218	0x3e31251c	0.17299312
219	0x3eaed121	0.34143928
220	0x3ebe6e23	0.37193403
221	0xbdbbea1e	-0.09175514
222	0x3dfd29bf	0.12361478
223	0xbec92a75	-0.39290205
224	0xbe82a16e	-0.25513786
225	0xbd88b09f	-0.06674313
226	0xbe1689ae	-0.14700958
227	0xbd61d15d	-0.055131305
228	0x3dda71dc	0.10666248
229	0x3dc50efd	0.096219994
230	0x3d90b8d9	0.07066507
231	0xbd106155	-0.035249073
232	0xbdc499c2	-0.095996395
233	0x3e2e0246	0.16993055
234	0xbd42c483	-0.04755069
235	0xbd11f32b	-0.035632294
236	0x3e698e42	0.22808173
237	0xbe9c8f6c	-0.30578172
238	0x3dd9093e	0.10597466
239	0xbedf0e3a	-0.43565542
240	0x3e931078	0.28723502
241	0xbdf23e6c	-0.11828312
242	0x3c8487c5	0.016178021
243	0xbc1fec1c	-0.009760883
244	0xbcdcd5b0	-0.026957363
245	0x3e9f694c	0.31135023
246	0x3e4efafc	0.2021293
247	0x3d8dd61d	0.069256045
248	0x3ea21bf7	0.3166196
249	0x3ef94b0f	0.48690078
250	0xbe80af06	-0.25133532
251	0x3b03734f	0.0020057743
252	0x3c6db6d7	0.014508924
253	0xbe0aada1	-0.13542797
254	0xbe6cc8c5	-0.23123462
255	0xbebd8ec9	-0.37023
