space_robot_planning/weights/cvae_debug/v1.pth (torch, 886661 bytes, 16 tensors)

encoder.0.weight f4 [256, 32]
0	0x3dc90b5a	0.09816618
1	0xbe1e262c	-0.15444249
2	0x3cc5a4b7	0.024126394
3	0x3d100070	0.035156667
4	0xbdb17314	-0.086645275
5	0x3d9f7f51	0.077879556
6	0x3cdbd90f	0.0268369
7	0xbd6a3f40	-0.057189226
8	0x3da9ce10	0.082912564
9	0x3b3c87ed	0.0028767542
10	0x3b59c93f	0.0033231524
11	0xb8e16f3a	-0.000107495536
12	0x3ce7687a	0.02824806
13	0xbe19b415	-0.15010102
14	0x3dff30fd	0.12460516
15	0xbda15ed3	-0.078794144
16	0x3dcadf23	0.09905841
17	0xbe248bcb	-0.16068952
18	0x3e030c99	0.12797774
19	0xbe343e52	-0.17601898
20	0x3dca28ea	0.09871085
21	0x3dcb34b5	0.099221624
22	0x3cd3ab3a	0.025838483
23	0x3ddeb1b3	0.10873737
24	0xbe0f0f3e	-0.13970658
25	0xbe1662a9	-0.14686073
26	0xbe05ab51	-0.13053633
27	0x3d34b977	0.044122186
28	0x3def791b	0.11693021
29	0xbc82d2be	-0.01596963
30	0x3dfb2cc7	0.122644
31	0xbd153835	-0.036430556
32	0x3e14b496	0.14522013
33	0xbddc51b8	-0.10757774
34	0x3c290163	0.010315272
35	0xbe3012ea	-0.17194715
36	0xbb2f8ac2	-0.0026785587
37	0xbd680e67	-0.05665436
38	0x3ddb2692	0.10700716
39	0xbc4a62c6	-0.012352651
40	0x3d96f341	0.07370616
41	0x3e0c9369	0.13728108
42	0xbdb7b51c	-0.08970091
43	0x3e2bd7b5	0.16781504
44	0xbd0c76ad	-0.034292866
45	0x3cebc215	0.028779069
46	0xbc028a22	-0.007967504
47	0x3e048567	0.12941514
48	0x3c150bbf	0.009097039
49	0x3d899ce9	0.06719381
50	0x3d957ffd	0.072998025
51	0x3bc2fb8d	0.0059503973
52	0xbe125e69	-0.14293827
53	0x3db80f6e	0.08987318
54	0xbe06e97f	-0.13175009
55	0xbd645a3d	-0.05575012
56	0xbe07beaa	-0.13256326
57	0xbdfe5497	-0.12418478
58	0xbd709ff0	-0.05874628
59	0x3e1d6727	0.15371381
60	0xbe2c00ee	-0.1679723
61	0x3d7c75d9	0.061635826
62	0x3ccaa533	0.024736976
63	0x3d9c0b97	0.07619398
64	0x3d9a9b62	0.07549168
65	0x3db3f0bc	0.08786151
66	0x3de9f1e6	0.114230916
67	0xbd6378b2	-0.055535026
68	0x3e273c81	0.16331674
69	0x3d874b40	0.0660615
70	0xbdf3eb81	-0.11910153
71	0x3e2fcc04	0.1716767
72	0xbd0be6f5	-0.034155805
73	0x3c694f30	0.014240071
74	0x3d95bf30	0.07311857
75	0xbd9f8532	-0.07789077
76	0xbdd93456	-0.106056854
77	0x3dc58af0	0.09645641
78	0xbd146f47	-0.036238935
79	0x3d2dcb01	0.042429928
80	0x3b129847	0.0022368596
81	0x3cf1d678	0.029521212
82	0xbdadf875	-0.08494655
83	0xbca99fd3	-0.020706093
84	0xba534ad7	-0.0008060163
85	0x3d384bf4	0.04499431
86	0x3e1c4e37	0.15264212
87	0xbbd4a1c9	-0.006489013
88	0x3d7e314a	0.062058724
89	0xbd0ae746	-0.033911966
90	0x3de10981	0.10988141
91	0x3e1d36d9	0.15352954
92	0x3e021218	0.12702215
93	0xbdccd899	-0.1000225
94	0x3dabd574	0.08390322
95	0x3c83e941	0.016102435
96	0x3ded0804	0.115737945
97	0xbdf01835	-0.11723367
98	0x3da66c33	0.08126106
99	0xbce1bb32	-0.027555082
100	0xbe05bdbf	-0.13060664
101	0x3dfc9712	0.12333502
102	0xbe269217	-0.16266666
103	0xbdb84852	-0.08998169
104	0xbe152dc8	-0.14568245
105	0x3e229652	0.15877655
106	0x3dfc82e5	0.12329654
107	0x3e0eb2dc	0.13935417
108	0x3d7253b7	0.059161868
109	0x3d8ebbe8	0.06969434
110	0xbc03a965	-0.008035992
111	0xbcf8b319	-0.030358838
112	0x3e21957d	0.15779682
113	0xbd271ded	-0.040800024
114	0xbd8fc5ab	-0.07020124
115	0x3dd942b3	0.10608425
116	0xbdb636f9	-0.08897204
117	0xbc934590	-0.017977506
118	0xbe0c9958	-0.13730371
119	0xbda50ae6	-0.08058719
120	0x3c04f7ae	0.008115692
121	0xbdf8fa68	-0.12157136
122	0x3e17101f	0.14752243
123	0x3dc7e9dc	0.09761402
124	0x3e317e70	0.17333388
125	0xbd570449	-0.05249432
126	0x3d28fc0a	0.04125599
127	0x3e025480	0.12727547
128	0x3def6f73	0.11691179
129	0xbd29dd9c	-0.04147111
130	0x3dc343e0	0.095344305
131	0x3d663cd2	0.056210347
132	0x3da8cfe1	0.08242775
133	0x3e26965c	0.16268295
134	0x3c9745da	0.018465925
135	0xbd45712f	-0.048203643
136	0x3e2bead0	0.16788793
137	0x3c81341d	0.01577192
138	0xbd3e2ca8	-0.046429306
139	0x3c06e2c3	0.008232775
140	0xbd8e50b4	-0.06948987
141	0xbdfe2545	-0.12409452
142	0x3df553bb	0.11978861
143	0x3e15c440	0.14625645
144	0x3cfeae29	0.031088905
145	0xbe2b97e2	-0.16757157
146	0xbcbabe57	-0.02279584
147	0xbe08d35b	-0.13361876
148	0xbddbb370	-0.10727584
149	0xbd170b9a	-0.0368763
150	0x3b2032c7	0.0024444328
151	0x3d133bcc	0.0359457
152	0x3e1334b0	0.14375567
153	0x3d15b37c	0.036548123
154	0xbde92ad6	-0.113851234
155	0xbe0d0622	-0.1377187
156	0x3e253fc9	0.16137613
157	0x3d770f57	0.060317364
158	0xbc64ac4f	-0.013957097
159	0xbd90afd2	-0.07064785
160	0xbc23e1f8	-0.010002606
161	0xbcc38406	-0.023866665
162	0xbd4c9b77	-0.04995295
163	0xbe15c30b	-0.14625184
164	0xbd47b355	-0.04875501
165	0x3cf15bc9	0.029462712
166	0x3d7af282	0.06126643
167	0x3e1c30fd	0.15253063
168	0x3e225ccd	0.15855713
169	0x3e119a55	0.14219029
170	0x3cfba20c	0.030716918
171	0x3d128557	0.035771694
172	0x3e092c60	0.13395834
173	0xbb5de67c	-0.0033859303
174	0xbe01d5a6	-0.12679157
175	0x3e237bba	0.15965167
176	0xbdb4a8a9	-0.08821232
177	0x3dbc24fd	0.091867425
178	0x3db99e01	0.0906334
179	0xbdc740c5	-0.09729151
180	0xbdddc277	-0.10828107
181	0xbdf55057	-0.11978214
182	0x3d99dd3d	0.07512901
183	0x3d1e904e	0.03871184
184	0x3e0a47d3	0.13503961
185	0x3c896f4a	0.0167767
186	0x3da9499d	0.08265994
187	0x3d786d13	0.060650896
188	0xbda7f181	-0.0820036
189	0xbd996eee	-0.07491861
190	0xbd1910eb	-0.03736965
191	0xbd82b7c9	-0.063827105
192	0xbdfd6fcf	-0.123748414
193	0xbe2bc284	-0.1677342
194	0xbe31a840	-0.17349339
195	0xbde8098b	-0.11329945
196	0x3da76238	0.081730306
197	0x3da51ab0	0.08061731
198	0xbe08a05d	-0.13342424
199	0x3d32a7fa	0.043617226
200	0xbdf785d4	-0.120860726
201	0xbddb8e95	-0.10720555
202	0xbded7d8c	-0.11596212
203	0x3d122c72	0.035686918
204	0xbe03f98b	-0.12888162
205	0xba8ee8ff	-0.0010903178
206	0xbd7eda1d	-0.062219728
207	0xbddfc88b	-0.109269224
208	0x3c291420	0.01031974
209	0x3cfdf71c	0.03100162
210	0x3da295af	0.07938706
211	0xbd48f2f2	-0.049059816
212	0xbd39010a	-0.045167007
213	0xbdbc2c17	-0.09188097
214	0xbe1ac604	-0.151146
215	0x3dd1abc2	0.10237838
216	0xbe0c8baa	-0.13725153
217	0xbc8e027b	-0.017335167
218	0x3d1cc039	0.038269255
219	0xbe0ee31f	-0.13953827
220	0xbe11d095	-0.14239724
221	0x3e017d67	0.12645493
222	0x3d1e3b5d	0.038630832
223	0x3df7ef05	0.12106136
224	0xbd10de5c	-0.03536831
225	0xbd74e22a	-0.059786
226	0x3d0d80a3	0.034546506
227	0x3dcf0823	0.10108974
228	0x3e30d8f5	0.17270263
229	0xbe1c260d	-0.1524889
230	0xbe10eb5a	-0.1415228
231	0xbe0908ce	-0.13382265
232	0x3e130c01	0.14360048
233	0xbc80f627	-0.015742375
234	0x3d814af6	0.06313126
235	0xbe214ee4	-0.1575275
236	0xbdda2ee5	-0.10653476
237	0x3d9df2e8	0.07712346
238	0xbe32ad5d	-0.17448945
239	0xbd595619	-0.053060625
240	0xbde9fe84	-0.11425498
241	0x3e197a95	0.14988168
242	0x3e0f4007	0.13989268
243	0xbdc942b2	-0.09827174
244	0xbd9e7016	-0.077362224
245	0x3bbf2d56	0.005834262
246	0xbda6f898	-0.08152884
247	0x3d91ee5a	0.0712554
248	0x3d45ceb9	0.04829285
249	0x3dc10e28	0.09426528
250	0x3d0382d5	0.032107193
251	0x3d52653b	0.051366072
252	0xbd957789	-0.0729819
253	0x3e217091	0.15765597
254	0xbd721008	-0.05909732
255	0xbc35b724	-0.011091027

encoder.0.bias f4 [256]
0	0xbda34a65	-0.07973174
1	0xbd193b91	-0.037410323
2	0x3ce37a7c	0.027768366
3	0x3d372249	0.04471043
4	0xbc7edcd4	-0.015555579
5	0xbdbf9c0d	-0.09355936
6	0xbe247c3f	-0.16063021
7	0xbd1b491a	-0.037911512
8	0x3e0d609a	0.13806382
9	0xbc9ff4c6	-0.019525897
10	0x3d7a4221	0.06109822
11	0xbe2d7fbb	-0.16943257
12	0x3dd4689f	0.103715174
13	0xbc15332b	-0.009106438
14	0x3bfa6039	0.007640865
15	0x3df0f317	0.11765116
16	0xbdb239b9	-0.08702416
17	0xbe032a76	-0.12809166
18	0x3d674d14	0.05646999
19	0x3dfd38e0	0.12364364
20	0xbdf0d0f0	-0.11758602
21	0x3e27c850	0.16385007
22	0x3de8dcfd	0.11370275
23	0x3bc205d5	0.0059211054
24	0xbdc268f0	-0.094926715
25	0xbe009913	-0.12558393
26	0x3e06ee56	0.13176855
27	0xbd80997a	-0.06279273
28	0xbcbcc024	-0.023040839
29	0x3dd00be1	0.10158516
30	0xbe335e0e	-0.17516348
31	0x3e09a9a3	0.13443618
32	0xbda1f5d6	-0.079082176
33	0x3e0c001f	0.13671921
34	0xbd49ecee	-0.04929822
35	0xbd824615	-0.06361023
36	0xbe02eb16	-0.1278499
37	0xbddf6e3b	-0.10909697
38	0x3dbe177f	0.09281825
39	0xbd7c4875	-0.061592538
40	0x3e0bdfad	0.13659544
41	0xbdeb70c1	-0.114961155
42	0x3baff63d	0.00536993
43	0xbcb21431	-0.021738144
44	0x3d41522f	0.047197517
45	0x3e12e824	0.14346367
46	0xbd73a5b0	-0.059484184
47	0xbcab2675	-0.020892361
48	0xbc1a15c6	-0.009404605
49	0xbd22d622	-0.039754994
50	0xbe1fb31d	-0.1559567
51	0xbd900a56	-0.070332214
52	0xbddd3347	-0.10800796
53	0xbe1a95d5	-0.15096219
54	0x3d33971c	0.04384528
55	0xbe09d53c	-0.13460249
56	0x3cc2ae4d	0.023764754
57	0xbc905419	-0.017618226
58	0xbca0693a	-0.019581426
59	0x3e2d4618	0.1692127
60	0x3dc54a35	0.096332945
61	0x3e2777f7	0.16354357
62	0x3d416743	0.04721762
63	0xbe19acf5	-0.15007384
64	0x3de3d940	0.111254215
65	0x3e1f479f	0.15554665
66	0x3e243625	0.1603628
67	0x3d3335e8	0.04375258
68	0x3ce9c5fb	0.028536787
69	0xbd802a02	-0.06258012
70	0x3e02d651	0.12777068
71	0xbe2cbf48	-0.16869843
72	0x3c9f8880	0.019474268
73	0x3dd8a48d	0.105782606
74	0x3ce17f17	0.027526421
75	0xbdd3190e	-0.10307513
76	0x3e00248a	0.12513939
77	0xbd3bc55c	-0.045842513
78	0x3e15b87b	0.14621155
79	0xbd17d25e	-0.037065856
80	0x3d22f813	0.039787363
81	0x3c226575	0.009911885
82	0x3d71b1f1	0.05900759
83	0x3e222a82	0.15836528
84	0xbe20884a	-0.1567699
85	0xbc16a529	-0.009194651
86	0xbbf50da1	-0.0074784313
87	0x3e328200	0.17432404
88	0x3dd2e1a3	0.10296943
89	0xbe13076e	-0.14358303
90	0x3cfeeebb	0.031119695
91	0x3dad5f09	0.08465392
92	0xbcdb6b53	-0.026784575
93	0xbdbe1941	-0.092821606
94	0xbe1ff956	-0.15622458
95	0xbe0bf76c	-0.13668603
96	0x3cc90b1f	0.024541436
97	0x3e05b103	0.13055806
98	0x3d69c2cd	0.057070542
99	0xbe1de716	-0.15420184
100	0x3e32c6af	0.17458604
101	0x3d4b08b9	0.049568865
102	0x3cebc3ce	0.02877989
103	0x3a8139fd	0.0009859201
104	0xbe247a6b	-0.16062324
105	0xbd1ad4df	-0.037800666
106	0xbde5bab0	-0.112172484
107	0x3bb8343e	0.005621462
108	0x3d08fa3e	0.033441775
109	0xbd9e6b23	-0.077352785
110	0x3cbe4b04	0.02322913
111	0xbd12c9f4	-0.03583713
112	0x3d5fc7a6	0.05463376
113	0xbc33b338	-0.010968022
114	0xbdfd2f08	-0.12362486
115	0xbd7775b8	-0.060415
116	0x3e26d589	0.16292395
117	0xbcec8a31	-0.028874489
118	0xbc4e0fd8	-0.01257702
119	0xbe1bd8a0	-0.15219355
120	0xbdd029ad	-0.10164199
121	0xbe1ff21b	-0.156197
122	0xbe321a61	-0.17392875
123	0xbd880f62	-0.06643559
124	0xbdbf3199	-0.09335632
125	0x3e2373c9	0.15962137
126	0xbd0d8fcc	-0.034560964
127	0x3da2979c	0.079390734
128	0x3e341f98	0.17590177
129	0xbd1356a5	-0.035971303
130	0xbd67f1fd	-0.056627262
131	0xbdd5044c	-0.1040121
132	0xbdd9b37b	-0.10629936
133	0x3d33e61b	0.043920618
134	0x3ba12b54	0.004918495
135	0x3de897b4	0.1135706
136	0x3d503468	0.05083123
137	0x3dc286a8	0.0949834
138	0x3d29bc5a	0.04143939
139	0xbcf7d533	-0.030253028
140	0x3dad3a4a	0.084583834
141	0xbbec6013	-0.0072136014
142	0xbe119840	-0.14218235
143	0x3dbd4e26	0.09243421
144	0x3d561e6e	0.052275114
145	0x3d8a7a28	0.06761581
146	0xbe12e6bc	-0.1434583
147	0xbc7e3473	-0.015515435
148	0xbe2812fd	-0.16413493
149	0x3dda5875	0.10661403
150	0x3d3ace2f	0.04560679
151	0x3ca64867	0.020298196
152	0xbd56071e	-0.05225288
153	0xbda696ef	-0.08134257
154	0xbda6f1aa	-0.081515625
155	0xbde13582	-0.10996534
156	0x3d570b28	0.052500874
157	0x3e137bf7	0.14402758
158	0x3d47823c	0.048708186
159	0x3d769f9e	0.060210817
160	0x3d72041f	0.05908596
161	0x3cd38c1d	0.025823647
162	0xbcfb40bb	-0.030670514
163	0x3d08d689	0.03340772
164	0xbde66608	-0.1124993
165	0x3da12d67	0.07869988
166	0x3da4d7d3	0.08048978
167	0x3e17b804	0.1481629
168	0xbda7edc8	-0.0819965
169	0xbdc3e5ab	-0.0956529
170	0x3e24a345	0.16077907
171	0x3de46582	0.111521736
172	0x3d24a0ab	0.040192287
173	0x3da2a6a2	0.07941939
174	0x3e081bef	0.13291906
175	0x3e2a4f3d	0.1663179
176	0x3de7ff09	0.11327941
177	0xbd734ced	-0.059399534
178	0xbdd4ad58	-0.10384625
179	0x3d092e86	0.033491634
180	0xbd0710f8	-0.032975167
181	0x3dc68a04	0.09694293
182	0x3e109993	0.14121084
183	0x3caf80a3	0.021423643
184	0x39bc6bff	0.00035938618
185	0xbe134cac	-0.14384717
186	0x3dbc347d	0.09189699
187	0xbe1c5c3f	-0.15269564
188	0x3d8e6f3e	0.069548115
189	0x3e0845b7	0.13307844
190	0x3dc2f7a4	0.0951989
191	0x3d672208	0.05642894
192	0x3c9d2392	0.019182
193	0xbc4e4787	-0.012590296
194	0xbda3c257	-0.07996052
195	0x3d6d53fc	0.057941422
196	0xbd82c694	-0.06385532
197	0xbbab5602	-0.005228759
198	0xbd937151	-0.07199348
199	0x3ce4dec7	0.02793826
200	0x3ce121fa	0.027482022
201	0xbd9a4ccf	-0.07534181
202	0x3de359df	0.11101126
203	0x3c6d4c40	0.014483511
204	0xbdf545ae	-0.11976181
205	0xbe028ad9	-0.12748279
206	0xbd883493	-0.06650653
207	0xbe2e5c2c	-0.17027348
208	0xbe3257e0	-0.17416334
209	0xbde0d60f	-0.109783284
210	0xbd90e5d1	-0.07075084
211	0x3df24d8d	0.11831198
212	0xbd129195	-0.03578337
213	0xbdc99bbc	-0.09844157
214	0xbdf70a6a	-0.12062533
215	0x3e177900	0.14792252
216	0x3dc07da1	0.09398962
217	0xbe1e2147	-0.15442382
218	0x3d9a4209	0.075321265
219	0xbc956f95	-0.018241683
220	0xbcb49ed1	-0.022048386
221	0xbde2a0c6	-0.11065821
222	0x3c600a50	0.013674334
223	0xbdf3cc67	-0.11904221
224	0xbdfb6af8	-0.12276262
225	0xbe20ac76	-0.15690789
226	0x3b9697fe	0.0045957556
227	0xbdae2dd8	-0.08504838
228	0x3e32b17d	0.17450519
229	0xbe293993	-0.16525869
230	0xbdb39130	-0.08767927
231	0x3dc0d796	0.0941612
232	0x3da628e1	0.08113266
233	0xbbef4b50	-0.007302679
234	0x3c16b7d0	0.009199098
235	0x3c190cc9	0.009341427
236	0x3dc90e28	0.09817153
237	0xbc8a0acf	-0.016850857
238	0x3df0fb63	0.11766698
239	0x3e0977cf	0.1342461
240	0x3e1299e3	0.14316516
241	0x3e2edeab	0.17077129
242	0x3e2dd840	0.16977024
243	0xbe2d9e16	-0.16954836
244	0xbdd3761b	-0.10325261
245	0xbdd04a37	-0.10170405
246	0x3e197c15	0.1498874
247	0xbdf385a6	-0.11890726
248	0xbdd7b729	-0.10532982
249	0xbd8e2042	-0.069397464
250	0x3dc386e2	0.09547211
251	0xbd9a9cb9	-0.07549424
252	0xbe273a74	-0.16330892
253	0x3dde9a49	0.10869271
254	0xbe0cf2bc	-0.13764471
255	0xbddd8394	-0.10816112

encoder.2.weight f4 [256, 256]
0	0x3c9ccf54	0.01914183
1	0x3d17469c	0.036932573
2	0xbd5368ca	-0.051613607
3	0x3c1fa4b0	0.009743854
4	0xb94cc800	-0.00019529462
5	0xbc8b5f38	-0.017013177
6	0xbd631028	-0.05543533
7	0x3be37570	0.00694149
8	0x3d12d674	0.03584905
9	0x3d052892	0.032509394
10	0x3d0dd4c4	0.034626737
11	0x3869e800	5.5767596e-05
12	0xbc584a70	-0.013201341
13	0xbd0a28b0	-0.03373021
14	0x3b785ae0	0.0037895963
15	0xbcc06b2c	-0.023488604
16	0x3d0b2a4a	0.033975877
17	0x3d4de6f2	0.050269075
18	0xbcd7d2b4	-0.026345588
19	0xbd125e0c	-0.03573422
20	0xbd1320ec	-0.03592007
21	0x3ce04504	0.02737666
22	0xbd08e05c	-0.03341709
23	0xbd5a40e4	-0.05328454
24	0xbcbdf1bc	-0.023186557
25	0x3d7a7800	0.061149597
26	0xbcc0c698	-0.023532197
27	0xbc812d84	-0.015768774
28	0x3cb59178	0.022164091
29	0x3cfb8954	0.030705132
30	0xbaf2c100	-0.0018520653
31	0x3b3f4a80	0.0029188693
32	0xbb2ffb40	-0.0026852638
33	0x3d4fa170	0.05069107
34	0x3c033450	0.008008078
35	0x3cdcc218	0.02694802
36	0xbcd96240	-0.026536107
37	0x3c5f9390	0.0136460215
38	0x3d65bb1a	0.056086637
39	0x3d7d8362	0.061892875
40	0x3d164796	0.036689363
41	0x3d221fe8	0.03958121
42	0xbb830610	-0.0039985254
43	0x3cdb7360	0.026788414
44	0x3d64b004	0.055831924
45	0xbbc3efb0	-0.0059795007
46	0xbd3093d0	-0.043109715
47	0xba611600	-0.0008586347
48	0x3d399f3e	0.04531788
49	0x3b61c2a0	0.003444828
50	0x3caf63b4	0.021409847
51	0xbd521e3e	-0.051298372
52	0xbcb6e510	-0.022326022
53	0xbd2e42ae	-0.04254406
54	0x3c5a8558	0.013337456
55	0xbd6f37c0	-0.058402777
56	0x3d2b359e	0.04179918
57	0xbd198d18	-0.037488073
58	0xbc8d80ac	-0.01727327
59	0xbb8c6370	-0.004284315
60	0x3cb79fac	0.022415005
61	0xbbe2a030	-0.0069160685
62	0x3d04b13c	0.032395586
63	0x3d1d2a1a	0.03837023
64	0x3c89b884	0.016811617
65	0x3d32f428	0.043689877
66	0x3b13ad60	0.002253376
67	0xbb876e80	-0.0041330457
68	0xbd0a332a	-0.0337402
69	0xbd27cfd2	-0.040969677
70	0x3c389d40	0.01126796
71	0x3d1d6b9a	0.038432695
72	0x3c9d61d8	0.019211695
73	0x3d623cc2	0.055233724
74	0x3d7e429c	0.062075242
75	0x3d21e3a2	0.03952373
76	0x3d2a43aa	0.041568436
77	0x3d09e2f8	0.03366372
78	0x3bf28e90	0.0074022487
79	0x3abfc0c0	0.0014629588
80	0x3d7fa1f0	0.062410295
81	0x3d5ac26a	0.053408064
82	0x3c87c53c	0.01657354
83	0x3d1bf266	0.038072966
84	0xbb924c30	-0.0044646487
85	0x3d0c0632	0.034185596
86	0x3d4a12b2	0.049334235
87	0x3cc915a8	0.02454646
88	0xbcce3898	-0.02517347
89	0xbcee70a0	-0.029106438
90	0xbd427b82	-0.047481067
91	0x3d147d88	0.03625253
92	0xbd1efae2	-0.03881348
93	0x3aa23780	0.001237616
94	0xbca2a070	-0.019851893
95	0x3c496548	0.012292214
96	0xbc6dc1f8	-0.014511578
97	0xbd7d8064	-0.06189002
98	0xbc90afb4	-0.017661907
99	0x3cdd20d8	0.0269932
100	0xbd3fef46	-0.04685905
101	0x3c162cf8	0.009165995
102	0xbc96396c	-0.018337928
103	0x3d20a3ae	0.039218597
104	0x3d563d06	0.05230429
105	0xbd69e946	-0.057107233
106	0xbd6b159a	-0.057393648
107	0xbc8bf750	-0.017085701
108	0x3cc3b25c	0.02388876
109	0xbd0b47bc	-0.034003958
110	0xbb8c0650	-0.0042732134
111	0x3d05a564	0.032628432
112	0x3d4d6f48	0.050154954
113	0x3cfe1c8c	0.031019472
114	0x3c70ac38	0.014689498
115	0x3b62fbe0	0.0034634992
116	0x3cb4e688	0.022082582
117	0x3b9413c0	0.004518956
118	0x3bbbb200	0.0057280064
119	0x3bd77940	0.0065757334
120	0xbd4609f8	-0.04834935
121	0x3d4a29a2	0.04935611
122	0xbd083a6a	-0.033258833
123	0x3ce8b03c	0.028404348
124	0xbd208f66	-0.039199255
125	0xbcac20ac	-0.021011673
126	0x3c80a490	0.01570347
127	0xbc73ff00	-0.01489234
128	0xbd66cd18	-0.056347936
129	0x3d58d7ac	0.052940056
130	0x3ca92ae4	0.020650335
131	0x3c6dd6a0	0.014516503
132	0xbafaaec0	-0.0019125566
133	0x3c4159d8	0.011801206
134	0x3a901c80	0.0010994822
135	0x3d0f7cfc	0.035031304
136	0x3bc4dee0	0.006008014
137	0xbd173d7a	-0.036923863
138	0x3c91cd50	0.017798096
139	0xbd52077e	-0.051276676
140	0x3beec380	0.007286489
141	0xbcf52184	-0.029923208
142	0x3d0fa97e	0.03507375
143	0xbccaff10	-0.024779826
144	0x3d33d6da	0.04390607
145	0x3ca84518	0.020540759
146	0x3d11aac6	0.035563253
147	0x3cf4c93c	0.029881112
148	0x3a384e00	0.0007030666
149	0xbc9f6764	-0.01945848
150	0x3cfc0d08	0.030767933
151	0x3d576ac6	0.05259206
152	0xbcc506d0	-0.0240511
153	0xbc523f80	-0.012832522
154	0xbcafa950	-0.02144304
155	0x3cfe7168	0.031059936
156	0x3bccd1a0	0.006250575
157	0x3bbcb220	0.005758539
158	0x3bbc1aa0	0.0057404786
159	0xbd5f016e	-0.054444723
160	0xbd229c62	-0.03969992
161	0xbb76e8e0	-0.0037675425
162	0x3d18adb4	0.03727503
163	0x3d523378	0.051318616
164	0xbd483caa	-0.04888598
165	0x3c88d604	0.016703613
166	0xbcb063a0	-0.02153188
167	0x3b353e80	0.002765566
168	0x3d5b4836	0.053535663
169	0x3bd291f0	0.0064260885
170	0xbd29e682	-0.041479595
171	0xbce15684	-0.027507074
172	0xbbf51230	-0.0074789748
173	0x3ce717c4	0.028209575
174	0x3d18d3e2	0.037311442
175	0x3d66b31a	0.05632315
176	0x3d0730ae	0.03300541
177	0x3cc84160	0.024445236
178	0x3c7016f0	0.014653906
179	0xbc40d878	-0.01177036
180	0x3cafe2bc	0.02147042
181	0xbb338f40	-0.0027398616
182	0x3cf2a440	0.029619336
183	0x3a64ea00	0.00087323785
184	0x3cdcd8a4	0.026958771
185	0xbd07cfce	-0.033157162
186	0xbbc330b0	-0.0059567317
187	0x3a8b7f80	0.0010642856
188	0xbd18fdd2	-0.037351437
189	0xbd2abcec	-0.041684076
190	0x3ad3e480	0.0016166121
191	0xbd4f5db0	-0.050626457
192	0xbbeaaf70	-0.007162027
193	0xbd617c16	-0.05504998
194	0x3d1a9d38	0.03774759
195	0x3d37dc84	0.044888034
196	0x3d4088a2	0.047005303
197	0x3d0feb96	0.03513678
198	0xbccddc3c	-0.02512943
199	0xbd6cc176	-0.057801686
200	0xbcb1254c	-0.02162423
201	0x3d4efca4	0.050533906
202	0xbcea7074	-0.028618075
203	0x3d5cc488	0.053898364
204	0x3d67f4cc	0.05662994
205	0xbd231f06	-0.039824508
206	0xbce198dc	-0.02753871
207	0xbd462088	-0.048370868
208	0x3c268190	0.010162726
209	0xbccb5efc	-0.024825566
210	0xbd77dbf8	-0.060512513
211	0xbb5d53a0	-0.0033771768
212	0xbd60384a	-0.05474118
213	0xbd687c44	-0.056759134
214	0x3d6aef4e	0.057357125
215	0x3c3c4350	0.011490658
216	0x3c49d8e8	0.012319781
217	0x3cc62320	0.02418667
218	0xbd53b850	-0.051689446
219	0xbba84970	-0.0051357076
220	0x3cc08af0	0.02350375
221	0x3c1a4c30	0.009417579
222	0xbd0781d2	-0.03308279
223	0xbcbd939c	-0.023141675
224	0x3d59fcc4	0.05321957
225	0xbd1f8606	-0.038946174
226	0x3d564322	0.052310117
227	0xbd37b292	-0.044848032
228	0xbc753840	-0.014967024
229	0xbcd5524c	-0.026040219
230	0xbc5d0238	-0.0134892985
231	0xbd2ce040	-0.04220605
232	0xbc8538bc	-0.016262405
233	0xbc2c2bf8	-0.01050853
234	0x3d5ab7d0	0.053397954
235	0x3c0b3a90	0.008497849
236	0x3bcc9380	0.0062431693
237	0x3cc5f9d8	0.024166986
238	0x3c00e540	0.007867157
239	0xbcf94f08	-0.030433193
240	0xbc49aea0	-0.0123097
241	0x3cefdae4	0.02927918
242	0xbcb828ec	-0.02248045
243	0xbd7911be	-0.060807936
244	0xbcc4f970	-0.024044722
245	0x3cc056a0	0.023478806
246	0xbcdb7530	-0.026789278
247	0x3d440800	0.047859192
248	0x3c979d4c	0.018507622
249	0xbd2491b4	-0.040178016
250	0xbd092838	-0.03348562
251	0x3abe4540	0.0014516488
252	0x3d6f9950	0.05849582
253	0xbca2a34c	-0.019853257
254	0xbd3c27fe	-0.045936577
255	0xbd47b6a2	-0.048758157

encoder.2.bias f4 [256]
0	0x38be6c00	9.0800226e-05
1	0xbd497900	-0.04918766
2	0x3d389b64	0.045070067
3	0xbcbb60dc	-0.022873335
4	0xbd1f78b0	-0.038933456
5	0x3c9877bc	0.018611781
6	0xbc4d1218	-0.012516521
7	0x3b38c920	0.0028196052
8	0xbcdae574	-0.02672074
9	0xbd2e9cde	-0.04263007
10	0x3d7abaf4	0.06121345
11	0x3c05ba58	0.008162104
12	0x3d24fb56	0.040278755
13	0x3cff270c	0.031146549
14	0xbb77ed60	-0.0037830696
15	0xbaf206c0	-0.0018465146
16	0x3c481f10	0.012214437
17	0x3d2a77c4	0.041618124
18	0xbd5edace	-0.054407887
19	0xbca52074	-0.020157076
20	0xbc8068e0	-0.015675008
21	0x3d3f31f6	0.046678506
22	0x3c4d4be0	0.012530297
23	0xbb909a60	-0.004412934
24	0xbd29029a	-0.041262247
25	0xba42bb00	-0.0007428378
26	0x3d51f43e	0.051258318
27	0x3d143214	0.03618057
28	0x3d2e50ca	0.042557515
29	0xbcac6164	-0.021042533
30	0xbcc760ac	-0.024338089
31	0x3d0a3b20	0.033747792
32	0x3d105f18	0.03524694
33	0xbd269148	-0.040665895
34	0x3d2e6310	0.042574942
35	0x3caaa9d0	0.020832926
36	0xbc8ebc2c	-0.017423712
37	0xbd1ddfd2	-0.03854353
38	0xb701c000	-7.733703e-06
39	0x3c1398a0	0.009008557
40	0xbc400280	-0.011719346
41	0xbbac51c0	-0.005258769
42	0x3d5816c2	0.05275608
43	0xbd5302ee	-0.051516466
44	0x3c1fe370	0.009758815
45	0x3cdb7544	0.026789315
46	0x3cf522fc	0.029923908
47	0x3c92fae8	0.017941907
48	0xbb1fc9c0	-0.0024381727
49	0xbd75dd12	-0.060025282
50	0x3bb05c70	0.005382113
51	0xbc965970	-0.018353194
52	0x3d42ac00	0.047527313
53	0x3b211b60	0.0024582967
54	0x3d4143ea	0.04718391
55	0x3c9b15f4	0.018931367
56	0x3d3e0018	0.04638681
57	0x3d5187aa	0.05115477
58	0x3d3a33be	0.0454595
59	0xbcdf17f4	-0.027233101
60	0x3d0fd5c0	0.035115957
61	0x3d78abda	0.060710765
62	0x3d049012	0.03236396
63	0xbd5d9466	-0.054096602
64	0xbccd8624	-0.025088377
65	0xbd714560	-0.05890405
66	0xbd2b9334	-0.04188843
67	0x3d4faab0	0.05069989
68	0x39557000	0.00020354986
69	0xbc3c1958	-0.011480652
70	0xbceea718	-0.02913241
71	0xbce224ec	-0.027605496
72	0xbd79d5a0	-0.060994744
73	0x3d793488	0.060841113
74	0xbcec85e4	-0.028872438
75	0xbc8c62ec	-0.017137013
76	0x3c461030	0.01208882
77	0xbd49714a	-0.049180306
78	0xbcddd148	-0.027077332
79	0xbd4b27e4	-0.04959859
80	0x3c31c428	0.01084999
81	0x3d2090ca	0.03920058
82	0x3c977b60	0.018491447
83	0xbc4ce048	-0.012504645
84	0xbd726008	-0.059173614
85	0xbd1255e0	-0.035726428
86	0x3d3b9d98	0.04580459
87	0x3c94fe8c	0.018187784
88	0xbd43266a	-0.047644056
89	0x3cbc3f48	0.022979394
90	0x3d17bf88	0.037047893
91	0x3d4b60f2	0.049653
92	0xbd27ce36	-0.040968142
93	0xbd685f64	-0.056731597
94	0xbd215cb2	-0.03939504
95	0x3d6e11de	0.05812251
96	0x3d6797f2	0.05654139
97	0x3cac5828	0.02103813
98	0xbd32db2e	-0.043666057
99	0xbc9b3e08	-0.018950477
100	0xbae2b240	-0.0017295554
101	0x3d45fea0	0.048338532
102	0xbd1784aa	-0.036991753
103	0xbb634ea0	-0.0034684315
104	0xbce17a60	-0.027524173
105	0xbbbad350	-0.00570146
106	0xbcfd3994	-0.030911244
107	0xb9491200	-0.0001917556
108	0xbc662510	-0.014046922
109	0x3d6f1e8e	0.05837875
110	0x3cf38008	0.029724136
111	0xbd3915ba	-0.045186736
112	0xbd1a1236	-0.037615024
113	0xbca60154	-0.020264305
114	0x3cf4ce40	0.029883504
115	0xbd2552ec	-0.040362284
116	0xbcd65ad4	-0.026166357
117	0x3d45d372	0.048297353
118	0x3ceef348	0.02916874
119	0x3c475898	0.0121671185
120	0x3d1868c0	0.037209272
121	0xbd04a3b0	-0.032382667
122	0xbd2a5adc	-0.041590557
123	0x3c3164c0	0.010827243
124	0x3ccabd40	0.024748445
125	0xbd42cec4	-0.04756047
126	0xbd4fb8d6	-0.050713383
127	0x3ca6eca4	0.02037651
128	0x3c50ede0	0.012752026
129	0x3c7767a8	0.015100397
130	0x3d299cc4	0.04140927
131	0x3ccb3c04	0.024808891
132	0x3d706594	0.058690622
133	0xbd5ec99a	-0.05439148
134	0x3d47f184	0.04881431
135	0xbcadc5e4	-0.021212526
136	0x3b0aa3e0	0.0021154806
137	0x3b916480	0.0044370294
138	0x3c8782c4	0.016541846
139	0xbce1dd78	-0.027571425
140	0xbc2deb30	-0.010615155
141	0xbd02dc5a	-0.031948425
142	0xbccc5a30	-0.024945349
143	0x3c225e40	0.009910166
144	0xbd1b053a	-0.03784678
145	0x3d075df6	0.033048593
146	0xbd179ad0	-0.037012875
147	0xbd787bc8	-0.060664922
148	0x39e57700	0.00043766946
149	0x3ab54d40	0.0013832226
150	0xbb787480	-0.0037911236
151	0xbd72c560	-0.059270263
152	0xbc6b3530	-0.014355943
153	0xbccad6ac	-0.024760567
154	0xbc32e8e8	-0.010919787
155	0x3d7a93e2	0.06117619
156	0xbd0b4f4e	-0.034011178
157	0x3d0ce6a4	0.034399644
158	0xbc257e00	-0.0101008415
159	0x3d442c6e	0.047893934
160	0xbd4234ce	-0.04741364
161	0xbcbff5a0	-0.023432553
162	0x3d49e7e0	0.0492934
163	0x3cd60164	0.02612371
164	0xbd7fec3a	-0.062481143
165	0x3cefb5ec	0.029261552
166	0xbcbec1f8	-0.02328585
167	0x3d66de9e	0.056364648
168	0xbd507318	-0.050891012
169	0xbd2713bc	-0.040790305
170	0x3caf62a8	0.021409348
171	0xbc3631f8	-0.011120312
172	0x3c65d390	0.014027491
173	0xbb3bfb80	-0.0028683841
174	0xb9403000	-0.00018328428
175	0xbc573558	-0.013135277
176	0x3b8b2ba0	0.004247144
177	0xbc8733c8	-0.016504183
178	0xbd0d5710	-0.034506857
179	0x3cc9c318	0.02462916
180	0x3d347380	0.044055462
181	0xbd12d5e2	-0.035848506
182	0xbd3712d6	-0.044695698
183	0xbd3fbf8c	-0.046813533
184	0xbd375130	-0.04475516
185	0xbd2f6aa8	-0.042826325
186	0xbd4071a6	-0.046983384
187	0x3c7040f8	0.014663927
188	0x3d61b0c4	0.055100217
189	0xbd72c968	-0.059274107
190	0x3d2ed6f8	0.04268548
191	0xbd2367f4	-0.03989406
192	0x3c9b5e7c	0.018965952
193	0xbd18ce16	-0.037305914
194	0xbcd1cea8	-0.025611237
195	0xbcce6c50	-0.025198132
196	0x3d4a8130	0.04943961
197	0xbd3a79d0	-0.045526326
198	0x3b8f62c0	0.0043757856
199	0xbc7fcae0	-0.015612334
200	0x3c8c0a60	0.017094791
201	0x3d76ed5e	0.060284965
202	0xbd52550e	-0.051350646
203	0x3d3f2a46	0.046671174
204	0xbbdeb2d0	-0.0067962185
205	0xbccf9a40	-0.025342107
206	0x3d7c52ac	0.06160228
207	0xbd468760	-0.048468947
208	0x3b264f60	0.00253769
209	0xbd122ffc	-0.035690293
210	0x3c579298	0.013157509
211	0x3d426ff6	0.047470056
212	0xbd05d6bc	-0.03267549
213	0xbd386fda	-0.045028545
214	0x3bc89ab0	0.006121956
215	0xbc0ea180	-0.008705497
216	0x3bfc95e0	0.007708296
217	0xbd2f49b6	-0.042794906
218	0x3d64a72c	0.05582349
219	0xbcae8038	-0.021301374
220	0xbcbb1ee8	-0.022841886
221	0xbb5af3a0	-0.0033409372
222	0x3d7b28b8	0.06131813
223	0x3ccdcc44	0.025121816
224	0x3c69b6b8	0.014264755
225	0xbcd6c8fc	-0.026218884
226	0xbd29f52a	-0.041493572
227	0xbd5ae156	-0.053437553
228	0xbd1718e6	-0.03688898
229	0xbd29112a	-0.041276135
230	0xbd6055ca	-0.054769315
231	0x3d1a4458	0.037662834
232	0x3c292680	0.0103241205
233	0xbcc31540	-0.023813844
234	0x3d3f9e24	0.046781674
235	0x3bfc7450	0.007704295
236	0x3c77df68	0.015128948
237	0x3d5296e8	0.051413447
238	0x3b7387a0	0.0037159696
239	0xbd63df84	-0.055633083
240	0xbd3002ce	-0.042971425
241	0x3d3f1f7c	0.046660885
242	0x3d51261e	0.051061742
243	0xbb1032c0	-0.0022002906
244	0x3cf55b10	0.029950649
245	0xbd1dbc3a	-0.038509585
246	0x3cfc0f7c	0.030769102
247	0xbb592fc0	-0.0033140033
248	0xbcec3bdc	-0.028837137
249	0xbc0a1ba8	-0.008429445
250	0x3d6d3742	0.057914026
251	0xbc079598	-0.008275412
252	0x3c08bb10	0.00834538
253	0xbd6c85bc	-0.057744727
254	0xbccfac34	-0.025350668
255	0xbd70312e	-0.05864065

fc_mu.weight f4 [8, 256]
0	0xbcd98398	-0.026552007
1	0xbd5f09ba	-0.054452635
2	0xbc861ea8	-0.01637204
3	0x3c982630	0.018572897
4	0x3d44d666	0.04805603
5	0x3c030a90	0.007998124
6	0xbd7ef410	-0.062244475
7	0xbd67b76a	-0.0565714
8	0xbd5b854e	-0.053593926
9	0x3bc47360	0.005995199
10	0x3ce545e8	0.027987435
11	0x3d37ec8a	0.044903316
12	0xbd5d566c	-0.054037496
13	0x3d760712	0.060065337
14	0xbcbe14dc	-0.023203306
15	0x3d6c126e	0.057634763
16	0x3d72f324	0.05931391
17	0x3b954840	0.004555732
18	0x3d23d14e	0.03999453
19	0x3d10f1b0	0.03538674
20	0xbd0e12c6	-0.034685872
21	0x3cc0d9c8	0.023541346
22	0x3d2b41c0	0.04181075
23	0x3d3ba92a	0.045815624
24	0xbd36a514	-0.044591025
25	0xbcc8960c	-0.02448561
26	0x3d550f38	0.052016467
27	0xbd088c0a	-0.033336677
28	0x3c0ae7d0	0.00847812
29	0x3c79cf50	0.015247181
30	0xbd42c39c	-0.04754983
31	0xbd78b938	-0.060723513
32	0xbc6c2ad0	-0.014414504
33	0xbb072a00	-0.00206244
34	0xbc2a83b0	-0.010407373
35	0x3d2e4cd0	0.042553723
36	0xbc76d430	-0.015065238
37	0xbd78ca2e	-0.06073969
38	0x3d7c8ba0	0.061656594
39	0x3cfb6eac	0.03069242
40	0x3d4cc6d8	0.04999432
41	0xbd2efeea	-0.042723574
42	0xbca55cc8	-0.020185843
43	0xbc5dd060	-0.01353845
44	0x3c59e040	0.013298094
45	0x3d03e5bc	0.032201514
46	0xbd5b4bb4	-0.053538993
47	0x3cc31df0	0.023817986
48	0xbc80bc60	-0.015714824
49	0xbb099f40	-0.0020999461
50	0x3cb036a4	0.02151043
51	0xbca5e3dc	-0.020250253
52	0xbb9402e0	-0.0045169443
53	0x3d5c3c22	0.053768285
54	0x3d29fd00	0.041501045
55	0xbaa36600	-0.0012466311
56	0xbbd07a20	-0.0063622147
57	0x3c379a38	0.011206202
58	0xbcdf3628	-0.027247503
59	0xbcfc3180	-0.030785322
60	0x3d613c5c	0.054989204
61	0xbc0f5250	-0.008747652
62	0x3d17f776	0.03710123
63	0xbd322a0c	-0.04349713
64	0xbc81c11c	-0.015839152
65	0xbd0f8f64	-0.035048857
66	0x3d782c0a	0.060588874
67	0x3c5fbb28	0.013655461
68	0xbcb0666c	-0.021533214
69	0xbce9d414	-0.02854351
70	0x3d41ee04	0.04734613
71	0x3d5ca112	0.053864546
72	0xbd7bf718	-0.061514944
73	0x3cccc45c	0.024995975
74	0xb9e43000	-0.00043523312
75	0xbc6103d8	-0.013733827
76	0x3d3cf222	0.046129353
77	0xbcda8e9c	-0.02667933
78	0x3d465c1a	0.04842768
79	0x3b8818d0	0.0041533485
80	0x3d0fe2b4	0.03512831
81	0xbca6f728	-0.020381525
82	0x3c6972c8	0.014248557
83	0xbc5461a0	-0.012962729
84	0x3ce8ccec	0.028418027
85	0xbb940010	-0.004516609
86	0xbd327fe8	-0.043579012
87	0xbd2ce0c4	-0.04220654
88	0xbc84c604	-0.016207702
89	0x3b850070	0.00405889
90	0xbd24b1de	-0.04020869
91	0x3ca83814	0.020534553
92	0x3d419750	0.047263443
93	0x3d7f2702	0.06229306
94	0x3d0d3cba	0.03448174
95	0x3ca86728	0.020557001
96	0xbd374b8e	-0.04474979
97	0x3d2442fc	0.040102944
98	0xbd358e40	-0.044325113
99	0xbd38453e	-0.04498791
100	0x3d71f626	0.059072636
101	0x3c7fb240	0.015606463
102	0x3c9ffabc	0.01952874
103	0x3d27ba6a	0.040949263
104	0xbd784960	-0.06061685
105	0xbcdb23e4	-0.026750512
106	0xbc0a05c0	-0.0084242225
107	0xbceabb7c	-0.028653853
108	0x3c973574	0.018458106
109	0xbce3ca8c	-0.027806543
110	0xbd6f77ec	-0.058463976
111	0x3cc2ea40	0.02379334
112	0x3d7d47ec	0.06183617
113	0xbd0dbaae	-0.03460186
114	0xbd211dbe	-0.039335005
115	0xbca4b9a0	-0.020108044
116	0x3d1fee30	0.039045513
117	0x3d57538c	0.05256991
118	0xbca104a0	-0.019655526
119	0x3d76edc0	0.06028533
120	0xbcc87f48	-0.024474755
121	0xbd1cdec2	-0.038298376
122	0x3c7309f8	0.01483392
123	0x3c2a0130	0.01037626
124	0xbd49ef2e	-0.049300365
125	0xbcf26f24	-0.029594012
126	0xbd6b393c	-0.05742763
127	0xbd2a42a2	-0.041567452
128	0x3d085900	0.033288002
129	0x3d7eda84	0.06222011
130	0x3d1f1e74	0.0388474
131	0x3c6bd310	0.014393583
132	0x3c148050	0.009063795
133	0xbd7cb140	-0.061692476
134	0xbb4d27a0	-0.0031304136
135	0xbd326566	-0.043553732
136	0x3bfdc860	0.007744834
137	0xbd2e3162	-0.042527564
138	0x3d0788e2	0.033089526
139	0xbceb9d2c	-0.028761469
140	0x3d4adae2	0.04952515
141	0x3cec8d68	0.028876022
142	0x3d680d0e	0.056653075
143	0xbd2bfcec	-0.041989252
144	0xbd5b3f6a	-0.053527273
145	0xbca36208	-0.019944206
146	0xbc57f230	-0.013180301
147	0x3c844b28	0.016149119
148	0xbca1d300	-0.019753933
149	0x3caaf6dc	0.020869665
150	0xbd13505a	-0.0359653
151	0x3cabc6dc	0.020968847
152	0x3ca00c94	0.019537248
153	0x3bbd5cf0	0.0057789013
154	0xbd526ab4	-0.05137129
155	0x3d6a7d0c	0.05724816
156	0x3d705a2a	0.058679737
157	0x3cbad3e0	0.022806108
158	0xbcdb0878	-0.026737437
159	0x3d7280ec	0.05920498
160	0xbc3f2608	-0.011666782
161	0xba7a2e80	-0.0009543672
162	0x3ce86370	0.028367728
163	0xbcafe1ac	-0.021469913
164	0xbd72b99c	-0.059259042
165	0xbc210de0	-0.009829968
166	0x3d714f58	0.05891356
167	0xbd721916	-0.059105955
168	0xbc1ef9b8	-0.009703092
169	0x3c2c0730	0.0104997605
170	0xbbfd5dc0	-0.007732123
171	0x3bd64960	0.0065395087
172	0x3d799478	0.060932606
173	0xbce7b424	-0.02828414
174	0xbd1db378	-0.038501233
175	0xbd408c8e	-0.047009043
176	0x3d575748	0.052573472
177	0xbc145d90	-0.00905551
178	0x3d0da5d4	0.034581974
179	0x3d64499c	0.055734262
180	0xbc185a38	-0.009298854
181	0x3cf183e8	0.029481843
182	0x3c63abc8	0.013895936
183	0x3ce715d8	0.028208658
184	0x3cdd8e28	0.027045324
185	0xbd1791b4	-0.037004188
186	0xbcbea51c	-0.02327209
187	0x3b49dc60	0.003080152
188	0x3cc36ef4	0.023856618
189	0x3cf1c774	0.029514052
190	0x3cadf460	0.021234691
191	0x3d300520	0.042973638
192	0x3d3a40b6	0.04547187
193	0xbbac6060	-0.005260512
194	0x3bbaace0	0.005696878
195	0x3ab795c0	0.0014006421
196	0xbd61a910	-0.05509287
197	0x3d38ee4c	0.045149133
198	0x3d4e70ea	0.050400652
199	0xbca960e8	-0.020676091
200	0xbd3ec83a	-0.04657767
201	0x3cbfd11c	0.02341514
202	0x3cf1f7f0	0.029537171
203	0xbd2b8a4e	-0.041879945
204	0xbd0d4154	-0.03448613
205	0x3d065896	0.032799326
206	0x3d11dab8	0.035608977
207	0xbd14490a	-0.036202468
208	0x3d0fffba	0.03515599
209	0xbc4e1a78	-0.012579553
210	0xbbb8f960	-0.005644962
211	0x3cebe828	0.028797224
212	0x3c73b930	0.014875695
213	0x3bce55f0	0.0062968656
214	0xbd0a530e	-0.033770613
215	0xbd7aef3e	-0.061263315
216	0xbd2b9e1c	-0.04189883
217	0xbd52f038	-0.05149862
218	0xbd7e99f0	-0.062158525
219	0xbbc01720	-0.0058621317
220	0x3d70aa46	0.058756135
221	0xbd15bc0c	-0.03655629
222	0x3d19cdea	0.03754989
223	0xba6ce380	-0.00090365857
224	0x3d17bb42	0.037043817
225	0xbd2194dc	-0.039448604
226	0x3d767e34	0.06017895
227	0xbb755420	-0.0037434176
228	0xbc51b8f8	-0.012800448
229	0xbc924ae8	-0.017857984
230	0x3d152c50	0.036419213
231	0x3cd028b4	0.025410034
232	0x3ca62068	0.020279124
233	0x3c4fbec8	0.012679763
234	0xbc2d40e0	-0.010574549
235	0xbc5e0058	-0.013549887
236	0x3d0ac2ce	0.033877186
237	0xbc418f18	-0.011813901
238	0xbd568a04	-0.052377716
239	0xbd233da0	-0.039853692
240	0x3cfcc850	0.030857235
241	0x3cd04e50	0.025427967
242	0x3d3ced96	0.046125017
243	0xbd0f134a	-0.034930505
244	0x3d167d40	0.03674054
245	0x3cd53898	0.026027963
246	0x3d5bfdde	0.053708903
247	0xbd597eaa	-0.053099312
248	0x3d3e6308	0.046481162
249	0xbd6439c8	-0.055719167
250	0x3c7039b0	0.014662191
251	0xbd052de8	-0.032514483
252	0xbd02a09e	-0.031891458
253	0xbd0a6324	-0.033785954
254	0x3d641124	0.05568041
255	0x3cfa9cc4	0.03059233

fc_mu.bias f4 [8]
0	0xbd0a782a	-0.033806004
1	0xbd0277f4	-0.031852677
2	0x3d35a514	0.044346884
3	0xbd6d8f7c	-0.057998165
4	0x3c76ae00	0.015056133
5	0x3d2f35ac	0.042775795
6	0x37e82000	2.7671456e-05
7	0x3cfcc4b4	0.030855514

fc_logvar.weight f4 [8, 256]
0	0x3cbe21f8	0.023209557
1	0xbd3a6f34	-0.045516208
2	0x3d39a158	0.045319885
3	0x3d4994a0	0.049214005
4	0xbd42b2f2	-0.047533937
5	0x3d3e240c	0.046421096
6	0x3ce66f58	0.028129265
7	0x3c61b7b8	0.013776712
8	0xbce36938	-0.027760133
9	0xbd244976	-0.04010912
10	0x3d1db8f8	0.038506478
11	0x3c4889d0	0.012239888
12	0xbd25f9fc	-0.040521607
13	0xbc529cc8	-0.012854762
14	0xbd5266e8	-0.05136767
15	0xbcd4e764	-0.025989242
16	0xbca00efc	-0.019538395
17	0x3d2b3e68	0.041807562
18	0xbd10d614	-0.03536041
19	0xbd1956f2	-0.037436433
20	0x3d6a553e	0.0572102
21	0x3d71c3d6	0.059024654
22	0x3ca73d3c	0.020414941
23	0xbd479082	-0.048721798
24	0xbd387862	-0.04503668
25	0x3d185fd0	0.03720075
26	0xbcbb5ef8	-0.022872433
27	0x3d5fffd4	0.054687336
28	0xbd28279a	-0.041053392
29	0xbcda92b4	-0.026681282
30	0xbbae4510	-0.0053182915
31	0xbd116042	-0.03549219
32	0x3d07778c	0.033072993
33	0x3d50f52a	0.051015057
34	0xbceadb44	-0.028669007
35	0xbd7acb3e	-0.061228983
36	0xbd472b96	-0.04862555
37	0x3c98a06c	0.018631183
38	0xbd11815e	-0.035523765
39	0xbd36c480	-0.04462099
40	0x3b9505f0	0.004547827
41	0xbc42a778	-0.011880748
42	0x3ca8cf24	0.020606585
43	0x3cf039c4	0.02932442
44	0xbd00523a	-0.031328417
45	0xbd67ef26	-0.056624554
46	0xbcc6f57c	-0.024286978
47	0x3c751b88	0.014960177
48	0x3ccfbc8c	0.02535846
49	0x3b150ac0	0.0022742003
50	0xbc310de8	-0.010806538
51	0x3d562c72	0.05228848
52	0x3d079f3c	0.033110842
53	0x3b770960	0.0037694797
54	0xbd61ac7e	-0.055096142
55	0x3cf91a18	0.03040795
56	0x3d046894	0.032326296
57	0x3d55c210	0.052187026
58	0xbc34d010	-0.011035934
59	0x3d539d54	0.05166371
60	0xbd3409e4	-0.043954745
61	0x3d267b4e	0.040644936
62	0xbd72ddae	-0.05929344
63	0x3d46eb72	0.048564382
64	0x3d5b6026	0.05355849
65	0xba93cf00	-0.0011276901
66	0xbca730cc	-0.02040901
67	0xbbf18fd0	-0.00737188
68	0x3c7cecb0	0.01543729
69	0xbcba12b0	-0.022713989
70	0x3d550304	0.05200483
71	0x3d1c8122	0.03820909
72	0xbca7fa4c	-0.020505093
73	0x3d79b46e	0.060963087
74	0xbc948a70	-0.018132418
75	0xbd5b8384	-0.05359222
76	0xbca0208c	-0.01954677
77	0xbd59c4ca	-0.05316619
78	0x3d03d0ee	0.032181673
79	0xbd7abb9a	-0.061214067
80	0x3d2dda7c	0.04244469
81	0xbd5de260	-0.054170966
82	0xbd75d5ce	-0.060018353
83	0x3d1ddfc0	0.038543463
84	0xbc9bbb68	-0.01901026
85	0xb9d78600	-0.00041107833
86	0xbcbd521c	-0.023110442
87	0x3b306f00	0.002692163
88	0x3d787c4e	0.06066542
89	0x3d5f390a	0.054497756
90	0xbbe58390	-0.007004209
91	0x3cbe53b8	0.02323328
92	0x3bbc15a0	0.0057398826
93	0xbc8354a0	-0.016031563
94	0xbd75fc18	-0.06005487
95	0x3cfa82a4	0.030579872
96	0x3d2fe47a	0.0429425
97	0xbcaed7e8	-0.021343186
98	0x3d58ed70	0.052960813
99	0xbd177950	-0.036980927
100	0xbace3480	-0.0015732199
101	0x3d4f9730	0.050681293
102	0x3c534ff0	0.012897477
103	0x3ad576c0	0.0016286001
104	0xbca09ed4	-0.019606985
105	0xbd0f6640	-0.035009623
106	0xbbc2f800	-0.005949974
107	0x3cfbe370	0.0307481
108	0x3c0a7438	0.00845056
109	0x3d080716	0.033209883
110	0x3cdc2060	0.026870906
111	0xbd3c3780	-0.045951366
112	0x3d5b3abc	0.05352281
113	0x3ca6c838	0.020359144
114	0xbd079fea	-0.03311149
115	0xbcb22dc8	-0.021750346
116	0xbce090e8	-0.027412847
117	0x3c9642e8	0.01834245
118	0xbd2b0886	-0.041756175
119	0x3c5487e8	0.012971856
120	0x3d724364	0.0591463
121	0x3cbec2e0	0.023286283
122	0xbc5dd0c8	-0.013538547
123	0x3adc6c40	0.0016816929
124	0xbc0a9288	-0.008457787
125	0x3d68ef5a	0.05686889
126	0x3d615cf2	0.05502028
127	0x3d1a81d4	0.03772147
128	0x36590000	3.233552e-06
129	0xbcd09730	-0.025462717
130	0xbd557f4c	-0.052123353
131	0x3cc18d08	0.02362682
132	0xbd7f490c	-0.062325522
133	0x3d42755c	0.047475204
134	0x3c34e8b0	0.011041805
135	0x3c931058	0.01795213
136	0xbd18d9a6	-0.03731694
137	0xbcd17614	-0.025569
138	0xbb7bd180	-0.0038424432
139	0x3cba3980	0.022732496
140	0xbb590080	-0.003311187
141	0x3baaccd0	0.005212404
142	0x3d5f064e	0.054449372
143	0x3c37c9d0	0.011217549
144	0x3d0536ca	0.032522954
145	0x3bcefc00	0.006316662
146	0x3d63af9c	0.055587396
147	0x3cb88598	0.02252464
148	0x3b754ba0	0.003742911
149	0x3cb3a418	0.021928832
150	0xbaf89680	-0.0018965751
151	0x3d1b27da	0.037879802
152	0x3d7afad2	0.061274357
153	0xbceddb50	-0.02903524
154	0x3d55a8fc	0.05216311
155	0x3cb71000	0.022346497
156	0xbd19e298	-0.037569612
157	0xbd4efa24	-0.05053152
158	0xbd1f89b8	-0.0389497
159	0xbd64494c	-0.055733964
160	0xbd3a789a	-0.04552517
161	0xbb5e1cc0	-0.0033891648
162	0xbd0b8f08	-0.034071952
163	0x3cc5f894	0.024166383
164	0x3d1f7438	0.038929194
165	0xbd41b88a	-0.04729513
166	0xbd5fdf24	-0.054656163
167	0xbcb71f28	-0.022353724
168	0x3ca696b4	0.020335533
169	0xbc8942e8	-0.016755536
170	0xbc6f2ce0	-0.014598101
171	0x3cdff158	0.027336761
172	0x3ce050d8	0.0273823
173	0x3c05c708	0.0081651285
174	0xbcddf6d0	-0.027095228
175	0xbc72ea80	-0.014826417
176	0x3d132996	0.03592833
177	0xbc4c6148	-0.0124743655
178	0xbd171c92	-0.03689248
179	0xbbb4ca50	-0.0055172816
180	0x3cbe96b4	0.02326522
181	0x3d3cf1f2	0.046129175
182	0x3d2b6bba	0.041850783
183	0xbd33f954	-0.04393895
184	0xbcc591d4	-0.024117388
185	0xbd76cc9a	-0.060253717
186	0x3beaa4a0	0.007160738
187	0x3d6067d8	0.054786533
188	0x3beb5f30	0.007182978
189	0x3c90f764	0.01769609
190	0x3c742338	0.014900975
191	0xbaa8b400	-0.0012871027
192	0x3d037c54	0.03210099
193	0xbcb19668	-0.021678165
194	0xbd63c220	-0.055605054
195	0x3d4f4e90	0.050612032
196	0xbca0288c	-0.019550584
197	0xbd5d7966	-0.054070853
198	0x3ce4c2a0	0.027924836
199	0x3d44b940	0.04802823
200	0x3d3277f4	0.043571427
201	0x3d3fa6b0	0.046789825
202	0x3bf73e10	0.00754524
203	0xbcb242a4	-0.021760292
204	0xbd49a212	-0.049226828
205	0x3ba14850	0.0049219504
206	0xbd43bd6e	-0.047788076
207	0xbcd4b330	-0.02596435
208	0x3c152128	0.009102143
209	0xbd5d2bec	-0.053996965
210	0xbcb210c0	-0.021736503
211	0x3c44ed90	0.01201953
212	0xbbb7b640	-0.0056064427
213	0x3d09d6f6	0.03365227
214	0xbd6834f0	-0.05669111
215	0x3bb591f0	0.0055410787
216	0x3cdf008c	0.02722194
217	0x3d7976e0	0.060904384
218	0xbc19a488	-0.009377606
219	0x3cd6bc7c	0.026212923
220	0xbd65500c	-0.05598454
221	0xbc2b6180	-0.0104602575
222	0x3d3c823e	0.046022646
223	0xbd481254	-0.048845604
224	0xbcf4d348	-0.029885903
225	0x3ba201b0	0.004944049
226	0xbd4ed798	-0.050498575
227	0x3c0e2608	0.00867606
228	0x3c6ceb78	0.014460437
229	0xbd0578d4	-0.032585934
230	0xbd174396	-0.03692969
231	0x3ccc8bec	0.024969064
232	0x3c40d010	0.011768356
233	0x3c681c18	0.014166854
234	0xbd1a7b5a	-0.037715293
235	0x3cefe4b0	0.029283851
236	0xbbba6200	-0.005687952
237	0xbcc35928	-0.023846224
238	0x3d606978	0.054788083
239	0xbd030d3a	-0.031995036
240	0x3d1c0e64	0.03809966
241	0xbd58cd30	-0.052930057
242	0x3cd7eb64	0.02635736
243	0x3cfa0dfc	0.030524246
244	0xbd12081a	-0.035652258
245	0xbc461a00	-0.01209116
246	0xbd5f5a4a	-0.054529466
247	0xbcdfe2e4	-0.02732987
248	0x3ca822dc	0.020524435
249	0xbd08a6f0	-0.03336233
250	0x3d6cdb90	0.05782658
251	0x3ccf04dc	0.025270872
252	0xbc3254e0	-0.010884494
253	0x3d57c1a4	0.052674904
254	0x3c141cf8	0.00904011
255	0xbd3a291c	-0.04544936

fc_logvar.bias f4 [8]
0	0xbce1084c	-0.027469777
1	0x3cb884b0	0.022524208
2	0xbd493662	-0.04912413
3	0x3ce1e1b4	0.027573444
4	0xbcc5e454	-0.024156727
5	0xbd07ddf2	-0.033170648
6	0x3d51fba2	0.051265366
7	0xbb181000	-0.0023202896

decoder.0.weight f4 [256, 16]
0	0x3d4ba5d8	0.049718708
1	0x3e2fd6b4	0.17171746
2	0xbe063970	-0.13107848
3	0x3dfdeaa8	0.12398273
4	0xbeed7ed7	-0.46385834
5	0xbeba63ee	-0.36404365
6	0xbad9393e	-0.0016572846
7	0xbed255a6	-0.4108097
8	0xbd6422a4	-0.0556971
9	0xbae9ff80	-0.0017852634
10	0xbd732138	-0.05935785
11	0xbe747a02	-0.23874667
12	0x3dea73bf	0.11447858
13	0xbe151b01	-0.14561082
14	0x3b9152e5	0.0044349306
15	0x3d21af6b	0.039473932
16	0xbe5cad1a	-0.21550408
17	0xbe6101e0	-0.21973372
18	0xbddfa688	-0.10920435
19	0xbe5fdd7f	-0.21861838
20	0x3eb4de88	0.35326028
21	0x3e8af38e	0.27138942
22	0xbd9d4176	-0.07678501
23	0x3e98d295	0.2984816
24	0xbe0422a2	-0.12903836
25	0x3c992f26	0.01869924
26	0x3cb88fad	0.022529447
27	0xbdc6d99e	-0.09709476
28	0xbe0831e2	-0.13300279
29	0x3cb82a0a	0.022480983
30	0xbdf66396	-0.12030713
31	0x3e240cba	0.1602048
32	0xbd796468	-0.06088677
33	0xbd0408a0	-0.032234788
34	0xbe7abb6c	-0.24485558
35	0x3e7cc95d	0.24686189
36	0xbf2ad127	-0.6672539
37	0xbd84e665	-0.06489257
38	0xbdcc352d	-0.0997108
39	0xbe3f9542	-0.18709281
40	0xbc039764	-0.0080317
41	0xbe70b2f4	-0.23505765
42	0xbe886a69	-0.26643685
43	0xbdfb47b8	-0.12269539
44	0x3d1d7aa0	0.038447022
45	0xbd941852	-0.07231201
46	0x3dc0b8fa	0.094102815
47	0xbcac6969	-0.021046357
48	0x3dda6010	0.10662854
49	0x3dca5ef0	0.09881389
50	0xbe6c832e	-0.23096916
51	0xbdbc583d	-0.091965176
52	0x3ee905e5	0.4551231
53	0xbe347cd1	-0.17625739
54	0xbcdcefaf	-0.026969759
55	0x3e5e6523	0.21718268
56	0x3e231238	0.15924919
57	0xbe227f98	-0.15868986
58	0x3c9d78a0	0.019222558
59	0x39afebb4	0.00033554214
60	0x3e13ff49	0.14452852
61	0xbe0f8784	-0.14016539
62	0x3e2633b7	0.16230665
63	0x3e0c1f15	0.13683732
64	0x3bb8be00	0.005637884
65	0xbda740cc	-0.08166656
66	0xbcb46000	-0.022018433
67	0x3cb4ee52	0.022086296
68	0x3f04ddf1	0.51901156
69	0x3f023475	0.50861293
70	0xbc8b45b8	-0.017001018
71	0x3e804053	0.25049075
72	0xbdfbeab5	-0.12300626
73	0xbdd1776e	-0.102278575
74	0x3e2660d6	0.16247877
75	0x3da98341	0.08276988
76	0xbe27ad74	-0.16374761
77	0x3de24dc4	0.11049989
78	0xbcd4861e	-0.025942858
79	0xbe9af467	-0.3026459
80	0x3c8a6a30	0.016896337
81	0x3e1f1a0e	0.15537283
82	0xbde0f068	-0.10983354
83	0x3e353433	0.17695694
84	0x3d113d0c	0.03545861
85	0x3f22e6af	0.63633245
86	0x3e9560b0	0.2917533
87	0xbe1a7c00	-0.15086365
88	0x3da7cda7	0.08193522
89	0x3da82a40	0.082111835
90	0xbd2228ba	-0.03958962
91	0x3d4aa407	0.049472835
92	0x3d750916	0.05982312
93	0xbb25b575	-0.0025285159
94	0x3e2ca3a9	0.16859306
95	0xbe37a03d	-0.1793222
96	0x3e2c22e6	0.16810188
97	0xbe2db828	-0.16964781
98	0x3e1b82da	0.15186635
99	0x3def5a45	0.116871394
100	0xbf11c0fa	-0.56935084
101	0xbe88c93c	-0.2671603
102	0xbe1ca496	-0.1529716
103	0xbea72a89	-0.3264964
104	0x3d452bf2	0.048137613
105	0xbe8e60f5	-0.27808347
106	0xbe96e9bf	-0.2947521
107	0xbe846b92	-0.2586332
108	0x3cfabf18	0.030608699
109	0xbe3d60c2	-0.18493941
110	0xbcdf3ac7	-0.027249707
111	0x3dbd97c0	0.0925746
112	0x3d83bfcc	0.06433067
113	0x3e299d60	0.1656394
114	0x3e1d1b30	0.15342402
115	0xbe810dad	-0.25205746
116	0xbddbef71	-0.10739029
117	0x3e4c4594	0.19948417
118	0xbeadaf13	-0.33922634
119	0xbe986432	-0.29763943
120	0xbce5bcf9	-0.02804421
121	0xbe005435	-0.12532122
122	0xbde3be1c	-0.11120245
123	0x3d05697f	0.032571312
124	0x3d5f34ad	0.054493595
125	0xbdcdae97	-0.10043066
126	0x3d375475	0.04475828
127	0xbe18ac2e	-0.14909431
128	0xbe4faf62	-0.20281747
129	0xbe462e4c	-0.19353598
130	0xbe29e3b8	-0.16590774
131	0x3cbdec5c	0.023183994
132	0xbe44512a	-0.19171587
133	0xbe2ef0df	-0.17084073
134	0xbeed916c	-0.4640001
135	0xbed1eca6	-0.4100086
136	0x3dac422a	0.08411057
137	0xbdddbf7c	-0.10827538
138	0xbde8c3b3	-0.11365452
139	0xbd708f27	-0.05873027
140	0x3da8fe09	0.08251578
141	0x3d44c037	0.048034873
142	0xbe362a99	-0.17789687
143	0x3daeef34	0.08541718
144	0xbe511daa	-0.20421472
145	0xbe5a2e3a	-0.21306697
146	0x3e390e62	0.18071893
147	0x3e98f051	0.29870847
148	0x3f1f9c98	0.6234832
149	0x3ed03c4a	0.40670997
150	0x3e6040bc	0.21899694
151	0x3e972ece	0.29527897
152	0xbd5c7e25	-0.05383124
153	0x3e0805fb	0.13283531
154	0x3d507c1b	0.050899606
155	0x3cb5dab3	0.02219901
156	0xbe2c294c	-0.16812629
157	0x3e0419f6	0.12900528
158	0x3dae9787	0.08524995
159	0xbe758244	-0.23975474
160	0xbe280146	-0.16406736
161	0xbe12289a	-0.14273301
162	0xbe0b6e94	-0.13616401
163	0xbd75ffdc	-0.06005846
164	0x3e4ac28b	0.19800775
165	0x3ebaeb86	0.36507815
166	0x3b8718d4	0.004122833
167	0x3eaa207e	0.33227915
168	0xbe56e379	-0.20985211
169	0x3da476ab	0.080304466
170	0x3e3b6eca	0.18303981
171	0xbd0748a6	-0.033028267
172	0x3e3a31a9	0.18183006
173	0x3d01a033	0.03164692
174	0x3d84c2b6	0.06482451
175	0xbe617f96	-0.22021326
176	0xbe1f6662	-0.155664
177	0x3e342a1e	0.17594191
178	0x3e30a748	0.17251313
179	0x3e590792	0.21194294
180	0x3edcd18c	0.43128622
181	0x3f1c2dd4	0.6100743
182	0x3de7b12f	0.11313092
183	0x3e4aa77a	0.1979045
184	0x3df050b5	0.11734144
185	0xbdfe6ee0	-0.124234915
186	0x3e18c3fa	0.14918509
187	0xbc26a840	-0.01017195
188	0xbc692de0	-0.014232129
189	0x3ad5a6dd	0.001630034
190	0x3e989e26	0.29808158
191	0x3da3432e	0.07971798
192	0xbe43a558	-0.19106042
193	0x3e44286a	0.19156042
194	0x3e7ac920	0.24490786
195	0x3e24d0d4	0.16095287
196	0x3f329ce4	0.69770646
197	0xbe340338	-0.17579353
198	0x3c787685	0.015164976
199	0x3e956bb5	0.29183736
200	0xbd27c683	-0.0409608
201	0x3d8cf59a	0.06882782
202	0xbc2a3be2	-0.010390254
203	0x3dde3bbd	0.10851238
204	0xbc5b2cc0	-0.013377368
205	0xbd885d80	-0.06658459
206	0x3d068497	0.03284129
207	0xbd96fa01	-0.07371903
208	0x3e73e00e	0.23815939
209	0xbe387f60	-0.1801734
210	0xbc5bd300	-0.013417006
211	0xbccb69a9	-0.024830656
212	0x3e975f36	0.29564828
213	0x3ea802cc	0.32814634
214	0x3e40aa9b	0.18815081
215	0x3df1ad31	0.11800612
216	0xbd643e8d	-0.055723716
217	0xbe18804e	-0.14892694
218	0x3dbdf714	0.09275642
219	0x3db044d8	0.08606881
220	0xbdb2125e	-0.086949095
221	0xbe5742c6	-0.21021566
222	0xbe0b1ea6	-0.1358591
223	0xbd68322b	-0.05668847
224	0x3e4e98ae	0.2017543
225	0x3ce01560	0.027353942
226	0x3e664726	0.22488078
227	0x3e8709d2	0.2637468
228	0x3eacf5e3	0.33781347
229	0x3ee555e0	0.4479208
230	0x3eb6a425	0.35672107
231	0x3ebf7e35	0.37400976
232	0x3bdd8ac7	0.0067609283
233	0xbd909fa2	-0.070616975
234	0x3d9aa41c	0.07550833
235	0x3e1b0a36	0.15140614
236	0x3d16cde9	0.036817465
237	0x39c8a6d5	0.00038271272
238	0x3e2bf472	0.16792467
239	0xbe876654	-0.26445258
240	0x3ce1ec90	0.027578622
241	0xbe039962	-0.1285148
242	0xbd94be54	-0.07262865
243	0x3e4cf19f	0.20014046
244	0x3ef97634	0.48722994
245	0x3f05cbe0	0.52264214
246	0x3d9ceac5	0.07661966
247	0x3edc9108	0.430794
248	0x3d831e42	0.064022556
249	0x3d7c9cb1	0.06167287
250	0x3e18439f	0.14869545
251	0x3db1a881	0.08674718
252	0xbc8ffad6	-0.017575663
253	0x3d59a249	0.053133283
254	0x3d8fb77c	0.07017419
255	0xbd1b3afc	-0.03789805
