space_robot_planning/weights/cvae_debug/v2.pth (torch, 874373 bytes, 16 tensors)

encoder.0.weight f4 [256, 26]
00000000: 05eb 7a3d 1288 78bd 8743 b2bd e06e 88bd
00000010: 9a28 09be 9b3e 9e3d 96e4 393d c7c2 aabd
00000020: faf2 013e ff44 343e 7fe8 163e 741b e13c
00000030: 789d b43d c432 483e 3a2a 6e3d c9ed 03be
00000040: 8b87 f63c 825f 0bbd 6520 e9bc 6a09 26be
00000050: d9a7 afbd 2b82 3cbe accc 0dbe 5d48 8dbd
00000060: 5155 023e 3a67 143b fc9e 9bbd 363f f8bd
00000070: fe9f 2f3e 676f 44be 66db 793d 58a1 cfbd
00000080: 556e 093e a871 0dbd d16d 22be 0a17 20be
00000090: 56ba 9abd e7c1 1cbe 6bcb 373e 9e1b ab3c
000000a0: 1297 383e 879c ffbd bc54 2b3e 347a 243e
000000b0: 3c51 053e 373c 203e 3fc1 333e 3834 29bd
000000c0: 9be6 10bd 57fc 6e3d 6877 8b3d 9d0b 093e
000000d0: 43e6 df3d 9a23 16be 3256 423e 5e9e 17be
000000e0: 805f 983a 7593 313e 9544 db3d beae 463e
000000f0: 1b40 103e 8ad9 01bd b4ba adbd bcc4 103e
00000100: 0a5e 2dbe 90ae f4bd 34b7 1b3e 0724 31be
00000110: 84fb fe3d e632 813d eeb3 d0bd 29c8 d3bc
00000120: 5483 d4bd 0875 fa3c ced9 e8bd 8836 cc3d
00000130: e889 5b3d 9f79 41bc 543f 013e a6db 6bbd
00000140: a187 913d 81bd 0fbe 4027 c83d 5109 bebd
00000150: 9de9 c8bd aa15 c63d fa84 40be 9fa4 0dbd
00000160: 02f2 133e 4ea9 33be 5c1d 36be 5437 283d
00000170: 31b6 453d 1a79 b23d 715d bc3d 16f4 f43d
00000180: 5c96 d13d cf08 a53d 4620 893d 78b7 8c3d
00000190: 00d3 c13d bceb 3bbe 7feb 0bbe b625 02be
000001a0: c3da e63d 024e e03d b908 073e a59d 0b3e
000001b0: e44b 1c3e 8560 e3bd 83ab 31be a666 213e
000001c0: 5c44 1c3c 3e7d 103e 9920 8f3d cef0 39be
000001d0: ffb7 bcbd 8efe acbd faea 263e 689b f73d
000001e0: 95ba 41be 8e99 b13d b737 57bd 1bf5 473e
000001f0: e408 eabc 71e1 3a3e 7fdd 3c3e 896d 28be
00000200: cb88 7f3c 9c92 04bd f616 cfbd 871c 6abd
00000210: 2b34 c33d 8f3f 0abe 9580 3a3e abe3 f8bd
00000220: 769e 3a3e 8da0 16bc 4ee9 c3bd dee3 e8bd
00000230: cbae 033b 2fc9 2e3e 7d23 debd 2625 88bd
00000240: 63f8 76bd f172 153e baa6 4fbd 7403 f73d
00000250: b4e9 efbd 2b6d 353e a5fa 9ebd 75fe f2bd
00000260: df6a 03be a7bb 26be b767 8a3d c9a1 443e
00000270: a20d 143e 5c08 ad3b e812 dcbd 2a8c 123e
00000280: d6ef 3abe 0274 b5bd 6e7c dc3c 2e9d b3bd
00000290: 4001 abbd 500e 02be f2e8 5a3d cffa 843d
000002a0: 1489 3f3d a139 42be 9219 a6bd 4d55 18b9
000002b0: ef90 453e aef6 483d fbcf 0a3e 7f8a 73bb
000002c0: ea2f 0d3e 8b1c 2c3e 916b b6bc a8a7 14be
000002d0: a335 2ebe cbdd b4bc 3906 493d 329c 20be
000002e0: 04fa f43d 5b55 3d3e 801e 343e fb10 cb3d
000002f0: eaae 3a3e 1331 b1bb 9952 203d 0954 673d
00000300: 9402 3c3d 5430 3f3e 5827 843d 0d9b 35be
00000310: 981d 2dbe 81ca e7bd 6218 b73d 8c8b 45be
00000320: aeb4 ed3b 71e3 32be 432f c5bd d519 8abd
00000330: 92e8 0738 d3fa c63d b445 acbd 9f67 d3bd
00000340: 823b 21be d46e 21be 682b 01be 94e1 c23d
00000350: 9f82 3cbe bfe1 043e d372 f5bd 09f4 393e
00000360: b6c8 223e 76eb 043e f038 523d 862e 9b3d
00000370: d027 54bd a12b 2cbe a821 393e 2905 273e
00000380: 1404 723d f158 abbd b3ab 4a3c 63dd ed3d
00000390: 01ae f03c de2f 803c 49f9 1c3e debd a63d
000003a0: a398 17bb 5c72 ddbc 5317 e93d 943b 323e
000003b0: 022d ff3c 0361 363e 0f24 333e 5240 10be
000003c0: 44b7 b1bc 9f94 383e 93f6 8dbd de76 1ebe
000003d0: ec04 1bbe 0081 17be efb6 253e 80fb a23d
000003e0: 9703 243e 7a2d 2bbe 4b3c 29be f917 f5bc
000003f0: 439d 12be 5ad6 0bbc a0ff 5b3d 1459 2fbe
0.06125929 -0.06067664 -0.08704286 -0.06661773 -0.13394395 0.07726785 0.045384012 -0.08337932
0.12690344 0.17604445 0.14737128 0.027478911 0.08819097 0.19550616 0.05814574 -0.12883677
0.030093929 -0.03402663 -0.02845783 -0.16214529 -0.08576936 -0.1840903 -0.13847607 -0.06898568
0.12727858 0.0022644536 -0.07598683 -0.121214315 0.17150876 -0.19183122 0.06100025 -0.10138196
0.13420995 -0.03453222 -0.15862204 -0.15633789 -0.07555072 -0.15308343 0.17948692 0.020887192
0.18026379 -0.12481027 0.16731542 0.16062242 0.1301927 0.1564797 0.17554186 -0.041309565
-0.035376173 0.05834612 0.06809884 0.13383336 0.10932591 -0.14662018 0.18978193 -0.14806506
0.0011625141 0.17341407 0.1070644 0.19402596 0.14086954 -0.031701602 -0.084828764 0.14137548
-0.16930404 -0.11947358 0.15206605 -0.172989 0.124503165 0.06308536 -0.10190569 -0.02585228
-0.10376611 0.030573383 -0.11369668 0.099713385 0.053598315 -0.011808782 0.12621814 -0.05758252
0.07105947 -0.14037134 0.09773111 -0.09279121 -0.09810183 0.09672101 -0.18800727 -0.034580823
0.14447787 -0.17545053 -0.17784637 0.04106839 0.048269454 0.087145045 0.0919751 0.11960618
0.10233757 0.08058321 0.06695609 0.068709314 0.09464073 -0.18351644 -0.13664053 -0.12709698
0.11272194 0.10952379 0.13186921 0.13634355 0.15263325 -0.11102394 -0.17350583 0.15761814
0.0095377825 0.14110276 0.069886394 -0.18158266 -0.09214782 -0.0844699 0.16300574 0.12090188
-0.18918832 0.08671866 -0.05254337 0.19527094 -0.028568693 0.18250062 0.18443869 -0.16448034
0.015596579 -0.03236638 -0.10111801 -0.057156112 0.095314346 -0.13500808 0.18213113 -0.12152799
0.1822451 -0.009193552 -0.09565984 -0.11371587 0.0020093198 0.17068933 -0.108466126 -0.066477105
-0.060295474 0.14594628 -0.050696112 0.120612055 -0.11714497 0.17717426 -0.077626504 -0.1186494
-0.12833737 -0.16282521 0.06758063 0.19202341 0.14458326 0.0052805375 -0.107457936 0.14311281
-0.18255553 -0.08860017 0.026914801 -0.08770214 -0.08349848 -0.12700772 0.05344481 0.064931504
0.046761587 -0.18967296 -0.08110346 -0.00014527627 0.19293569 0.049063377 0.13555901 -0.0037161408
0.13787809 0.16807763 -0.022268089 -0.14517081 -0.17012648 -0.022078415 0.0490782 -0.15684584
0.11961749 0.18489592 0.1758976 0.09915348 0.18230787 -0.0054074614 0.03914127 0.056476627
0.045900896 0.1867078 0.06452817 -0.17734928 -0.1690582 -0.113179214 0.089401975 -0.19291514
0.0072542047 -0.17469575 -0.09628155 -0.06743208 3.2403106e-05 0.0971581 -0.08411732 -0.103224985
-0.15745357 -0.15764934 -0.12614214 0.09515682 -0.18409203 0.1297674 -0.119847916 0.18159498
0.15896878 0.12980446 0.05132383 0.07577233 -0.05179578 -0.16813518 0.18079245 0.16310562
0.05908592 -0.083665736 0.012370038 0.11614492 0.029379847 0.015647825 0.1532947 0.08141683
-0.002313175 -0.02703207 0.11381402 0.1740554 0.031149391 0.17810445 0.17494224 -0.14087036
-0.021693833 0.18025444 -0.06931796 -0.15475032 -0.15138596 -0.14795303 0.16183065 0.07958126
0.16016994 -0.16716567 -0.16526906 -0.029918658 -0.14317803 -0.008534992 0.05371058 -0.17123824

encoder.0.bias f4 [256]
00000000: 2c65 6cbd e844 a0bd ec4a 29bb 5c53 fc3d
00000010: a92b ad3b 0024 3f3e b6a2 5fbc e9a1 91bd
00000020: 1f4d adbd 0000 323e fbe3 12be c2f3 2abe
00000030: 3d9a 11be 5e41 513d fa54 123d d54e 573b
00000040: 9945 9a3d 6d3f d73d 0845 aabd 3a9a 50bc
00000050: 939b d73d 8a35 4a3c 29b0 45bd 02aa d83c
00000060: 1c84 90bd 793d dbbd 1c14 37be 0beb 42be
00000070: 2629 e0bc 1e97 c2bd 5fcf 003e 4636 86bc
00000080: c246 c23c 3324 52bd 56bc 133d 9643 083e
00000090: 84f5 c1bd abae 6c3c 6152 f2bc d544 00be
000000a0: b68b ea3d e7ee 813d e022 a2bd 39bc 1a3e
000000b0: 8c24 a33c 36c7 46be 778c e4bd b3ad 383e
000000c0: d0f2 0bbd 0853 323d 0f9c 1a3e fa38 83bd
000000d0: 571c 4abd 95d5 043e 88db 1dbe 647c 30be
000000e0: b616 40be d86d 3d3e 6db9 d83d 23ea 3e3e
000000f0: 6e8a 53bd 321b 313e 1306 b3bd c43e 8bbd
00000100: 2f21 13bd 3341 403e a23a 0ebe f61b 353d
00000110: 72a8 f4bd b47a 92bd 60b8 0c3e 163b 453e
00000120: f3dd 433e e7f1 ac3c 07ca fbbd b8ad 303e
00000130: 6845 263e 0523 cabd cdb1 99bd 0a78 053d
00000140: c66a 0e3b 6b2d 06be e445 95bd b4e9 163b
00000150: 44a9 debd d225 ef3d a5fa acbd 4414 2f3e
00000160: df4a ecbd 3495 a53d d4e9 97bc 3382 3c3c
00000170: 4d05 383d 21b9 2c3a 7fd7 39bd ba19 77bd
00000180: 027c d1bc 41e4 82bd b7fd b5bd 937f bc3d
00000190: 5cd3 25be 5c98 7fbd 40bc 11bc 57ef fbbd
000001a0: 23e1 9e3d 3524 583b 0f78 34bc 1c9e 16be
000001b0: 2921 303d e58a 81bd 3592 06be f9c5 a9bd
000001c0: d0b3 2fbe 0e1b 4d3d 6d89 36be 2a6c bf3d
000001d0: d7dd a33d fb1d 82bd 22d5 c8bd 906a 453d
000001e0: 5a9a 483e 95a3 06be ca1a 8abc 5045 84bd
000001f0: 508e 33bd 9cdf 103e 3655 75bc 75a1 cbbd
00000200: b60d 1e3e 588d 2ebe 9164 863d 61f0 353e
00000210: 8fd3 12be 18f1 6abc 6192 46bc 2316 2cbe
00000220: 3e57 133e 8b26 38be 4535 e23d e0ce 993c
00000230: f13e 693d 5838 0d3c efb2 b23c 4d32 3abe
00000240: 98af bb3d 44de 09be 4d4d 0dbd 010a f3bd
00000250: f3dd 02be 4e50 36bc a90d 1c3e eb77 473e
00000260: cc58 2d3e 3bb3 efbd ba0a 18bd 9e16 0039
00000270: 000a 15bb e90c 2e3e d1ba 413e bea7 ff3d
00000280: 0cae 403e 9a2f 0a3e a74e 723c ea06 1ebe
00000290: 4d61 bcbc 2dc9 d83d 5795 8bbd 2dd2 db3d
000002a0: 8b6c 33be 3b95 af3b 5515 123e 7983 4f3d
000002b0: 070e 1abe 1718 8cbd 04cf 313e fdeb bb3d
000002c0: 3e84 d63c d95e d4bd 33e1 113e f00d 423e
000002d0: 1656 5b3d 201c 32be 434a 4b3c 46e0 653c
000002e0: b139 55bc d426 28bd a717 313e ddbd 27be
000002f0: d189 2a3e bd1f 80bc d74a 2ebe af5d b7bd
00000300: 3f7c bd3d a2ca e13d 19a2 3cbe 10e3 973d
00000310: 491a b83d cd48 b83d 9af8 02be 897d 943d
00000320: a57c 14be 086d 183e 58c0 29bd cffe b53d
00000330: 5347 be3b 6c2e 053d da8e e83d cd85 f5bd
00000340: a963 f0bd be7f 843d b5df be3b fb89 5b3c
00000350: 37ef 2a3e e564 cb3d 1668 01be 85fd 13bc
00000360: 0d26 423e d336 48be ca67 19bd 5d9a 9e3d
00000370: 1973 c13d 1e2b 05be 41c0 a3bd a86b 93bd
00000380: 350b 233e 2762 e43d 27fe 3bbe d337 4b3d
00000390: dd13 03bc 1cb7 3c3e 388e a83d 7938 1dbd
000003a0: 150c 79bc 7910 27be 8b2a e93d ddce 4c3d
000003b0: 0029 45be 4615 923d 80f0 093e 48f6 383b
000003c0: 44be d3bd d2a6 2d3e 241f 99bd 6473 db3d
000003d0: 3d46 163c 19db f03d 6ee1 e6bc ac72 1b3e
000003e0: 4cfa 6cbd a27a ee3d b641 3d3e de45 0dbe
000003f0: 362e 4a3d cb45 5dbd 3b0c adbc 39f7 1abe
-0.057713673 -0.07825643 -0.002583201 0.12320587 0.0052847457 0.18666077 -0.013649633 -0.0711096
-0.08461975 0.17382812 -0.1434478 -0.16694549 -0.14218993 0.05108773 0.03572557 0.0032853384
0.07532806 0.105101444 -0.08313948 -0.012732083 0.1052772 0.012341866 -0.048263703 0.026448254
-0.07056448 -0.10705084 -0.17878765 -0.19034974 -0.027363371 -0.095014796 0.12579106 -0.016383301
0.02371538 -0.051304054 0.036068283 0.13307032 -0.094706565 0.014445941 -0.029580297 -0.12526257
0.11452429 0.06344395 -0.07916808 0.15110864 0.019914888 -0.1941193 -0.11159604 0.18035011
-0.03416711 0.043536216 0.15098594 -0.06407352 -0.049343433 0.129721 -0.15415776 -0.17234951
-0.18758664 0.18498933 0.10582242 0.18644004 -0.05164569 0.1729553 -0.08741393 -0.06799081
-0.03592032 0.18774872 -0.13889554 0.04421612 -0.11946191 -0.0715231 0.13742208 0.19260821
0.19127636 0.021111442 -0.12294393 0.17253768 0.16237414 -0.09869961 -0.07504616 0.03258518
0.0021731122 -0.13103263 -0.07288721 0.0023027482 -0.108721286 0.116771355 -0.08446244 0.17097574
-0.11537718 0.08085099 -0.018544115 0.011505651 0.04492693 0.00065888657 -0.04537153 -0.06032727
-0.025571827 -0.06391192 -0.08886283 0.0920402 -0.16193908 -0.06240116 -0.00889498 -0.1230151
0.07757785 0.0032980565 -0.011014952 -0.14708751 0.043000374 -0.0632532 -0.13141711 -0.082897134
-0.17158437 0.05007463 -0.17825861 0.093468025 0.08001297 -0.063533746 -0.09806277 0.04819733
0.1959013 -0.13148339 -0.016858477 -0.06458533 -0.04383689 0.141478 -0.014973929 -0.09942905
0.15434918 -0.17046106 0.0656215 0.17767479 -0.14338516 -0.014339708 -0.01211986 -0.1680532
0.14388749 -0.17983453 0.110453166 0.018775403 0.05694479 0.00861939 0.021813838 -0.1818325
0.09164351 -0.13463694 -0.034497548 -0.118671425 -0.1277998 -0.011127545 0.15239586 0.19479339
0.16928405 -0.117041074 -0.037119605 0.00012215457 -0.0022741556 0.16997112 0.18918921 0.12483166
0.18816394 0.13494721 0.01478926 -0.15432325 -0.022995615 0.10585246 -0.06815594 0.10733447
-0.17521875 0.005358366 0.1426595 0.05066249 -0.15044414 -0.06840532 0.17364126 0.091758706
0.026186105 -0.10369653 0.14246063 0.18950629 0.053548895 -0.17393541 0.012407842 0.014030522
-0.013014243 -0.041052654 0.17294179 -0.16381021 0.16654135 -0.015640134 -0.17020737 -0.089534156
0.09252214 0.11024977 -0.1842121 0.074163556 0.089893885 0.08998261 -0.12790146 0.072505064
-0.14500673 0.14885342 -0.0414432 0.088864915 0.0058068424 0.032514974 0.11355372 -0.11988411
-0.11737759 0.064696774 0.005825008 0.013399596 0.16692816 0.099313535 -0.12637362 -0.009032612
0.18959828 -0.19552164 -0.037452497 0.07744286 0.09445781 -0.13004729 -0.07995654 -0.07198268
0.15922244 0.111515336 -0.1835867 0.049613785 -0.008000341 0.18429226 0.08230251 -0.038383935
-0.0152006345 -0.16314878 0.113850676 0.050001968 -0.19253922 0.07132964 0.1347065 0.0028222967
-0.10339025 0.16958168 -0.07476643 0.107153684 0.00917202 0.117605396 -0.028183665 0.15180463
-0.05785589 0.11644484 0.18482098 -0.13796183 0.049360476 -0.054021638 -0.021123996 -0.1513337

encoder.2.weight f4 [256, 256]
00000000: b032 0ebd 60e8 36bb 22aa 5bbd 9859 20bc
00000010: ea76 4dbd c085 16bb 304a 4fbd 04ae f43c
00000020: 6ec9 07bd 9ce1 f1bc fc0d e9bc c041 0a3c
00000030: eac6 5c3d 7490 babc 80d5 5abd 4807 9a3c
00000040: bc8f 563d 6635 123d daea 7fbd 20d7 153c
00000050: 2458 323d f4fa 0ebd 2013 5cbb 2ccc 453d
00000060: 40f9 fa3a fc95 5a3d a4cb b0bc f63b 003d
00000070: a881 14bc 8827 83bc f86d 3d3c 1013 f03c
00000080: 78ac 333c 8026 533b 3c64 e2bc 90d2 a13b
00000090: 0865 0bbc 5854 44bc 605f 58bd 2016 3a3c
000000a0: 904a c9bb 3813 ed3c 9e61 123d 7884 633c
000000b0: 2cba b7bc 78a5 24bc 3018 2cbc fc2e 9cbc
000000c0: bed0 11bd 3ccb f3bc 481c da3c dedb 1e3d
000000d0: e862 af3c da96 21bd 52f3 753d 00bb 9ebb
000000e0: acbc 9dbc 2ee0 1e3d e81a fa3c 101c 15bd
000000f0: 308a 743d b096 1ebc 0c85 de3c 40c2 b93c
00000100: ac52 603d 00a0 643a 7034 34bd 809f cabc
00000110: c8a4 01bd fcab 08bd ea8d 7bbd bc9e 743d
00000120: be9a 34bd 18eb b9bc f46b 6d3d 204d 4c3d
00000130: 885d a53c f499 3cbd e4fa fdbc 68b7 3d3c
00000140: baeb 693d bacf 63bd 00bb 793b 901b a6bc
00000150: 80fd afba 0046 5bbc 84a5 a1bc a605 433d
00000160: c819 c3bc f89a b83c 700e a23c e608 023d
00000170: a0f6 323d 80b8 0dbc bc82 3bbd 80b7 4e3d
00000180: 9006 bd3b d4a4 e13c 582a 5dbc 1e11 5b3d
00000190: d8b2 14bc 0079 243a 645f 87bc 68cd 6bbc
000001a0: f05c 873c 4c89 9ebc c0f9 4c3d 8c42 f13c
000001b0: 783b 9bbc 7280 583d f060 2d3d 2ae7 763d
000001c0: 7e4b 1d3d acf6 71bd e482 183d c055 633c
000001d0: a082 4cbb e6bf 5a3d 70e1 f0bc d0a6 4fbd
000001e0: 86da 0e3d 323a 453d 3015 f03c cedc 3e3d
000001f0: dc22 24bd 8299 453d 7476 133d 7859 8fbc
00000200: a859 383c 9884 07bc bac6 67bd 8225 6cbd
00000210: b068 a8bb 6466 70bd c03d b3bb 768c 2dbd
00000220: 0057 a539 323d 42bd 2e0f 4dbd 00d1 b73a
00000230: 6063 05bc 80ab b83c b0da 7e3d 6086 8dbc
00000240: 8ed0 03bd 4c57 683d 4088 4a3b 8005 f9bb
00000250: 2a77 513d 808e bdbb c4a1 a9bc c488 a6bc
00000260: f424 db3c 945d ae3c 209a 6abb 8c56 f3bc
00000270: ea7f 42bd 227e 423d 3cc2 8fbc b6f0 293d
00000280: 3c56 c63c 180f 633c 54db 42bd 44ba 223d
00000290: 44fe 873c f0de 653c c010 a43c c861 42bd
000002a0: 9e51 3f3d a8b0 863c 2c76 0d3d f8d3 203c
000002b0: 7c01 9e3c b018 5e3c 6278 153d 70c0 253c
000002c0: 146d 223d ac61 38bd b29f 453d baa0 66bd
000002d0: 96cf 31bd 90da e43c 6c8c 1cbd e091 633c
000002e0: 8c61 573d 328b 2fbd 1c41 a8bc c82a 1a3c
000002f0: d0e2 033d fc99 bf3c 6076 75bb d020 893c
00000300: 3e01 3e3d 661f 44bd 2068 193d 8832 473d
00000310: d0f0 c2bb c03e d5bc 2450 aabc f43a 023d
00000320: 3c52 17bd 383e 0abc f0bb 2cbd 6072 18bc
00000330: 8820 8fbc c047 efba ac80 d0bc 5a88 173d
00000340: 6cde a6bc b025 edbb f87b 0d3d fc43 f4bc
00000350: 1827 ba3c a0f2 72bb 8859 b9bc 2806 483d
00000360: 2091 7f3d f01b 0f3c a462 a93c 58c4 5abc
00000370: 6ca3 a4bc 7034 793c e05d 6abc 28d0 683d
00000380: 0c3a 323d 80e2 8aba 8002 92ba f4c7 9b3c
00000390: 6052 4fbb 5c64 45bd bc58 823c b8ce 32bd
000003a0: 0071 58bb 92b3 203d 48dc 07bc d8cf 45bd
000003b0: 4a1b 24bd c868 263d 00e6 7fbc 36ef 543d
000003c0: 7e35 193d dc7b ef3c dce3 cb3c cec3 173d
000003d0: 0ae3 093d 0094 893b d89c cbbc 2048 313d
000003e0: 003d a639 70ee 013d feb2 4b3d d605 1c3d
000003f0: a036 773d f48e 443d 643e b13c bc8c 763d
-0.034716308 -0.0027909502 -0.05362905 -0.009786986 -0.050162233 -0.0022967905 -0.05060786 0.029868133
-0.033151083 -0.029526524 -0.028449051 0.008438528 0.053900637 -0.022773959 -0.053426266 0.0188023
0.05238317 0.035695456 -0.06247983 0.009145528 0.04354109 -0.034907296 -0.0033580735 0.048290417
0.0019147769 0.053365692 -0.021581478 0.031307183 -0.009064116 -0.01601006 0.011561863 0.029305965
0.010966413 0.0032218993 -0.027635686 0.004938431 -0.008507974 -0.011983 -0.05282533 0.011357814
-0.0061429217 0.028939828 0.035737626 0.0138865635 -0.02242764 -0.010049216 -0.010503814 -0.019065373
-0.035599463 -0.029759996 0.026624814 0.0387839 0.021409467 -0.039450504 0.0600465 -0.0048440695
-0.019255005 0.038788013 0.030530408 -0.036403716 0.0597021 -0.009679481 0.027163051 0.022675633
0.054766342 0.00087213516 -0.04399532 -0.024734259 -0.03165129 -0.033367142 -0.061414637 0.059721693
-0.044092886 -0.02269511 0.05796428 0.04987824 0.0201862 -0.04604526 -0.031003423 0.011579372
0.057109572 -0.055618025 0.0038105845 -0.020276815 -0.0013426989 -0.0133833885 -0.019732244 0.04761281
-0.023816004 0.022534832 0.019782275 0.031746767 0.04369223 -0.008649945 -0.045778975 0.050467968
0.0057686046 0.027544416 -0.013498865 0.05348312 -0.009075843 0.0006274134 -0.016524978 -0.014392234
0.016523808 -0.019352578 0.050042868 0.029450677 -0.018949255 0.05285687 0.042328775 0.06027905
0.038402073 -0.059073135 0.037234202 0.013875425 -0.0031205788 0.053405665 -0.029404372 -0.050696194
0.03487637 0.048151202 0.029306978 0.046597295 -0.040072307 0.0482421 0.036001638 -0.017498717
0.0112518445 -0.008271359 -0.056586005 -0.057652958 -0.005139433 -0.058691397 -0.0054700077 -0.042370282
0.00031536072 -0.04742164 -0.050063305 0.0014024079 -0.008141369 0.022542715 0.062220275 -0.017275989
-0.032181315 0.056723878 0.0030903965 -0.0075995326 0.051139034 -0.0057848096 -0.020707019 -0.020328887
0.026751019 0.021284856 -0.0035797432 -0.029704355 -0.04748527 0.04748357 -0.017548673 0.041489325
0.024211042 0.013858579 -0.04757245 0.039728418 0.016600735 0.014030203 0.020027518 -0.047456533
0.046708696 0.016441658 0.034536526 0.009816162 0.019287817 0.013555691 0.03649176 0.010116681
0.039654806 -0.045015022 0.048248 -0.056305625 -0.04341086 0.02793625 -0.038219854 0.01388976
0.052583262 -0.042857356 -0.02053886 0.009409614 0.032198727 0.023388855 -0.003745459 0.016739279
0.046387903 -0.047881506 0.037452817 0.048632175 -0.0059491172 -0.026030898 -0.020790167 0.031794503
-0.03694366 -0.008437686 -0.04217142 -0.009304613 -0.017471567 -0.0018255636 -0.02545198 0.03699527
-0.02036973 -0.0072371587 0.034542054 -0.029817574 0.02272372 -0.0037070885 -0.0226257 0.048833996
0.06239426 0.008734688 0.020676918 -0.013352476 -0.020097457 0.015210256 -0.014304608 0.05683914
0.04351239 -0.0010596067 -0.0011139661 0.019016244 -0.0031634793 -0.048191413 0.015911452 -0.043654174
-0.0033026338 0.03923375 -0.008292265 -0.04829392 -0.040065087 0.04062727 -0.015618801 0.05198594
0.03740453 0.029233865 0.024888925 0.03705197 0.033663787 0.004198551 -0.024855062 0.043281674
0.00031707436 0.031721532 0.049731247 0.038091503 0.06035483 0.047987893 0.021636195 0.06019281

encoder.2.bias f4 [256]
00000000: 5c09 413d c07a 1e3d 00c6 ba3b 00ba 3fb9
00000010: b0fc d6bb aaf3 4e3d 0863 363d f00e fb3b
00000020: 9e4f 043d 0411 cbbc 7850 d73c 9830 1fbd
00000030: 345d c0bc 2087 483b 4074 80bc b02d c4bb
00000040: 6a6b 293d 400c 773b 3c16 7b3d 98d5 10bc
00000050: d0cd 36bc feb1 293d d030 f13c 183d 26bc
00000060: 3423 2c3d b21d 7f3d 28b1 333d b003 163d
00000070: a016 c5bb d4c3 ca3c cc30 a4bc c402 00bd
00000080: 6e7f 3d3d 2272 6dbd f6f1 593d 169a 223d
00000090: 1857 243d e02a 1b3b a015 f13c a834 d73c
000000a0: 2003 17bb 4247 7e3d 0ac0 67bd 0025 453d
000000b0: 60fe a7bb 6c18 e83c 183a c4bc ea57 0cbd
000000c0: 3c38 88bc 800b 45bc 38a5 bd3c 14d0 3cbd
000000d0: 1450 ccbc 9cfe 263d 2cf7 11bd c098 923b
000000e0: 5871 783d 20cc 5d3b d401 5bbd e81a 70bc
000000f0: 6e42 3e3d 7089 113d 0c5f 493d 6801 acbc
00000100: e69c 783d b267 5b3d 405c d93c 70c4 7bbc
00000110: a012 c03b 3253 35bd 7016 11bc d01f 07bc
00000120: 841f 123d 288e dfbc 1ed9 56bd b077 1f3c
00000130: a4fb 6dbd ccf5 8cbc deaf 6bbd 2016 31bc
00000140: 8058 fcbb 3c5b 773d 4e38 64bd 68b1 6ebc
00000150: 8008 273b 56fb 59bd 9686 223d e0ec 57bc
00000160: b033 643c a0df c93b 2618 4d3d be82 163d
00000170: b840 733c 3a09 06bd ecb7 953c e864 073d
00000180: f249 4c3d 42a0 173d 4c05 3c3d b876 1e3c
00000190: 22f1 493d 240f 6b3d 00f8 fab8 c816 d43c
000001a0: 64ed 23bd 16d6 7e3d 743b f53c 5ea7 5fbd
000001b0: a0d1 f43b ee2a 773d 3059 19bc 7ce9 16bd
000001c0: e847 3b3d 3801 753c 7830 ec3c 30e7 3d3c
000001d0: 842c ae3c ac3e d93c b208 463d 60cc 723b
000001e0: 4852 6ebc 7a99 273d b6f6 13bd 7494 aebc
000001f0: 8c1f 6abd 0046 113c 4479 803c 46ac 03bd
00000200: 7849 53bc 2a4a 04bd 4e36 5abd 04f2 c53c
00000210: 88a2 653d 2a8c 59bd c43a e53c e46d 533d
00000220: d87f 063c dc80 b43c 806b 33bd 8072 f53a
00000230: 50fd 9dbb 1088 1cbd 00e4 92ba c8ea 18bc
00000240: 262f 503d e06d 83bc 680b 1bbd b0fb e4bc
00000250: 905e 363d 0000 6db6 90a4 e7bc a4ef 25bd
00000260: 40f2 15bb 4082 9dbc 90ff 64bc c0f5 77bd
00000270: 5852 ab3c 4e45 013d d08b a8bc 68c3 e0bc
00000280: a8c0 61bd 280a cebc b827 983c 8834 f3bc
00000290: 8097 5c3d 603e 813c 608e 62bc cc84 9bbc
000002a0: 48ee 5b3d a8c9 a0bc 5c55 8c3c 2040 223b
000002b0: c0fc daba 84d1 123d 4467 393d 4c17 ad3c
000002c0: 5ca3 753d 40f4 ae3c 0889 583c 4695 593d
000002d0: 8023 1c3c 7eae 153d 2072 45bc 5a17 6a3d
000002e0: a4ee b93c d02e 1f3d 3acf 7f3d 42c6 583d
000002f0: 9897 463c 2ae7 55bd a21d 723d f6fb 02bd
00000300: dae0 443d 9e11 6cbd a4fd 373d 6039 4dbd
00000310: 80e2 33bc 7004 473d 94a4 7c3d 6004 0e3b
00000320: 40d2 dbbb 18f9 bb3c d090 95bb 74c9 ed3c
00000330: 1cbe 133d 48d4 4bbc 80ae 7cbd b449 81bc
00000340: e06d 99bb 50ca 543d 3435 ac3c 84bb db3c
00000350: 58c2 283c 8849 5a3d 1437 84bc 2896 f63c
00000360: e03c c0bb 1c01 3fbd 8ea4 43bd 40cc 0fbd
00000370: 8e4c 3cbd b88d ef3c 9073 943b b098 6c3d
00000380: 6eb7 353d 0203 6fbd 54f6 79bd d086 aa3b
00000390: 401a 81bc 5c88 7c3d 6e63 7d3d 8062 523d
000003a0: f4d5 4dbd 20ea c3bc 8cd7 91bc 98b4 993c
000003b0: 8a2b 713d 40ce 883b e873 113d 58e4 5cbc
000003c0: 002d 103c 1c84 5abd 9252 3c3d 2c2d d1bc
000003d0: c2ba 453d d843 3ebc 2879 dcbc ac5b 173d
000003e0: 6002 ebbb c0b8 c43a c00f 99bc f80e 573d
000003f0: b224 6a3d 7e20 0c3d e649 6cbd 0045 b63b
0.047128066 0.038691282 0.005699873 -0.0001828447 -0.0065608844 0.050525345 0.044528037 0.007661693
0.03230249 -0.024788387 0.026283488 -0.038864702 -0.023481943 0.003059812 -0.015680432 -0.0059868917
0.041362204 0.003769651 0.0613005 -0.008839987 -0.011157468 0.041429512 0.02944222 -0.010146402
0.04202576 0.06228418 0.04387012 0.03662461 -0.00601466 0.024751581 -0.0200428 -0.031252638
0.046264105 -0.057970174 0.053209268 0.03969773 0.04012212 0.0023676679 0.029429257 0.026270226
-0.0023042634 0.062079675 -0.056579627 0.04813099 -0.0051267594 0.028331958 -0.023953483 -0.03426353
-0.016628377 -0.012026668 0.023150072 -0.046096876 -0.024940528 0.04077016 -0.035636112 0.0044737756
0.060654968 0.0033843592 -0.05346854 -0.014654852 0.04645007 0.03553146 0.04916291 -0.020996764
0.060696505 0.05356569 0.026533246 -0.015366659 0.0058615953 -0.044268794 -0.008855447 -0.008247331
0.035674587 -0.027289465 -0.052453153 0.009733126 -0.05810131 -0.017207049 -0.057540767 -0.010808498
-0.0077009797 0.060389742 -0.05571776 -0.014568664 0.0025487244 -0.05321821 0.039679132 -0.013179034
0.013928339 0.0061606914 0.050071858 0.03674578 0.014846973 -0.032723643 0.018276177 0.033055216
0.049875207 0.037018068 0.04590349 0.009671859 0.049302228 0.057387486 -0.000119671226 0.02588977
-0.040021315 0.062215887 0.029935576 -0.054602973 0.0074712783 0.060343675 -0.009359643 -0.03684376
0.045722872 0.014953904 0.028831705 0.011590764 0.021261461 0.026519142 0.048348136 0.0037048087
-0.014545985 0.04091785 -0.036123954 -0.021311022 -0.05715899 0.008866787 0.015682824 -0.032146715
-0.012895934 -0.03229729 -0.053274445 0.024163254 0.056063205 -0.053112186 0.027982123 0.05161847
0.008209191 0.022034101 -0.043803692 0.001872614 -0.004821457 -0.038215697 -0.0011206865 -0.00933332
0.050826214 -0.016043603 -0.037852675 -0.027952045 0.044523776 -3.5315752e-06 -0.028276712 -0.040511742
-0.0022879988 -0.019227147 -0.0139769465 -0.0605371 0.020913288 0.031560235 -0.02057448 -0.027436927
-0.055115372 -0.025151327 0.018573627 -0.029688135 0.05385542 0.015776813 -0.01382789 -0.01898422
0.05369404 -0.019627407 0.017130546 0.002475746 -0.0016707405 0.03584434 0.045264497 0.021129273
0.059970245 0.021356702 0.013216265 0.053120874 0.009529948 0.03654336 -0.012051135 0.057151176
0.0226968 0.038863003 0.062453486 0.05292345 0.012121104 -0.05222241 0.05911029 -0.03197857
0.048065998 -0.05763399 0.044919625 -0.050103545 -0.010979295 0.048588216 0.06168039 0.0021670088
-0.0067084134 0.022945926 -0.004564382 0.029026724 0.036069974 -0.0124407485 -0.061689854 -0.015782215
-0.0046822876 0.051950753 0.021021463 0.026822813 0.010300241 0.05329278 -0.016139545 0.030100897
-0.005866632 -0.046631917 -0.047764353 -0.035106897 -0.045971446 0.029242381 0.0045303777 0.0577628
0.044364385 -0.058352478 -0.061025932 0.005204059 -0.015759587 0.06165348 0.0618624 0.05136347
-0.05025287 -0.02391535 -0.017802976 0.018762872 0.058879413 0.0041749775 0.035510927 -0.013482176
0.008799791 -0.053348646 0.045977183 -0.025534235 0.04827381 -0.011612855 -0.02691324 0.03695266
-0.007171914 0.0015008673 -0.018684268 0.05250451 0.0571639 0.034210674 -0.057687663 0.0055624247

fc_mu.weight f4 [8, 256]
00000000: c02a ef3a 6206 083d d4db ab3c ecfb d23c
00000010: 88bd c3bc 701e eb3c f22d 323d 50b1 393c
00000020: b88b 5e3c b018 343d 7649 49bd 5804 163d
00000030: c451 f4bc c850 7d3d 90a1 793d 9ee8 5e3d
00000040: ca21 73bd 802e 31bb cefe 2f3d d88b 3bbd
00000050: 0cc9 b23c 66b3 4ebd 9ed7 62bd 4c9b 5c3d
00000060: 1488 a03c c080 9b3b f04f 70bc e889 e63c
00000070: 340f aabc 18f7 223c ec57 dcbc 8acb 1b3d
00000080: 68a0 603d b63d 253d f219 0ebd b01c 0f3c
00000090: b459 b9bc 14bb 73bd 4cad 4dbd a095 b5bc
000000a0: 5008 3e3c 84e7 b5bc 62c2 4cbd 6017 4bbc
000000b0: 5802 41bc 7e07 113d ca13 12bd 588f a8bc
000000c0: e44f 263d cc1b 50bd acfb 5fbd 589b 38bc
000000d0: f823 1ebc e2eb 6b3d 58ff 2e3c c077 fdba
000000e0: ce72 263d 0ce6 213d 700a 09bd d886 acbc
000000f0: 7e0c 523d 5a8b 6e3d 74c8 f43c 0269 1cbd
00000100: fedd 0e3d 4053 cbbb feb5 1cbd 8c27 393d
00000110: 3eaa 79bd 6cc1 e8bc 32f4 53bd d097 3c3d
00000120: c2cd 693d 3017 3a3c fc35 dfbc 60bf dfbc
00000130: 803f 2a3a bed2 6a3d 3a8c 11bd 205e 7bbc
00000140: d0d8 ebbc 5e5f 0bbd e649 66bd b478 4d3d
00000150: f83a 273c 88d4 97bc 5c36 77bd 02e7 22bd
00000160: 0a80 5cbd 1ab3 6bbd 6886 ab3c aafc 4fbd
00000170: 3cad cc3c 80aa 05bb ac65 c4bc b250 3f3d
00000180: 70e8 92bb 3021 223d 1064 183c 2061 ccbb
00000190: fcc5 55bd 3c01 653d 240c 27bd fafa 2ebd
000001a0: 0005 feb9 2491 943c 1287 54bd 54d4 e9bc
000001b0: a851 e1bc d049 623d f46a 8b3c fc8e b2bc
000001c0: b8de 3abc a8e0 0b3d c035 dd3a d02b 99bc
000001d0: d4a5 923c a8e2 19bd 66a3 0bbd 60a3 153b
000001e0: 8aca 3bbd 0001 08bd 4e9f 56bd f836 263c
000001f0: 1872 1d3d 2626 35bd 047c 413d 0038 f1b9
00000200: 1052 b93b 7066 213c 24a4 be3c a240 6a3d
00000210: 1081 a53c 46e8 3f3d bc34 bcbc 0a83 16bd
00000220: 98e2 b63c e09d 403d 98b0 5ebc 3020 b83b
00000230: 88eb 9d3c 40dc 6e3d 00bb 84bc 9094 9b3c
00000240: 246f 23bd 1871 1dbd f414 47bd b053 d23c
00000250: 90bf fe3c 144f c53c b898 26bd 8454 b23c
00000260: c072 7bbb 1083 eb3c c8ba b8bc b8e3 8abc
00000270: 8a0a 513d 0003 a7ba 84d3 c2bc 44bc aa3c
00000280: 104c 9fbb 0a63 3ebd 3809 1c3d 4022 edbb
00000290: e880 783d 76bf 233d 50db f33c 7c68 a2bc
000002a0: a4fe 84bc 3452 5e3d b024 c63b ba50 66bd
000002b0: 5c8f 3a3d 3cd9 4bbd 5a80 6d3d 320a 67bd
000002c0: 608f 693c 7883 433c 283a ff3c 3c02 2d3d
000002d0: 6ec1 1c3d 30d4 3fbc 3429 de3c c08f 383c
000002e0: d006 6c3d 408c 10bc 70df 9c3b 6010 5abd
000002f0: 0cd8 febc 202e 4e3c f865 433d 2432 c2bc
00000300: 549b 69bd e412 863c 8047 1abc d45b 573d
00000310: f256 023d 3c06 dcbc 5036 07bd 987a 1b3d
00000320: 1ec7 3bbd f81c 65bc 4050 aabc d894 7dbd
00000330: 6a07 273d 9489 2f3d 1c63 f5bc 5440 a63c
00000340: 3c1c 843c 9418 683d e8ca 31bc 20ac 6cbc
00000350: e60c 2cbd 5c09 d13c 1240 27bd 6047 643c
00000360: 3605 3ebd a029 1bbb eee8 2b3d 4012 c43a
00000370: 306f a4bc e8ad 5dbc a2d0 493d 0aa3 6fbd
00000380: f4d0 bb3c 4810 81bc f2e6 5d3d 9679 3f3d
00000390: fc6e 563d f891 343c d088 f43c 00b2 55bd
000003a0: b8b9 c2bc 00d4 bebc 3aaa 45bd 4052 f73b
000003b0: c287 003d d0a8 58bd b43b 50bd e002 323b
000003c0: 201c 8d3b 4083 7fbc d658 7b3d 7ca5 de3c
000003d0: 5cc4 86bc a00e 05bb 08b9 b03c 3c7c bebc
000003e0: b080 27bc 56e3 62bd 3486 103d b461 6fbd
000003f0: 08ee 52bd 14cf a63c 1cfe d0bc 6242 253d
0.0018246993 0.033209212 0.020978846 0.025754891 -0.023894086 0.028701037 0.043500848 0.0113337785
0.013583116 0.043968856 -0.049142323 0.036625236 -0.029824145 0.061844617 0.060945094 0.05442106
-0.059358396 -0.0027035773 0.04296761 -0.045787662 0.021824382 -0.050464056 -0.05538141 0.05385904
0.019596137 0.004745573 -0.014667496 0.02814193 -0.020759203 0.009946607 -0.026897393 0.038035907
0.054840475 0.040342055 -0.034692712 0.008734867 -0.022625782 -0.059504583 -0.050214097 -0.022166073
0.011598662 -0.022205122 -0.049990065 -0.01239571 -0.011780344 0.035407536 -0.035663404 -0.020576164
0.040603533 -0.05080776 -0.054683372 -0.011267506 -0.00965213 0.057598002 0.010680996 -0.0019338056
0.04063683 0.03952603 -0.03345722 -0.021060392 0.051281445 0.058238365 0.02988074 -0.03818608
0.034879677 -0.0062049925 -0.0382595 0.04520373 -0.06095337 -0.028412543 -0.051746555 0.046043217
0.05708099 0.011358067 -0.027247421 -0.027312934 0.00064944476 0.057329886 -0.03553412 -0.015342265
-0.028789908 -0.034026496 -0.05622282 0.05016394 0.01020693 -0.01853396 -0.060354576 -0.039771087
-0.053833045 -0.05754385 0.020938113 -0.05077807 0.024984948 -0.0020395815 -0.023974262 0.046707816
-0.004483275 0.03958243 0.0093012005 -0.006237164 -0.052190766 0.05590938 -0.040783063 -0.04271982
-0.0004845038 0.018135615 -0.051886626 -0.028543629 -0.027504757 0.055246174 0.017018773 -0.021796696
-0.011405639 0.034149796 0.0016876981 -0.01869765 0.017901339 -0.037569672 -0.034091376 0.0022832975
-0.045847453 -0.03320408 -0.05239802 0.0101449415 0.038438886 -0.044225834 0.04723741 -0.00046008825
0.0056555346 0.009851083 0.023271628 0.057190545 0.020203143 0.046852373 -0.022974364 -0.036746062
0.022324845 0.04702556 -0.013591908 0.0056190714 0.01927735 0.058315516 -0.01620245 0.018991739
-0.039900914 -0.038437933 -0.048603967 0.025674671 0.031097203 0.024085559 -0.040672988 0.021768816
-0.0038367957 0.028749019 -0.022550002 -0.016954288 0.05103544 -0.0012741983 -0.0237825 0.020841725
-0.0048613623 -0.04648117 0.03809473 -0.007236749 0.06066981 0.039977513 0.029767662 -0.019825213
-0.016234703 0.054277614 0.006046854 -0.05622933 0.045546874 -0.049767718 0.057983734 -0.056406207
0.014255375 0.0119332 0.03115566 0.04223846 0.038270406 -0.011708304 0.027119257 0.011264741
0.057623684 -0.008822501 0.004787378 -0.053238273 -0.031108879 0.012584239 0.047704667 -0.02370555
-0.057032898 0.01636643 -0.009416461 0.05257781 0.0318212 -0.026858442 -0.03301078 0.03795871
-0.04584419 -0.0139839575 -0.02079022 -0.061909527 0.040778555 0.042855814 -0.029954486 0.020294346
0.016126744 0.056664065 -0.010851599 -0.014445335 -0.04200449 0.025517158 -0.040832587 0.013933033
-0.04639169 -0.0023675933 0.041970186 0.0014959052 -0.02007255 -0.013530232 0.049271233 -0.058505096
0.022926785 -0.015754834 0.054175325 0.046746813 0.052351937 0.01102113 0.029850394 -0.052171707
-0.023770198 -0.023294449 -0.048258044 0.0075476468 0.03137947 -0.052895367 -0.050838187 0.0027162358
0.0043063313 -0.015595257 0.061364017 0.027178518 -0.016451053 -0.0020302907 0.021572605 -0.023252599
-0.010223553 -0.055392586 0.035284236 -0.058442786 -0.051496536 0.020362414 -0.025511794 0.04034651

fc_mu.bias f4 [8]
00000000: 24de 54bd 60b5 6c3b 7e74 50bd 546f fb3c
00000010: 3241 0e3d 905c bebc 48f8 37bc 2cfd 60bd
-0.051969662 0.003611885 -0.050892346 0.030692734 0.034730144 -0.023237497 -0.011228628 -0.054928944

fc_logvar.weight f4 [8, 256]
00000000: c62d 1bbd 60ca 3d3d e03d 77bb 908b 8ebb
00000010: 7cec 2d3d 34bc 483d 20d0 ba3c 26b5 043d
00000020: d0c4 03bc 803c 8cba ec0e 5d3d 10cf 333d
00000030: 643e f73c 72b4 23bd 9c67 3e3d 1867 f0bc
00000040: 18f7 2f3d 7a2b 323d c887 373c d477 93bc
00000050: 1831 70bd 24f0 e3bc 0c50 be3c 78ec d13c
00000060: e002 38bc e231 013d 46b0 78bd 2043 943c
00000070: 5408 983c 1880 4e3d 203b f93b 1853 853c
00000080: 56a4 613d f080 8fbc c0cd 47bc 0a1b 1ebd
00000090: 469b 7e3d 4403 65bd ac2b b2bc d4fe ffbc
000000a0: d8cd 9abc bc30 38bd 46ed 163d a0d9 49bb
000000b0: a01f 06bb 907b febb b024 9dbc 086d 74bc
000000c0: d4b3 7fbd 96a2 5f3d e44f d9bc f0b1 c1bb
000000d0: 2668 6f3d 70db e73b 104e 33bd e8f2 64bc
000000e0: 2aed 083d 6ed4 3f3d bc08 113d c2d7 03bd
000000f0: 6296 1ebd 4082 06bc 8cae 1c3d 604c 6e3d
00000100: 582f 183d ec66 c3bc 00ce cc3c 606f 5ebc
00000110: baea 50bd 24d8 c8bc ce2a 553d 1038 e5bb
00000120: c09e 113d 7059 f8bc 18c6 36bc 40d4 363c
00000130: 546b febc 222e 61bd d230 303d dc4d c53c
00000140: 54c0 253d 50c5 b1bc ec7b 00bd d8e4 e43c
00000150: f038 723c f0af 743c c8e1 89bc 246c cc3c
00000160: e099 393d 48ce abbc a86b 78bc ba30 31bd
00000170: 3820 583c e8e1 3cbd 6087 7cbd c067 a83b
00000180: 5a65 21bd 04f0 05bd 60d9 133b 50fb d43b
00000190: b206 3cbd 7cb9 f93c 9c17 f53c 803f 1ebc
000001a0: 8c07 71bd 7e31 15bd 4008 313d 74e8 3a3d
000001b0: 0006 d23c bc27 84bc 2ef5 4e3d 6810 25bd
000001c0: 8694 183d 1ac2 5cbd 0092 35bb 440a 86bc
000001d0: 8000 b4bc e03b b1bc a485 74bd e078 163d
000001e0: f07a 54bd 3620 483d 3c71 533d 5a3a 033d
000001f0: 10e1 973b 2080 f4bb c0b6 f5bc 60e7 603c
00000200: d67d 4cbd 3ac9 32bd 246d 7f3d 504c 26bc
00000210: 90a7 febb 4c91 bebc 8a8c 3dbd ecb2 dc3c
00000220: aca0 7c3d 00ab f9bc 1065 103c 20e3 fabc
00000230: 18ea 27bd c01b 93bc 3a22 7fbd 58d9 a2bc
00000240: 70fb fb3c 1c24 aabc 10c6 78bc 901c 163d
00000250: 8873 603d ccc5 61bd c843 4d3d 9846 973c
00000260: a4ed c73c 36b0 17bd e8dc 433c da79 79bd
00000270: c084 613b 5477 db3c 7a2d 74bd 40f7 083b
00000280: c06d 6abd 6c67 433d 7a14 6e3d 3845 433d
00000290: 9649 7c3d c000 fc3c 748f 013d 8a74 133d
000002a0: 8e73 00bd 248b c0bc 7211 3e3d c6f6 27bd
000002b0: 4283 3fbd 50b3 96bb 0042 4bbb 4091 283d
000002c0: 003f 36bc ac7c 18bd c4f6 dabc ba9d 3a3d
000002d0: 3868 2abc 24c1 65bd 8a37 5dbd 44c1 3d3d
000002e0: b829 063d 32ff 2f3d 3a18 5e3d 50bc aebb
000002f0: 162e 6bbd 46ae 7e3d b8b9 e93c 88b5 99bc
00000300: 8eed 3abd 9e50 403d 9c70 173d 2063 8a3c
00000310: 8e01 19bd 1afe 7f3d e013 763d 80cc 10bb
00000320: b4b1 e43c 9ec2 2fbd b89c 073c 947a 603d
00000330: 8831 d9bc f4a0 bbbc 10fe 6fbd c85c 583d
00000340: d8b9 7bbd 20ec 53bd 7884 143d ac72 a8bc
00000350: ea4d 373d ecc6 6b3d 305e 293d bc49 063d
00000360: 1225 66bd 50ad 243c 30ad f63b 8461 55bd
00000370: 2032 c2bc 00e1 aebc 7214 5c3d a44b cfbc
00000380: 727b 3cbd 6e60 50bd c0f5 fc3b 081d 7ebc
00000390: 086b 53bd bca8 ccbc 3033 353c 8add 43bd
000003a0: 649a ccbc d24c 4dbd 0e5a 44bd 4058 fdbc
000003b0: c085 003c fe6a 1e3d 9002 74bc e0d8 20bb
000003c0: 78b0 763c 5832 813c 00e5 a33c a644 4bbd
000003d0: d0c0 f0bc 708b 543c 0022 6d3b 8291 1fbd
000003e0: b6c2 4a3d e033 7c3c 0064 9239 aefb 433d
000003f0: 6093 50bc 6058 483c 80a5 fc3a b040 70bc
-0.03788545 0.046335578 -0.003772609 -0.0043501332 0.042461857 0.04900761 0.02280432 0.03239932
-0.008042529 -0.0010699183 0.05396931 0.043898642 0.030181117 -0.039967008 0.04648553 -0.029346034
0.042960256 0.043498494 0.011201806 -0.018001474 -0.05864057 -0.027824469 0.023231529 0.025625452
-0.011231154 0.031541713 -0.060714982 0.018098414 0.018558659 0.05041513 0.007605925 0.016274974
0.055088364 -0.017517537 -0.012195051 -0.038600005 0.0621598 -0.055911317 -0.02174934 -0.031249441
-0.018896982 -0.04496835 0.036847375 -0.003079988 -0.0020465627 -0.0077661946 -0.019182533 -0.014918573
-0.062427357 0.054598413 -0.026527353 -0.0059111044 0.058448933 0.0070757195 -0.043775618 -0.013973929
0.033429302 0.046833448 0.03540872 -0.032188185 -0.038717635 -0.008209765 0.0382524 0.058178306
0.037154526 -0.023852788 0.025000572 -0.013576359 -0.051005103 -0.024517126 0.052042775 -0.0069952086
0.035551786 -0.030316085 -0.011155628 0.011159003 -0.031057037 -0.054975636 0.04301531 0.024084978
0.04046662 -0.021700531 -0.03136818 0.027941152 0.014784083 0.014934525 -0.016831294 0.02495391
0.045312762 -0.020972386 -0.015162386 -0.04325936 0.013191275 -0.04611388 -0.06165254 0.005139321
-0.039403297 -0.0326996 0.0022559986 0.0064996853 -0.045904823 0.030483954 0.029918484 -0.009658694
-0.058845088 -0.036424153 0.04322076 0.04563184 0.025637627 -0.016132228 0.05052679 -0.04029885
0.037251018 -0.053896047 -0.002770543 -0.016362317 -0.021972895 -0.021634996 -0.059697762 0.03673637
-0.051875055 0.048858844 0.05162166 0.03203807 0.004634984 -0.0074615628 -0.029994369 0.013727039
-0.049924694 -0.043648936 0.062359944 -0.01015003 -0.00777144 -0.023262642 -0.046276607 0.026940785
0.061676666 -0.030477047 0.008813158 -0.03062588 -0.040994734 -0.017957568 -0.0622885 -0.019879028
0.030759543 -0.020769171 -0.0151839405 0.036648333 0.05479768 -0.055120274 0.05011347 0.018466279
0.024405308 -0.037033282 0.011954524 -0.060907222 0.00344114 0.026790299 -0.059613682 0.0020899326
-0.057233572 0.047706053 0.058124997 0.047673434 0.061593615 0.030762076 0.03163095 0.035999812
-0.0313602 -0.023503847 0.046403356 -0.041006826 -0.046756037 -0.0045990124 -0.003101468 0.041154146
-0.011123419 -0.03722827 -0.026728995 0.045560576 -0.010400824 -0.056092396 -0.054008044 0.04632689
0.03275463 0.042967983 0.054222323 -0.005332507 -0.057416998 0.06217792 0.02853094 -0.018763319
-0.045636706 0.046951883 0.036972627 0.01689297 -0.037355 0.06249819 0.060077548 -0.0022094548
0.027916767 -0.04291021 0.008277111 0.0548044 -0.026512876 -0.022903897 -0.058591902 0.052822858
-0.06145653 -0.05173886 0.036259145 -0.020562492 0.04475204 0.057562754 0.04134959 0.032785162
-0.056187697 0.010051087 0.00752797 -0.05209495 -0.023705542 -0.021347523 0.053730436 -0.025304623
-0.046016164 -0.050873213 0.0077197254 -0.015509851 -0.051615745 -0.024982803 0.011059567 -0.047818698
-0.024975963 -0.05012209 -0.047937445 -0.03092587 0.0078443885 0.038676254 -0.014893189 -0.002454333
0.015056722 0.015771076 0.020006657 -0.049626015 -0.029388815 0.012972698 0.0036183596 -0.038957126
0.049502097 0.015393227 0.00027921796 0.047847442 -0.012730449 0.0122281015 0.0019275397 -0.01466386

fc_logvar.bias f4 [8]
00000000: 74c6 f6bc bcf6 3d3d c805 5ebc ec0f e63c
00000010: 780f 093d 286e b83c 66a7 1b3d 8015 52bb
-0.030123927 0.046377882 -0.013551183 0.028083764 0.033462018 0.022513464 0.03800144 -0.0032056272

decoder.0.weight f4 [256, 16]
00000000: fc0a bd3d a87d fe3d 1cd9 63be f5d6 513d
00000010: f088 303f d3f6 f2be ef0b 3cbe dd52 45be
00000020: cb2d c8bb d512 eabc 0c20 ad3d 45b9 27bd
00000030: 2102 ffbd ab5e 1abe 5da8 a1bd b353 b8bb
00000040: d000 2f3e 4079 14bc 80a6 463b c01e 81bd
00000050: 30f8 c0be bfbe 993f ddb5 323e 54c1 98bb
00000060: de00 cc3c 6a1d b3bc 161b 2c3d 950a 8a3c
00000070: 74a9 1e3c cd39 793c a26e ca3c 7181 bfbc
00000080: 8c13 e6bd 906b ca3d bc32 333e e5d9 bd3d
00000090: f39c 993d 8d81 243f 4236 d9be 7f01 a93c
000000a0: e008 973d e3f6 8a3c a2d2 35bc 7ec5 fbbc
000000b0: f7be 8a3d 7e73 a6bc 0175 af3c d4b8 0d3d
000000c0: f68c 253e 7251 0f3e 5a06 263e f1d7 453e
000000d0: d351 13bd c8c6 22bf 2915 59be 238d 92be
000000e0: eed7 8b3c 8e93 27bc 3dc8 b73c 85ff 7ebb
000000f0: 1ee3 6a3c 64ac ca3c dc85 d5bc 0bdf df3c
00000100: 12ef 623e 6013 3b3d 1061 5abd 0d76 81be
00000110: 52d4 b2bd 5796 aa3d a802 fc3d 6801 783e
00000120: a21a 0dbe 6b3f 31be 8210 503d cf70 d33c
00000130: 0f6b 4f3d db78 df3b 29c7 103e d1b1 6f3e
00000140: 76d9 6b3e 50cf 7d3d 8cde b33d 3eb6 9f3d
00000150: cc27 04bf c9b5 10be 6e29 ffbd 006d eb3e
00000160: 3d8b 0abe 0056 143e 0345 dbbc d717 00bd
00000170: 7cbf f43d 79d0 9b3e 9676 783d 8dd8 53be
00000180: 6aa7 0abe 5010 55bd 9ce3 53be e26f f53d
00000190: e4a2 c2be 6ec5 6cbe 9e60 b23d f70f 283f
000001a0: ca6d 073c 5115 a7bd 871c d1bd 2c44 173d
000001b0: 6587 ac3d 17af 96bc 919b 033e 717b a7bd
000001c0: e48c cf3d 902d 21bd c6b8 0a3e 53bc 533d
000001d0: d235 eb3e e0b6 0a3e 84a0 9ebe 37b5 22bf
000001e0: a9d6 d8bc a31e f33b 607b 023b 8877 f33d
000001f0: e064 51bd f894 94be 120e 5c3e ffdc cbbd
00000200: 8c0c fabd c2e0 713e 2adb 3f3e 66de 0cbc
00000210: dfd7 af3e 1042 143f c908 4c3e 8ec8 cabe
00000220: f855 4ebd b253 2bbe 6562 40be 0f6f 82bd
00000230: 330f 39be 8040 8c3e a1e3 acbe 65ef 5d3e
00000240: 9002 693e 0e98 103e 081d 413e c8be 99bd
00000250: f7d7 063e 55ee bb3e 4d48 1cbe 799a 2fbf
00000260: f8ee de3d a9c9 763d 70ba f73d 1edc 2d3e
00000270: aca2 23be 1b4b 00be 0b8d b83b cbb6 cd3d
00000280: 38a6 633e b490 3b3e cc8a c6bd 4678 793e
00000290: e708 10bf 54d7 b8bd 79e0 383e e1ae 1b3f
000002a0: a7c5 633d 30d8 abbd a9ad 1b3d fdd6 1fbe
000002b0: fdf1 713e bcb1 793e 6362 dd3d 6c79 813b
000002c0: 9edc 77be e09f 33be 0050 ac3b 0e12 0f3d
000002d0: e43a cb3e d898 a53e 1635 24be 09bd 30bf
000002e0: 9910 f73d eddf 0abe fa30 c5bd 1039 28be
000002f0: fbee 37bd 7b8a b43c eba8 f5bd e082 0cbe
00000300: f062 8dbc a01b 163d 2cd7 f7bd e72e 89be
00000310: e256 9f3c 5fe0 283e 9c14 153e 48f3 d93e
00000320: 8b7b d3bd 8452 793d ac84 cfbd ca91 703d
00000330: c4ff 14bc 8f53 a43d b353 3fbd 8311 bb3d
00000340: f4f0 c13d f06b b53d cced 943d cbe0 8c3e
00000350: 6b8c fe3c 49fc 093e ed6e f1be fec1 303e
00000360: 61fe c6bc 053a cebc f626 46bd a804 3eb8
00000370: cb3d f13b e25b c43d c7ce f1bc 7111 d63d
00000380: 8a92 433e ee30 2bbe 4abc 0b3e bea9 6c3e
00000390: bd97 0fbf 1e37 a2be e668 c03d e3db ad3e
000003a0: a611 933c 2bb9 d13d 5f0a 32be 5f38 013e
000003b0: 747c 5bbd f2a3 3d3d a3df 233e 902f 9bbd
000003c0: 2083 1bbc 2018 db3c 1c12 d53d dbfb 27bd
000003d0: 421c 2d3f 6d02 b7be f349 aabe 30c8 f2be
000003e0: 4e37 043e 7dee e13d 194c 703e cbde a33d
000003f0: 2a59 c4bd 1816 073e 817f 74be 8b86 083e
0.09230611 0.12426311 -0.2225079 0.05123039 0.6895895 -0.47453937 -0.18363927 -0.19269891
-0.0061089746 -0.028573433 0.08453378 -0.04094817 -0.12451578 -0.15075175 -0.07893441 -0.005625212
0.17090154 -0.009062111 0.0030311644 -0.06304693 -0.37689352 1.2011336 0.17452188 -0.0046617184
0.024902757 -0.021864612 0.04201802 0.016850749 0.009683955 0.015211535 0.024710957 -0.023377152
-0.11234197 0.09883797 0.17499822 0.09270076 0.07500639 0.6426018 -0.42424208 0.020630596
0.0737474 0.016963428 -0.011097582 -0.03073382 0.06774705 -0.020318743 0.021418096 0.034600094
0.16167054 0.13995913 0.1621336 0.19320656 -0.035966706 -0.63584566 -0.21199478 -0.28623304
0.017070737 -0.010228051 0.022434348 -0.0038909626 0.0143363755 0.024740405 -0.026064806 0.027328035
0.2216151 0.045672774 -0.053315222 -0.25285378 -0.08731903 0.08329456 0.12305194 0.24219286
-0.13779691 -0.17309348 0.050796993 0.025810627 0.05063921 0.006819827 0.14138474 0.23407675
0.23032174 0.061965287 0.08782682 0.07798432 -0.51623225 -0.14131846 -0.12459074 0.45981598
-0.13529678 0.14485931 -0.026766306 -0.031272735 0.11950585 0.3043249 0.060659967 -0.20688076
-0.13540426 -0.05201751 -0.20692295 0.119842306 -0.380149 -0.23122188 0.087098345 0.6564936
0.008265922 -0.08158363 -0.10210519 0.03693025 0.08424262 -0.018394036 0.12852313 -0.081778415
0.10134295 -0.039350092 0.13547048 0.05169327 0.459395 0.13546324 -0.3098184 -0.6355776
-0.026469545 0.0074194237 0.0019909963 0.11888033 -0.051121593 -0.29019904 0.21489742 -0.09954261
-0.122094244 0.23620895 0.18735948 -0.008597946 0.34344384 0.57913303 0.19925226 -0.39606136
-0.050374955 -0.16731146 -0.18787535 -0.06368839 -0.18072204 0.2739296 -0.33767417 0.21673353
0.22754884 0.14120504 0.18858731 -0.07507092 0.13168322 0.3670527 -0.15261956 -0.6859508
0.108854234 0.06025091 0.12096107 0.169785 -0.15980023 -0.1252865 0.005632048 0.100446306
0.22231376 0.18316919 -0.09694442 0.24362287 -0.56263584 -0.090254456 0.1805438 0.6081372
0.055608418 -0.08390844 0.038007412 -0.15609355 0.23627467 0.24384207 0.108097814 0.003951242
-0.24205253 -0.17541456 0.00525856 0.034929328 0.39693367 0.32343173 -0.16035876 -0.69038445
0.120637126 -0.13561983 -0.09628482 -0.16428018 -0.044905644 0.022038689 -0.11995109 -0.137218
-0.017259091 0.03664744 -0.12101588 -0.26793596 0.019450609 0.16491841 0.14558643 0.4256842
-0.10326298 0.06086971 -0.10132727 0.058732785 -0.009094182 0.0802375 -0.04671068 0.091341995
0.09469786 0.08858478 0.07271919 0.27515253 0.031072816 0.13475145 -0.47154942 0.17261502
-0.02429122 -0.02517415 -0.048377 -4.5303867e-05 0.0073621026 0.09587838 -0.029517544 0.104525454
0.19098869 -0.16717884 0.13646045 0.23111627 -0.5609091 -0.31682676 0.09395008 0.33956823
0.017952751 0.10240396 -0.17386769 0.1261916 -0.053585485 0.04629893 0.1600328 -0.07577431
-0.009491712 0.026744902 0.10403845 -0.041011672 0.67621243 -0.35744038 -0.33259544 -0.47418356
0.12911722 0.11031816 0.23466529 0.08001479 -0.09587319 0.13192022 -0.23876764 0.13332574
